models/AUDUSD_model.pth (torch, 843660 bytes, 15 tensors)

lstm.weight_ih_l0 f4 [512, 12]
00000000: 272c e83a 58d2 ea3a 7ef3 e93a bd6c ed3a
00000010: 3108 383a 3295 ea3a e997 f13a 8a78 bb39
00000020: 8b1e 313a 9e00 143a 3996 1a3a 826f 4e3a
00000030: bc4f ff3a f08f fd3a 130e 003b 541f fd3a
00000040: e4b8 f53a d31a 013b 965b 043b f8a2 e0b7
00000050: 40c6 063b d41e c23a 7a47 c43a 383c cd39
00000060: 2a48 8f3a 4029 903a d44d 8f3a 28ce 903a
00000070: ef3b 043a 9ee5 903a c9bd 953a 5d3b a239
00000080: 14b5 df39 e02a 6ab7 6f03 42b9 94f6 bb39
00000090: 6480 cb3a edf9 cd3a 38ae cd3a abf1 d03a
000000a0: b2ac d939 8de7 ce3a 55bc d43a 3885 b038
000000b0: 6c09 cc39 e3a3 d339 82df bc39 1bbb c739
000000c0: 1be4 f43a 60ee f73a 1e86 f83a 061a fc3a
000000d0: fed5 833a 0289 f83a 33d1 ff3a 762a 88b9
000000e0: 2cad 6a3a 42f2 0d3a c40e 9739 f66b 1cb8
000000f0: 123c 0d3b 2139 103b f625 103b 0d1d 133b
00000100: f662 8e3a 22c8 0e3b 8154 133b a13c 4ab9
00000110: 0334 9c3a a0ce 7a3a 20e8 513a b66e cb39
00000120: 5d29 f03a 7695 f33a b935 f13a 8ed1 f33a
00000130: b446 373a e922 f33a fc29 f93a 1488 9538
00000140: 3ade 653a 7aae b23a fdac 993a a515 b639
00000150: 9fcc 873a 071e 883a c6af 873a 2ae3 873a
00000160: 6619 7e3a ad9e 873a 9433 8d3a 9255 313a
00000170: 9c4f 733a 797c f739 8068 cb39 832f 713a
00000180: da15 8a3a a767 8b3a 4cde 893a 87c5 8b3a
00000190: 38e2 3ab9 caef 8b3a 3cdd 8e3a b3f2 f239
000001a0: fed6 34b9 3417 1c38 1945 1a39 dcb6 103a
000001b0: ecb8 e73a 1b49 ec3a 36e1 ea3a 882f ef3a
000001c0: 08a6 8d3a 07bb ec3a 06d7 f53a 1495 0ab9
000001d0: ccc9 703a a6cb 943a 21d8 603a ec3c c239
000001e0: 1e8c d739 4b20 dc39 b244 d939 56e6 dd39
000001f0: f4d8 3239 0947 db39 10f9 e139 b294 9636
00000200: 838b 1639 61e7 4539 bc94 1b39 3e85 a737
00000210: 2212 b53a fe87 b63a 1ff7 b33a 795c b53a
00000220: 07e4 4db9 a473 b73a a0da ba3a da36 fb39
00000230: b632 99b8 af56 a339 44be 303a 27fa 4e3a
00000240: b872 073a 6b9c 083a 91fc 063a 33fb 073a
00000250: 1a5f 0d39 c16d 093a 65fe 0b3a d18d f5b7
00000260: e2a3 4b39 8962 9339 387a a539 2543 9438
00000270: 43cc 3d3a 8abf 3f3a 30f2 3c3a db40 3f3a
00000280: c4d1 6438 831e 403a a4e7 433a 401d 0339
00000290: 2cb2 e038 f6e1 9d39 c303 f839 6f25 b239
000002a0: d834 0d3a bf55 0e3a 087c 0e3a 5d86 0f3a
000002b0: bef9 a639 8351 0e3a 71c1 0e3a 9846 a738
000002c0: 6884 b939 4c0b 083a 20a5 163a e4b7 0c39
000002d0: 13c3 133b 6be7 143b 2dc8 123b 9418 143b
000002e0: f77c 9fb9 2a1a 153b b30d 183b c952 693a
000002f0: 7fec 3db9 db09 333a 6a46 8e3a ad75 9e3a
00000300: 39a5 b83a 974e bd3a a1a4 bb3a a447 c13a
00000310: 541c 603a 1e03 bf3a ed27 ca3a 5e45 76ba
00000320: 641c 3c3a 7c68 e139 c5cf 9539 e8cc a4b9
00000330: 52ba 1bba 864c 1bba 4040 1bba 4edf 14ba
00000340: 9eca 9f39 fdab 1fba 9ecb 21ba 755f 193a
00000350: 21b9 003a 1a48 6339 6b28 9038 f0b0 8f38
00000360: 86b9 a33a 3d85 a33a d693 a43a 1987 a43a
00000370: ccce 2a3a 05cc a53a 9c32 ab3a 22d6 9239
00000380: 321a 193a 0042 9239 d6e7 9239 c9be 1c3a
00000390: 5c8a af3a 9d74 b13a 4216 b03a 2394 b23a
000003a0: a474 a5b8 2434 b33a 882f b73a 6a91 b7b9
000003b0: 5b3e afb8 8aa6 a439 b213 253a 646e 5ab9
000003c0: d230 9a3b f2d8 9b3b b886 9b3b ee7e 9d3b
000003d0: 2543 b13a b57b 9b3b 9bc6 9e3b 44f2 4f3a
000003e0: 7c74 c03a 2310 0f3b 0139 dd3a e5e6 b43a
000003f0: ac19 2b3a 6017 2d3a a056 2c3a 28f2 2e3a
0.0017713354 0.001791547 0.0017849056 0.0018114072 0.00070202636 0.0017897247 0.0018432114 0.00035757228
0.00067565654 0.0005645844 0.0005897019 0.00078748923 0.0019478719 0.0019345265 0.001953964 0.0019311705
0.0018747118 0.0019699826 0.002019619 -2.677877e-05 0.0020564944 0.0014810213 0.0014974915 0.00039145513
0.0010931541 0.0010998622 0.0010933229 0.0011047767 0.0005044331 0.0011054759 0.0011424358 0.00030943277
0.00042668788 -1.39574695e-05 -0.00018502561 0.00035851134 0.0015525934 0.0015714742 0.001569218 0.0015941163
0.00041518133 0.001578556 0.0016230444 8.417148e-05 0.00038916932 0.0004036716 0.0003602468 0.00038095642
0.0018683703 0.0018915646 0.0018960868 0.001923383 0.0010058281 0.001896173 0.0019517302 -0.00025971577
0.0008952196 0.00054148224 0.00028811966 -3.7293845e-05 0.0021550697 0.0022006708 0.0021995283 0.0022447736
0.0010863233 0.002178677 0.0022480788 -0.00019286807 0.0011917356 0.00095675327 0.00080073066 0.00038801663
0.0018322874 0.0018583972 0.0018402851 0.0018601881 0.00069914316 0.0018549833 0.0019009705 7.13022e-05
0.0008768771 0.001363232 0.0011724528 0.00034729872 0.0010360664 0.0010384925 0.0010352067 0.0010367383
0.0009693116 0.0010346972 0.0010772818 0.0006764765 0.0009281577 0.0004720425 0.00038797036 0.00092005
0.0010535077 0.0010635749 0.001051852 0.0010663726 -0.00017822615 0.0010676321 0.0010899673 0.00046338662
-0.00017246229 3.7214908e-05 0.00014712325 0.0005520412 0.0017679012 0.0018027158 0.0017919901 0.0018248418
0.0010806927 0.001806111 0.0018756099 -0.00013216241 0.00091853435 0.0011352196 0.00085771276 0.00037047954
0.0004111239 0.0004198573 0.00041440647 0.00042324018 0.00017056224 0.0004182386 0.0004310091 4.4876588e-06
0.00014357087 0.0001887358 0.0001483736 1.9969997e-05 0.0013814608 0.0013926027 0.0013730264 0.0013836763
-0.0001963527 0.0013996256 0.0014255829 0.00047915318 -7.305054e-05 0.00031154367 0.0006742219 0.0007895552
0.0005166936 0.00052112964 0.00051493297 0.0005187273 0.00013482236 0.000524249 0.0005340337 -2.9272314e-05
0.0001942064 0.0002811144 0.00031562313 7.0696966e-05 0.0007240215 0.00073146133 0.00072077196 0.0007295736
5.4554795e-05 0.00073287654 0.0007473177 0.0001250403 0.000107143394 0.00030113728 0.0004730505 0.00033978696
0.00053865975 0.0005429647 0.0005435352 0.0005475039 0.0003184806 0.00054290163 0.0005445695 7.97633e-05
0.000353846 0.00051896716 0.00057466514 0.00013419945 0.0022546693 0.0022720944 0.0022397146 0.0022597658
-0.0003041995 0.002275119 0.0023201525 0.00089005806 -0.00018112546 0.00068297767 0.0010854725 0.0012089513
0.0014087326 0.0014442977 0.0014316031 0.0014746082 0.0008549143 0.0014573073 0.0015423276 -0.0009394492
0.00071758614 0.0004299319 0.00028574295 -0.00031433185 -0.00059405447 -0.00059241836 -0.0005922355 -0.0005679027
0.00030477805 -0.0006090997 -0.0006172004 0.0005850711 0.0004910399 0.00021675267 6.8739835e-05 6.8517285e-05
0.0012491203 0.0012475621 0.0012556266 0.0012552469 0.00065158005 0.0012649304 0.0013061347 0.0002800683
0.000584039 0.00027896464 0.0002802002 0.0005979357 0.0013392675 0.0013538782 0.0013434368 0.001362447
-7.889539e-05 0.0013672155 0.0013975957 -0.00035012822 -8.356265e-05 0.000314046 0.00062971853 -0.00020831224
0.004705527 0.0047560865 0.0047462843 0.004806391 0.0013524039 0.0047449716 0.004845453 0.0007932524
0.0014683153 0.0021829687 0.001687795 0.0013801722 0.0006526958 0.00066029094 0.00065741874 0.00066736573

lstm.weight_hh_l0 f4 [512, 128]
00000000: 0816 a637 0c87 1cb9 28dd 98b8 36c6 c738
00000010: 0ee4 9e38 1a71 d6b8 1ab4 7538 f71b 8538
00000020: b449 9ab8 ee24 ca38 e9c3 40b8 5063 e237
00000030: 6e9b 2038 2a72 9338 6492 85b8 48c9 dd38
00000040: ff92 96b8 087d adb8 301d b7b7 c4b1 8bb8
00000050: b29b 15b9 10f5 1238 5439 c938 99bd ad38
00000060: 1c02 fc38 9797 b8b8 80f0 3a38 2036 d6b6
00000070: 98f5 99b8 78de 0a38 642c 6b39 6471 a3b8
00000080: 7825 3eb8 dd85 a2b8 d886 85b8 a294 35b8
00000090: 36c6 5a38 4838 9d38 4879 7237 50ec 2bb7
000000a0: 6e52 21b8 916e a3b6 0a2d ecb8 e0a4 aeb7
000000b0: ea42 b938 1834 e836 28f6 f9b6 46bd 36b8
000000c0: 6049 5638 4a8a c738 8173 7138 9c47 29b9
000000d0: 7337 9735 9823 27b7 103a 4338 b28e fa37
000000e0: aa7f f6b8 621a b6b8 4c0b 0e38 b243 c435
000000f0: fb44 b538 2cc1 2f37 5b7b b7b8 5904 0d38
00000100: db6c 52b8 1cbc 0ab8 e162 e0b8 52e2 e4b8
00000110: 3232 23b8 e034 dc35 c0cd 80b7 5e1c 7fb8
00000120: 5a86 0239 0c9e cd37 c099 e937 b8e8 b138
00000130: 1a63 9e37 642a ee37 da36 f4b8 54e9 22b8
00000140: dec8 f1b7 b64e 84b8 3649 80b8 4506 a338
00000150: e9cc b138 402c 9bb5 cd29 c238 d207 09b9
00000160: d2e0 58b8 f489 f238 454b f0b8 fd4b d238
00000170: 7cc0 9b37 625e 61b8 1ec0 c338 7a32 56b8
00000180: d4af 3538 8f76 da38 c193 4238 0066 9738
00000190: bf50 13b9 0846 88b7 3e7d 00b8 7eb3 86b8
000001a0: 2833 e737 08cc 9f38 fda7 d4b7 5e84 2138
000001b0: 4069 df37 6a56 b2b8 6678 05b7 3d82 cf38
000001c0: 2d83 0739 1b4f d138 5e2a 4e38 960f c338
000001d0: c69d a338 0707 08b9 acab f2b8 e082 1439
000001e0: 75a0 aab8 d3d8 67b8 aa38 6338 c566 b738
000001f0: 407c 9335 c0df a4b6 cecd 2538 2a9f cbb8
00000200: 5f98 d9b7 db6d 5ab9 1dfa fcb7 4653 ca38
00000210: 7419 ce38 fe1a 31b9 abb4 8338 dafb 1039
00000220: 46e2 f738 48b5 b737 a57c f538 f73d 4538
00000230: 8c07 03b9 1897 a3b8 4872 fd37 f850 25b8
00000240: 2e65 78b9 28f0 49b8 00db 7338 344b 2e37
00000250: 6c30 feb8 7037 2eb7 de04 d838 161b 1e38
00000260: 0835 3839 94dc 3e37 52f1 0239 ca12 85b9
00000270: ee2e b038 afcb 02b9 05de 79b9 1e70 ca38
00000280: ea60 fdb7 f5e0 7938 cd26 0239 728b 09b7
00000290: 1bdc 6538 36eb 2eb8 d579 ca38 d502 2639
000002a0: 1d20 d638 2a5c 7937 1c5f 9837 8400 4e39
000002b0: 2109 0839 42ed 8cb7 f64b 1fb8 70f1 2d37
000002c0: d02f 5838 ce45 6938 103a d135 1626 26b8
000002d0: 5fe6 d435 0890 2d37 dabd 8037 6903 0ab9
000002e0: c008 3ab9 4b2a da38 16f7 9b37 9610 fe35
000002f0: 4356 2439 5315 beb8 c4b9 ccb8 fb7b 8cb7
00000300: 9ad7 98b7 79a3 97b8 208c 92b8 1068 5b39
00000310: 83a9 3637 7723 57b8 9e03 aeb8 3e43 fd38
00000320: cac3 e637 9803 a4b8 b388 21b8 30e3 6f38
00000330: a03f 0a37 252d a9b8 f08e a238 dab0 2039
00000340: 25ac 2e38 284e fc37 463d 3fb9 7333 0439
00000350: b6b7 9838 8b9d deb7 24e3 9f37 262d 0eb9
00000360: 4f17 3e38 13a1 8138 51c3 43b9 906c 28b7
00000370: 84d9 0bb9 a05a 76b6 2754 0539 3a3a e4b8
00000380: a0db 1239 8a11 4237 dac8 a0b8 5013 4837
00000390: ff70 cab8 f84a 3fb9 5d65 d038 daf2 1bb9
000003a0: ce39 41b8 4395 0ab9 7656 a538 7cba 3f38
000003b0: be5b 99b8 e545 25b8 b5ce 23b8 4602 6c39
000003c0: a505 c337 2097 5638 3ae8 0bb9 514f 9d38
000003d0: 2770 88b7 bee1 12b9 0074 9ab6 7812 3a39
000003e0: f63f 81b8 081e 8236 50de b838 77da 9438
000003f0: deb8 2d38 0260 2f38 44d7 3e39 e088 55b8
1.9799001e-05 -0.00014927628 -7.2891184e-05 9.525979e-05 7.5765056e-05 -0.00010225382 5.8580285e-05 6.347143e-05
-7.3570205e-05 9.638989e-05 -4.5958823e-05 2.6987545e-05 3.8291728e-05 7.030771e-05 -6.3692016e-05 0.00010575593
-7.1799375e-05 -8.272572e-05 -2.1828891e-05 -6.661148e-05 -0.00014267748 3.5037345e-05 9.595105e-05 8.284598e-05
0.00012016689 -8.8020395e-05 4.456984e-05 -6.383998e-06 -7.341354e-05 3.3108954e-05 0.00022427883 -7.793566e-05
-4.5334426e-05 -7.749696e-05 -6.367051e-05 -4.3292188e-05 5.215985e-05 7.4968266e-05 1.4452562e-05 -1.0247415e-05
-3.846216e-05 -4.87065e-06 -0.00011261746 -2.0819192e-05 8.833951e-05 6.9202033e-06 -7.4494346e-06 -4.3568456e-05
5.108991e-05 9.514818e-05 5.756645e-05 -0.00016143773 1.1266515e-06 -9.962263e-06 4.6545698e-05 2.986877e-05
-0.000117539734 -8.6833505e-05 3.386596e-05 1.462284e-06 8.643601e-05 1.0475789e-05 -8.749097e-05 3.362107e-05
-5.016928e-05 -3.3076954e-05 -0.0001069957 -0.00010914043 -3.8908976e-05 1.6406666e-06 -1.5354599e-05 -6.0823157e-05
0.00012447816 2.45115e-05 2.784736e-05 8.483365e-05 1.8881216e-05 2.839155e-05 -0.000116450436 -3.8841114e-05
-2.8822975e-05 -6.3089115e-05 -6.117152e-05 7.7736135e-05 8.478185e-05 -1.1561278e-06 9.258427e-05 -0.00013068251
-5.1707793e-05 0.00011565155 -0.00011458112 0.00010027734 1.8567072e-05 -5.373208e-05 9.334109e-05 -5.1068586e-05
4.3317516e-05 0.00010417133 4.639081e-05 7.21924e-05 -0.00014049093 -1.6245074e-05 -3.063422e-05 -6.423051e-05
2.7561167e-05 7.6197146e-05 -2.5350595e-05 3.8508668e-05 2.6632682e-05 -8.503797e-05 -7.95545e-06 9.894788e-05
0.0001292347 9.980631e-05 4.9153685e-05 9.301228e-05 7.801833e-05 -0.00012972589 -0.000115714356 0.00014163135
-8.136119e-05 -5.5276625e-05 5.417379e-05 8.745262e-05 1.0988515e-06 -4.913629e-06 3.9530736e-05 -9.709441e-05
-2.593937e-05 -0.00020831024 -3.0157209e-05 9.6476215e-05 9.8275865e-05 -0.00016890091 6.280219e-05 0.00013826732
0.000118200245 2.1899716e-05 0.00011705727 4.702617e-05 -0.00012495945 -7.800589e-05 3.0213167e-05 -3.9414474e-05
-0.00023688815 -4.8145797e-05 5.8139674e-05 1.0388718e-05 -0.00012120683 -1.0384116e-05 0.00010300589 3.769536e-05
0.00017567363 1.137624e-05 0.00012487665 -0.00025381736 8.401075e-05 -0.00012473644 -0.00023829199 9.652994e-05
-3.020508e-05 5.9575734e-05 0.0001241222 -8.1983035e-06 5.4802844e-05 -4.170389e-05 9.6548036e-05 0.00015832049
0.00010210297 1.4863015e-05 1.81641e-05 0.00019645883 0.00012973371 -1.6799782e-05 -3.79793e-05 1.0367818e-05
5.1542942e-05 5.561654e-05 1.5588612e-06 -3.9612954e-05 1.5862278e-06 1.0345138e-05 1.5347196e-05 -0.00013161976
-0.00017741602 0.00010402928 1.8592498e-05 1.8929302e-06 0.00015672394 -9.063878e-05 -9.7620796e-05 -1.6747033e-05
-1.822021e-05 -7.23069e-05 -6.987923e-05 0.00020924234 1.0887513e-05 -5.1293024e-05 -8.29764e-05 0.00012076505
2.7509308e-05 -7.820799e-05 -3.8512702e-05 5.7193625e-05 8.240255e-06 -8.066957e-05 7.751386e-05 0.00015324671
4.1645155e-05 3.0077135e-05 -0.00018238006 0.00012607667 7.2821436e-05 -2.6537824e-05 1.9060048e-05 -0.00013558994
4.5321238e-05 6.181202e-05 -0.0001866941 -1.0038857e-05 -0.00013337104 -3.6709607e-06 0.00012715218 -0.00010882733
0.00014005462 1.1567385e-05 -7.666806e-05 1.19254255e-05 -9.653158e-05 -0.00018243107 9.937093e-05 -0.00014872421
-4.606862e-05 -0.0001321631 7.883918e-05 4.5711626e-05 -7.312697e-05 -3.940416e-05 -3.905474e-05 0.00022507561
2.324844e-05 5.1162322e-05 -0.00013342584 7.501117e-05 -1.6264688e-05 -0.0001400774 -4.603062e-06 0.00017745222
-6.163113e-05 3.877798e-06 8.815213e-05 7.097882e-05 4.1418585e-05 4.1812666e-05 0.00018200005 -5.0910632e-05

lstm.bias_ih_l0 f4 [512]
00000000: d23d b83a d0f5 e63a a708 743a e82f 7c3a
00000010: 967b 343a e849 4c3a 7fb7 a13a 80c3 a03a
00000020: b5ee 3b3a 0394 463a 5473 6f39 4c6e 9d3a
00000030: ad47 d939 632c 063a 7269 d639 5e05 0d3b
00000040: b7d8 4238 5aef 19ba dbd4 a13a 68d4 1b3a
00000050: 78ce 733b 9386 003a 4392 7739 3e9b 6f3a
00000060: 28bc 2f3b e63f 913a 066c 1c3b 9042 8539
00000070: 9e1d 493b 9064 e139 000e 353b dc8c 9e3a
00000080: c60f bb3a 4eef 743a b9e2 9d3a a6db 303a
00000090: 7cca a23a 22c7 6d3a 6569 0939 a662 853a
000000a0: 5694 883a 404b 7a35 8cb7 cc3a 9c28 9a3a
000000b0: 9894 e93a fdb6 b4b8 c540 3eb8 9e22 ec39
000000c0: 8e9c 7538 8f43 41ba 79ef 5c3a d0ef a6b7
000000d0: e484 8cb3 641b 403a 80da 953a 527d 7939
000000e0: ed14 373a 046b 0d3a 2006 533a c6d2 e832
000000f0: 8047 e33a 8e34 ba39 1fb5 b13a 2c98 bf39
00000100: b3d6 9539 870a 113a d0b6 b539 e584 a33a
00000110: 41eb 4a3a 5718 0937 5dea d9b8 b847 723a
00000120: e873 023a e1bb 823a e92d 3a39 b09f 223a
00000130: bc01 0b36 7c6c 903a d218 b83a f8d8 883a
00000140: 8b21 8839 92b7 a43a c818 683a f03a 9c3a
00000150: fe73 813a 4376 8637 0a99 b63a 7154 2d3b
00000160: 548d cf39 4957 cb3a bf0e 023b 6ee2 813a
00000170: 7b9d a13a 8d0b c73a da5f a73a aa33 933a
00000180: 7ac6 ad3a 244f 2e3a 3d65 923a 740a 383a
00000190: e5cd 1a3b 43bb 153b 2879 2f39 c7fd 883a
000001a0: 7bbe 813a 52aa 803a 5836 9439 8c81 073a
000001b0: f294 2539 c9eb a039 e639 3938 0c06 853a
000001c0: 56d2 8f3a b270 5d3a 0f82 073a bada d239
000001d0: 1a07 c53a 26bf d13a 5b9e 113b 047d 743b
000001e0: f9b0 c03a 7cd1 6a3a d5f5 b83a bce2 e03a
000001f0: e03b 9e3a 9ffa 2d3a f5d1 883a 5d5c d73a
00000200: a29d a83a 1098 e53a 0e41 653a 0d09 593a
00000210: 75fa 093a eb1b 003a ea8d 983a 6f55 9b3a
00000220: 8c1f 2d3a ac94 1b3a cc3b 4639 a619 993a
00000230: 794c d239 8352 003a 541c c539 4ee1 093b
00000240: 8664 f9b8 13b8 32ba f59f 983a 6d94 073a
00000250: 4d7a 633b 983f e839 8c44 0939 6218 533a
00000260: 588a 263b 1f7a 843a 5e95 113b b45e 9b38
00000270: 367f 413b 3b1e dd39 b773 313b be0b 933a
00000280: ce14 ab3a 3db8 593a 152d 903a 11bc 263a
00000290: e11d 953a 1f38 5c3a 51e6 13b8 c9a6 6f3a
000002a0: d5ac 793a a87f 6536 7038 c53a 700c 883a
000002b0: af15 d73a 3cb5 bdb8 f43a b0b7 f92f d939
000002c0: 6fae 4b38 f3e8 7dba 9aa4 4f3a 9073 b9b7
000002d0: ef65 93b3 4be2 2c3a a1b5 8e3a a3ed 7639
000002e0: cbdf 023a 08bd f539 ffa6 3e3a f35a cf32
000002f0: 0701 d53a b92d b039 3825 a93a 7ffd ad39
00000300: 097c 8439 56d2 ef39 b2c7 5b39 77b2 933a
00000310: 4743 3e3a a0fb 3737 0aa3 06b9 e7f2 653a
00000320: b3af aa39 0abb 703a b198 1239 64a9 023a
00000330: f5de 9a35 20ec 833a dd47 b03a 24e2 733a
00000340: 78f0 8439 2bc6 943a abac 4a3a 87c9 8c3a
00000350: 3c57 6b3a e8ba 8137 710f a73a d634 283b
00000360: b66b b539 f942 b43a 4ceb ef3a dbe6 5d3a
00000370: 4c75 8f3a ddf0 bb3a f18e 9d3a 86b7 813a
00000380: 387d 9a3a a838 193a cea7 8a3a 47f8 2b3a
00000390: bba4 103b ec32 093b 2822 0d39 f428 693a
000003a0: f9c1 753a b193 633a 71fb 8639 d6dc f839
000003b0: 4a41 ed38 5e91 1d39 18f4 2038 7fb0 683a
000003c0: 1f7c 843a 27af 3d3a 4ffc e239 5a3f b739
000003d0: 301e af3a 9bc7 b63a 1535 053b 015d 673b
000003e0: 0e58 b33a ba7d 583a a771 a73a 3b1c d33a
000003f0: c373 8f3a 58c3 0d3a b77a 893a ce0c c93a
0.001405651 0.0017620865 0.00093091506 0.00096201757 0.0006884871 0.00077929953 0.0012338011 0.0012265295
0.0007169054 0.0007575156 0.00022835779 0.001201102 0.00041442868 0.00051183085 0.00040895824 0.0021518092
4.6455036e-05 -0.0005872153 0.0012346761 0.0005944432 0.0037201922 0.00049028656 0.00023610242 0.00091402594
0.002681503 0.0011081665 0.0023868098 0.0002541733 0.003068782 0.0004299027 0.0027626753 0.0012096423
0.0014271669 0.00093435205 0.0012045718 0.00067465974 0.0012419964 0.00090705056 0.000131046 0.0010176494
0.0010420184 9.324176e-07 0.0015618666 0.001176137 0.0017820774 -8.617153e-05 -4.535985e-05 0.0004503922
5.8558355e-05 -0.0007372433 0.0008428018 -1.9900413e-05 -6.543431e-08 0.00073283 0.0011432916 0.00023793176
0.0006984014 0.000539467 0.0008049924 2.7104203e-08 0.0017340034 0.0003551584 0.0013558007 0.00036543736
0.00028579458 0.000553288 0.00034659216 0.0012475519 0.0007740744 8.171503e-06 -0.0001039102 0.00092422543
0.0004976378 0.0009974205 0.00017755445 0.0006203605 2.0713624e-06 0.0011018659 0.0014045483 0.0010440638
0.00025964933 0.0012566915 0.00088537904 0.001191942 0.0009876487 1.6029115e-05 0.0013931107 0.0026448036
0.00039587414 0.0015513684 0.0019845215 0.00099094 0.0012330258 0.0015185938 0.0012769655 0.0011230607
0.0013258003 0.0006649366 0.0011169087 0.00070206006 0.0023621258 0.0022847212 0.00016734435 0.0010451608
0.0009898687 0.0009816384 0.0002826925 0.00051691453 0.00015791113 0.00030693252 4.416136e-05 0.0010148897
0.0010972719 0.0008447274 0.00051692215 0.00040217285 0.0015032024 0.0016002401 0.0022219631 0.003730596
0.001470118 0.0008957607 0.001411135 0.0017157416 0.0012072287 0.0006636772 0.0010438549 0.0016430725
0.0012864361 0.0017516632 0.00087453506 0.0008279242 0.0005263456 0.00048869726 0.0011638973 0.0011851023
0.0006604127 0.00059349346 0.00018905028 0.0011680617 0.00040111298 0.00048951077 0.00037595874 0.0021038833
-0.00011891969 -0.00068175903 0.0011644351 0.00051719585 0.0034710348 0.0004429787 0.00013090874 0.00080526446
0.002541205 0.0010107196 0.0022214274 7.408616e-05 0.0029525287 0.00042174928 0.0027077028 0.0011218709
0.0013052465 0.0008305347 0.0010999764 0.00063604215 0.0011376702 0.00084006967 -3.526203e-05 0.00091419794
0.000952435 3.4197965e-06 0.0015046727 0.0010379683 0.001640966 -9.04598e-05 -2.1008287e-05 0.00041425208
4.8561426e-05 -0.0009685896 0.0007920951 -2.2107532e-05 -6.8637625e-08 0.00065949996 0.001088787 0.00023548915
0.0004992454 0.0004687088 0.0007272809 2.413933e-08 0.0016250917 0.00033603402 0.0012904769 0.00033186
0.00025269415 0.00045742345 0.0002095986 0.0011268397 0.000725795 1.0966236e-05 -0.00012839973 0.0008771852
0.00032555833 0.00091831444 0.00013980527 0.00049843476 1.1538783e-06 0.0010064878 0.0013449151 0.0009303412
0.00025356165 0.0011350563 0.0007731418 0.0010741212 0.00089775375 1.5465033e-05 0.0012745691 0.0025666258
0.0003460326 0.001375287 0.0018304377 0.0008464881 0.0010944991 0.0014338751 0.0012020749 0.0009896613
0.0011786586 0.0005844929 0.0010578574 0.00065601285 0.0022070843 0.0020934893 0.00013459532 0.0008894347
0.00093749125 0.00086813705 0.0002574581 0.00047466782 0.00011313202 0.0001502684 3.8374303e-05 0.00088763976
0.0010107792 0.00072358776 0.00043294064 0.0003495168 0.0013360437 0.0013944985 0.0020325829 0.0035303237
0.0013682859 0.0008258481 0.001277496 0.0016106436 0.0010944534 0.00054078316 0.0010488842 0.0015338899

lstm.bias_hh_l0 f4 [512]
00000000: d23d b83a d0f5 e63a a708 743a e82f 7c3a
00000010: 967b 343a e849 4c3a 7fb7 a13a 80c3 a03a
00000020: b4ee 3b3a 0594 463a 5473 6f39 4c6e 9d3a
00000030: ad47 d939 632c 063a 7469 d639 5e05 0d3b
00000040: b7d8 4238 5aef 19ba dbd4 a13a 68d4 1b3a
00000050: 78ce 733b 9386 003a 4392 7739 3e9b 6f3a
00000060: 28bc 2f3b e63f 913a 066c 1c3b f342 8539
00000070: 9e1d 493b 3f64 e139 ff0d 353b dc8c 9e3a
00000080: c60f bb3a 4eef 743a bae2 9d3a a6db 303a
00000090: 7cca a23a 1ec7 6d3a 6569 0939 a662 853a
000000a0: 5694 883a 400a 7a35 8cb7 cc3a 9c28 9a3a
000000b0: 9894 e93a fdb6 b4b8 a240 3eb8 a022 ec39
000000c0: 8e9c 7538 8f43 41ba 79ef 5c3a d0ef a6b7
000000d0: e484 8cb3 641b 403a 80da 953a 527d 7939
000000e0: ed14 373a 046b 0d3a 2006 533a c6d2 e832
000000f0: 8047 e33a 8e34 ba39 1fb5 b13a 2c98 bf39
00000100: b3d6 9539 870a 113a d0b6 b539 e584 a33a
00000110: 41eb 4a3a 5e18 0937 5dea d9b8 b847 723a
00000120: e873 023a e1bb 823a e82d 3a39 b09f 223a
00000130: 9201 0b36 7c6c 903a d418 b83a f8d8 883a
00000140: 7d21 8839 92b7 a43a c818 683a f03a 9c3a
00000150: fe73 813a 0f76 8637 0a99 b63a 7154 2d3b
00000160: 548d cf39 4957 cb3a bf0e 023b 6ee2 813a
00000170: 7b9d a13a 8d0b c73a da5f a73a aa33 933a
00000180: 7ac6 ad3a 244f 2e3a 3d65 923a 740a 383a
00000190: e5cd 1a3b 43bb 153b 2879 2f39 c7fd 883a
000001a0: 80be 813a 52aa 803a 5936 9439 8c81 073a
000001b0: f394 2539 c9eb a039 e639 3938 0c06 853a
000001c0: 56d2 8f3a b270 5d3a 0f82 073a bada d239
000001d0: 1a07 c53a 26bf d13a 5b9e 113b 047d 743b
000001e0: f9b0 c03a 7cd1 6a3a d5f5 b83a bce2 e03a
000001f0: e03b 9e3a 9ffa 2d3a f5d1 883a 5d5c d73a
00000200: a29d a83a 1098 e53a 0e41 653a 0d09 593a
00000210: 75fa 093a eb1b 003a ea8d 983a 6f55 9b3a
00000220: 8e1f 2d3a ac94 1b3a cc3b 4639 a719 993a
00000230: 794c d239 8352 003a 541c c539 4ee1 093b
00000240: 8664 f9b8 13b8 32ba f59f 983a 6d94 073a
00000250: 4d7a 633b 983f e839 8c44 0939 6218 533a
00000260: 588a 263b 1f7a 843a 5e95 113b cb5e 9b38
00000270: 367f 413b 451e dd39 ba73 313b be0b 933a
00000280: ce14 ab3a 3db8 593a 152d 903a 11bc 263a
00000290: e11d 953a 2438 5c3a 51e6 13b8 c9a6 6f3a
000002a0: d5ac 793a a07e 6536 7038 c53a 700c 883a
000002b0: af15 d73a 3cb5 bdb8 f43a b0b7 f92f d939
000002c0: 6fae 4b38 f3e8 7dba 9aa4 4f3a a0f3 b8b7
000002d0: ef65 93b3 4be2 2c3a a1b5 8e3a a3ed 7639
000002e0: cbdf 023a 08bd f539 ffa6 3e3a f55a cf32
000002f0: 0701 d53a bb2d b039 3825 a93a 7ffd ad39
00000300: 097c 8439 56d2 ef39 b2c7 5b39 77b2 933a
00000310: 4743 3e3a 09fc 3737 0aa3 06b9 e7f2 653a
00000320: b3af aa39 0abb 703a b198 1239 66a9 023a
00000330: f5de 9a35 20ec 833a e047 b03a 24e2 733a
00000340: 96f0 8439 2bc6 943a abac 4a3a 87c9 8c3a
00000350: 3c57 6b3a eeba 8137 710f a73a d634 283b
00000360: b66b b539 f942 b43a 4ceb ef3a dbe6 5d3a
00000370: 4c75 8f3a ddf0 bb3a f18e 9d3a 86b7 813a
00000380: 377d 9a3a a838 193a cea7 8a3a 47f8 2b3a
00000390: bba4 103b ec32 093b 2722 0d39 f428 693a
000003a0: f3c1 753a b393 633a 71fb 8639 d6dc f839
000003b0: 4e41 ed38 5e91 1d39 18f4 2038 7fb0 683a
000003c0: 1f7c 843a 27af 3d3a 4ffc e239 5a3f b739
000003d0: 301e af3a 9bc7 b63a 1535 053b 015d 673b
000003e0: 0e58 b33a ba7d 583a a771 a73a 3b1c d33a
000003f0: c373 8f3a 58c3 0d3a b77a 893a ce0c c93a
0.001405651 0.0017620865 0.00093091506 0.00096201757 0.0006884871 0.00077929953 0.0012338011 0.0012265295
0.00071690534 0.0007575157 0.00022835779 0.001201102 0.00041442868 0.00051183085 0.0004089583 0.0021518092
4.6455036e-05 -0.0005872153 0.0012346761 0.0005944432 0.0037201922 0.00049028656 0.00023610242 0.00091402594
0.002681503 0.0011081665 0.0023868098 0.00025417618 0.003068782 0.00042990033 0.002762675 0.0012096423
0.0014271669 0.00093435205 0.0012045719 0.00067465974 0.0012419964 0.00090705033 0.000131046 0.0010176494
0.0010420184 9.3147173e-07 0.0015618666 0.001176137 0.0017820774 -8.617153e-05 -4.5359724e-05 0.00045039225
5.8558355e-05 -0.0007372433 0.0008428018 -1.9900413e-05 -6.543431e-08 0.00073283 0.0011432916 0.00023793176
0.0006984014 0.000539467 0.0008049924 2.7104203e-08 0.0017340034 0.0003551584 0.0013558007 0.00036543736
0.00028579458 0.000553288 0.00034659216 0.0012475519 0.0007740744 8.17151e-06 -0.0001039102 0.00092422543
0.0004976378 0.0009974205 0.00017755444 0.0006203605 2.0713528e-06 0.0011018659 0.0014045485 0.0010440638
0.00025964892 0.0012566915 0.00088537904 0.001191942 0.0009876487 1.602902e-05 0.0013931107 0.0026448036
0.00039587414 0.0015513684 0.0019845215 0.00099094 0.0012330258 0.0015185938 0.0012769655 0.0011230607
0.0013258003 0.0006649366 0.0011169087 0.00070206006 0.0023621258 0.0022847212 0.00016734435 0.0010451608
0.0009898692 0.0009816384 0.00028269252 0.00051691453 0.00015791114 0.00030693252 4.416136e-05 0.0010148897
0.0010972719 0.0008447274 0.00051692215 0.00040217285 0.0015032024 0.0016002401 0.0022219631 0.003730596
0.001470118 0.0008957607 0.001411135 0.0017157416 0.0012072287 0.0006636772 0.0010438549 0.0016430725
0.0012864361 0.0017516632 0.00087453506 0.0008279242 0.0005263456 0.00048869726 0.0011638973 0.0011851023
0.0006604128 0.00059349346 0.00018905028 0.0011680619 0.00040111298 0.00048951077 0.00037595874 0.0021038833
-0.00011891969 -0.00068175903 0.0011644351 0.00051719585 0.0034710348 0.0004429787 0.00013090874 0.00080526446
0.002541205 0.0010107196 0.0022214274 7.4086325e-05 0.0029525287 0.00042174957 0.0027077035 0.0011218709
0.0013052465 0.0008305347 0.0010999764 0.00063604215 0.0011376702 0.00084006996 -3.526203e-05 0.00091419794
0.000952435 3.4197365e-06 0.0015046727 0.0010379683 0.001640966 -9.04598e-05 -2.1008287e-05 0.00041425208
4.8561426e-05 -0.0009685896 0.0007920951 -2.2047956e-05 -6.8637625e-08 0.00065949996 0.001088787 0.00023548915
0.0004992454 0.0004687088 0.0007272809 2.4139334e-08 0.0016250917 0.00033603408 0.0012904769 0.00033186
0.00025269415 0.00045742345 0.0002095986 0.0011268397 0.000725795 1.09663315e-05 -0.00012839973 0.0008771852
0.00032555833 0.00091831444 0.00013980527 0.0004984349 1.1538783e-06 0.0010064878 0.0013449155 0.0009303412
0.00025356252 0.0011350563 0.0007731418 0.0010741212 0.00089775375 1.5465044e-05 0.0012745691 0.0025666258
0.0003460326 0.001375287 0.0018304377 0.0008464881 0.0010944991 0.0014338751 0.0012020749 0.0009896613
0.0011786585 0.0005844929 0.0010578574 0.00065601285 0.0022070843 0.0020934893 0.0001345953 0.0008894347
0.0009374909 0.00086813717 0.0002574581 0.00047466782 0.000113132046 0.0001502684 3.8374303e-05 0.00088763976
0.0010107792 0.00072358776 0.00043294064 0.0003495168 0.0013360437 0.0013944985 0.0020325829 0.0035303237
0.0013682859 0.0008258481 0.001277496 0.0016106436 0.0010944534 0.00054078316 0.0010488842 0.0015338899

lstm.weight_ih_l1 f4 [512, 128]
00000000: f2bf b939 b3a6 01b8 4527 5439 f2db afb9
00000010: 9fda 11b9 629b 093a 4182 86b9 2cc2 4ab9
00000020: 27eb 0739 74e0 d6b9 81c6 ae38 e02a 17b9
00000030: e24d 1cb9 af3c 4eb9 c76b 14b8 bb8a 1eba
00000040: 7d2f 093a 52e9 eab8 6ddd e638 0c8d 8539
00000050: c880 e838 b296 8cb9 cb8d 3d39 23c3 02b9
00000060: d31c bab9 ce99 f138 b4d5 feb9 38f5 133a
00000070: c3c8 133a 4e1e 04b9 aac5 6eba a152 dd39
00000080: c409 8339 e0d3 0bb7 088b 8939 44cd 3f39
00000090: a0e2 c9b9 b6fd 78b9 d8c1 84b7 0140 deb9
000000a0: b6a3 bcb9 9a04 c037 00a5 20b7 1b9a 41ba
000000b0: 8ce3 68b8 bc3a 0138 ec6f 2238 b295 6639
000000c0: a8a1 9037 304c 7bb8 da69 60b9 d4f0 93b8
000000d0: 1095 4b35 c234 9138 680a b5b7 c65d cab7
000000e0: e2d0 9d39 63c9 8539 7cd3 7eb8 4067 a133
000000f0: 045a 45ba 9547 8db9 0086 0a3a 3465 6fb9
00000100: 075c b639 2855 b439 a9c0 0a3a 328f cf39
00000110: 108b 0db7 c2bc d3b8 5067 35b9 fc42 8739
00000120: 30bf b8b7 d455 9d39 5078 11b9 24bc 85b8
00000130: d036 e9b6 5f24 9a39 ef59 a339 404e a339
00000140: af5e 2bb8 70ab c238 977f 333a fdcc 5fb9
00000150: 29ac 05ba 6bfd 6738 9232 b8b8 e096 53b7
00000160: 746c 3339 651b acb9 eee9 033a 841e c5b8
00000170: 4c5e 413a 056e b239 eacd c5b8 2eb2 1b39
00000180: ebf8 23ba 7cf8 8bb9 f5d6 b8b9 10c3 d038
00000190: 005d 75b6 38e0 303a e115 5f39 aa76 2a39
000001a0: bd7b 05ba f257 76b9 4007 ee35 54a6 acb9
000001b0: f797 22b9 f4fa e939 ecac e438 7b9b 14ba
000001c0: b09a 5b37 f2bd 49b9 aa55 b6b8 311f 2838
000001d0: 30c0 0cb9 f05c 6239 92e8 a739 d649 5bba
000001e0: f905 f6b8 1eaf b838 f2d5 16ba 467d e2b9
000001f0: 438f bbb9 0cab 00ba 662e f0b9 5ee6 2c39
00000200: 5c20 d137 ac4e dfb7 f8b5 0838 5fc3 a7b7
00000210: 96d4 80b8 4d48 5538 0230 8db8 9862 58b8
00000220: 3400 89b6 30bf 1cb8 9447 8437 0448 4137
00000230: f497 d736 78c4 f1b7 536c 68b7 883b b736
00000240: 97c4 0838 c986 8bb7 6fdd 31b8 ea6c 0db7
00000250: 3802 9e37 1197 60b7 7057 1fb8 64bb 0bb8
00000260: b45d 98b8 8e64 38b7 3a59 28b8 035a 4b38
00000270: 48ef 0037 e8a7 8137 4c15 94b7 6048 6536
00000280: 83ee 7938 ffb9 3338 209e 0e38 6072 65b6
00000290: 00dc a9b7 4e63 0bb8 bad7 74b8 56d4 e8b7
000002a0: f808 54b7 dc9b 65b6 6ced 3438 d236 26b8
000002b0: 5cae 4ab8 58aa a836 0f26 1f37 8bf4 9a37
000002c0: 901b 6e36 8e33 a7b7 05f6 08b8 c271 87b7
000002d0: 2af6 1e34 19d0 ce37 8e11 afb7 969e a8b7
000002e0: 742a 8238 4029 01b6 97a5 1cb8 f87a 74b3
000002f0: f81e 05b8 0070 44b3 cacf 0238 8cff dcb6
00000300: dbed 7637 1ef2 9037 469d 3838 3039 1037
00000310: b766 e237 10ff 0637 26a3 8bb7 9e32 0738
00000320: caa3 98b7 4353 a237 299d aab7 a5a5 38b8
00000330: 18ed cb35 c26a 7337 7816 e6b6 d85b 94b7
00000340: 4a1c c037 a271 3838 7a8d c737 be49 ecb7
00000350: a6e6 3ab8 90fb 15b5 6900 08b8 dbbd 8b38
00000360: 514e 7d37 9e7b 54b8 09d6 4638 78f9 8cb8
00000370: d238 f837 f0ea e5b6 c809 85b8 93b4 1a38
00000380: 0819 e5b7 8877 1537 d8ba a5b6 688b af37
00000390: a270 0238 1c4e f937 a865 7c36 1ae1 2e38
000003a0: 3055 2436 6070 ba35 3d9c a237 8156 c3b7
000003b0: 8892 fab7 9633 3a38 c827 f4b5 faf8 0cb8
000003c0: e961 d937 4848 b9b7 c18a d8b7 9865 dcb6
000003d0: 229d ceb7 d2f7 8038 40cb bbb2 1f9a 9db8
000003e0: 83f7 5238 8779 1e38 dde8 efb7 4fc0 52b8
000003f0: 0ab6 b1b7 455a abb7 e8d3 48b7 b0c7 d336
0.0003542896 -3.0911247e-05 0.00020232525 -0.00033542473 -0.0001390972 0.0005249289 -0.00025655518 -0.00019336556
0.00012962204 -0.0004098449 8.333941e-05 -0.00014416454 -0.00014906333 -0.00019668297 -3.5386325e-05 -0.0006047894
0.00052332116 -0.00011201449 0.000110084984 0.00025472825 0.000110866094 -0.00026815158 0.00018077267 -0.0001247046
-0.0003549816 0.00011520424 -0.00048605877 0.00056441454 0.0005637521 -0.0001259979 -0.0009108434 0.00042213968
0.00024993543 -8.334377e-06 0.00026234263 0.00018291647 -0.00038506556 -0.00023745638 -1.5825892e-05 -0.00042390826
-0.00035980128 2.2890326e-05 -9.57516e-06 -0.0007385329 -5.552503e-05 3.0810697e-05 3.8728045e-05 0.00021990275
1.7241415e-05 -5.991402e-05 -0.00021401737 -7.054364e-05 7.584031e-07 6.923966e-05 -2.1581727e-05 -2.4123943e-05
0.00030101003 0.00025517782 -6.075528e-05 7.515928e-08 -0.0007528367 -0.00026946948 0.000528425 -0.00022830517
0.0003478231 0.00034395722 0.0005292991 0.00039588806 -8.436633e-06 -0.00010096423 -0.00017299992 0.00025799114
-2.2023538e-05 0.0003000932 -0.00013873097 -6.376978e-05 -6.950322e-06 0.00029400268 0.00031156788 0.00031148084
-4.0857758e-05 9.2825736e-05 0.00068473205 -0.00021343301 -0.0005099201 5.5310706e-05 -8.783223e-05 -1.2611708e-05
0.00017111172 -0.00032826807 0.00050321117 -9.399376e-05 0.0007376417 0.00034032777 -9.4320465e-05 0.00014848329
-0.0006255048 -0.0002669728 -0.0003525537 9.954546e-05 -3.6561978e-06 0.00067472784 0.00021275088 0.00016256669
-0.0005091986 -0.0002349315 1.7734492e-06 -0.0003293032 -0.00015506135 0.00044628198 0.000109040964 -0.00056689203
1.3089433e-05 -0.00019239614 -8.6943925e-05 4.008337e-05 -0.00013423036 0.00021587661 0.00032026 -0.00083651894
-0.000117313066 8.806422e-05 -0.0005753926 -0.00043199415 -0.00035774158 -0.00049083005 -0.00045810937 0.00016489017
2.492981e-05 -2.6620306e-05 3.25944e-05 -1.9998928e-05 -6.143113e-05 5.0850493e-05 -6.732346e-05 -5.1590236e-05
-4.082942e-06 -3.7371356e-05 1.5768957e-05 1.1520464e-05 6.425189e-06 -2.8820927e-05 -1.3853499e-05 5.4607553e-06
3.2608015e-05 -1.6632855e-05 -4.2406315e-05 -8.429613e-06 1.8836101e-05 -1.3386613e-05 -3.7989987e-05 -3.3314704e-05
-7.2653784e-05 -1.0990667e-05 -4.013742e-05 4.84828e-05 7.6851065e-06 1.5456186e-05 -1.7652892e-05 3.4165787e-06
5.9588358e-05 4.2850148e-05 3.4002704e-05 -3.4190234e-06 -2.0248815e-05 -3.3232667e-05 -5.8375044e-05 -2.7755432e-05
-1.2638273e-05 -3.4214381e-06 4.313646e-05 -3.962854e-05 -4.8322938e-05 5.026621e-06 9.486e-06 1.8472105e-05
3.5480807e-06 -1.9931958e-05 -3.265405e-05 -1.6146227e-05 1.480445e-07 2.4654017e-05 -2.08698e-05 -2.0101008e-05
6.2067906e-05 -1.9246509e-06 -3.7347516e-05 -5.6922516e-08 -3.1738513e-05 -4.573667e-08 3.1187934e-05 -6.5862605e-06
1.4718123e-05 1.7278882e-05 4.401549e-05 8.596384e-06 2.698913e-05 8.046409e-06 -1.6646063e-05 3.223365e-05
-1.8196082e-05 1.9350677e-05 -2.0338763e-05 -4.4023287e-05 1.5193682e-06 1.4508785e-05 -6.85715e-06 -1.7685743e-05
2.2901357e-05 4.3974847e-05 2.3788529e-05 -2.8167731e-05 -4.4560664e-05 -5.5872897e-07 -3.242531e-05 6.6634e-05
1.509821e-05 -5.0659866e-05 4.7406214e-05 -6.7221874e-05 2.9590363e-05 -6.852082e-06 -6.343756e-05 3.6884634e-05
-2.7310583e-05 8.908923e-06 -4.9391347e-06 2.0926542e-05 3.1099313e-05 2.9719486e-05 3.7610098e-06 4.1694475e-05
2.448749e-06 1.3890785e-06 1.9384659e-05 -2.3286093e-05 -2.9870556e-05 4.43939e-05 -1.8190995e-06 -3.361048e-05
2.5914009e-05 -2.2087377e-05 -2.5813819e-05 -6.568338e-06 -2.4630284e-05 6.149676e-05 -2.1862093e-08 -7.515051e-05
5.0298415e-05 3.7783317e-05 -2.8599456e-05 -5.0247003e-05 -2.1184813e-05 -2.0426824e-05 -1.1970267e-05 6.3115367e-06

lstm.weight_hh_l1 f4 [512, 128]
00000000: 50a4 d4b8 ceab 5c38 4895 2028 bd37 4b27
00000010: d618 6ea6 e007 4ba6 7d33 a639 c8d0 1125
00000020: dcb0 a925 70d8 ca26 c468 9da6 ed85 46ae
00000030: 720a d0a6 d94c 04a9 8068 2f37 bc25 7ba7
00000040: 82b6 8126 287b 1424 64d5 4635 81e0 6c26
00000050: 8f44 87a7 a22c fba8 e0b3 0235 fe60 f726
00000060: 2ea1 57a6 3668 2ea6 3bcf c1b1 98db 2ab8
00000070: 7c79 fd26 0953 2aaa 744e 2ba7 aede 24a7
00000080: 4011 84a6 92c4 c426 e916 80af b2c0 1e27
00000090: bc41 96a6 12f2 e0a5 4052 ada6 80d5 e9a3
000000a0: 1eaa c72e 144f 6fa5 5050 6226 efd3 99a8
000000b0: 7062 8eb7 eb0c 3ca6 3ab9 bda6 1835 2e2f
000000c0: 7863 92b5 5fba 04a7 9e69 c1a6 fc6d c6a5
000000d0: c66a 5cb5 ca44 c125 22c5 9526 c15e cca6
000000e0: f4f6 3b25 3ee2 8928 5498 5332 a2a2 002a
000000f0: 24f2 a5a5 dea8 36a6 600f 67af d64b 4c26
00000100: 5898 d5b5 fce9 61b3 4c4e 95a5 427a 9d39
00000110: 1408 9db8 dda0 1ea7 f31a b926 a846 09a6
00000120: 2dc2 9e26 f2b6 9a28 b03a 8bb7 e8bb 2038
00000130: c8b9 78a6 bf71 282e 0c66 9826 ac87 35b9
00000140: 88f4 67a5 4e81 f4b1 3a1e 6027 9045 e9b7
00000150: 1c77 5da6 439f 2427 c5a1 1da6 0575 a426
00000160: 905d 55a6 7682 67a8 0ca5 63b2 d8f8 b526
00000170: 1672 20b9 64c9 8526 78ad d1a5 4180 3928
00000180: 8c97 a326 9591 3326 9c2c a326 e868 f227
00000190: 5aa5 2f26 465b 0a26 d0ae e3a5 bc67 5435
000001a0: 4564 28a6 e4f0 b9a6 d059 8637 5c95 b1a6
000001b0: 445f 3627 fe73 46a6 18b6 0038 5ee7 9b39
000001c0: 761a a926 fa8b a5b9 642f aa26 0615 8833
000001d0: 78da 8db7 1a67 9ea5 8a81 71a6 3843 eda6
000001e0: e99a a7b9 875b 58a6 82f7 9d39 8082 3038
000001f0: 8ccd ea38 4970 2528 0895 d925 2aea e427
00000200: cf41 e136 cecd b3b6 ec60 16a7 08f5 d3a7
00000210: ce3c 3f26 5e3f 0626 907d 8e36 cde5 4a26
00000220: 9021 8125 a7ae 64a6 808e 3ba5 20fd 66ab
00000230: 547f ff25 b94e a929 581a 2e35 8d8c a7a7
00000240: 8296 cda6 4cac d925 6829 c2b3 601b 8326
00000250: eed3 6926 ef74 9829 880b 7db3 d19f 6125
00000260: dbd3 3fa7 9013 95a4 0afe 7d30 d616 ec36
00000270: e6be 4e26 402c e428 f6e9 16a6 faa6 6626
00000280: b4b6 2e26 8028 1622 c032 f1ad 537a ee26
00000290: e8b3 2826 f589 32a5 9827 47a9 bc01 07a5
000002a0: 3e49 812c ecb0 4ea5 828e 5f26 18fe 46a6
000002b0: 2df5 1e36 ca5a 41a6 0d1e 69a6 f49f 222f
000002c0: 2cc0 49b5 2c8d 1f26 767d 3b26 a4f0 bba5
000002d0: 5bdd a2b4 684b bf25 2391 b126 8c0d 9fa5
000002e0: c0a9 2da6 2e0c 73a8 602c c0b0 95c8 0828
000002f0: 738c 61a5 936d 8ca5 3340 03af 2856 c5a4
00000300: 90fb 68b4 a39c 5132 40bf ee24 c01f 56b5
00000310: 2345 ce36 f847 50a5 f021 c9a4 6c74 19a6
00000320: 54e6 9326 8e9a 9927 2001 ff35 a253 a4b6
00000330: 760f 7c26 f0cb 102b f0e5 b024 8064 ef36
00000340: ba0c 15a6 9162 8f30 6a3b 2d26 945b d336
00000350: 8d39 2aa6 3942 3fa7 f648 0826 a194 37a6
00000360: 56cc 8126 53dc f2a7 76ea c230 d256 4126
00000370: 22dd f036 f038 1aa6 7ed5 74a6 8183 4da6
00000380: fe06 2926 6877 4e25 4128 7626 3ee5 26a8
00000390: d4da 9e25 843a 58a5 31af 08a6 4534 e7b3
000003a0: 406d 9525 7c41 5326 e48f b6b5 d6e8 27a5
000003b0: 4056 9c24 2a43 41a6 360f 98b6 40de afb5
000003c0: 00b1 9ba6 cc42 3837 8f86 5926 9f71 6fb2
000003d0: 4bc5 1d36 3392 2027 745b 4b26 ca72 7226
000003e0: b441 80b6 ecdd 3626 c0e6 22b5 06ca a9b6
000003f0: b29c e6b6 ee51 7b25 10ca 02a6 000c fca7
-0.00010139553 5.2612093e-05 8.914154e-15 2.8202125e-15 -8.2606496e-16 -7.0440446e-16 0.0003170035 1.2647483e-16
2.943667e-16 1.4075231e-15 -1.092246e-15 -4.5138938e-11 -1.443573e-15 -2.9376543e-14 1.0455144e-05 -3.4853703e-15
9.000642e-16 3.2196702e-17 7.407127e-07 8.218321e-16 -3.754436e-15 -2.7885954e-14 4.8690526e-07 1.7165358e-15
-7.481155e-16 -6.050961e-16 -5.6405987e-09 -4.073567e-05 1.758833e-15 -1.5127842e-13 -2.3773547e-15 -2.2880287e-15
-9.164016e-16 1.3653513e-15 -2.3299343e-10 2.2031365e-15 -1.0426158e-15 -3.902184e-16 -1.202658e-15 -2.5352331e-17
9.079691e-11 -2.0756738e-16 7.8518345e-16 -1.7078324e-14 -1.6973558e-05 -6.524311e-16 -1.3164715e-15 1.584407e-10
-1.0906797e-06 -1.8419712e-15 -1.3420693e-15 -3.4422053e-16 -8.211176e-07 3.3526776e-16 1.0392385e-15 -1.4181027e-15
1.6303335e-16 1.5308172e-14 1.2316452e-08 1.1425108e-13 -2.8787018e-16 -6.337279e-16 -2.101479e-10 7.0879495e-16
-1.5914075e-06 -5.2599702e-08 -2.5900436e-16 0.00030036463 -7.487848e-05 -2.2014109e-15 1.2844258e-15 -4.762718e-16
1.1016084e-15 1.7176774e-14 -1.659742e-05 3.8321974e-05 -8.6294065e-16 3.8299804e-11 1.0574779e-15 -0.00017312047
-2.0118907e-16 -7.116035e-09 3.110263e-15 -2.7808157e-05 -7.68362e-16 2.2845908e-15 -5.4689556e-16 1.1411504e-15
-7.402602e-16 -1.2851365e-14 -1.3250666e-08 1.2626847e-15 -0.0001530129 9.283316e-16 -3.6373268e-16 1.0297374e-14
1.1351474e-15 6.23004e-16 1.1322488e-15 6.7282233e-15 6.0939415e-16 4.8002067e-16 -3.949668e-16 7.912711e-07
-5.84226e-16 -1.2902247e-15 1.6015867e-05 -1.2322326e-15 2.5309217e-15 -6.885225e-16 3.0687166e-05 0.00029736286
1.1733903e-15 -0.00031575543 1.1808965e-15 6.336818e-08 -1.6910242e-05 -2.7478495e-16 -8.378923e-16 -1.6463398e-15
-0.0003196814 -7.5064097e-16 0.0003012978 4.2083208e-05 0.000111962756 9.183688e-15 3.7744487e-16 6.3536594e-15
6.7131837e-06 -5.3585745e-06 -2.0869223e-15 -5.882993e-15 6.634884e-16 4.657647e-16 4.246547e-06 7.0394267e-16
2.2400676e-16 -7.934009e-16 -1.6267945e-16 -8.2063696e-13 4.432173e-16 7.518764e-14 6.4858386e-07 -4.6504197e-15
-1.4265528e-15 3.7760252e-16 -9.041361e-08 9.097371e-16 8.112533e-16 6.770441e-14 -5.891664e-08 1.9569787e-16
-2.6621422e-15 -6.465159e-17 9.2401875e-10 7.0360065e-06 7.1729323e-16 2.5332275e-14 -5.235878e-16 8.0023575e-16
6.0615986e-16 2.0350231e-18 -2.7421065e-11 1.6547724e-15 5.8530527e-16 -1.548578e-16 -4.422122e-14 -1.1709971e-16
3.674532e-12 -1.7927595e-16 7.75618e-16 -6.903941e-16 2.3686546e-06 -6.708337e-16 -8.087884e-16 1.4790641e-10
-7.515798e-07 5.535553e-16 6.504869e-16 -3.2602393e-16 -3.033591e-07 3.3184316e-16 1.2321182e-15 -2.7591283e-16
-6.0251486e-16 -1.3491851e-14 -1.3982451e-09 7.593011e-15 -1.9563225e-16 -2.436038e-16 -1.1937189e-10 -8.5581086e-17
-2.1698202e-07 1.2201016e-08 1.0354004e-16 -7.9767415e-07 6.147327e-06 -1.8065508e-16 -8.722735e-17 -5.324032e-16
1.0262605e-15 4.26336e-15 1.8999308e-06 -4.897317e-06 8.7451017e-16 5.1442097e-13 7.671736e-17 7.134455e-06
-5.1712007e-16 1.0432634e-09 6.0101953e-16 6.298951e-06 -5.9058594e-16 -2.6542474e-15 4.728336e-16 -6.369231e-16
9.006559e-16 -6.740737e-15 1.4181996e-09 6.707799e-16 7.1783006e-06 -5.350665e-16 -8.494384e-16 -7.1301884e-16
5.864313e-16 1.7908108e-16 8.540295e-16 -9.26456e-15 2.7556915e-16 -1.875484e-16 -4.7421907e-16 -1.07662835e-07
2.592141e-16 7.329408e-16 -1.3601934e-06 -1.4563829e-16 6.780033e-17 -6.705135e-16 -4.531724e-06 -1.3103199e-06
-1.0803261e-15 1.0982807e-05 7.546936e-16 -1.3937465e-08 2.3509663e-06 2.2283715e-15 7.0553715e-16 8.4116184e-16
-3.822346e-06 6.3444695e-16 -6.068549e-07 -5.060111e-06 -6.872776e-06 2.1798538e-16 -4.5376656e-16 -6.995706e-15

lstm.bias_ih_l1 f4 [512]
00000000: 1825 773b db9f 7339 da6e 9525 eee9 e3a7
00000010: 10d5 ce25 c2f5 6827 08e9 c43b 2c74 7ba6
00000020: 3274 ee26 505f 3fa6 84b7 86a6 004e 8125
00000030: eadd 45a6 202f f7a9 be77 303b f895 f825
00000040: 7985 b9a7 2f5f 4f26 dafe e632 a092 47a6
00000050: b1c4 67a6 d005 cfa9 c36a c131 2886 d327
00000060: 40d6 a2a7 6864 2aa5 1f64 a12b 0468 8c3a
00000070: 5e51 b4a5 98e0 b624 b0a0 0ca6 283e 9c24
00000080: 5e7b cda5 7178 5a27 98d4 9d2a 2927 27a6
00000090: 5b54 56a6 2840 0b26 54df 6729 888a d1a4
000000a0: fab6 1c2a ddf4 7e26 58da f524 f8b0 1326
000000b0: 4408 113b e462 28a6 3864 4926 58f3 bf29
000000c0: d0c4 0637 6e73 8126 32dd df25 188e e025
000000d0: 686f fa34 b4c4 9325 97e2 3aa6 cb52 87a6
000000e0: f0f0 d525 dc1c 57a5 401f df2b e6fc 4326
000000f0: bc80 18a5 3a89 10a6 60fc 3a2b be58 1ca6
00000100: ff54 b035 b348 df2f 410a 1826 4b3c ad3b
00000110: 4db6 6c3b 5049 6727 d6e8 d5a7 603a d2a4
00000120: aa9c 26a6 85e1 1ea6 3e33 163b 8b7a 5b3b
00000130: fac7 0126 4304 25aa a311 9327 f080 893b
00000140: 0edd 2126 504e 6d2c fed5 1ba6 a936 b53a
00000150: 574a 1226 3647 70a6 dbc6 82a6 dcb2 72a6
00000160: 76f2 53a6 d263 a725 12ae 222c c8d3 82a5
00000170: 7e8b 853b 08dc eda5 10be a9a4 ce5b eea5
00000180: 9bac 7b26 d3ff 1c26 66d0 4525 2007 9ea5
00000190: 1443 b0a5 8890 83a5 0c95 d525 93fb 2833
000001a0: cf67 8526 803b 5a23 d16b 1b3b ce85 7f26
000001b0: 231f 85a6 5108 18a6 a39a 563b cb1f ab3b
000001c0: b08b 1726 3313 053c b26b 9426 55be 0430
000001d0: 706a 123b 814c 5a26 08a3 dfa4 3aef 40a6
000001e0: cfd1 d53b f149 7226 8bef ad3b e2ae 5d3b
000001f0: d0a9 7b3b c23c 87a6 6854 06a6 cb26 c328
00000200: 7908 743b 4ebd 7039 8080 ce25 f3ba 8928
00000210: 7427 1226 8eb1 f926 61cf c63b a801 b825
00000220: 1312 bd26 94e2 a525 00ca 33a2 cda1 54aa
00000230: 20a4 3c26 21dd 002a c1d4 2c3b 199f 25a6
00000240: 769a 5228 a053 56a4 6e74 db32 2d41 1226
00000250: fc85 d525 f2bf e629 97c7 cd31 3635 0727
00000260: 0cc9 2827 70fc 8526 14d3 3dac 8af8 883a
00000270: 4586 1026 f05f 1ba6 0c6e 5325 e75f 1ea6
00000280: d1cd 40a6 5bcf e6a7 b402 fa2a 0fb4 3aa6
00000290: f5d0 84a6 be2f a3a5 17db 56a9 a828 f724
000002a0: 05ca 4a2a 291f 8826 b361 5026 886b 41a6
000002b0: efb2 0d3b 6885 c024 89dd 4ca6 dba2 782b
000002c0: caba 1137 720c 69a6 089d a6a5 2ca8 eca5
000002d0: 1d30 0735 2d4b 9226 a074 cca4 c0a5 a6a4
000002e0: 00a8 5323 a470 31a6 962d a22c 20e3 fea5
000002f0: 9390 4226 30f3 a924 5834 f92a 666e 87a6
00000300: 594d c235 5fe8 0430 ddb6 4026 dca2 ad3b
00000310: 3667 693b 24b9 76a7 5ca2 9927 354f 83a5
00000320: d3a8 6c26 451f 45a6 73cc 123b edf0 573b
00000330: e3cf 0ba6 c875 6da9 80c2 1027 834f 883b
00000340: 7ecc 9da5 60b4 e9aa 2cbb 83a6 fcb4 b03a
00000350: c054 0da4 3205 8126 6cb0 6926 8ce6 6a25
00000360: 2e87 d425 559f 0aa6 e3d2 b32c 87bb 8426
00000370: 173c 843b 5bfb 1226 9cd1 6d25 6902 5ea6
00000380: f6f8 06a6 2c42 ce25 f6f9 0426 0440 2b26
00000390: 2059 d625 f3d4 7626 60fd bf25 6f94 2133
000003a0: 6cff 1825 b04b 6925 f7f4 173b 164e aaa5
000003b0: 565e 83a6 2c46 bf25 4c06 533b 6e68 ab3b
000003c0: 30f1 a825 903e 083c d31a 9ea6 a5c6 1a30
000003d0: d310 0f3b cc78 7926 3da1 3fa6 70d5 3625
000003e0: 73e8 d83b 9fd9 3526 5d60 ae3b d92a 5a3b
000003f0: 01a5 783b d09c b3a5 e4ec 6626 9e6a aba8
0.0037711319 0.00023233837 2.5922496e-16 -6.3258784e-15 3.587968e-16 3.2329693e-15 0.006009225 -8.724056e-16
1.6546062e-15 -6.639561e-16 -9.34786e-16 2.2430788e-16 -6.8648855e-16 -1.09771784e-13 0.002692684 4.3122765e-16
-5.1492526e-15 7.194655e-16 2.6891417e-08 -6.924071e-16 -8.041079e-16 -9.193655e-14 5.6291767e-09 5.8709717e-15
-4.5196323e-15 -1.4779169e-16 1.1467527e-12 0.0010712151 -3.128016e-16 7.9310395e-17 -4.879003e-16 6.775951e-17
-3.5645428e-16 3.0318869e-15 2.803632e-13 -5.7992836e-16 -7.436049e-16 4.831226e-16 5.148601e-14 -9.087398e-17
1.3919066e-13 8.8455804e-16 1.066217e-16 5.124071e-16 0.002213017 -5.842073e-16 6.9871705e-16 8.524317e-14
8.032846e-06 8.98246e-16 3.883422e-16 3.8954092e-16 4.6647187e-07 2.5633726e-16 -6.48388e-16 -9.389948e-16
3.7112876e-16 -1.8658055e-16 1.5853777e-12 6.7996957e-16 -1.3227515e-16 -5.0146013e-16 6.6430715e-13 -5.424364e-16
1.3137759e-06 4.061512e-10 5.274949e-16 0.0052867285 0.0036119402 3.2097433e-15 -5.9371817e-15 -9.1171874e-17
-5.780514e-16 -5.51229e-16 0.0022918726 0.003348979 4.5026884e-16 -1.4656423e-13 4.081982e-15 0.0041962788
5.615768e-16 3.3723198e-12 -5.406644e-16 0.0013825494 5.0754675e-16 -8.3363236e-16 -9.074462e-16 -8.4203016e-16
-7.3533927e-16 2.9037523e-16 2.3118213e-12 -2.2694914e-16 0.0040754667 -4.1262045e-16 -7.3614045e-17 -4.1348628e-16
8.731704e-16 5.447008e-16 1.7157634e-16 -2.741346e-16 -3.0576587e-16 -2.2822816e-16 3.7050608e-16 3.9344354e-08
9.256866e-16 1.1830403e-17 0.0023715387 8.8652236e-16 -9.237169e-16 -5.2746865e-16 0.003274598 0.005222296
5.257796e-16 0.008122253 1.0298754e-15 4.82918e-10 0.0022341274 7.5737626e-16 -9.698702e-17 -6.6937594e-16
0.0065252553 8.4060826e-16 0.0053080968 0.0033826162 0.0038400777 -9.383975e-16 -4.660498e-16 2.1666173e-14
0.0037236495 0.00022958705 3.5822379e-16 1.5291132e-14 5.0707394e-16 1.7325972e-15 0.006067202 3.1920034e-16
1.3119409e-15 2.8776473e-16 -2.4365962e-18 -1.8885518e-13 6.5448034e-16 1.1445403e-13 0.0026371928 -5.746149e-16
1.1690835e-14 -4.6474686e-17 2.5547902e-08 5.0742255e-16 3.7040401e-16 1.0247349e-13 5.988976e-09 1.876386e-15
2.3423671e-15 9.297152e-16 -2.6975687e-12 0.0010450047 5.0142005e-16 -5.3906447e-16 1.8338618e-16 -5.4947234e-16
-6.6892315e-16 -6.406264e-15 4.4410797e-13 -6.477574e-16 -9.215978e-16 -2.8308344e-16 -4.7707576e-14 1.0718805e-16
1.8011294e-13 9.445342e-16 7.2296904e-16 -6.710606e-16 0.0021621545 8.3492726e-17 -7.1076954e-16 8.8333307e-13
8.686164e-06 -8.085498e-16 -2.8902818e-16 -4.1053432e-16 5.0361433e-07 1.0151162e-15 -8.866847e-17 -7.2271816e-17
1.1473908e-17 -6.156187e-16 4.609378e-12 -4.4215882e-16 6.7503205e-16 7.370404e-17 4.4267606e-13 -9.39743e-16
1.4476637e-06 4.835154e-10 6.686121e-16 0.0052989554 0.0035614497 -3.4239723e-15 4.264206e-15 -2.277855e-16
8.210775e-16 -6.8390483e-16 0.0022399693 0.003295 -4.850705e-16 -5.272673e-14 2.0089453e-15 0.004159869
-2.7373728e-16 -4.1514275e-13 -9.140684e-16 0.0013481672 -3.0646287e-17 8.952581e-16 8.107721e-16 2.0374377e-16
3.686774e-16 -4.8094303e-16 5.110899e-12 9.210169e-16 0.0040354836 5.0994576e-16 2.0627492e-16 -7.702499e-16
-4.6827994e-16 3.5780143e-16 4.613546e-16 5.94143e-16 3.7183476e-16 8.5636995e-16 3.3304912e-16 3.7620733e-08
1.3270439e-16 2.0235172e-16 0.0023186782 -2.9543212e-16 -9.115521e-16 3.318077e-16 0.0032199798 0.005230955
2.930679e-16 0.008315697 -1.0970723e-15 5.6307164e-10 0.0021830096 8.655294e-16 -6.6484955e-16 1.5858299e-16
0.006619507 6.309192e-16 0.005321546 0.00332897 0.0037940147 -3.115781e-16 8.0118327e-16 -1.9031052e-14
