models/AUDUSD_model.pth (torch, 860300 bytes, 15 tensors)

lstm.weight_ih_l0 f4 [512, 12]
-0.20692487 -0.1807226 -0.28396708 -0.15049721 -0.08504576 -0.18039039 -0.0819769 -0.3427876
0.21626 -0.033198923 -0.47912866 -0.32010227 -0.04982299 0.054420013 0.04178526 0.14800507
-0.120318025 0.0076048705 0.11277412 0.26990056 -0.11083376 0.17451401 0.25899684 0.22496437
-0.15559156 -0.1306527 -0.07039414 -0.018878514 -0.038395226 -0.17137715 -0.1757924 0.05253421
-0.37327224 0.07671698 -0.015335768 0.08061654 -0.30034664 -0.30726725 -0.14152929 -0.22016881
-0.352785 -0.34257194 -0.3224957 -0.030763693 -0.42529988 -0.008530019 -0.016960029 -0.0162988
-0.005845371 -0.02773904 0.0990701 0.024025396 -0.06292581 0.074278004 0.009150856 0.12327503
-0.3164078 0.05964346 0.25551715 0.2388761 -0.21536756 -0.2714798 -0.31823462 -0.32064334
-0.1745338 -0.16357642 -0.32418245 -0.1053992 -0.1825277 -0.36371753 -0.4305439 -0.16074447
0.06353525 -0.007158499 0.06950753 0.0680514 -0.08357104 0.041161165 -0.07533155 0.1066009
-0.07373442 0.03217226 0.19872932 0.111375175 -0.39390483 -0.25244895 -0.415781 -0.30237743
0.5604591 -0.28564018 -0.3521689 0.04570485 0.43338013 -0.034825545 -0.0524 -0.036777698
0.02029171 -0.03227391 -0.022610232 0.014425877 0.09426903 -0.08781814 0.029738382 0.04581329
0.0880768 0.07368458 0.21616606 0.08339801 -0.14899276 -0.10727174 -0.27307433 -0.1731631
0.31653604 -0.16872741 -0.25122657 0.15209879 0.5099923 0.039403025 -0.21498775 0.13509186
-0.30883208 -0.23187092 -0.34204194 -0.3530897 0.036959417 -0.36102757 -0.32189888 -0.03773975
-0.0011349535 -0.0039362283 0.061580718 0.0059220684 -0.17177242 -0.30221394 -0.20368017 -0.22358069
-0.428386 -0.30176806 -0.27374482 -0.43814528 -0.38419798 -0.42983106 -0.27004495 -0.19179754
-0.1684142 -0.1656432 -0.11121653 -0.01026997 -0.5160724 -0.042093486 -0.10305296 -0.059715427
-0.40372062 -0.026931964 0.005831488 -0.06838764 -0.22516596 -0.051386107 -0.17890625 -0.12485859
-0.30519736 -0.14770113 -0.22323878 0.013201221 -0.24050833 -0.09867199 0.03602438 -0.015915127
-0.19151635 -0.1579475 -0.14041038 -0.18144666 -0.17939848 -0.23125131 -0.14584145 0.14301309
0.21535656 -0.25664297 -0.36780354 0.009799893 -0.33718005 -0.35953367 -0.27324694 -0.2645927
0.54918456 -0.17975797 -0.20689312 0.32346264 0.45031667 -0.16987467 -0.19845383 0.04341882
-0.3965775 -0.2182708 -0.36326033 -0.3144501 -0.13528872 -0.31083426 -0.26041943 -0.04392851
-0.18472804 -0.28992605 -0.2710934 -0.11925798 -0.1414963 -0.2451558 -0.27000952 -0.3209804
-0.17974691 -0.23800954 -0.21784604 -0.17980227 -0.08228428 -0.40067804 -0.2740256 -0.10497849
0.14765058 0.13192752 0.011066058 0.16015278 0.3197747 0.1328192 0.061339114 0.16006243
0.048523508 -0.10589478 0.14275035 0.18368192 0.08252694 0.08971972 0.11882056 0.016796194
-0.47356975 -0.01230814 -0.0126292985 0.2892744 0.37950093 0.026233219 0.18866782 0.1079856
-0.08071376 -0.034200452 -0.10285247 -0.055594243 -0.5155353 -0.10541929 0.010160887 -0.45346963
0.24037771 -0.05923087 -0.27186203 -0.10557951 -0.19403014 -0.17098829 -0.210944 -0.21737911
00000000: 1de4 53be 580f 39be 2264 91be f11b 1abe
00000010: 792c aebd 42b8 38be 81e3 a7bd db81 afbe
00000020: 4373 5d3e 98fb 07bd 5a50 f5be 72e4 a3be
00000030: 3113 4cbd 85e7 5e3d 0527 2b3d a48e 173e
00000040: 4c69 f6bd 4732 f93b 1ef6 e63d 6830 8a3e
00000050: cffc e2bd cdb3 323e 3c9b 843e 0f5d 663e
00000060: 6553 1fbe d2c9 05be ce2a 90bd 1da7 9abc
00000070: 5044 1dbd 7e7d 2fbe ec02 34be 1d2e 573d
00000080: 8a1d bfbe cb1d 9d3d e042 7bbc 491a a53d
00000090: 09c7 99be 2252 9dbe 0eed 10be ef73 61be
000000a0: 3ca0 b4be 9765 afbe 281e a5be 2404 fcbc
000000b0: e8c0 d9be 7ec1 0bbc c2ef 8abc 1085 85bc
000000c0: 878a bfbb fc3c e3bc 44e5 ca3d e8d0 c43c
000000d0: 3fdf 80bd 111f 983d 79ed 153c 9e77 fc3d
000000e0: 3400 a2be b34c 743d 25d3 823e f09b 743e
000000f0: 5089 5cbe 66ff 8abe a6ef a2be 5d2b a4be
00000100: fdb8 32be 9480 27be 3efb a5be 89db d7bd
00000110: 8be8 3abe 2f39 babe 4070 dcbe 339a 24be
00000120: c51e 823d d891 eabb f759 8e3d 885e 8b3d
00000130: 4b27 abbd 9c98 283d 6d47 9abd 9351 da3d
00000140: 1202 97bd 0fc7 033d b37f 4b3e ab18 e43d
00000150: e5ad c9be fd40 81be 3fe1 d4be 37d1 9abe
00000160: 3f7a 0f3f 6e3f 92be 7b4f b4be 0235 3b3d
00000170: 00e4 dd3e 3ba5 0ebd 62a1 56bd 36a4 16bd
00000180: cd3a a63c a631 04bd 1839 b9bc 835a 6c3c
00000190: 1f10 c13d ffd9 b3bd e89d f33c b7a6 3b3d
000001a0: 9c61 b43d f1e7 963d a35a 5d3e 93cc aa3d
000001b0: 8f91 18be 49b1 dbbd 66d0 8bbe ab51 31be
000001c0: 0311 a23e e1c6 2cbe c5a0 80be c9bf 1b3e
000001d0: db8e 023f 1165 213d c025 5cbe 8555 0a3e
000001e0: 3d1f 9ebe 926f 6dbe 1f20 afbe 2cc8 b4be
000001f0: c262 173d 9bd8 b8be eecf a4be ff94 1abd
00000200: b8c2 94ba 7afb 80bb 103c 7c3d e90d c23b
00000210: 1ce5 2fbe c9bb 9abe 8991 50be 56f2 64be
00000220: 6955 dbbe 5881 9abe 4828 8cbe 9454 e0be
00000230: 99b5 c4be d112 dcbe 5543 8abe 9366 44be
00000240: c674 2cbe 5f9e 29be 7ec5 e3bd 6043 28bc
00000250: 521d 04bf 386a 2cbd 6e0d d3bd 2a98 74bd
00000260: 78b4 cebe 6ca0 dcbc 1116 bf3b d20e 8cbd
00000270: e891 66be 3d7a 52bd 3333 37be dcb5 ffbd
00000280: d442 9cbe f73e 17be b598 64be ef49 583c
00000290: d147 76be 8a14 cabd 4d8e 133d 7160 82bc
000002a0: dd1c 44be fdbc 21be bdc7 0fbe 27cd 39be
000002b0: 3cb4 37be 25cd 6cbe 7657 15be 0672 123e
000002c0: 6e86 5c3e b566 83be bf50 bcbe bb8f 203c
000002d0: dda2 acbe cc14 b8be 06e7 8bbe b278 87be
000002e0: 5c97 0c3f 7912 38be cadb 53be e59c a53e
000002f0: e88f e63e a0f3 2dbe 7b37 4bbe efd7 313d
00000300: 350c cbbe 6182 5fbe 42fd b9be 9aff a0be
00000310: 2089 0abe ab25 9fbe b255 85be 62ee 33bd
00000320: 5929 3dbe 3071 94be c1cc 8abe 873d f4bd
00000330: 68e4 10be 1f0a 7bbe b03e 8abe 8b57 a4be
00000340: 930f 38be c6b8 73be 0813 5fbe 161e 38be
00000350: a984 a8bd ac25 cdbe 154d 8cbe f6fe d6bd
00000360: b731 173e 0218 073e 694e 353c 17ff 233e
00000370: 82b9 a33e c201 083e b93e 7b3d 68e7 233e
00000380: 96c0 463d 5ddf d8bd 262d 123e 1d17 3c3e
00000390: e203 a93d f9be b73d 3258 f33d 2c98 893c
000003a0: bc77 f2be 15a8 49bc 1eeb 4ebc c61b 943e
000003b0: f24d c23e 0ce7 d63c 2332 413e 8e27 dd3d
000003c0: 414d a5bd c615 0cbd 51a4 d2bd cab6 63bd
000003d0: 1ffa 03bf 12e6 d7bd d979 263c 2c2d e8be
000003e0: 9325 763e 129c 72bd 8031 8bbe 123a d8bd
000003f0: d6af 46be 8e17 2fbe b401 58be a198 5ebe

lstm.weight_hh_l0 f4 [512, 128]
-0.2445208 0.087184444 -0.04643197 -0.07485573 -0.104510754 0.07139265 0.1145307 0.251031
0.18411651 0.060810067 0.28694862 0.015441704 0.112301365 0.12124418 0.081140034 -0.14289458
-0.08126306 -0.059247524 0.2272459 0.5707068 -0.07493405 -0.19770278 -0.11530727 0.78589183
0.09238172 -0.0353903 -0.17697906 -0.20085047 -0.66113335 -0.22486475 -0.24097519 0.086556956
0.1745619 0.146284 0.032354057 0.19841185 0.15015222 -0.26236087 0.19665986 -0.025948403
-0.04702749 0.20361336 0.24456614 -0.59045976 0.13907716 -0.11250276 -0.18362974 0.016513854
-0.11784976 -0.106118284 0.07658364 -0.14572783 0.029681638 -0.1411277 -0.26858255 0.03607581
0.34293506 0.21178624 -0.006668881 0.019645188 -0.012933896 -0.10253138 -0.14630833 0.038912736
-0.073983975 -0.28474215 -0.14746542 0.10702863 0.037679672 -0.018286824 0.19641022 0.13021542
-0.04628418 -0.05784222 0.12853973 -0.049615584 -0.08316325 -0.2679458 -0.0139296185 0.064694926
0.08099097 0.20879346 -0.19881271 -0.22964674 0.10544381 -0.062406648 -0.22400382 -0.19252418
-0.15839158 0.33194277 0.07260291 0.33526433 -0.049851473 -0.08394077 -0.252265 -0.025560008
0.09818715 0.23146544 -0.62072825 -0.13673165 -0.07140472 -0.09672322 0.029746225 0.050223388
-0.2566188 -0.20048527 0.14901756 0.19987784 0.10072026 -0.016759139 0.20438987 0.07423823
0.17863844 -0.11631118 -0.14051107 -0.035523713 -0.23557137 0.1688543 0.14492266 0.19043095
-0.34090662 0.11498156 -0.2311538 0.15332791 -0.015522561 0.17049575 0.041023795 0.14431344
0.17805433 0.5691564 0.566976 -0.010259479 -0.93855274 -0.21273172 0.5461662 -0.010202706
0.01823196 0.41553715 0.33627123 0.26733223 -0.39637798 -0.043689977 0.24873488 0.14692113
-0.23894247 0.1713733 0.52234465 0.59396756 0.47684968 -0.3222452 -0.16619496 -0.9122774
-0.41202486 -0.36749825 0.5369525 0.0010853668 0.19795573 0.3936461 0.18792515 0.50799155
-0.18783747 0.2838633 0.41364673 -0.15331563 0.04164791 -0.15738736 0.5583988 -0.5285744
-0.046329483 0.45321223 -0.262048 -0.37753636 -0.45271605 -0.19314054 0.19314349 0.0012464643
-0.6388647 0.4558377 0.9531362 -0.0038045677 0.34728953 -0.21603245 -0.30340028 0.4750663
0.072539315 -0.6989269 -0.24063528 0.42373985 -0.14448331 -0.07295216 0.18256639 -0.4042094
0.43274334 0.2842737 -0.6004454 -0.17501698 -0.09122874 0.3335126 -0.25065064 -0.1745917
0.32203183 -0.047551244 0.7229395 0.27382848 0.5627969 0.23090473 0.38772205 -0.32715794
-0.362211 0.060228277 -0.26169327 0.08997197 0.017769655 0.42960083 0.12041118 -0.03902955
0.0644421 -0.19174466 -0.8961605 0.70664513 -0.09704561 0.24263299 0.3593852 -0.5139402
-0.051473428 -0.48931113 -0.0834002 0.37952095 0.08569202 0.25454605 0.08979271 -0.22204511
0.2917038 0.26795763 -0.28064397 0.11555432 0.14602758 -0.3358138 0.13913558 -0.48760042
0.68270457 0.28885543 0.60044205 0.7655429 -0.8285946 0.3786078 0.19553888 0.48537344
0.42014644 0.07111231 -0.2033378 0.17589642 0.60160637 0.2581252 0.46428838 -0.5544092
00000000: a963 7abe c28d b23d 732f 3ebd f64d 99bd
00000010: bc09 d6bd 4f36 923d 128f ea3d 2387 803e
00000020: 0a89 3c3e fa13 793d eeea 923e 33ff 7c3c
00000030: 42fe e53d de4e f83d bf2c a63d f552 12be
00000040: 3f6d a6bd 88ad 72bd 26b3 683e d719 123f
00000050: 0677 99bd 9972 4abe 3826 ecbd 3530 493f
00000060: a132 bd3d 6bf5 10bd 003a 35be bfab 4dbe
00000070: 0940 29bf f242 66be 33c2 76be c644 b13d
00000080: 5bc0 323e 79cb 153e b085 043d 7a2c 4b3e
00000090: 81c1 193e 2a54 86be 3461 493e bf91 d4bc
000000a0: e69f 40bd 0580 503e 8c6f 7a3e 5f28 17bf
000000b0: 3e6a 0e3e d967 e6bd 6f09 3cbe 1048 873c
000000c0: 375b f1bd 8b54 d9bd e2d7 9c3d ad39 15be
000000d0: e826 f33c c883 10be a783 89be 3bc4 133d
000000e0: 2f95 af3e 7ede 583e a186 dabb f2ee a03c
000000f0: b1e8 53bc f9fb d1bd dad1 15be f662 1f3d
00000100: e984 97bd b9c9 91be 2d01 17be d431 db3d
00000110: 0056 1a3d 40ce 95bc c31f 493e 3157 053e
00000120: 7b94 3dbd f7eb 6cbd eb9f 033e b639 4bbd
00000130: 7e51 aabd 3130 89be 0e39 64bc c67e 843d
00000140: 98de a53d f4cd 553e 8f95 4bbe 8428 6bbe
00000150: edf2 d73d 1d9e 7fbd 4261 65be 0f25 45be
00000160: 6731 22be 67f4 a93e d6b0 943d c4a7 ab3e
00000170: 0f31 4cbd 23e9 abbd e128 81be 3963 d1bc
00000180: 5816 c93d 4705 6d3e 0ce8 1ebf 6203 0cbe
00000190: a33c 92bd d316 c6bd 5bae f33c 0ab7 4d3d
000001a0: 8a63 83be 034c 4dbe 0f98 183e c7ac 4c3e
000001b0: 6c46 ce3d 764a 89bc 944b 513e 370a 983d
000001c0: ffec 363e 8e34 eebd 22e2 0fbe 5081 11bd
000001d0: 9f39 71be 24e8 2c3e 9b66 143e 5500 433e
000001e0: 508b aebe 747b eb3d 95b3 6cbe fe01 1d3e
000001f0: 5752 7ebc 7096 2e3e 9108 283d e7c6 133e
00000200: e053 363e 3cb4 113f 5725 113f 6017 28bc
00000210: fe44 70bf 58d6 59be 8cd1 0b3f 4029 27bc
00000220: 315b 953c 49c1 d43e be2b ac3e c5df 883e
00000230: 0ef2 cabe 43f4 32bd 5bb4 7e3e 7e72 163e
00000240: 56ad 74be 7b7c 2f3e 61b8 053f 420e 183f
00000250: a425 f43e 53fd a4be 032f 2abe 038b 69bf
00000260: ecf4 d2be bb28 bcbe b875 093f de42 8e3a
00000270: e8b4 4a3e fb8b c93e 736f 403e bc0b 023f
00000280: 7758 40be 8856 913e 81c9 d33e c6fe 1cbe
00000290: 0097 2a3d 272a 21be 39f3 0e3f a750 07bf
000002a0: fcc3 3dbd 6f0b e83e 282b 86be 724c c1be
000002b0: 66ca e7be a2c6 45be 68c7 453e 6760 a33a
000002c0: a38c 23bf 8f63 e93e bc00 743f 0e56 79bb
000002d0: efcf b13e 9c37 5dbe 4857 9bbe e43b f33e
000002e0: 7e8f 943d e0ec 32bf 1869 76be 6ef4 d83e
000002f0: 6ff3 13be f167 95bd aff2 3a3e 89f4 cebe
00000300: 8990 dd3e 538c 913e cab6 19bf a737 33be
00000310: 22d6 babd 2ac2 aa3e 4855 80be 2bc8 32be
00000320: 5be1 a43e 18c5 42bd 9012 393f 3f33 8c3e
00000330: 7513 103f 4a72 6c3e 8183 c63e 3f81 a7be
00000340: b873 b9be edb1 763d a9fc 85be 3943 b83d
00000350: ab91 913c a4f4 db3e 239a f63d 73dd 1fbd
00000360: 38fa 833d b658 44be c66a 65bf b2e6 343f
00000370: d9bf c6bd c874 783e 5601 b83e 9691 03bf
00000380: cdd5 52bd fd86 fabe b9cd aabd 9250 c23e
00000390: 4c7f af3d dc53 823e 3ee5 b73d cb5f 63be
000003a0: 335a 953e be31 893e 91b0 8fbe bea7 ec3d
000003b0: 4188 153e c9ef abbe 8f79 0e3e c3a6 f9be
000003c0: bac5 2e3f dce4 933e 92b6 193f 9ffa 433f
000003d0: c71e 54bf e2d8 c13e 583b 483e de82 f83e
000003e0: 6f1d d73e 55a3 913d c937 50be 311e 343e
000003f0: e002 1a3f fc28 843e 35b7 ed3e c3ed 0dbf

lstm.bias_ih_l0 f4 [512]
-0.17545652 0.011991063 -0.13646637 -0.15902895 -0.16887966 -0.09443976 -0.052157816 -0.17289121
-0.17552327 -0.09902855 -0.049289025 -0.18808691 -0.06646818 -0.059890404 -0.22351666 -0.13469785
-0.19656807 -0.120690666 -0.1355773 -0.027127225 -0.17587057 -0.1960912 -0.11140153 0.06338758
-0.13562351 -0.056449022 0.027225213 -0.08174495 -0.13046478 -0.23563932 -0.20135319 -0.11192808
-0.19379461 0.008484065 -0.14928593 -0.137581 -0.09155377 -0.17641123 -0.11645832 -0.08941419
-0.20172556 -0.0049737883 -0.11027836 -0.13411964 -0.1373125 -0.117327236 -0.05841248 -0.1141532
0.09810587 -0.15783273 -0.104856245 -0.10556769 -0.0897622 -0.10458729 -0.15277061 -0.05290922
-0.16358025 -0.1539866 -0.13368328 -0.20264572 -0.31640568 -0.17971984 -0.06631658 -0.06147659
-0.0758514 -0.1505104 -0.036937572 -0.15855731 -0.23760736 -0.17477448 -0.09917824 -0.119677104
-0.26681125 -0.09850982 -0.21912614 -0.23546079 -0.15923774 -0.059120078 -0.07264347 -0.105577536
-0.20346875 -0.16990782 -0.08734436 -0.18175088 -0.1932587 -0.17395404 -0.11720077 -0.2617209
-0.16236065 -0.26228094 -0.07471433 -0.06917901 -0.15269423 -0.23518397 -0.045873165 -0.20950949
-0.07997721 -0.09264948 -0.14346328 -0.048982263 -0.22283275 -0.11855512 -0.08595715 -0.28759944
-0.0824515 -0.024351116 -0.062756434 -0.095923886 -0.22626077 -0.15783843 -0.19675031 -0.09643715
-0.118675366 -0.1345419 -0.10389274 -0.18580942 -0.1276022 -0.03271728 -0.084898174 -0.033784352
-0.08058322 -0.2350143 -0.15313634 -0.09006054 -0.034828696 -0.23502186 -0.09396509 -0.05451626
-0.7631744 -0.21443596 -0.3865775 -0.1297731 -0.2214381 -0.17792445 -0.56575435 0.0030705861
-0.3239236 -0.24817416 0.07338604 -0.17337374 -0.26693434 -0.19698623 -0.2917123 -0.21707283
-0.039580755 -0.17411098 -0.77834886 -0.62610406 -0.57348734 -0.2627801 0.049979303 0.046899125
-0.20015658 -0.1851573 0.100841954 -0.58006907 -0.36836448 -0.23682098 -0.19143936 -0.7646122
-0.033806495 -0.1921083 0.018918255 -0.59156716 -0.3317981 -0.036957968 -0.50494605 -0.06479338
-0.07306026 -0.43661985 -0.5453543 -0.015759505 -0.16325155 -0.46951702 -0.31850958 -0.1191517
-0.6309522 0.03569413 -0.2972572 -0.20042105 -0.06474527 -0.22942083 0.15160388 -0.33100724
-0.29860723 -0.36882868 -0.06760365 -0.33927482 -0.116558805 -0.28232875 -0.5682451 -0.00079292094
-0.35540685 -0.17982629 -0.20045805 -0.40742823 -0.117272764 -0.124406904 -0.3814536 -0.6452946
0.02045091 -0.07544407 -0.37089884 -0.03530181 -0.031582747 -0.035767313 0.08983853 -0.28092495
-0.24897341 0.074032106 -0.3871959 -0.14150251 -0.11198974 -0.11127813 -0.002597858 -0.15094243
-0.061037123 -0.30017623 -0.41823247 -0.4694366 -0.13512309 -0.09291454 -0.89046466 -0.52709264
-0.2354035 -0.43277916 -0.3316321 -0.35273504 -0.16514759 -0.0016305615 -0.08951063 -0.606571
-0.8737808 -0.3144593 -0.15462174 -0.15707058 -0.022432445 0.03937754 -0.33388272 -0.16780512
-1.020542 -0.23143075 -0.13334994 -0.40845165 -0.6003294 -0.45061585 -0.4792835 -0.46546242
-0.1405462 -0.27636525 -0.565617 -0.5285232 0.11512189 -0.032258898 -0.13298786 -0.05502067
00000000: e0aa 33be 2a76 443c d7bd 0bbe 7cd8 22be
00000010: caee 2cbe a269 c1bd 6fa3 55bd 650a 31be
00000020: 5fbc 33be 7bcf cabd 4ae3 49bd db99 40be
00000030: 7820 88bd a44f 75bd 8de1 64be 3cee 09be
00000040: 2449 49be ab2c f7bd c7d4 0abe ea39 debc
00000050: 6a17 34be 22cc 48be 7c26 e4bd 59d1 813d
00000060: e4e0 0abe 1737 67bd 6907 df3c e569 a7bd
00000070: 8f98 05be 6f4b 71be 882f 4ebe 8d3a e5bd
00000080: 1872 46be bf00 0b3c 69de 18be 09e2 0cbe
00000090: 8b80 bbbd 25a5 34be b381 eebd c91e b7bd
000000a0: 2591 4ebe 29fb a2bb 9fd9 e1bd a956 09be
000000b0: a69b 0cbe 4349 f0bd ed41 6fbd 27c9 e9bd
000000c0: bbeb c83d e79e 21be dfbe d6bd e033 d8bd
000000d0: 3fd5 b7bd dc31 d6bd e66f 1cbe 57b7 58bd
000000e0: 9581 27be aaae 1dbe 45e4 08be 5c82 4fbe
000000f0: edff a1be 7a08 38be fdd0 87bd e0ce 7bbd
00000100: fb57 9bbd 661f 1abe da4b 17bd d95c 22be
00000110: 584f 73be 15f8 32be f61d cbbd 4519 f5bd
00000120: 7c9b 88be 84bf c9bd 9a62 60be a21c 71be
00000130: 380f 23be e527 72bd 19c6 94bd 0939 d8bd
00000140: 1d5a 50be 51fc 2dbe 9ae1 b2bd e71c 3abe
00000150: 9ce5 45be 0221 32be f506 f0bd 4800 86be
00000160: df41 26be b049 86be d403 99bd baad 8dbd
00000170: e05b 1cbe 11d4 70be 80e5 3bbd a889 56be
00000180: 17cb a3bd 03bf bdbd 0ae8 12be a0a1 48bd
00000190: 452e 64be 07cd f2bd 4d0a b0bd 3c40 93be
000001a0: 55dc a8bd fe7b c7bc 7286 80bd be73 c4bd
000001b0: e7b0 67be 66a0 21be ea78 49be d780 c5bd
000001c0: 120c f3bd 5ac5 09be b8c5 d4bd d344 3ebe
000001d0: 27aa 02be 8e02 06bd 18df adbd 7661 0abd
000001e0: d108 a5bd 97a7 70be c6cf 1cbe a971 b8bd
000001f0: 89a8 0ebd 92a9 70be c570 c0bd 714c 5fbd
00000200: 665f 43bf 1a95 5bbe 7ced c5be 3de3 04be
00000210: abc0 62be d431 36be 47d5 10bf e33b 493b
00000220: 50d9 a5be 5e21 7ebe 6c4b 963d e388 31be
00000230: 9eab 88be c2b6 49be 515b 95be 5748 5ebe
00000240: 6e1f 22bd 264a 32be df41 47bf 5b48 20bf
00000250: 11d0 12bf 1d8b 86be 19b7 4c3d 4c19 403d
00000260: d9f5 4cbe e099 3dbe 3a86 ce3d 687f 14bf
00000270: 459a bcbe 3381 72be ae08 44be a0bd 43bf
00000280: ae78 0abd 0ab8 44be 75fa 9a3c f270 17bf
00000290: 71e1 a9be 3d61 17bd 2544 01bf 64b2 84bd
000002a0: 9ea0 95bd a38c dfbe 579c 0bbf 141a 81bc
000002b0: 6a2b 27be 8964 f0be b013 a3be ce05 f4bd
000002c0: 1586 21bf 0234 123d 1932 98be 2d3b 4dbe
000002d0: 2b99 84bd 4bed 6abe 0c3e 1b3e c879 a9be
000002e0: 0ce3 98be 1dd7 bcbe c873 8abd 6eb5 adbe
000002f0: 62b6 eebd 658d 90be 8378 11bf 06dc 4fba
00000300: e3f7 b5be 6224 38be e044 4dbe 6f9a d0be
00000310: b42c f0bd 0cc9 febd e34d c3be 0732 25bf
00000320: ab88 a73c 6c82 9abd 74e6 bdbe a198 10bd
00000330: e95c 01bd bf80 12bd 43fd b73d 65d5 8fbe
00000340: e3f2 7ebe 259e 973d 8a3e c6be 09e6 10be
00000350: e05a e5bd cae5 e3bd d340 2abb a790 1abe
00000360: 1002 7abd b3b0 99be 9122 d6be fe59 f0be
00000370: b55d 0abe fa49 bebd 7ef5 63bf 8bef 06bf
00000380: 9d0d 71be 3b95 ddbe afcb a9be b099 b4be
00000390: 731c 29be 91b8 d5ba 5951 b7bd 3d48 1bbf
000003a0: 19b0 5fbf cf00 a1be 2955 1ebe 1cd7 20be
000003b0: 3fc4 b7bc 584a 213d adf2 aabe 1bd5 2bbe
000003c0: 1fa1 82bf 2ffc 6cbe e38c 08be 9320 d1be
000003d0: 30af 19bf 1fb7 e6be a664 f5be 1751 eebe
000003e0: 58eb 0fbe bf7f 8dbe 47cc 10bf 4c4d 07bf
000003f0: 07c5 eb3d e821 04bd f82d 08be 5b5d 61bd

lstm.bias_hh_l0 f4 [512]
-0.052385908 -0.04680796 -0.10827709 -0.09933948 -0.0831423 -0.20940332 -0.18115135 -0.062701546
-0.109315924 -0.109384455 -0.039991684 -0.26775882 -0.09259315 -0.16759254 -0.17877086 -0.19935465
-0.090895034 -0.15797815 -0.14849578 -0.18971708 -0.09649998 -0.11819929 -0.22430417 0.006892813
-0.04984368 -0.06911182 -0.0612321 -0.058472026 -0.027652191 -0.17040135 -0.11294536 -0.0070049525
-0.19310606 -0.098071806 -0.07141194 -0.07400605 -0.25172156 -0.06429389 -0.17921467 -0.017755192
-0.31144312 -0.15182908 -0.15582292 -0.08245548 -0.08473329 -0.15333399 -0.1423896 -0.27060413
-0.032953795 -0.030745676 -0.044377264 -0.12689134 -0.078741424 -0.19239593 -0.023151414 -0.13261878
-0.16539304 -0.17790172 -0.18939091 -0.13192299 -0.19564523 -0.12706114 -0.22444656 -0.124606445
-0.11704799 -0.11568412 -0.013900053 -0.12857443 -0.15528464 -0.11589267 -0.10607231 -0.17466968
-0.22587994 -0.14636983 -0.15301836 -0.13033763 -0.11181162 -0.021191895 -0.04397811 -0.22494781
-0.10961084 -0.1745341 -0.060633864 -0.17372419 -0.18039155 -0.07370143 -0.13080208 -0.100217916
-0.1388226 -0.11970639 -0.07723655 -0.103178725 -0.13940632 -0.200292 -0.1915524 -0.15622523
-0.042587616 -0.19178978 -0.018688444 -0.14670146 -0.1311336 -0.1072228 -0.05514319 -0.19678241
-0.10126402 0.038213737 -0.14686276 -0.041639615 -0.22071938 -0.05926386 -0.10491576 -0.11835573
-0.08985114 -0.14736426 -0.03087447 -0.17159285 -0.073582456 -0.021301625 -0.15672094 -0.1849933
-0.14780276 -0.22457261 -0.013934518 -0.1626292 -0.056933213 -0.17204684 -0.10692493 -0.09561697
-0.81015706 -0.22146669 -0.42914486 -0.058513943 -0.20258875 -0.019559963 -0.50008607 -0.033902463
-0.38009423 -0.30847138 0.09363048 -0.10509091 -0.27804142 -0.096035846 -0.2749839 -0.13301583
-0.019512318 -0.109030984 -0.64945227 -0.54935896 -0.4515608 -0.115934074 -0.008648046 0.13777332
-0.20162107 -0.12530406 -0.050286233 -0.47384706 -0.374899 -0.23790877 -0.3460389 -0.9040853
0.012725063 -0.20670068 -0.099698566 -0.4849585 -0.25783962 -0.03344242 -0.5548557 -0.15480724
-0.15224177 -0.46377173 -0.5322537 -0.07664999 -0.13697919 -0.49942312 -0.3019448 -0.07203582
-0.74194866 -0.06726478 -0.29868397 -0.17652799 -0.1376539 -0.19744222 0.10034254 -0.38519388
-0.39633775 -0.29747805 -0.16158742 -0.30178845 -0.06526099 -0.37548348 -0.64710754 -0.05214264
-0.22992127 -0.20177966 -0.056824148 -0.5159472 -0.12891892 -0.22158961 -0.37005016 -0.7241244
0.02728102 -0.04134953 -0.34868228 -0.013007515 -0.1262373 -0.124333896 0.07619367 -0.25811425
-0.2988909 0.025078606 -0.43100965 -0.12751336 -0.21794282 -0.046217415 0.033084337 -0.16009991
-0.02764501 -0.40805033 -0.40073267 -0.3558575 -0.12869464 0.008022241 -0.983945 -0.58068395
-0.23279555 -0.5574909 -0.4035788 -0.3431449 -0.16869815 0.06166337 -0.16014598 -0.511054
-0.7649651 -0.3445895 -0.188471 -0.20388904 -0.043896742 -0.09626654 -0.2904617 -0.09100338
-1.0243388 -0.13596733 -0.025961172 -0.54899424 -0.6220552 -0.54036605 -0.61067945 -0.39538315
-0.15590435 -0.26185903 -0.5821963 -0.5538655 0.14192624 -0.024967555 -0.1763961 0.025770415
00000000: 9b92 56bd b4b9 3fbd 61c0 ddbd 7f72 cbbd
00000010: 8346 aabd d36d 56be bd7f 39be ab69 80bd
00000020: 07e1 dfbd f504 e0bd 52ce 23bd af17 89be
00000030: 7aa1 bdbd 619d 2bbe b50f 37be a023 4cbe
00000040: 2d27 babd 06c5 21be 470f 18be 3245 42be
00000050: c8a1 c5bd 7812 f2bd feaf 65be 1bdd e13b
00000060: e328 4cbd 7f8a 8dbd 83ce 7abd 5d80 6fbd
00000070: d986 e2bc b17d 2ebe e64f e7bd cd89 e5bb
00000080: 98bd 45be dfd9 c8bd 6c40 92bd 7c90 97bd
00000090: a6e1 80be 84ac 83bd 0d84 37be 5673 91bc
000000a0: 7975 9fbe 1579 1bbe 0b90 1fbe 6bde a8bd
000000b0: a688 adbd 9603 1dbe 94ce 11be a08c 8abe
000000c0: 8ffa 06bd 5bde fbbc efc4 35bd ceef 01be
000000d0: 2f43 a1bd 7003 45be 09a8 bdbc 38cd 07be
000000e0: cb5c 29be de2b 36be b1ef 41be d216 07be
000000f0: 3957 48be 511c 02be 52d5 65be aa31 ffbd
00000100: dbb6 efbd cceb ecbd 0cbd 63bc 04a9 03be
00000110: f002 1fbe 2359 edbd 703c d9bd 9cdc 32be
00000120: 124d 67be f9e1 15be d8b0 1cbe 3a77 05be
00000130: 7efd e4bd a09a adbc 6422 34bd b858 66be
00000140: a67b e0bd 11b9 32be 375b 78bd c1e4 31be
00000150: 90b8 38be c6f0 96bd fbf0 05be 0d3f cdbd
00000160: 8327 0ebe a028 f5bd 322e 9ebd 5e4f d3bd
00000170: 88c0 0ebe 5919 4dbe 5026 44be 82f9 1fbe
00000180: 5a70 2ebd 8a64 44be 8218 99bc e838 16be
00000190: e347 06be a197 dbbd d3dd 61bd 5481 49be
000001a0: 8363 cfbd 0286 1c3d 3163 16be 4d8e 2abd
000001b0: 4304 62be a9be 72bd 13de d6bd 7d64 f2bd
000001c0: e003 b8bd a8e6 16be 75ec fcbc 09b6 2fbe
000001d0: 66b2 96bd bf80 aebc 747b 20be e26e 3dbe
000001e0: 9b59 17be 5df6 65be 9b4d 64bc 4588 26be
000001f0: cd32 69bd 0c2d 30be 75fb dabd d4d2 c3bd
00000200: 7466 4fbf 2ac8 62be e0b8 dbbe 51ac 6fbd
00000210: 6d73 4fbe 373c a0bc a405 00bf 4fdd 0abd
00000220: b69b c2be f6ef 9dbe 56c1 bf3d e739 d7bd
00000230: 725b 8ebe 71ae c4bd b1ca 8cbe 4d35 08be
00000240: 4cd8 9fbc a34b dfbd 8142 26bf caa2 0cbf
00000250: fa32 e7be d86e edbd 89b0 0dbc 7314 0d3e
00000260: c175 4ebe b54f 00be f0f8 4dbd 159c f2be
00000270: c3f2 bfbe 5b9e 73be 032c b1be 2272 67bf
00000280: c87c 503c 58a9 53be c32e ccbd 7b4c f8be
00000290: 8e03 84be ebfa 08bd 060b 0ebf ca85 1ebe
000002a0: 44e5 1bbe 7d73 edbe c741 08bf acfa 9cbd
000002b0: 4644 0cbe 63b4 ffbe 8298 9abe 8487 93bd
000002c0: 59f0 3dbf 1ec2 89bd 1bed 98be c1c3 34be
000002d0: 25f5 0cbe 4b2e 4abe 6480 cd3d 2238 c5be
000002e0: c8ec cabe 0b4f 98be 2c77 25be 0484 9abe
000002f0: 8ea7 85bd 5f3f c0be d7a8 25bf 8593 55bd
00000300: 7b70 6bbe 549f 4ebe 70c0 68bd 1e15 04bf
00000310: 5203 04be 63e8 62be 3777 bdbe 3760 39bf
00000320: 727c df3c 205e 29bd 7c86 b2be 791d 55bc
00000330: 5a44 01be c5a2 febd 6d0b 9c3d 8d27 84be
00000340: 3a08 99be a671 cd3c 4cad dcbe dd92 02be
00000350: 672c 5fbe 794e 3dbd 7183 073d 3bf1 23be
00000360: ca77 e2bc f9eb d0be d52c cdbe f432 b6be
00000370: 87c8 03be b86f 033c d2e3 7bbf b4a7 14bf
00000380: f561 6ebe b9b7 0ebf e1a1 cebe b0b0 afbe
00000390: 35bf 2cbe bb92 7c3d 4ffd 23be 6fd4 02bf
000003a0: c1d4 43bf 096e b0be 8bfe 40be 4ac8 50be
000003b0: 12cd 33bd 6427 c5bd 65b7 94be fb5f babd
000003c0: 891d 83bf 053b 0bbe 86ac d4bc e38a 0cbf
000003d0: 023f 1fbf 6e55 0abf 7d55 1cbf a96f cabe
000003e0: 64a5 1fbe 6312 86be d10a 15bf 21ca 0dbf
000003f0: 1d55 113e c288 ccbc 2ea1 34be 7a1c d33c

lstm.weight_ih_l1 f4 [512, 128]
-0.19208853 -0.00905662 -0.117078215 -0.096817486 0.17485635 0.13680388 0.13033524 0.17227863
0.13814294 -0.17737801 -0.00445619 -0.049248863 0.029155878 0.104582444 -0.06763213 -0.0744244
-0.0043721492 -0.2641802 0.024743289 0.0027042404 -0.122447535 0.12554345 0.043433156 0.30923373
0.07258738 -0.025463266 -0.29390618 -0.17041652 -0.0008810036 -0.16830909 -0.22166352 0.26930636
0.16375312 0.1415206 -0.1175036 0.040268663 -0.07115201 0.12813485 -0.010340494 0.14387956
-0.008098632 -0.1269255 -0.09296312 -0.20983166 0.3217707 -0.10821851 -0.14795183 0.07798846
0.25511384 -0.043232407 -0.16390513 -0.066500746 0.13662396 -0.12690802 -0.098057725 0.07554466
-0.119952925 0.098384015 0.1476217 0.031259086 -0.05464829 0.11050275 -0.16320482 0.12405156
-0.027782137 -0.24354222 -0.01796934 -0.2931446 -0.045410186 -0.21346381 0.12768023 0.17436883
0.0008067158 -0.0038904343 0.09177848 -0.04861963 -0.37090012 -0.19994752 -0.012727841 0.089093745
-0.17695765 0.10196111 0.18648462 -0.02034322 -0.04346504 -0.09596367 -0.07021942 -0.044668816
0.02639021 0.091299966 0.0944864 -0.06274409 0.10429187 -0.026417542 0.16717102 -0.039416574
0.037261054 0.024316108 0.038818292 -0.41516894 -0.31689894 0.016172817 -0.040670484 0.21444078
0.3336016 -0.1364305 0.09148809 0.11471967 -0.10898185 0.054663755 -0.19514869 0.08629314
0.066282354 -0.0659152 -0.11227326 0.041653574 -0.023582682 -0.0005172513 -0.108965136 -0.18272203
-0.26686805 -0.07342487 -0.0053143105 0.060123265 0.03483265 -0.019145867 0.0730064 -0.004703383
-0.1631967 -0.08520086 -0.13960265 0.01796819 0.025730822 0.23147719 -0.029882932 0.030580144
-0.02331202 -0.10693727 -0.08446136 0.3444844 0.26430377 -0.10919144 -0.020806868 0.02750355
0.018719109 -0.10132486 0.005592333 -0.22124113 -0.37371352 -0.15359765 0.14450465 0.0032241847
-0.05155826 -0.046862457 -0.08102229 0.09696742 0.005246303 -0.053539075 0.16619587 0.026625253
0.09649849 0.14359279 -0.119932175 0.05227654 -0.29697335 -0.046443235 -0.059084155 -0.10737866
-0.3174338 0.010119298 -0.09267306 0.006235627 0.050291717 0.040660273 -0.007814896 -0.18635006
0.17102821 0.06453651 0.014392798 0.15225703 -0.16441755 -0.124074616 0.16700384 -0.17653435
0.14182371 0.11966434 -0.051458504 0.06977296 -0.20412956 -0.10096855 -0.011532736 -0.060860503
-0.06621136 -0.063778736 0.028520046 -0.047040686 0.07036155 -0.1357697 -0.013550293 0.18313444
-0.11029434 -0.036717072 0.091623455 -0.087180644 0.0107496455 -0.061821986 0.10173841 -0.100155264
0.2806112 0.17430729 0.28662938 -0.12938167 0.25606114 0.0015147767 0.115251645 -0.09822781
-0.04515742 -0.088426515 0.03363745 -0.099434085 -0.17129047 -0.13636297 0.04879234 0.03774973
0.081074685 0.13777529 -0.05541564 -0.1959358 -0.02607762 0.074892506 0.26656598 -0.09172439
0.010857934 0.1591663 0.00086551893 -0.038166158 -0.05672173 -0.14233065 0.018085513 0.04304814
0.09408308 -0.11404584 -0.0646939 -0.041229974 0.24470046 -0.024776166 -0.16342054 -0.20382766
0.115184724 0.020723622 0.14655997 -0.16318974 -0.016329013 0.19738273 0.07425368 0.020667795
00000000: dbb2 44be 3862 14bc b4c6 efbd 3f48 c6bd
00000010: 8b0d 333e 5116 0c3e 9a76 053e cf69 303e
00000020: 5875 0d3e 95a2 35be 3b05 92bb 2db9 49bd
00000030: 4fd8 ee3c 522f d63d b782 8abd d26b 98bd
00000040: 3f44 8fbb a142 87be 70b2 ca3c a039 313b
00000050: c6c5 fabd 768e 003e f7e6 313d e253 9e3e
00000060: b1a8 943d 5798 d0bc df7a 96be ab81 2ebe
00000070: 27f3 66ba 3859 2cbe c3fb 62be 86e2 893e
00000080: e6ae 273e c7ea 103e baa5 f0bd c1f0 243d
00000090: 25b8 91bd c835 033e 2d6b 29bc 2a55 133e
000000a0: 20b0 04bc c2f8 01be 7363 bebd 1cde 56be
000000b0: 21bf a43e aba1 ddbd af80 17be 6ab8 9f3d
000000c0: 489e 823e 7714 31bd bfd6 27be 8b31 88bd
000000d0: 27e7 0b3e 2df4 01be 7dd2 c8bd 29b7 9a3d
000000e0: e1a9 f5bd 8f7d c93d 252a 173e 8709 003d
000000f0: e3d6 5fbd 444f e23d 2a1f 27be bf0e fe3d
00000100: 5d97 e3bc 2263 79be 7034 93bc 0d17 96be
00000110: 0800 3abd 4296 5abe 9bbe 023e be8d 323e
00000120: c879 533a a8f6 7ebb 5bf6 bb3d 6125 47bd
00000130: 9fe6 bdbe 0bbf 4cbe 6f88 50bc c876 b63d
00000140: 6334 35be fdd0 d03d d3f5 3e3e d3a6 a6bc
00000150: 6608 32bd 9a88 c4bd 33cf 8fbd a6f6 36bd
00000160: 4830 d83c 7afb ba3d 1682 c13d f97f 80bd
00000170: fa96 d53d 9a69 d8bc e12e 2b3e 4673 21bd
00000180: 0c9f 183d 9332 c73c eeff 1e3d 0691 d4be
00000190: 9440 a2be db7c 843c 1896 26bd 5d96 5b3e
000001a0: d4cd aa3e 70b4 0bbe 1c5e bb3d 25f2 ea3d
000001b0: e031 dfbd 1ae7 5f3d 0fd5 47be 75ba b03d
000001c0: 0bbf 873d 8cfe 86bd 86ef e5bd f09c 2a3d
000001d0: 7830 c1bc 2698 07ba 1d29 dfbd 7c1b 3bbe
000001e0: eea2 88be c75f 96bd ab23 aebb d043 763d
000001f0: aeac 0e3d cbd7 9cbc 6184 953d d61e 9abb
00000200: 091d 27be ca7d aebd fff3 0ebe 0732 933c
00000210: 72c9 d23c 5b08 6d3e 0dcd f4bc 3683 fa3c
00000220: d9f8 bebc ed01 dbbd 14fa acbd 4260 b03e
00000230: d352 873e c39f dfbd 2a73 aabc 204f e13c
00000240: d158 993c 6883 cfbd e43f b73b 098d 62be
00000250: 6157 bfbe b448 1dbe 07f9 133e d84c 533b
00000260: c12e 53bd d9f2 3fbd 04ef a5bd db96 c63d
00000270: 2ee9 ab3b ca4b 5bbd 402f 2a3e 341d da3c
00000280: 00a1 c53d fd09 133e 009f f5bd ed1f 563d
00000290: e40c 98be 433b 3ebd 3a02 72bd 58e9 dbbd
000002a0: af86 a2be 69cb 253c 60cb bdbd 3b54 cc3b
000002b0: b0fe 4d3d 638b 263d 0d0a 00bc 8dd2 3ebe
000002c0: 0522 2f3e b82b 843d c5cf 6b3c 44e9 1b3e
000002d0: 135d 28be d51a febd 0e03 2b3e 6cc5 34be
000002e0: 3c3a 113e 9412 f53d 27c6 52bd 20e5 8e3d
000002f0: 5707 51be 99c8 cebd cdf3 3cbc dd48 79bd
00000300: d299 87bd 6d9e 82bd dfa2 e93c bcad 40bd
00000310: b719 903d 3607 0bbe 0c02 5ebc 9887 3b3e
00000320: 00e2 e1bd a464 16bd 14a5 bb3d c48b b2bd
00000330: 481f 303c 0d39 7dbd 3a5c d03d 341e cdbd
00000340: 45ac 8f3e 9c7d 323e 16c1 923e a17c 04be
00000350: 721a 833e 798b c63a 0e09 ec3d a92b c9bd
00000360: fdf6 38bd f618 b5bd 6cc7 093d 19a4 cbbd
00000370: c566 2fbe bca2 0bbe 7ada 473d 769f 1a3d
00000380: 7c0a a63d f714 0d3e 83fb 62bd 65a3 48be
00000390: bca0 d5bc 3e61 993d 567b 883e ffd9 bbbd
000003a0: 7ae5 313c 7efc 223e fee3 623a 1e54 1cbd
000003b0: 0b55 68bd 20bf 11be 1228 943c 3f53 303d
000003c0: a1ae c03d de90 e9bd 3c7e 84bd c3e0 28bd
000003d0: c292 7a3e 63f7 cabc b757 27be 33b8 50be
000003e0: f8e5 eb3d 96c4 a93c d113 163e 361b 27be
000003f0: 6cc4 85bc b31e 4a3e 5012 983d 824f a93c

lstm.weight_hh_l1 f4 [512, 128]
-0.12539735 -0.21149714 0.2989075 -0.24123888 -0.15894632 0.06253326 0.2575512 -0.41886562
0.1644302 -0.14845882 -0.19776346 0.40424082 -0.1511009 -0.22661535 -0.002325385 -0.029618837
-0.26720947 -0.2478649 0.3458533 0.17295238 -0.019664412 0.2829486 0.45932266 0.034326166
-0.011158421 0.12478397 0.05694501 0.0047414363 -0.33456302 -0.46228227 -0.31520224 -0.0866544
-0.3702479 -0.33948627 0.17586815 0.07130806 -0.10639842 0.09508118 -0.35629964 0.19510135
0.16870682 0.16393556 -0.5080973 -0.09158742 -0.44569382 -0.03840957 0.1062491 0.3450859
-0.21538001 -0.10452979 -0.0610716 0.5499285 -0.43152115 0.056325804 -0.14098266 0.34175283
0.24667062 0.37261727 -0.041198753 0.38823473 -0.04134707 -0.3825399 -0.21471666 -0.1246181
0.2860059 0.09456596 0.036794268 -0.18085727 -0.09146202 0.11062657 -0.44169396 -0.060366914
0.11865905 -0.29297605 -0.46348232 -0.42661473 0.08738351 -0.32683504 0.1049329 -0.40609473
-0.23448655 0.13455853 0.66734236 -0.47161332 -0.21919025 -0.08901267 -0.052760165 -0.012198692
-0.13346966 -0.34117123 0.24043626 0.42389852 -0.31157032 -0.14229642 0.26847428 -0.15987694
-0.046868365 0.34561035 0.38187143 -0.03007358 -0.011515755 -0.33374557 -0.004657501 0.45595214
-0.054199982 0.16096027 -0.05195893 0.1954011 -0.38958025 0.5521703 -0.015267512 0.13927077
0.21093652 0.16574816 -0.05311169 0.072857656 -0.10708169 -0.08389357 0.13445659 0.47960427
-0.032441292 -0.35282198 0.04072714 -0.4508987 0.23183091 0.076659694 -0.20404784 -0.43573233
0.0768183 0.051448766 0.3237462 0.005251649 -0.34293172 -0.013205464 0.08405821 -0.28952414
0.05506755 0.12437782 -0.18213332 0.29915166 -0.0709503 -0.26326567 -0.008869908 -0.19859672
-0.31056648 -0.17879473 0.18501525 0.16523388 -0.00090437254 0.25624698 0.25514573 -0.13609155
-0.21660362 0.08298276 0.17954823 0.040313777 -0.34920982 -0.3793753 -0.26073352 -0.042732555
-0.32102695 -0.14196652 0.20110555 -0.009168841 -0.06039868 0.15332581 -0.46498466 0.13715899
0.13985181 0.059479255 -0.2793881 0.072494276 -0.25952116 -0.2016958 0.1713204 0.29904795
-0.18524542 0.12172615 -0.06398778 0.15279384 -0.27766827 -0.1856512 -0.13530754 0.18968219
0.39911577 0.40990263 0.14842832 0.28972322 -0.06661482 -0.15545376 -0.03753523 -0.04084603
0.34989253 0.19431031 0.07073119 0.005372652 0.15867689 0.2501783 -0.30673453 -0.1229639
0.05612851 -0.26951778 -0.21296693 -0.21973637 0.16822325 -0.08619586 0.04136945 -0.17710382
-0.3329299 0.1688443 0.11221031 -0.15380487 -0.03473481 -0.18816473 -0.20500037 0.05390354
0.064797245 -0.12632082 0.057264358 0.24861665 0.007275848 -0.03552438 -0.03455265 0.07411911
-0.022678033 0.16933489 0.49875206 0.071471475 -0.17220147 -0.18901195 -0.16496181 0.115225054
-0.16058019 0.0039229146 -0.021688813 0.10443078 -0.20054607 0.15512323 0.05592528 0.20660605
-0.08531535 0.14000636 -0.22008081 0.038751367 -0.003014693 0.13762641 0.14806303 0.117632955
0.14519544 -0.0964245 0.081277 -0.2042147 0.31678894 0.039100487 -0.18656677 -0.28875554
00000000: 2a68 00be b592 58be 670a 993e 5307 77be
00000010: d3c2 22be 7011 803d c0dd 833e 8e75 d6be
00000020: 6460 283e 9705 18be 8182 4abe a7f8 ce3e
00000030: 32ba 1abe db0d 68be 7d65 18bb 34a3 f2bc
00000040: aecf 88be 4cd0 7dbe af13 b13e 6e1a 313e
00000050: 4317 a1bc a4de 903e 572c eb3e 9899 0c3d
00000060: cfd1 36bc bd8e ff3d 2c3f 693d 0d5e 9b3b
00000070: d84b abbe 43b0 ecbe 3062 a1be dd77 b1bd
00000080: 2291 bdbe 25d1 adbe c816 343e f609 923d
00000090: 6ae7 d9bd ecb9 c23d e86c b6be a6c8 473e
000000a0: 7bc1 2c3e b9de 273e aa12 02bf 2f92 bbbd
000000b0: fb31 e4be 5a53 1dbd 2199 d93d 19af b03e
000000c0: 948c 5cbe b713 d6bd 3726 7abd 1dc8 0c3f
000000d0: 57f0 dcbe e3b5 663d c25d 10be 3afa ae3e
000000e0: 3997 7c3e b1c7 be3e 06c0 28bd b4c6 c63e
000000f0: 8c5b 29bd 45dc c3be afde 5bbe c637 ffbd
00000100: 5e6f 923e ccab c13d 96b5 163d a632 39be
00000110: 7150 bbbd 2f90 e23d b625 e2be 4c43 77bd
00000120: 8403 f33d f500 96be 8e4d edbe 3f6d dabe
00000130: 20f6 b23d ec56 a7be 0fe7 d63d a6eb cfbe
00000140: 3e1d 70be b6c9 093e f3d6 2a3f 4d77 f1be
00000150: 6973 60be 464c b6bd 0b1b 58bd 06dd 47bc
00000160: 45ac 08be ffad aebe ec34 763e 3a09 d93e
00000170: 2586 9fbe 27b6 11be 7675 893e c8b6 23be
00000180: 0bf9 3fbd d7f3 b03e a784 c33e de5c f6bc
00000190: 94ac 3cbc b3e0 aabe f39d 98bb 8f72 e93e
000001a0: cd00 5ebd c5d2 243e e3d2 54bd 3a17 483e
000001b0: 1077 c7be 085b 0d3f 9624 7abc ff9c 0e3e
000001c0: beff 573e e3b9 293e a58b 59bd 6536 953d
000001d0: a54d dbbd 64d0 abbd fdae 093e b18e f53e
000001e0: 29e1 04bd 15a5 b4be 80d1 263d 32dc e6be
000001f0: 1565 6d3e c2ff 9c3d ebf1 50be 4f18 dfbe
00000200: ea52 9d3d f1bb 523d 10c2 a53e 0616 ac3b
00000210: bf94 afbe bb5b 58bc b626 ac3d 823c 94be
00000220: 838e 613d ccb9 fe3d 2881 3abe 682a 993e
00000230: 644e 91bd c2ca 86be 1753 11bc f05c 4bbe
00000240: 9202 9fbe f715 37be a374 3d3e 1233 293e
00000250: 6a13 6dba ce32 833e 76a2 823e 955b 0bbe
00000260: 57cd 5dbe def2 a93d 7edb 373e 0f20 253d
00000270: a1cb b2be 7b3d c2be dd7e 85be 5508 2fbd
00000280: a55d a4be ac5f 11be 9dee 4d3e e838 16bc
00000290: 9b64 77bd 7101 1d3e 7812 eebe 6873 0c3e
000002a0: 5035 0f3e 85a0 733d f50b 8fbe e177 943d
000002b0: f5df 84be 5889 4ebe 9d6e 2f3e d01c 993e
000002c0: fab0 3dbe 8f4b f93d 060c 83bd fd75 1c3e
000002d0: 892a 8ebe 591b 3ebe 0f8e 0abe 0c3c 423e
000002e0: e758 cc3e c2de d13e 98fd 173e 9a56 943e
000002f0: 5a6d 88bd 452f 1fbe 8bbe 19bd 2b4e 27bd
00000300: 1d25 b33e 48f9 463e 84db 903d 120d b03b
00000310: 327c 223e 5f17 803e 4f0c 9dbe 7fd4 fbbd
00000320: 02e7 653d 3cfe 89be 0114 5abe 9202 61be
00000330: b742 2c3e 7487 b0bd 0373 293d b45a 35be
00000340: ca75 aabe 85e5 2c3e 85ce e53d 067f 1dbe
00000350: 1746 0ebd 41ae 40be 9eeb 51be f5c9 5c3d
00000360: 6bb4 843d 3f5a 01be 088e 6a3d 5d95 7e3e
00000370: 3d6a ee3b 0382 11bd 1487 0dbd c3cb 973d
00000380: 48c7 b9bc 2066 2d3e 6e5c ff3e a35f 923d
00000390: 9555 30be 598c 41be c0eb 28be 1dfb eb3d
000003a0: 226f 24be cb8b 803b bdac b1bc cedf d53d
000003b0: f35b 4dbe a0d8 1e3e e811 653d 8990 533e
000003c0: d0b9 aebd d45d 0f3e dd5c 61be c1b9 1e3d
000003d0: 2892 45bb f0ed 0c3e d69d 173e 8ce9 f03d
000003e0: 1dae 143e 357a c5bd 8e74 a63d a91d 51be
000003f0: 2932 a23e d527 203d 5c0b 3fbe c4d7 93be

lstm.bias_ih_l1 f4 [512]
-0.10145837 -0.19791262 -0.2708167 -0.03788324 -0.08613601 -0.25356698 -0.16003649 0.0766817
-0.25527495 -0.25301433 -0.2497454 0.15143965 -0.16039671 -0.078251936 -0.17132223 -0.22541091
0.030186985 -0.18485841 0.10484861 -0.28932002 -0.3423303 -0.120147176 0.070575126 -0.31296125
-0.29517144 -0.21273333 -0.16502224 -0.2555918 -0.19629575 -0.29167318 -0.03896726 -0.15565327
-0.055241488 0.09837295 -0.22743988 0.013759568 -0.32515165 -0.078815274 -0.25943977 -0.2979914
-0.32115513 -0.26080447 0.19222994 -0.06979812 0.3778992 -0.2107712 -0.28284246 -0.23248436
-0.2916246 -0.084552795 -0.41867402 0.2759896 -0.19551997 -0.14039388 -0.30908695 -0.13151217
-0.26203322 -0.32432333 -0.38317955 -0.21167505 -0.3768723 0.044290878 -0.06536042 -0.24126998
-7.772552e-05 -0.14119275 -0.027336674 -0.28654975 -0.12518868 -0.31791186 0.02529128 -0.47266814
-0.5323468 -0.23432313 0.03402045 -0.07223501 -0.20628542 -0.32825476 -0.24939819 -0.31231824
-0.19868141 -0.07907217 0.075067565 0.24490097 -0.17228973 -0.23558104 -0.3543148 -0.14276803
-0.14915405 -0.21109994 -0.11586181 0.10222576 -0.083920814 -0.1809317 -0.0810938 -0.15784009
-0.3040714 -0.22641526 -0.15022197 -0.2992887 -0.16303685 0.052308332 -0.17275086 -0.2326333
-0.39240932 -0.18806893 -0.2324473 -0.15665452 -0.2531006 -0.03711541 -0.17328548 -0.32244438
-0.28295958 -0.19254896 -0.24066265 -0.2076111 -0.4479142 -0.29933697 -0.27668998 0.27395242
-0.19551301 -0.2570733 -0.114737876 0.24002887 -0.34148818 -0.28833264 -0.2704047 -0.08942018
0.0773795 -0.054399326 0.21340747 0.07204016 -0.22295007 -0.30667317 -0.054878898 0.11963766
0.026947469 0.011755334 -0.05384409 0.20997174 0.094824016 -0.17915049 -0.091523655 -0.12202662
-0.32409298 -0.191274 0.24072482 -0.2283037 -0.18660602 -0.03496375 0.17250995 -0.14648505
-0.08384271 -0.009332577 -0.045050688 -0.10042581 -0.29375783 0.11539184 -0.33535573 -0.23945665
-0.2779153 0.091181055 -0.097990535 0.010130551 -0.1265377 -0.0008450811 -0.550507 -0.052431367
-0.08882693 -0.1311913 0.2686473 0.08762912 0.23806652 0.014604731 -0.08917638 -0.41857287
-0.118968174 0.070682034 -0.23754351 0.25713855 -0.22662169 -0.04818067 -0.24829164 0.04807783
-0.37047863 -0.18932045 -0.22065009 -0.3192938 -0.073856875 0.23259479 -0.107215665 0.010254961
0.028166307 -0.027905438 0.13761142 -0.12533247 0.031423897 0.09298203 0.1875104 -0.2699832
-0.44803327 -0.049268067 -0.23375686 -0.083761185 -0.083900414 -0.2845921 -0.190292 -0.34887704
-0.011151458 0.024102297 0.15701075 0.29683986 0.033319913 -0.013431016 -0.22764127 0.08823574
-0.17710982 0.0042140675 -0.067013875 0.084336676 0.1704519 0.010430561 0.09827339 -0.08847835
-0.1536526 -0.02170803 -0.22228974 -0.20915121 -0.089724846 -0.20923924 -0.06666464 -0.065751135
-0.11116441 0.0104727335 -0.054435622 -0.08444718 -0.2599653 0.14816198 -0.19411422 -0.33801296
0.048666265 0.08602871 0.13469245 -0.16252191 -0.024893738 -0.11445791 -0.25147048 0.0878398
0.14130084 0.049997002 -0.0567305 0.2871027 -0.33677924 -0.20068888 -0.15202521 -0.12890446
00000000: 68c9 cfbd 9ba9 4abe 7da8 8abe 752b 1bbd
00000010: 1468 b0bd 88d3 81be 9be0 23be 4c0b 9d3d
00000020: 66b3 82be 188b 81be 42bd 7fbe ff12 1b3e
00000030: 093f 24be 8d42 a0bd 186f 2fbe 1ed2 66be
00000040: b24a f73c 864b 3dbe deba d63d c121 94be
00000050: eb45 afbe b90f f6bd b189 903d 753c a0be
00000060: b620 97be c4d6 59be 97fb 28be eedc 82be
00000070: c101 49be 3056 95be 229c 1fbd 9263 1fbe
00000080: e644 62bd c277 c93d 00e6 68be d06f 613c
00000090: 477a a6be e769 a1bd 4ad5 84be 5492 98be
000000a0: 726e a4be 2a88 85be edd7 443e 51f2 8ebd
000000b0: 017c c13e 68d4 57be bad0 90be 6110 6ebe
000000c0: d24f 95be 042a adbd 715c d6be 824e 8d3e
000000d0: 6336 48be 6ac3 0fbe a540 9ebe 20ab 06be
000000e0: 3829 86be b50d a6be 1c30 c4be 58c1 58be
000000f0: 68f5 c0be 5a6a 353d afdb 85bd 7a0f 77be
00000100: 9200 a3b8 d594 10be 29f1 dfbc a6b6 92be
00000110: 7631 00be 58c5 a2be a92f cf3c 8f01 f2be
00000120: e147 08bf 67f2 6fbe 0759 0b3d f3ef 93bd
00000130: 7c3c 53be 0211 a8be 3d62 7fbe 2de8 9fbe
00000140: 2473 4bbe 97f0 a1bd 06bd 993d 52c7 7a3e
00000150: b86c 30be 283c 71be c068 b5be c831 12be
00000160: d7bb 18be 952a 58be f548 edbd bd5b d13d
00000170: adde abbd 2946 39be 8214 a6bd d5a0 21be
00000180: 3faf 9bbe 67d9 67be cad3 19be 5e3c 99be
00000190: 22f3 26be 4341 563d 9ae5 30be 6c37 6ebe
000001a0: e0e9 c8be 2495 40be aa06 6ebe 0b6a 20be
000001b0: 6796 81be 5406 18bd c071 31be 6e17 a5be
000001c0: 14e0 90be 8e2b 45be 4570 76be 0198 54be
000001d0: 0355 e5be b242 99be 4faa 8dbe 7e43 8c3e
000001e0: 9034 48be 1d9f 83be b1fb eabd 21ca 753e
000001f0: 8ad7 aebe 56a0 93be 7c72 8abe ed21 b7bd
00000200: 2579 9e3d d4d1 5ebd 7d87 5a3e cb89 933d
00000210: 064d 64be 4404 9dbe b2c8 60bd 9704 f53d
00000220: f0c0 dc3c 7299 403c 9f8b 5cbd d502 573e
00000230: 1833 c23d 3a73 37be c170 bbbd 18e9 f9bd
00000240: 84ef a5be 55dd 43be 9180 763e 72c8 69be
00000250: a615 3fbe 2636 0fbd 73a6 303e 2d00 16be
00000260: bab5 abbd aae7 18bc 1287 38bd 0cac cdbd
00000270: 6d67 96be 8f52 ec3d bfb3 abbe 2034 75be
00000280: ea4a 8ebe 22bd ba3d 43af c8bd 9cfa 253c
00000290: 1993 01be 6f88 5dba 07ee 0cbf 46c2 56bd
000002a0: e5ea b5bd 0357 06be 248c 893e e576 b33d
000002b0: b6c7 733e af48 6f3c 1ba2 b6bd 2f4f d6be
000002c0: 96a5 f3bd bec1 903d 9b3e 73be aaa7 833e
000002d0: 840f 68be 1859 45bd 2a40 7ebe 42ed 443d
000002e0: 60af bdbe 38dd 41be 19f2 61be 7a7a a3be
000002f0: 4642 97bd 542d 6e3e e393 dbbd 6d04 283c
00000300: 07bd e63c f299 e4bc 02ea 0c3e 2857 00be
00000310: 58b6 003d 5d6d be3d ba02 403e 3d3b 8abe
00000320: 9e64 e5be 50cd 49bd f55d 6fbe fc8a abbd
00000330: fbd3 abbd 0eb6 91be e8db 42be 03a0 b2be
00000340: 9bb4 36bc 2e72 c53c 6dc7 203e 65fb 973e
00000350: 767a 083d c40d 5cbc cb1a 69be f1b4 b43d
00000360: 475c 35be 2916 8a3b 923e 89bd b5b8 ac3d
00000370: f18a 2e3e f2e4 2a3c 8f43 c93d 2334 b5bd
00000380: 1b57 1dbe 0ad5 b1bc ec9f 63be bc2b 56be
00000390: a9c1 b7bd d042 56be 7987 88bd 88a8 86bd
000003a0: 2baa e3bd d495 2b3c e3f7 5ebd a5f2 acbd
000003b0: 2c1a 85be c6b7 173e e1c5 46be 0910 adbe
000003c0: 4756 473d d22f b03d d1ec 093e 256c 26be
000003d0: f4ed cbbc e968 eabd bdc0 80be 5ae5 b33d
000003e0: 2bb1 103e a8c9 4c3d 3e5e 68bd 20ff 923e
000003f0: 546e acbe 6381 4dbe 7fac 1bbe 88ff 03be

lstm.bias_hh_l1 f4 [512]
-0.098576665 -0.1942045 -0.28882846 -0.02912582 -0.096536174 -0.33629662 -0.045313004 -0.060738463
-0.28371826 -0.17825744 -0.24599352 0.22845666 -0.1883197 -0.17430551 -0.18001011 -0.22730882
0.031368963 -0.15490845 0.24354368 -0.30359104 -0.37060323 -0.19573817 0.14690079 -0.22350791
-0.19174023 -0.08726789 -0.0890745 -0.2707056 -0.15644239 -0.33664972 -0.09214663 -0.28569487
-0.17953566 0.062768824 -0.19225106 -0.11411722 -0.3238192 -0.14763212 -0.09797979 -0.24855493
-0.2145304 -0.24513912 0.14408912 -0.0534941 0.2749397 -0.25055614 -0.19693738 -0.2284285
-0.234095 -0.037012003 -0.43193522 0.20047244 -0.187613 -0.15454271 -0.27807638 -0.027973242
-0.16389608 -0.24387123 -0.34690332 -0.08317549 -0.34077036 0.09900764 -0.1542719 -0.11462035
-0.10312507 -0.1790026 0.027383199 -0.3105991 -0.2419248 -0.20525953 0.09966533 -0.44925734
-0.47721404 -0.12580052 -0.035538282 -0.13380556 -0.2604602 -0.31749272 -0.26108044 -0.37816685
-0.2504198 -0.029989896 0.07148385 0.27733326 -0.14904767 -0.16639411 -0.35429984 -0.054678872
-0.1396464 -0.22166096 -0.17622933 -0.034975108 -0.014128352 -0.19630684 -0.12004575 -0.20940743
-0.22560439 -0.13064544 -0.15980342 -0.18192609 -0.26213613 0.037445772 -0.28035417 -0.13258727
-0.32884687 -0.076402135 -0.2597145 -0.17961137 -0.37464008 -0.085931 -0.3220321 -0.3009693
-0.2676912 -0.10712147 -0.23764466 -0.15657975 -0.42277434 -0.28670865 -0.31136182 0.17623593
-0.15154621 -0.1354481 -0.07371836 0.15706114 -0.2409301 -0.2789576 -0.3337987 -0.107036866
0.029950252 -0.1706374 0.17927651 0.21398859 -0.19362858 -0.21387303 -0.11879718 0.12278234
0.039586525 -0.034231905 -0.16157658 0.17128636 0.013628785 -0.29579216 -0.111185245 -0.094888866
-0.39102554 -0.18927474 0.21206264 -0.30434713 -0.13332486 0.01650675 0.0784017 -0.22516795
-0.0733419 -0.11556169 0.011561493 -0.14284264 -0.27208582 0.18398672 -0.3623664 -0.31026185
-0.3634494 0.06712723 -0.027673094 0.013589906 -0.2364852 0.109629236 -0.52388316 -0.03673932
-0.0105133075 -0.22639635 0.14480767 0.048927043 0.2549324 -0.008362112 -0.22879867 -0.3422691
-0.12577529 0.004919496 -0.19317682 0.28560564 -0.18740702 0.026507352 -0.14111745 0.10900474
-0.23608075 -0.20278627 -0.13513462 -0.26873308 0.025386086 0.19162506 0.023752745 0.010755324
0.03410339 -0.06750394 0.16126591 0.01182787 -0.013411467 0.05229338 0.18741941 -0.35798246
-0.32409865 -0.22237833 -0.39689216 -0.10601874 -0.059405442 -0.26554373 -0.29117474 -0.3115338
-0.14658782 0.027902536 0.23888718 0.2721136 -0.052492492 -0.15053661 -0.30759293 -0.024745852
-0.07998944 -0.1265943 -0.07080726 0.21652791 0.11546507 -0.14242852 -0.008354848 -0.16224873
-0.22186597 -0.03622771 -0.23602438 -0.14363495 -0.14981903 -0.18627143 -0.10766672 -0.020444263
-0.1932069 0.0951751 -0.08011843 0.004327745 -0.17237428 0.26910603 -0.3159859 -0.27863535
-0.06661519 0.07381296 0.114277676 -0.16912548 -0.024241522 -0.19342506 -0.29540244 0.0385829
0.0384188 0.08739191 0.048897102 0.37878954 -0.2592926 -0.21038885 -0.25200695 -0.15596849
00000000: 90e2 c9bd 8bdd 46be 53e1 93be 4699 eebc
00000010: c2b4 c5bd 122f acbe 219a 39bd e5c8 78bd
00000020: 8543 91be 1e89 36be bae5 7bbe 8bf0 693e
00000030: e1d6 40be 257d 32be 9254 38be a5c3 68be
00000040: be7c 003d 52a0 1ebe 8463 793e 4970 9bbe
00000050: b5bf bdbe 966f 48be 296d 163e 42df 64be
00000060: 8d57 44be 82b9 b2bd b16c b6bd ed99 8abe
00000070: 6f32 20be 5a5d acbe 5fb7 bcbd 9946 92be
00000080: 32d8 37be f18c 803d 76dd 44be 4ab6 e9bd
00000090: a1cb a5be e02c 17be a1a9 c8bd 2f85 7ebe
000000a0: dbad 5bbe c005 7bbe 198c 133e a11c 5bbd
000000b0: e5c4 8c3e e548 80be f4a9 49be 29e9 69be
000000c0: 9ab6 6fbe e699 17bd 9d26 ddbe a648 4d3e
000000d0: 9f1d 40be 7240 1ebe 0760 8ebe 2428 e5bc
000000e0: 60d4 27be 61b9 79be 509d b1be e957 aabd
000000f0: 7479 aebe 84c4 ca3d 74f9 1dbe 13be eabd
00000100: 3d33 d3bd 754c 37be bb52 e03c d806 9fbe
00000110: 23bb 77be 8e2f 52be 561d cc3d 0f05 e6be
00000120: 6655 f4be dad1 00be 9790 11bd 5304 09be
00000130: 0a5b 85be 688e a2be 56ac 85be 169f c1be
00000140: 0637 80be 5fad f5bc 2066 923d a0fe 8d3e
00000150: f49f 18be 3863 2abe ca66 b5be f4f6 5fbd
00000160: 77ff 0ebe 17fb 62be 7675 34be 0f42 0fbd
00000170: 9a7a 67bc a904 49be 8cda f5bd e76e 56be
00000180: d604 67be ebc7 05be 82a3 23be d54a 3abe
00000190: b536 86be bd60 193d 958a 8fbe f5c4 07be
000001a0: 9e5e a8be b978 9cbd 4df9 84be 0bec 37be
000001b0: d3d0 bfbe 98fc afbd 64e1 a4be a618 9abe
000001c0: d20e 89be 8062 dbbd 1f59 73be 7156 20be
000001d0: e175 d8be 7acb 92be d16a 9fbe 3177 343e
000001e0: ee2e 1bbe e8b2 0abe a7f9 96bd a3d4 203e
000001f0: 61b6 76be 88d3 8ebe aae7 aabe 2536 dbbd
00000200: 3b5a f53c 92bb 2ebe 4394 373e d31f 5b3e
00000210: 9246 46be 8801 5bbe f04b f3bd 4f75 fb3d
00000220: 7b25 223d c136 0cbd 5574 25be b165 2f3e
00000230: 444b 5f3c 1272 97be 17b5 e3bd 1855 c2bd
00000240: 8034 c8be 3dd1 41be f326 593e 63d3 9bbe
00000250: 5086 08be 2a39 873c 1291 a03d 6d92 66be
00000260: 4734 96bd 9bab ecbd 6b6c 3d3c 5745 12be
00000270: d54e 8bbe 0467 3c3e 1788 b9be a4da 9ebe
00000280: 0a16 babe 007a 893d afb2 e2bc 32a8 5e3c
00000290: 2d29 72be 4b85 e03d 351d 06bf f87b 16bd
000002a0: 0240 2cbc 72d4 67be 7648 143e b967 483d
000002b0: 8086 823e 3d01 09bc 334a 6abe e53d afbe
000002c0: 3dcb 00be b933 a13b 25d0 45be e73a 923e
000002d0: a0e7 3fbe f225 d93c 1881 10be e13d df3d
000002e0: 27bf 71be 34a7 4fbe bb60 0abe 6297 89be
000002f0: 7bf6 cf3c 5c39 443e 1e95 c23c 1937 303c
00000300: ffaf 0b3d 813f 8abd e422 253e afc9 413c
00000310: c5bb 5bbc 9531 563d e0ea 3f3e 7a49 b7be
00000320: 42f0 a5be 25b7 63be 7335 cbbe 5a20 d9bd
00000330: 1f53 73bd 59f5 87be db14 95be 5c81 9fbe
00000340: 1e1b 16be dc93 e43c d79e 743e 7952 8b3e
00000350: 5e02 57bd 4526 1abe d27c 9dbe d0b7 cabc
00000360: 81d1 a3bd f0a1 01be 6603 91bd 7eb9 5d3e
00000370: f378 ec3d c8d8 11be c6e2 08bc 8824 26be
00000380: d530 63be 8263 14bd 60b0 71be 0a15 13be
00000390: 296a 19be f0bd 3ebe 5f80 dcbd ba7a a7bc
000003a0: 08d8 45be 2aeb c23d 2215 a4bd c2cf 8d3b
000003b0: e282 30be 44c8 893e e7c8 a1be 4ba9 8ebe
000003c0: 8b6d 88bd 402b 973d 6a0a ea3d 3b2f 2dbe
000003d0: 2896 c6bc 3811 46be fd3e 97be 1a09 1e3d
000003e0: 085d 1d3d 88fa b23d 5448 483d b4f0 c13e
000003f0: 00c2 84be 2d70 57be 0e07 81be 34b6 1fbe
