models/EURAUD_model.pth (torch, 843660 bytes, 15 tensors)

lstm.weight_ih_l0 f4 [512, 12]
000000 73 1a f6 38 14 15 f6 38 74 d5 f6 38 2d 09 f7 38
       0.00011735121 0.0001173412 0.00011769953 0.00011779587
000010 ef 1a aa 38 2f 9a f7 38 e4 dd f5 38 e6 3f 8b 38
       8.1112485e-05 0.00011806597 0.00011723841 6.6399385e-05
000020 08 91 11 38 c0 0b af 38 7c 7a 3f 38 08 65 1c 38
       3.4705765e-05 8.346839e-05 4.565202e-05 3.728739e-05
000030 57 6b 1b 3a 38 a5 1b 3a fd 2b 1d 3a 07 59 1f 3a
       0.00059287756 0.00059374 0.00059956295 0.0006078635
000040 60 03 63 37 2d 53 19 3a dc 32 16 3a 42 ca e3 39
       1.353104e-05 0.0005848881 0.00057296245 0.00043447508
000050 e9 54 b9 38 51 51 a1 38 5d 1f 11 3a 0e 3d a2 39
       8.837303e-05 7.6922246e-05 0.00055359845 0.00030944537
000060 8f d3 1d 39 09 ea 21 39 c0 25 1f 39 64 c6 1f 39
       0.00015051498 0.00015441341 0.00015177485 0.00015237328
000070 59 01 1d 39 3d 25 1b 39 96 f6 16 39 cc 0b 04 39
       0.00014973189 0.00014795824 0.00014396975 0.00012592896
000080 56 60 5e 38 9a e0 3d 39 6c 11 f6 38 27 48 de 38
       5.3018644e-05 0.00018108115 0.00011733439 0.00010599224
000090 5b 20 06 3a 65 84 06 3a 8b 12 07 3a 3f 7c 08 3a
       0.00051165157 0.00051314227 0.00051526044 0.00052065024
0000a0 a2 d1 21 39 da ca 04 3a bf e5 03 3a 2f 0f 07 3a
       0.00015432251 0.00050656276 0.0005031488 0.0005152104
0000b0 97 6f 36 39 bd 34 cc 38 b4 a5 ce 39 5f c6 b7 39
       0.00017398443 9.737301e-05 0.0003941484 0.00035052278
0000c0 44 f5 8c 39 55 97 8e 39 5a f0 8d 39 da 34 90 39
       0.00026885618 0.00027197102 0.00027072692 0.00027505198
0000d0 4b a9 77 39 a6 0e 8d 39 e9 e5 8b 39 58 6b 5d 39
       0.00023618822 0.0002690453 0.00026683442 0.00021116191
0000e0 8f 3b 09 39 24 69 42 39 a8 9c 07 39 b0 a5 d6 38
       0.00013087525 0.0001854045 0.00012932962 0.00010235177
0000f0 9f 80 17 3a 7e 72 18 3a 36 6d 17 3a b4 19 1a 3a
       0.0005779359 0.00058154005 0.00057764666 0.0005878464
000100 a5 c0 f1 38 48 ae 15 3a 24 7b 12 3a e1 69 28 3a
       0.00011527658 0.0005709869 0.00055878074 0.00064244686
000110 f6 13 5f 39 19 32 3d 39 7d 02 0e 3a 96 c8 08 3a
       0.00021274373 0.00018043107 0.0005417241 0.0005217878
000120 e0 0e a5 37 a4 78 ee 37 de ea 23 38 be c8 2f 38
       1.967646e-05 2.8427989e-05 3.9080966e-05 4.1910207e-05
000130 f0 fa 22 38 c8 a7 76 37 c8 d5 12 37 de ee 08 ba
       3.8857514e-05 1.4701807e-05 8.752053e-06 -0.0005223582
000140 42 ed 83 ba 6e 77 be b9 55 2a 1b b9 16 23 11 ba
       -0.0010065215 -0.00036328606 -0.00014797722 -0.0005536539
000150 0f b4 f9 39 8c 12 fc 39 f0 97 fb 39 84 2f 00 3a
       0.00047627135 0.00048079004 0.00047987653 0.0004889893
000160 ec 53 ad 39 34 78 f7 39 5e 37 f1 39 08 5c 9e 39
       0.00033059658 0.0004720107 0.00046008354 0.00030204677
000170 14 be 08 39 50 7b 24 39 16 2b c8 39 e1 ea 76 39
       0.0001304078 0.00015686196 0.00038179074 0.00023547887
000180 07 f0 c5 39 90 49 c6 39 e0 aa c5 39 65 38 c7 39
       0.00037753602 0.0003782031 0.0003770208 0.00037998255
000190 0a 99 a7 38 f0 1f c5 39 d9 c5 c3 39 a1 fa 9d 39
       7.991686e-05 0.00037598563 0.00037340706 0.00030132107
0001a0 64 fe 3d 39 90 9a 1e 39 48 44 9b 39 2a d8 8c 39
       0.00018119212 0.00015125633 0.00029614777 0.00026863936
0001b0 06 0f 18 3a bc fc 17 3a bf 6d 17 3a ce 5c 1a 3a
       0.00058005785 0.0005797853 0.00057765463 0.0005888463
0001c0 7a 47 d8 38 45 fb 16 3a ea 69 12 3a 97 e7 ae 39
       0.00010312996 0.0005759488 0.00055852404 0.00033360414
0001d0 09 71 24 b9 e0 7a 34 39 bd ac c6 39 50 fd b5 39
       -0.00015682368 0.00017211912 0.00037894203 0.00034711743
0001e0 5a 6d 68 39 00 f3 69 39 b4 fa 68 39 a9 df 6f 39
       0.00022165981 0.00022311136 0.00022218638 0.00022876136
0001f0 96 4e e0 38 a0 2b 6b 39 ba d7 63 39 3c 2f 1c 38
       0.0001069579 0.00022427598 0.00021728771 3.723729e-05
000200 30 b0 41 b8 ab b8 80 39 40 a1 40 39 5c 4e 65 b8
       -4.6178873e-05 0.0002455165 0.00018370617 -5.4670832e-05
000210 d9 28 92 3a 6c a6 92 3a 2f 74 92 3a 78 00 95 3a
       0.001115109 0.0011188514 0.0011173541 0.0011367938
000220 c8 44 61 38 60 c4 90 3a 9b 45 8e 3a 8f ef 74 3a
       5.3708238e-05 0.0011044852 0.0010854484 0.00093435583
000230 2e a2 a9 39 5f 86 1b 39 ca cc 4e 3a 46 e9 3a 3a
       0.00032355025 0.00014832009 0.00078887923 0.00071300974
000240 02 b6 06 3a 9d 7e 06 3a d9 2b 07 3a ce 58 0a 3a
       0.00051388156 0.0005130561 0.0005156375 0.0005277515
000250 87 c5 a5 39 a0 87 05 3a e5 b9 01 3a 98 54 14 3a
       0.00031618422 0.0005093757 0.000494866 0.00056583574
000260 ac 82 ea 38 02 52 99 39 0d ec 2b 39 18 a6 50 39
       0.00011182329 0.00029243535 0.00016395767 0.000198983
000270 fc 47 75 39 16 87 79 39 5b 56 77 39 fd 7e 7c 39
       0.00023391837 0.00023796814 0.00023587926 0.000240799
000280 39 4a 62 39 7f cc 73 39 ca 3f 6f 39 56 14 41 39
       0.0002158069 0.00023250467 0.0002281658 0.0001841349
000290 2c 2d 94 38 b4 78 12 39 13 13 fe 38 fa b2 f3 38
       7.065604e-05 0.0001396861 0.00012115217 0.0001162048
0002a0 fc f5 44 3a bc 75 43 3a 69 24 42 3a d5 4f 48 3a
       0.0007513461 0.00074562035 0.0007405938 0.00076412904
0002b0 36 30 8f b9 4c a6 43 3a 94 11 3f 3a 80 8f 81 3a
       -0.00027311005 0.000746344 0.0007288691 0.0009884685
0002c0 1c fc c1 38 3d 05 db b9 ce cf df 39 bc 6a 2c 3a
       9.249916e-05 -0.00041774838 0.000426887 0.0006577184
0002d0 30 64 23 39 68 cb 22 39 da 02 22 39 6c 1c 25 39
       0.00015582214 0.00015525299 0.00015450586 0.00015746214
0002e0 e6 a2 12 39 62 48 25 39 9b 1c 29 39 0e 76 e2 b7
       0.0001398433 0.00015762591 0.00016127752 -2.6996273e-05
0002f0 23 76 99 38 e8 8f ec 38 73 0f 0c 39 0e c6 71 38
       7.317613e-05 0.000112801616 0.00013357196 5.764333e-05
000300 62 93 11 39 64 f0 14 39 5b b7 0f 39 74 64 18 39
       0.00013883182 0.00014203932 0.00013705848 0.00014533271
000310 a8 35 73 38 f4 7d 0c 39 46 83 fc 38 f5 19 2f 39
       5.7985686e-05 0.00013398362 0.00012040748 0.0001669897
000320 68 95 d5 b7 b4 05 54 37 df 9a f4 38 50 50 f4 38
       -2.5461151e-05 1.2637513e-05 0.00011663674 0.00011649786
000330 ba 9d 33 3a e4 5a 34 3a a9 6d 35 3a 67 c6 38 3a
       0.0006851811 0.0006879999 0.00069209427 0.0007048607
000340 c9 df 1b 39 d1 ec 31 3a a0 3e 30 3a 4c 91 da 39
       0.00014865318 0.00067873026 0.0006723199 0.00041688455
000350 76 90 1a b8 96 f3 2c 39 4b c9 06 3a e0 8b 99 39
       -3.6851e-05 0.00016493941 0.00051416893 0.0002928665
000360 da 9e 84 b8 26 18 89 b8 90 6b 83 b8 37 a1 84 b8
       -6.323839e-05 -6.537167e-05 -6.266602e-05 -6.324279e-05
000370 16 a0 00 b7 ba 30 79 b8 ca 34 68 b8 20 ad 0a 38
       -7.666667e-06 -5.9411606e-05 -5.5362274e-05 3.3063e-05
000380 d1 af bf b7 42 c0 b7 36 e8 30 6b b7 32 a3 ac b7
       -2.2850845e-05 5.4762068e-06 -1.4018478e-05 -2.0579992e-05
000390 0a 76 37 3a af e6 3d 3a 68 84 3d 3a a9 51 3e 3a
       0.0006998485 0.00072441524 0.0007229508 0.0007260093
0003a0 00 29 b3 39 ea f4 33 3a b4 c8 2d 3a 7e a8 e8 39
       0.00034172088 0.0006864803 0.00066293334 0.00044376025
0003b0 dc 2a 43 39 93 45 d0 39 db 47 99 39 7b 0a f4 38
       0.00018612616 0.00039724688 0.0002923597 0.00011636779
0003c0 d7 2b 77 39 a0 e6 7a 39 ea dd 77 39 c2 3b 7e 39
       0.00023572087 0.00023927772 0.00023638425 0.00024245589
0003d0 55 88 46 39 27 a5 76 39 c2 0c 6d 39 22 bb 35 39
       0.00018933539 0.00023521912 0.00022606834 0.00017331218
0003e0 0c e5 a2 36 d7 da 36 39 1c ee 03 39 a6 b0 07 39
       4.854641e-06 0.00017438397 0.00012581836 0.0001294041
0003f0 6a 51 3f 3a 0b 5a 42 3a b9 08 43 3a e0 b4 45 3a
       0.00072982034 0.000741393 0.00074399594 0.0007541906

lstm.weight_hh_l0 f4 [512, 128]
000000 69 19 ef b5 f4 09 78 36 a8 55 b6 b5 ee b6 81 b6
       -1.7814283e-06 3.6960673e-06 -1.3584986e-06 -3.8657954e-06
000010 20 c6 1f 35 74 64 21 b6 00 73 f3 34 92 f4 ce 36
       5.9520426e-07 -2.404934e-06 4.534595e-07 6.16775e-06
000020 a8 11 cb 35 84 52 d2 b6 43 2a 18 37 18 31 9a b6
       1.5129817e-06 -6.268094e-06 9.069746e-06 -4.595273e-06
000030 47 ad e8 36 08 f6 c0 35 cc 1c d6 b6 b4 b1 0c 37
       6.934311e-06 1.4376719e-06 -6.3810494e-06 8.386025e-06
000040 50 25 51 36 ac 33 f4 36 02 89 77 35 f8 8d 01 b7
       3.1165146e-06 7.277782e-06 9.2214043e-07 -7.722054e-06
000050 c0 b6 9b b6 b8 eb 37 b6 80 4f cd b5 30 ab cb b5
       -4.640635e-06 -2.7406331e-06 -1.5296828e-06 -1.5174501e-06
000060 38 aa d6 36 f2 5e 2e 36 20 05 67 36 58 c7 7c 36
       6.397513e-06 2.5983286e-06 3.4424666e-06 3.766696e-06
000070 32 44 49 36 f2 1f 48 36 fd 33 be b7 94 bd d7 b6
       2.999103e-06 2.9820917e-06 -2.2673974e-05 -6.429569e-06
000080 66 a2 9b 36 12 14 1b b6 02 70 34 37 98 65 4c b6
       4.6382656e-06 -2.3108482e-06 1.0754915e-05 -3.0457504e-06
000090 12 af 12 37 fe 40 3d 36 1a 07 f1 b6 a0 1e 90 b4
       8.74304e-06 2.8201025e-06 -7.1831864e-06 -2.6844373e-07
0000a0 70 8f 3c b6 30 30 55 b6 36 f9 37 36 58 1d f1 35
       -2.8097675e-06 -3.1767522e-06 2.7414185e-06 1.7964439e-06
0000b0 ea 1b dc 36 f0 c1 95 35 5d f8 84 37 58 ee d3 35
       6.5597605e-06 1.1157808e-06 1.585128e-05 1.5790092e-06
0000c0 1a 3f c0 36 0a 3d 31 b7 fe 01 6b 36 78 5f d2 b5
       5.729392e-06 -1.0564234e-05 3.5018888e-06 -1.5674004e-06
0000d0 71 8d 66 b6 7f c8 93 36 d4 77 71 36 0a bd da b6
       -3.4355e-06 4.404282e-06 3.5981548e-06 -6.5189133e-06
0000e0 58 ae 9e 35 fc dd 14 36 78 bd 07 36 24 f4 39 b6
       1.1822658e-06 2.218293e-06 2.0226853e-06 -2.7709257e-06
0000f0 10 a2 e0 b5 dc 4f 69 36 a0 c0 e8 37 88 80 66 36
       -1.6736467e-06 3.476619e-06 2.7746253e-05 3.4347486e-06
000100 70 39 b1 35 34 0d a0 b6 22 2b 58 b7 be cb bd 36
       1.3204244e-06 -4.7699086e-06 -1.2884646e-05 5.6563576e-06
000110 10 16 8d 36 20 62 fe b4 10 ff 5f 37 2b 61 c8 36
       4.204696e-06 -4.7382582e-07 1.3351222e-05 5.9717763e-06
000120 bb 2b 49 b4 b8 4b 72 b6 48 a6 8b b6 f0 33 da 35
       -1.8735493e-07 -3.6104884e-06 -4.1618805e-06 1.6257382e-06
000130 42 98 65 b6 84 65 4c b6 95 ec 86 36 22 8b e6 b6
       -3.4212285e-06 -3.0457459e-06 4.021053e-06 -6.8707313e-06
000140 90 c0 ab b6 f0 07 52 36 a0 57 2a b6 d0 1f 4b b6
       -5.1186144e-06 3.1297059e-06 -2.5382978e-06 -3.0267875e-06
000150 78 51 c9 35 f0 a1 e1 35 af 6d 1d b7 7c 62 87 b6
       1.4999378e-06 1.6810936e-06 -9.383467e-06 -4.0347786e-06
000160 80 44 97 b3 2f 47 ad b6 40 2e d5 35 e8 ed 05 b6
       -7.0439455e-08 -5.1640886e-06 1.5883197e-06 -1.9957024e-06
000170 f4 e0 2a 36 14 5a 06 36 3c fc 17 b6 2e 5b f8 b6
       2.5462914e-06 2.0019988e-06 -2.2647573e-06 -7.4015907e-06
000180 dc 17 9b 36 0f fa d1 b6 b8 ed c7 b5 40 24 6a b7
       4.6221376e-06 -6.257796e-06 -1.4895841e-06 -1.3955927e-05
000190 10 9f 97 b5 67 13 02 37 b4 ed 58 36 68 25 f9 b5
       -1.129667e-06 7.753121e-06 3.232487e-06 -1.8562832e-06
0001a0 e4 d0 29 36 88 ee 29 b7 34 11 c0 32 10 0d c7 35
       2.5304553e-06 -1.0128722e-05 2.2359565e-08 1.4830457e-06
0001b0 b0 02 cf b5 53 d2 98 b7 d6 f5 fd b6 64 fd 28 36
       -1.5423484e-06 -1.8217752e-05 -7.5686066e-06 2.5181444e-06
0001c0 40 34 f6 b4 01 ce 06 37 66 b1 f5 b5 3e a6 98 b6
       -4.5859088e-07 8.034986e-06 -1.8305552e-06 -4.549306e-06
0001d0 c7 3e 04 37 76 04 fd 36 96 7e 11 b7 42 85 fd b6
       7.88243e-06 7.540507e-06 -8.672147e-06 -7.555501e-06
0001e0 27 ba bc 36 c0 53 2d 34 a4 83 f5 b6 3a 47 21 b7
       5.6245076e-06 1.6142349e-07 -7.316894e-06 -9.6129315e-06
0001f0 6e 6f ec 36 c8 6c b7 35 05 27 e8 b6 32 e2 46 b6
       7.04632e-06 1.3666222e-06 -6.9186813e-06 -2.9635962e-06
000200 c0 cc 15 37 32 47 5b b8 7e 7f 80 38 a4 e8 78 b7
       8.928764e-06 -5.2279975e-05 6.127263e-05 -1.4836118e-05
000210 40 ec 57 35 10 44 87 b8 28 32 8a 37 66 c8 dd b8
       8.043753e-07 -6.449979e-05 1.6474238e-05 -0.00010575428
000220 dc ff 96 b7 40 c6 a3 36 8a 09 ee b8 d6 92 52 b8
       -1.8000537e-05 4.880858e-06 -0.00011350501 -5.0204653e-05
000230 dc b4 7c 38 36 14 82 b8 e4 cf 09 38 ff cf 19 b8
       6.024992e-05 -6.202648e-05 3.285696e-05 -3.6671754e-05
000240 5e 69 e9 37 c6 ea 42 b8 36 cb d0 b6 29 7f 50 38
       2.782483e-05 -4.6471854e-05 -6.22254e-06 4.970949e-05
000250 6a 5b a6 38 31 1a 23 b9 c3 be 9d b8 00 3b 98 b4
       7.932524e-05 -0.00015554648 -7.5218755e-05 -2.8355134e-07
000260 0c d9 8f b8 62 b8 70 b7 c8 fb 05 b8 30 1d c0 b6
       -6.8591995e-05 -1.4348045e-05 -3.194416e-05 -5.7254438e-06
000270 35 f6 8a 38 38 58 d5 36 c6 75 20 39 12 34 46 39
       6.6262124e-05 6.3581647e-06 0.00015302663 0.00018902149
000280 bc e0 0c b8 b0 11 09 b6 68 85 1b b9 1d 11 ba b8
       -3.35879e-05 -2.0424886e-06 -0.0001483165 -8.872359e-05
000290 84 ef 89 b8 6d bc 1c b8 e4 6d bd 38 90 ba e9 37
       -6.577282e-05 -3.7368784e-05 9.032691e-05 2.786264e-05
0002a0 60 d6 37 38 f6 20 fb 38 c0 2d c8 b8 4a 70 c0 b8
       4.3830252e-05 0.00011974752 -9.545265e-05 -9.176189e-05
0002b0 0c 47 57 b8 00 89 7b b7 2b c9 46 b9 9f cd 32 b8
       -5.1326162e-05 -1.4992664e-05 -0.00018957692 -4.2630007e-05
0002c0 d1 5d 04 b9 5a a0 06 39 98 b9 f9 38 ae 5e 37 b8
       -0.0001262345 0.00012838971 0.00011907815 -4.3718777e-05
0002d0 ac 6b 03 b8 a8 ab 92 37 97 bd 9d b8 a2 cc 0c b8
       -3.133311e-05 1.748449e-05 -7.521657e-05 -3.356918e-05
0002e0 08 a5 ca b8 38 a7 23 38 76 b2 dc 38 20 8f 7d b7
       -9.66285e-05 3.9017963e-05 0.000105236584 -1.5113299e-05
0002f0 30 c9 a3 36 cf 64 6c b8 3c 86 e4 b9 f0 f9 52 37
       4.8812e-06 -5.636067e-05 -0.0004358756 1.25751685e-05
000300 cd c3 73 38 e8 c1 5c 37 4c b2 12 38 e5 6d 01 b9
       5.811807e-05 1.3158169e-05 3.4975164e-05 -0.00012343338
000310 f4 79 3d b9 e8 52 8c b7 b3 8a 5c b9 fe 07 b0 b8
       -0.00018069876 -1.6727907e-05 -0.00021032504 -8.393823e-05
000320 7b 9a 94 35 76 ad af 38 bc 34 5e 38 83 4d 0d b9
       1.1071819e-06 8.37696e-05 5.2978037e-05 -0.00013475683
000330 28 2e 84 37 38 4d e4 b7 48 2e 84 37 08 c3 43 37
       1.575712e-05 -2.7215676e-05 1.5757178e-05 1.1668315e-05
000340 f1 cd 06 39 2f 02 b6 b8 d0 2d 27 b8 36 e9 18 b8
       0.00012855955 -8.678843e-05 -3.985857e-05 -3.645682e-05
000350 d3 3e f7 b8 10 59 17 b8 1a 6b 65 39 c4 27 42 38
       -0.0001178958 -3.608415e-05 0.0002187904 4.629024e-05
000360 a8 17 30 b7 f4 8f d5 37 23 19 38 38 fe 7b 6b 38
       -1.0495925e-05 2.5458612e-05 4.389243e-05 5.6143843e-05
000370 3a 1e e0 37 fd 09 1d b9 80 c9 fe 37 c4 b7 a7 37
       2.6716956e-05 -0.00014976408 3.037299e-05 1.9993524e-05
000380 40 49 4a 37 08 66 2b 38 7c a6 e1 38 60 bc e8 38
       1.2057193e-05 4.08646e-05 0.00010759846 0.0001109771
000390 f0 af 50 b7 d7 81 aa b8 80 7e 6d 37 f8 f8 c8 37
       -1.243873e-05 -8.130416e-05 1.4155754e-05 2.3957793e-05
0003a0 7f d6 0e b8 85 9c e0 38 84 28 c4 35 30 ce 6e b7
       -3.4055203e-05 0.000107103064 1.461493e-06 -1.4233912e-05
0003b0 80 71 6c 38 46 eb ff 38 d8 51 19 38 29 f4 a6 38
       5.637249e-05 0.000122031706 3.6554266e-05 7.960975e-05
0003c0 40 4d 86 36 f0 4e 21 b8 d0 7d e3 37 88 34 27 39
       4.0025043e-06 -3.8458908e-05 2.7119095e-05 0.0001594593
0003d0 c0 41 74 b6 a8 d9 9a b7 7a b4 80 39 b7 2e cc 38
       -3.6397105e-06 -1.8459585e-05 0.00024548528 9.736179e-05
0003e0 07 08 00 b8 6a 8a d3 37 62 27 ae 38 e3 da 37 39
       -3.0525054e-05 2.5217614e-05 8.304302e-05 0.00017533782
0003f0 e0 c0 fc 37 b8 b3 37 37 ec 6b ae b7 b8 cf 43 37
       3.0130555e-05 1.0949494e-05 -2.0792671e-05 1.1671269e-05

lstm.bias_ih_l0 f4 [512]
000000 82 0a 22 39 75 c3 27 3a 09 20 1e 39 6c 86 3b 3a
       0.00015453438 0.000639967 0.00015079988 0.00071535143
000010 e2 b5 e4 39 8b 07 7b 3a 88 8a 05 ba b4 6e ce 39
       0.00043623062 0.0009576014 -0.000509419 0.00039373862
000020 76 4a d2 39 51 f8 34 3a 1f 6b 09 b8 64 e8 c3 3a
       0.000401098 0.0006903457 -3.276311e-05 0.0014946577
000030 62 58 88 3a 53 dc 05 3a 61 f6 01 3b bc ac fa 37
       0.0010402317 0.0005106378 0.001983069 2.9882758e-05
000040 80 d4 c5 39 b6 c5 42 3a 64 65 07 b7 2e c7 d8 38
       0.00037733093 0.0007429974 -8.070234e-06 0.00010336783
000050 39 9e b8 39 12 f1 6c 39 64 d5 0e 39 1f e2 fe 39
       0.000352131 0.0002259652 0.0001362167 0.0004861513
000060 e9 64 1e 3a ce f8 0b 39 02 d2 13 3a de df ef 39
       0.00060422585 0.0001334876 0.00056388986 0.00045752426
000070 7c c8 dc b7 84 00 90 39 f0 4b 3d 3a dd 62 d5 39
       -2.6319402e-05 0.00027466204 0.00072210934 0.00040700185
000080 82 58 3b 3a 2e 2e e8 38 f4 24 09 3a 35 a7 83 3a
       0.00071466726 0.00011071224 0.00052316417 0.0010044338
000090 9c be dc b7 c1 91 9d 39 fe e1 88 b7 50 82 e4 39
       -2.6314803e-05 0.0003005397 -1.63177e-05 0.0004358464
0000a0 c3 b6 39 3a 97 1f 8d 39 ab 40 52 39 58 1d c3 37
       0.00070844236 0.00026917152 0.00020051251 2.3259476e-05
0000b0 98 b4 7d 3a 1e cf 87 39 92 38 be 39 77 32 ac 38
       0.00096780946 0.0002590352 0.00036281772 8.210999e-05
0000c0 24 7b b8 b7 8c 2c df 39 45 29 c4 39 67 21 1f 39
       -2.1991851e-05 0.00042567065 0.0003741478 0.00015175865
0000d0 4d 93 11 3a 86 95 1f 3a a9 61 03 3a d4 b2 d9 37
       0.00055532606 0.00060876494 0.0005011806 2.595169e-05
0000e0 7c 36 91 38 99 0f 03 38 a1 d2 89 3a 84 13 33 3a
       6.924287e-05 3.124736e-05 0.0010515043 0.0006831216
0000f0 26 fa bc 39 c5 7e 23 3a 39 c9 07 bb 4c c4 34 3a
       0.0003604453 0.00062368467 -0.0020719303 0.00068957056
000100 8e 34 d8 39 f1 6e ac 39 7e 58 cf 39 25 a9 88 39
       0.00041237887 0.00032889054 0.00039548049 0.00026065964
000110 80 0a ce 34 10 66 8b 39 31 bd 8e 3a 54 e0 a4 39
       3.837813e-07 0.00026588188 0.0010890124 0.00031447655
000120 c8 8c 0b 36 82 8b 05 3a 78 9d 73 37 7b 76 c9 39
       2.079456e-06 0.00050943356 1.4520592e-05 0.00038425982
000130 e4 06 a4 39 c2 74 3d 3a 7e 83 af 39 38 8f 74 39
       0.00031285651 0.0007227176 0.0003347657 0.00023323006
000140 36 66 17 b9 92 6c 97 39 44 7e e3 39 6d 2b 93 3a
       -0.00014438559 0.00028881856 0.0004339089 0.0011228152
000150 24 9a 12 38 05 36 c8 39 84 80 38 39 04 36 4e 3a
       3.4952667e-05 0.0003818722 0.00017595483 0.00078663253
000160 55 20 a6 39 36 37 0d 3a ae c8 f9 39 f7 8c 30 39
       0.00031686077 0.000538695 0.000476425 0.00016837181
000170 a5 f8 f2 39 b3 80 75 3a 0c c4 0c 3a a1 ad 1c 3a
       0.00046343092 0.0009365186 0.00053697894 0.00059768005
000180 ee e4 cf 3a c2 73 bb 37 ef a0 54 39 af ed ae b9
       0.0015861073 2.2346041e-05 0.00020277848 -0.00033364954
000190 47 f0 23 3a d6 23 d1 b8 a6 1a 8c 3a 97 d9 e4 38
       0.00062537607 -9.9725716e-05 0.0010689094 0.000109124165
0001a0 9d 2a 96 39 df 58 f7 b8 bc 48 ac b3 79 e0 55 3a
       0.0002864198 -0.00011794431 -8.0226044e-08 0.0008158754
0001b0 34 87 86 39 bc 81 9e b9 36 05 17 39 5e 48 a6 3a
       0.00025659206 -0.00030232768 0.00014402423 0.0012686362
0001c0 3b d4 1a 3a 40 ef 27 3a 14 55 56 b8 e6 7a b8 39
       0.00059062586 0.00064061955 -5.110081e-05 0.0003518678
0001d0 f0 78 ca 3a 81 e7 5c 3a 6d aa 3b 3a 0e 26 cd 38
       0.0015447419 0.0008426831 0.00071588793 9.78225e-05
0001e0 2e 52 fd 39 da 4c 8f 38 43 33 c4 39 a1 e9 63 b9
       0.0004831715 6.833086e-05 0.00037422226 -0.0002173544
0001f0 01 0c 9b 3a 04 23 bd 39 9e 45 82 39 af f4 92 39
       0.0011829139 0.00036074978 0.000248474 0.00028029594
000200 e8 d4 1b 39 df 49 11 3a b3 f9 0d 39 72 3e 32 3a
       0.00014861266 0.00055423187 0.00013539828 0.0006799466
000210 60 77 da 39 15 55 6f 3a ec 0c 26 ba de 49 aa 39
       0.00041669142 0.00091298047 -0.0006334323 0.00032479962
000220 45 fe c9 39 20 ce 27 3a 4a 8c 8d b8 ff 52 b7 3a
       0.00038527153 0.00064012595 -6.749535e-05 0.0013986527
000230 f9 60 83 3a 8a 2e f3 39 1a 17 f7 3a c4 73 a6 37
       0.0010023407 0.00046383246 0.0018851489 1.984265e-05
000240 d8 c4 ae 39 f3 02 2e 3a 24 f3 80 b6 16 5b cc 37
       0.00033334526 0.0006638013 -3.8430026e-06 2.436111e-05
000250 56 be a3 39 9d dd ce 38 ba 99 84 38 a3 02 e6 39
       0.00031231594 9.864124e-05 6.322884e-05 0.00043870983
000260 c0 10 0b 3a 7c d3 de 38 4d 78 fc 39 f3 7f ea 39
       0.0005304925 0.00010625177 0.00048154817 0.00044727288
000270 20 4c 13 b8 ee 24 85 39 13 0e 23 3a 3b c5 c8 39
       -3.5118428e-05 0.00025395252 0.0006220054 0.0003829392
000280 d4 0d 26 3a c2 f2 af 38 94 32 93 39 ca 50 7e 3a
       0.0006334458 8.3898674e-05 0.00028075709 0.00097013696
000290 bc 7b 6f b7 41 ce 93 39 77 07 59 b8 31 ee d1 39
       -1.4274319e-05 0.00028191696 -5.1743784e-05 0.00040041053
0002a0 2a 6c 14 3a b5 b4 7c 39 63 10 4b 39 d7 84 2e 37
       0.00056618697 0.00024099911 0.00019365693 1.0402137e-05
0002b0 43 74 68 3a 5d 27 4e 39 48 71 99 39 69 02 9c 38
       0.0008867422 0.00019660355 0.00029266835 7.4391086e-05
0002c0 7a 96 bc b8 9a 42 c4 39 4e 4e ac 39 7c 88 98 38
       -8.992567e-05 0.00037433655 0.00032864738 7.273347e-05
0002d0 35 0d 01 3a b8 11 13 3a 66 ed f4 39 80 5a e9 36
       0.00049229275 0.0005610245 0.00046716182 6.9544767e-06
0002e0 9d bc 24 38 6f d2 98 b8 6d 0f 81 3a 47 9b 25 3a
       3.9276307e-05 -7.287121e-05 0.0009846516 0.00063173886
0002f0 a3 f4 a6 39 55 c8 1a 3a 97 86 1a bb ff d7 1e 3a
       0.00031844256 0.00059044856 -0.0023578757 0.00060594076
000300 78 dc d6 39 5d 1c 77 39 90 03 99 39 a5 f4 7e 39
       0.00040981523 0.00023566322 0.00029185088 0.00024314465
000310 2c 8d 98 b8 58 1c 44 39 30 2d 87 3a 04 88 9c 39
       -7.27422e-05 0.00018702575 0.001031315 0.00029855978
000320 0d c2 08 36 89 fc ea 39 3c cb 3c 37 c3 43 b1 39
       2.0378532e-06 0.0004482011 1.1252992e-05 0.00033810557
000330 4a fa 86 39 58 c0 1e 3a ca be 8c 39 d2 39 47 39
       0.00025744952 0.0006055883 0.0002684503 0.00018999659
000340 a4 19 73 b9 74 a6 8a 39 35 20 bf 39 17 45 8e 3a
       -0.00023183838 0.00026445428 0.00036454355 0.0010854331
000350 e1 80 87 36 1d ca ab 39 04 ab c6 38 71 23 43 3a
       4.038317e-06 0.00032766248 9.47323e-05 0.0007443941
000360 00 e8 53 39 4a d4 0b 3a b1 a1 db 39 b8 5f 01 39
       0.00020208955 0.0005334063 0.00041891405 0.00012338057
000370 6a 14 e4 39 4e f5 5f 3a 90 49 ee 39 71 ba 07 3a
       0.00043502758 0.0008543328 0.00045449706 0.0005177623
000380 b7 6c bd 3a f0 11 8d 37 cf 0b 0e 39 e6 dd e0 b9
       0.0014451955 1.6816863e-05 0.00013546574 -0.00042889937
000390 50 f6 12 3a 26 1b 30 b9 d1 38 82 3a 2e 33 92 38
       0.00056061614 -0.00016794782 0.0009935145 6.9713555e-05
0003a0 02 4d 95 39 96 9f 18 b9 7d 93 a7 b3 3c b7 4e 3a
       0.0002847687 -0.000145553 -7.8033715e-08 0.00078855804
0003b0 10 28 56 39 e8 96 a8 b9 f4 8e f5 38 2d 68 92 3a
       0.00020423555 -0.0003215589 0.000117091375 0.0011169963
0003c0 33 6e fd 39 53 de 07 3a 32 91 51 b8 0b 15 84 39
       0.00048338025 0.000518297 -4.9964707e-05 0.0002519268
0003d0 e9 64 be 3a cf c5 4b 3a 3e 88 1b 3a 2f 60 b4 38
       0.0014525923 0.0007773311 0.00059330824 8.6009844e-05
0003e0 45 44 ee 39 b2 52 0c b8 26 84 b6 39 2e 1a 83 b9
       0.00045445762 -3.3455617e-05 0.00034812203 -0.00025005772
0003f0 e4 78 97 3a 92 41 9b 39 19 7e 34 39 18 11 7b 39
       0.0011556414 0.00029612757 0.00017213113 0.00023943593

lstm.bias_hh_l0 f4 [512]
000000 82 0a 22 39 75 c3 27 3a 09 20 1e 39 6c 86 3b 3a
       0.00015453438 0.000639967 0.00015079988 0.00071535143
000010 e2 b5 e4 39 8b 07 7b 3a 88 8a 05 ba b4 6e ce 39
       0.00043623062 0.0009576014 -0.000509419 0.00039373862
000020 76 4a d2 39 51 f8 34 3a 1f 6b 09 b8 64 e8 c3 3a
       0.000401098 0.0006903457 -3.276311e-05 0.0014946577
000030 62 58 88 3a 53 dc 05 3a 61 f6 01 3b bc ac fa 37
       0.0010402317 0.0005106378 0.001983069 2.9882758e-05
000040 81 d4 c5 39 b6 c5 42 3a 64 65 07 b7 35 c7 d8 38
       0.00037733096 0.0007429974 -8.070234e-06 0.00010336788
000050 39 9e b8 39 12 f1 6c 39 64 d5 0e 39 1f e2 fe 39
       0.000352131 0.0002259652 0.0001362167 0.0004861513
000060 e9 64 1e 3a ce f8 0b 39 02 d2 13 3a de df ef 39
       0.00060422585 0.0001334876 0.00056388986 0.00045752426
000070 40 c8 dc b7 84 00 90 39 f0 4b 3d 3a dd 62 d5 39
       -2.6319292e-05 0.00027466204 0.00072210934 0.00040700185
000080 82 58 3b 3a 2e 2e e8 38 f4 24 09 3a 35 a7 83 3a
       0.00071466726 0.00011071224 0.00052316417 0.0010044338
000090 b0 be dc b7 c1 91 9d 39 c4 e1 88 b7 50 82 e4 39
       -2.631484e-05 0.0003005397 -1.6317594e-05 0.0004358464
0000a0 c3 b6 39 3a 97 1f 8d 39 ab 40 52 39 58 1d c3 37
       0.00070844236 0.00026917152 0.00020051251 2.3259476e-05
0000b0 98 b4 7d 3a 1e cf 87 39 92 38 be 39 77 32 ac 38
       0.00096780946 0.0002590352 0.00036281772 8.210999e-05
0000c0 00 7b b8 b7 8c 2c df 39 45 29 c4 39 67 21 1f 39
       -2.1991786e-05 0.00042567065 0.0003741478 0.00015175865
0000d0 4d 93 11 3a 86 95 1f 3a a9 61 03 3a e0 a8 d9 37
       0.00055532606 0.00060876494 0.0005011806 2.5947054e-05
0000e0 7c 36 91 38 99 0f 03 38 a1 d2 89 3a 84 13 33 3a
       6.924287e-05 3.124736e-05 0.0010515043 0.0006831216
0000f0 26 fa bc 39 c5 7e 23 3a 35 c9 07 bb 4c c4 34 3a
       0.0003604453 0.00062368467 -0.0020719294 0.00068957056
000100 8e 34 d8 39 f1 6e ac 39 29 61 cf 39 25 a9 88 39
       0.00041237887 0.00032889054 0.00039554507 0.00026065964
000110 80 c8 cd 34 10 66 8b 39 31 bd 8e 3a 54 e0 a4 39
       3.8330109e-07 0.00026588188 0.0010890124 0.00031447655
000120 cb 8c 0b 36 82 8b 05 3a 78 9d 73 37 7b 76 c9 39
       2.0794566e-06 0.00050943356 1.4520592e-05 0.00038425982
000130 e4 06 a4 39 c2 74 3d 3a 7e 83 af 39 38 8f 74 39
       0.00031285651 0.0007227176 0.0003347657 0.00023323006
000140 36 66 17 b9 92 6c 97 39 44 7e e3 39 6d 2b 93 3a
       -0.00014438559 0.00028881856 0.0004339089 0.0011228152
000150 24 9a 12 38 05 36 c8 39 84 80 38 39 04 36 4e 3a
       3.4952667e-05 0.0003818722 0.00017595483 0.00078663253
000160 55 20 a6 39 36 37 0d 3a ae c8 f9 39 f7 8c 30 39
       0.00031686077 0.000538695 0.000476425 0.00016837181
000170 a4 f8 f2 39 b3 80 75 3a 0c c4 0c 3a a1 ad 1c 3a
       0.0004634309 0.0009365186 0.00053697894 0.00059768005
000180 ed e4 cf 3a c2 73 bb 37 ef a0 54 39 ba ed ae b9
       0.0015861072 2.2346041e-05 0.00020277848 -0.00033364986
000190 47 f0 23 3a d6 23 d1 b8 a6 1a 8c 3a 97 d9 e4 38
       0.00062537607 -9.9725716e-05 0.0010689094 0.000109124165
0001a0 9d 2a 96 39 df 58 f7 b8 aa 49 ac b3 79 e0 55 3a
       0.0002864198 -0.00011794431 -8.0227736e-08 0.0008158754
0001b0 3d 87 86 39 bd 81 9e b9 29 05 17 39 5e 48 a6 3a
       0.00025659232 -0.0003023277 0.00014402404 0.0012686362
0001c0 3b d4 1a 3a 40 ef 27 3a 14 55 56 b8 e6 7a b8 39
       0.00059062586 0.00064061955 -5.110081e-05 0.0003518678
0001d0 f0 78 ca 3a 81 e7 5c 3a 6e aa 3b 3a 10 26 cd 38
       0.0015447419 0.0008426831 0.000715888 9.7822514e-05
0001e0 2e 52 fd 39 da 4c 8f 38 43 33 c4 39 a4 e9 63 b9
       0.0004831715 6.833086e-05 0.00037422226 -0.00021735445
0001f0 01 0c 9b 3a 04 23 bd 39 9e 45 82 39 af f4 92 39
       0.0011829139 0.00036074978 0.000248474 0.00028029594
000200 e8 d4 1b 39 df 49 11 3a b3 f9 0d 39 72 3e 32 3a
       0.00014861266 0.00055423187 0.00013539828 0.0006799466
000210 60 77 da 39 15 55 6f 3a ec 0c 26 ba de 49 aa 39
       0.00041669142 0.00091298047 -0.0006334323 0.00032479962
000220 45 fe c9 39 20 ce 27 3a 4a 8c 8d b8 ff 52 b7 3a
       0.00038527153 0.00064012595 -6.749535e-05 0.0013986527
000230 f9 60 83 3a 8a 2e f3 39 1a 17 f7 3a c4 73 a6 37
       0.0010023407 0.00046383246 0.0018851489 1.984265e-05
000240 d8 c4 ae 39 f3 02 2e 3a 08 f3 80 b6 22 5b cc 37
       0.00033334526 0.0006638013 -3.84299e-06 2.4361132e-05
000250 56 be a3 39 9d dd ce 38 ba 99 84 38 a3 02 e6 39
       0.00031231594 9.864124e-05 6.322884e-05 0.00043870983
000260 c0 10 0b 3a 7c d3 de 38 4d 78 fc 39 f3 7f ea 39
       0.0005304925 0.00010625177 0.00048154817 0.00044727288
000270 08 4c 13 b8 ee 24 85 39 26 0e 23 3a 3b c5 c8 39
       -3.511834e-05 0.00025395252 0.0006220065 0.0003829392
000280 d4 0d 26 3a c2 f2 af 38 94 32 93 39 ca 50 7e 3a
       0.0006334458 8.3898674e-05 0.00028075709 0.00097013696
000290 bc 7b 6f b7 40 ce 93 39 82 07 59 b8 31 ee d1 39
       -1.4274319e-05 0.00028191693 -5.1743824e-05 0.00040041053
0002a0 2a 6c 14 3a b5 b4 7c 39 63 10 4b 39 d7 84 2e 37
       0.00056618697 0.00024099911 0.00019365693 1.0402137e-05
0002b0 40 74 68 3a 5d 27 4e 39 48 71 99 39 69 02 9c 38
       0.000886742 0.00019660355 0.00029266835 7.4391086e-05
0002c0 7a 96 bc b8 9a 42 c4 39 4e 4e ac 39 7c 88 98 38
       -8.992567e-05 0.00037433655 0.00032864738 7.273347e-05
0002d0 35 0d 01 3a b8 11 13 3a 66 ed f4 39 80 5a e9 36
       0.00049229275 0.0005610245 0.00046716182 6.9544767e-06
0002e0 93 bc 24 38 6f d2 98 b8 6d 0f 81 3a 47 9b 25 3a
       3.927627e-05 -7.287121e-05 0.0009846516 0.00063173886
0002f0 a3 f4 a6 39 55 c8 1a 3a 8f 86 1a bb ff d7 1e 3a
       0.00031844256 0.00059044856 -0.0023578738 0.00060594076
000300 78 dc d6 39 5f 1c 77 39 f6 ae 98 39 a5 f4 7e 39
       0.00040981523 0.00023566325 0.00029122055 0.00024314465
000310 41 8d 98 b8 58 1c 44 39 30 2d 87 3a 04 88 9c 39
       -7.2742354e-05 0.00018702575 0.001031315 0.00029855978
000320 3c c2 08 36 89 fc ea 39 3c cb 3c 37 c3 43 b1 39
       2.0378639e-06 0.0004482011 1.1252992e-05 0.00033810557
000330 4a fa 86 39 58 c0 1e 3a ca be 8c 39 d2 39 47 39
       0.00025744952 0.0006055883 0.0002684503 0.00018999659
000340 a4 19 73 b9 74 a6 8a 39 35 20 bf 39 17 45 8e 3a
       -0.00023183838 0.00026445428 0.00036454355 0.0010854331
000350 e1 80 87 36 1d ca ab 39 04 ab c6 38 71 23 43 3a
       4.038317e-06 0.00032766248 9.47323e-05 0.0007443941
000360 00 e8 53 39 4a d4 0b 3a b1 a1 db 39 b8 5f 01 39
       0.00020208955 0.0005334063 0.00041891405 0.00012338057
000370 71 14 e4 39 4e f5 5f 3a 90 49 ee 39 71 ba 07 3a
       0.0004350278 0.0008543328 0.00045449706 0.0005177623
000380 b7 6c bd 3a f0 11 8d 37 cf 0b 0e 39 ea dd e0 b9
       0.0014451955 1.6816863e-05 0.00013546574 -0.00042889948
000390 50 f6 12 3a 15 1b 30 b9 d1 38 82 3a 2e 33 92 38
       0.00056061614 -0.00016794757 0.0009935145 6.9713555e-05
0003a0 02 4d 95 39 96 9f 18 b9 b3 93 a7 b3 3c b7 4e 3a
       0.0002847687 -0.000145553 -7.80341e-08 0.00078855804
0003b0 e4 29 56 39 e8 96 a8 b9 ee 8e f5 38 2d 68 92 3a
       0.00020424236 -0.0003215589 0.00011709133 0.0011169963
0003c0 33 6e fd 39 53 de 07 3a 2c 91 51 b8 0b 15 84 39
       0.00048338025 0.000518297 -4.9964685e-05 0.0002519268
0003d0 e9 64 be 3a cf c5 4b 3a 42 88 1b 3a 2f 60 b4 38
       0.0014525923 0.0007773311 0.0005933085 8.6009844e-05
0003e0 45 44 ee 39 b2 52 0c b8 26 84 b6 39 2e 1a 83 b9
       0.00045445762 -3.3455617e-05 0.00034812203 -0.00025005772
0003f0 e4 78 97 3a 92 41 9b 39 19 7e 34 39 18 11 7b 39
       0.0011556414 0.00029612757 0.00017213113 0.00023943593

lstm.weight_ih_l1 f4 [512, 128]
000000 14 5f b9 99 23 52 23 1a ba e5 12 99 ae 40 a2 99
       -1.9166953e-23 3.377396e-23 -7.594416e-24 -1.6776531e-23
000010 29 d1 10 9a dc f2 47 17 68 bb e5 98 44 b6 96 98
       -2.994746e-23 6.46069e-25 -5.9384345e-24 -3.8958132e-24
000020 53 fa 0a 9a e4 98 e8 19 0c 13 ea 97 c3 22 33 19
       -2.873994e-23 2.404999e-23 -1.5126704e-24 9.261103e-24
000030 e3 c1 d8 99 46 de 2f 1a 2e 67 ab 99 66 22 e8 19
       -2.2412187e-23 3.6368703e-23 -1.772266e-23 2.4002131e-23
000040 10 e9 01 1a 30 3a b0 98 14 77 6c 97 bd 6f 81 17
       2.686484e-23 -4.555369e-24 -7.640601e-25 8.364636e-25
000050 72 e0 81 9a a8 42 d2 18 7c d7 b6 18 50 2d ff 99
       -5.371576e-23 5.4351033e-24 4.726348e-24 -2.6384684e-23
000060 64 99 fc 99 88 09 cc 17 43 36 9f 19 8c e3 56 1a
       -2.6118143e-23 1.3185597e-24 1.6462131e-23 4.4437974e-23
000070 80 5f 12 98 a8 c0 81 9a 37 49 74 19 a2 b1 a0 97
       -1.8918273e-24 -5.36644e-23 1.262929e-23 -1.0384598e-24
000080 00 7f 52 19 d1 a8 57 9a 7e d2 06 19 03 12 24 9a
       1.0882393e-23 -4.4597327e-23 6.970146e-24 -3.3928955e-23
000090 2d bd 54 99 e0 c5 26 99 74 82 fa 99 68 0d 84 18
       -1.0998347e-23 -8.621959e-24 -2.5902084e-23 3.4134737e-24
0000a0 00 5c 82 16 e3 d8 c5 99 7e 5a 18 1a 54 c8 12 19
       2.1060693e-25 -2.0456922e-23 3.1505962e-23 7.588479e-24
0000b0 a8 e4 7e 1a 72 ad 23 9a 9a 50 07 98 06 da 66 18
       5.2710676e-23 -3.3847718e-23 -1.7489034e-24 2.9836877e-24
0000c0 5b 64 cc 99 c8 c8 27 19 e2 d2 fa 19 10 29 da 19
       -2.1133639e-23 8.674245e-24 2.5934569e-23 2.2557257e-23
0000d0 44 f8 1d 1a e8 34 ec 98 a3 b4 30 1a c0 c3 ad 96
       3.2667386e-23 -6.105799e-24 3.6541864e-23 -2.8073193e-25
0000e0 a8 c1 fe 19 00 c1 59 96 1e 7d 22 9a 27 d3 87 1a
       2.6341202e-23 -1.759002e-25 -3.3601884e-23 5.6175826e-23
0000f0 cc 09 06 9a a2 8c 18 19 9e 0e c2 98 ed d1 eb 19
       -2.7718464e-23 7.886616e-24 -5.0162584e-24 2.4383219e-23
000100 aa 3b a9 19 50 ac ef 19 b9 8b 72 97 5c dc 7c 18
       1.7498289e-23 2.4781617e-23 -7.837077e-25 3.268149e-24
000110 3f 07 a6 99 49 df 0c 9a 18 4f 25 1a b4 ce 18 99
       -1.7166924e-23 -2.913169e-23 3.4185092e-23 -7.899959e-24
000120 fe 5d 8a 99 34 62 88 98 15 ca e6 99 d8 22 3e 99
       -1.4306829e-23 -3.5254336e-24 -2.3863063e-23 -9.8298064e-24
000130 b4 d5 b7 19 5a ae 79 99 a8 84 06 1a 4c b2 52 99
       1.900807e-23 -1.2908208e-23 2.781771e-23 -1.0892752e-23
000140 74 25 23 9a 38 4e 5f 19 c0 c3 1f 96 d0 af bd 99
       -3.3737864e-23 1.1544626e-23 -1.2905686e-25 -1.9613152e-23
000150 24 3f eb 98 16 da 12 1a 70 cc df 19 60 b6 13 9a
       -6.0809832e-24 3.036826e-23 2.3140231e-23 -3.054621e-23
000160 27 ac e7 99 b4 8d 8a 9a 54 72 e4 18 88 7e 15 1a
       -2.3954372e-23 -5.7304396e-23 5.905206e-24 3.091469e-23
000170 f8 a0 7c 99 02 07 d4 99 67 98 2b 1a c8 26 ad 18
       -1.3060602e-23 -2.1923117e-23 3.548508e-23 4.475861e-24
000180 2c df 92 99 5b 73 6c 18 5f 09 93 19 54 74 3d 98
       -1.5186185e-23 3.0560525e-24 1.5203229e-23 -2.4486408e-24
000190 66 8e 07 99 4c 15 b4 19 2f 75 06 1a c0 30 92 99
       -7.0080936e-24 1.8620166e-23 2.780521e-23 -1.5115736e-23
0001a0 48 99 2c 9a 00 6a 5a 97 de ba 0a 18 42 aa 52 1a
       -3.5692586e-23 -7.057339e-25 1.7930426e-24 4.3564515e-23
0001b0 6b e4 b6 98 f0 fb da 98 c2 9c 89 19 ca 96 5a 1a
       -4.727654e-24 -5.660607e-24 1.4228782e-23 4.520315e-23
0001c0 a4 54 a5 98 c4 d3 51 1a d2 a7 b2 19 76 55 0e 9a
       -4.2736966e-24 4.339125e-23 1.847255e-23 -2.9433947e-23
0001d0 9a d4 15 1a 4a af 5a 19 28 a3 50 18 05 75 b3 19
       3.0984216e-23 1.1305735e-23 2.6965743e-24 1.855543e-23
0001e0 40 06 02 17 85 45 da 18 58 fa 3b 18 66 33 5d 18
       4.2013154e-25 5.6421876e-24 2.4295575e-24 2.858953e-24
0001f0 3f 56 ee 99 cc 84 c9 99 1a 68 75 9a 4f 26 6c 1a
       -2.4643458e-23 -2.0836549e-23 -5.0748905e-23 4.88346e-23
000200 70 e0 14 18 2c 6c a4 97 8a 10 1f 98 c8 b1 08 17
       1.9241864e-24 -1.0625558e-24 -2.0558618e-24 4.416836e-25
000210 f7 15 1a 98 55 85 48 18 5a 7e 50 18 9c 7b ee 97
       -1.9915123e-24 2.591671e-24 2.6947161e-24 -1.5411593e-24
000220 6b fc 77 98 28 4d 64 18 40 a6 14 95 b4 b7 eb 17
       -3.205144e-24 2.9507263e-24 -3.001951e-26 1.5232892e-24
000230 a0 e5 31 15 30 2b 84 97 d0 3c 7b 17 3c 2d b3 97
       3.5926008e-26 -8.541202e-25 8.117923e-25 -1.1579023e-24
000240 3e 30 56 18 88 79 69 98 69 2d 92 17 c8 a6 e9 97
       2.7683208e-24 -3.0175902e-24 9.446492e-25 -1.5099374e-24
000250 46 6e fe 17 8b 55 73 18 6d 8f 18 18 d4 ca 96 17
       1.6442202e-24 3.1450202e-24 1.9717951e-24 9.744724e-25
000260 24 88 bf 97 1e e3 5d 98 32 40 f1 17 85 38 12 18
       -1.2377452e-24 -2.8678245e-24 1.5590465e-24 1.8898593e-24
000270 aa 54 2a 98 44 80 1a 18 27 3e ac 97 c0 f4 c0 95
       -2.201473e-24 1.9968791e-24 -1.1130929e-24 -7.793433e-26
000280 04 56 2e 98 7c 21 06 98 c2 6e 83 97 e3 1f d6 97
       -2.25324e-24 -1.7336e-24 -8.493636e-25 -1.3837475e-24
000290 18 e6 6d 18 c6 92 c8 17 da 38 47 18 53 53 02 98
       3.07477e-24 1.2961748e-24 2.574885e-24 -1.6844174e-24
0002a0 96 7a 12 18 52 1f 5f 97 78 c9 84 16 78 59 51 17
       1.8931948e-24 -7.209472e-25 2.1452895e-25 6.764447e-25
0002b0 a0 19 6a 18 e7 77 ff 97 bc 71 c6 17 fc fb 80 98
       3.0256728e-24 -1.6509256e-24 1.2824161e-24 -3.3341664e-24
0002c0 64 09 97 17 9e d6 2d 98 82 4c c6 17 db 1f 14 97
       9.760517e-25 -2.246808e-24 1.2814763e-24 -4.7861586e-25
0002d0 b0 94 00 18 e0 d0 1c 97 3b 07 3f 98 38 b4 08 18
       1.661868e-24 -5.0669956e-25 -2.4689822e-24 1.7668575e-24
0002e0 b2 fb 1c 98 29 ca 26 18 20 75 db 17 b4 e6 74 98
       -2.0289601e-24 2.1557062e-24 1.418211e-24 -3.1652736e-24
0002f0 80 cf 9f 15 25 79 65 18 85 14 fe 97 ce c0 e1 97
       6.4546966e-26 2.9658719e-24 -1.6419545e-24 -1.4588955e-24
000300 c0 12 ee 15 f4 1d 72 17 00 cb 16 18 ef 47 74 98
       9.6157017e-26 7.8232223e-25 1.9489534e-24 -3.1572578e-24
000310 be af 83 98 7e b3 40 98 a9 5e c7 97 48 05 48 18
       -3.404016e-24 -2.4906039e-24 -1.2883969e-24 2.585206e-24
000320 d7 c4 ca 97 28 67 29 17 38 b2 ac 97 74 a0 a5 97
       -1.3103633e-24 5.4737047e-25 -1.1160228e-24 -1.0703379e-24
000330 de e3 50 98 00 86 fd 96 a8 38 4b 17 60 59 f1 96
       -2.6998413e-24 -4.095892e-25 6.566435e-25 -3.8992053e-25
000340 6b ae 32 18 bc 51 74 97 c0 f4 75 9c 89 fd 4a 18
       2.309402e-24 -7.8943815e-25 -8.138003e-22 2.623589e-24
000350 a5 3a 54 18 18 e4 5a 17 50 3c a9 97 c8 3b 5f 17
       2.7429966e-24 7.0727494e-25 -1.0936594e-24 7.213064e-25
000360 92 a3 31 98 98 8d 10 98 20 48 e2 17 d8 3a e0 97
       -2.2959296e-24 -1.868305e-24 1.4623115e-24 -1.4490515e-24
000370 dd 91 7f 18 72 24 9f 17 32 5e 66 98 f0 ff 12 98
       3.303162e-24 1.0284334e-24 -2.977436e-24 -1.8999273e-24
000380 7a ba 8e 17 f9 e1 0b 98 60 7c ab 96 f8 3e aa 96
       9.223608e-25 -1.8079416e-24 -2.7705032e-25 -2.750472e-25
000390 a4 54 95 1e 6a 57 f1 97 ea a1 6b 98 8b f3 d6 17
       1.5810995e-20 -1.5596326e-24 -3.0454784e-24 1.3890905e-24
0003a0 ba 47 5f 98 8b 62 07 98 47 39 6d 98 18 19 ee 17
       -2.8858287e-24 -1.7498093e-24 -3.066045e-24 1.5386724e-24
0003b0 80 5e ee 97 f0 a6 2a 97 8c b7 e9 17 46 ac 8c 17
       -1.5404245e-24 -5.5140667e-25 1.5103606e-24 9.090776e-25
0003c0 ac cf 25 98 81 77 1d 98 00 f5 bf 14 c6 e0 22 18
       -2.1430598e-24 -2.0352108e-24 1.9382707e-26 2.105149e-24
0003d0 73 ad 52 18 bb 05 03 18 6e 71 7e 18 35 69 4c 18
       2.7229433e-24 1.6934246e-24 3.2885998e-24 2.6419498e-24
0003e0 38 14 f8 17 76 58 29 98 fc 85 8c 18 1e 75 18 97
       1.6031728e-24 -2.18874e-24 3.632444e-24 -4.926167e-25
0003f0 f0 1b 22 16 7e 0f 64 18 fe a1 12 98 e6 4d 4f 98
       1.3095071e-25 2.947613e-24 -1.8951843e-24 -2.6793452e-24

lstm.weight_hh_l1 f4 [512, 128]
000000 18 ee b0 98 60 07 47 98 30 9e b0 98 5a 7d 49 98
       -4.5735347e-24 -2.572387e-24 -4.5654662e-24 -2.6041927e-24
000010 d0 8d dd 17 79 79 62 18 fb 47 4f 18 a0 3f 24 97
       1.4317589e-24 2.9271143e-24 2.6790464e-24 -5.3071564e-25
000020 60 90 ba 16 f5 28 27 98 3a ea c9 97 99 39 55 98
       3.0141034e-25 -2.1604922e-24 -1.3048448e-24 -2.7558684e-24
000030 c0 25 0e 16 f5 cd cb 17 88 c9 3f 18 c8 85 49 98
       1.148258e-25 1.3170558e-24 2.4787919e-24 -2.6046183e-24
000040 8e 07 49 18 89 f8 35 18 ef e1 6e 19 ff e3 d2 98
       2.5982455e-24 2.351918e-24 1.23499385e-23 -5.4513945e-24
000050 c4 3b ee 17 17 7c 90 18 46 36 2d 97 3a 5d 00 98
       1.5395476e-24 3.7348426e-24 -5.596782e-25 -1.659068e-24
000060 55 44 76 18 8c 98 07 18 19 70 bc 98 b2 da 07 98
       3.1829254e-24 1.7525358e-24 -4.871005e-24 -1.7558754e-24
000070 2c f7 86 97 08 4f e5 18 84 08 8f 98 4e 5c 82 18
       -8.721942e-25 5.9274914e-24 -3.6973232e-24 3.3697416e-24
000080 d8 12 1f 97 1d 48 74 18 56 71 b5 18 f4 74 5b 98
       -5.1399455e-25 3.1572669e-24 4.6901843e-24 -2.8364133e-24
000090 1a 45 fb 17 39 2d 47 18 ce bf 76 18 70 9b 20 99
       1.6237939e-24 2.5742979e-24 3.1891591e-24 -8.3031965e-24
0000a0 fe 32 fb 17 70 a0 e7 16 2d 12 90 98 c4 cf 82 18
       1.6233367e-24 3.7421313e-25 -3.724148e-24 3.3814002e-24
0000b0 d4 32 a4 17 0e 6f b7 97 bf 39 7d 18 cf bc 1b 98
       1.0611082e-24 -1.1854132e-24 3.2728638e-24 -2.0128604e-24
0000c0 ef 85 53 98 96 f9 17 18 a2 20 82 98 ce 55 b5 17
       -2.733873e-24 1.9642301e-24 -3.3637163e-24 1.1718511e-24
0000d0 58 6f fe 16 60 b5 7c 17 c5 79 da 18 1c 42 1d 17
       4.110618e-25 8.165452e-25 5.6474635e-24 5.081288e-25
0000e0 b8 dd 45 17 30 b6 2c 18 2d 57 50 98 a1 87 5a 18
       6.393398e-25 2.232246e-24 -2.6927382e-24 2.8244315e-24
0000f0 60 8b 9d 98 50 f7 fd 17 3a 68 39 98 fa b9 83 18
       -4.072428e-24 1.6412172e-24 -2.396331e-24 3.4050495e-24
000100 d4 21 8f 18 cc 54 dc 97 d7 e7 ba 98 8a 3c 7a 98
       3.699879e-24 -1.4238573e-24 -4.831397e-24 -3.2342307e-24
000110 1a f4 00 18 be f0 dc 17 70 b3 0a 18 60 3f 35 98
       1.6666852e-24 1.4277939e-24 1.7926675e-24 -2.3425698e-24
000120 d0 47 f0 97 a8 61 14 18 0d 68 f0 97 a2 c3 e7 97
       -1.5527765e-24 1.9177855e-24 -1.5535903e-24 -1.497741e-24
000130 09 41 1a 19 d2 a7 5c 18 2b 91 6e 98 86 e1 56 18
       7.974747e-24 2.8519061e-24 -3.083407e-24 2.7772712e-24
000140 b2 cc bb 19 f8 be 2b 98 5f d0 46 18 74 ef 27 18
       1.9418023e-23 -2.2197647e-24 2.56961e-24 2.1705137e-24
000150 80 f4 0b 98 80 23 26 18 57 cf 0f 18 ab 64 68 18
       -1.808877e-24 2.147292e-24 1.8586997e-24 3.0036122e-24
000160 42 89 a3 98 0e 0a 44 98 16 07 3e 18 f0 37 0a 98
       -4.2273107e-24 -2.5337483e-24 2.4560502e-24 -1.7864323e-24
000170 49 80 59 98 0a 9a 53 18 05 81 c8 18 da 4e 25 18
       -2.811136e-24 2.734888e-24 5.1829065e-24 2.136556e-24
000180 01 7c 5d 98 10 2a 6a 17 22 d7 85 18 e5 c9 c1 98
       -2.8626187e-24 7.566257e-25 3.4596923e-24 -5.0093192e-24
000190 38 20 00 99 df a2 24 18 58 f0 91 16 1e a0 86 18
       -6.6239514e-24 2.1278732e-24 2.3577692e-25 3.4799865e-24
0001a0 e5 0b 58 18 0d 30 31 18 9e 34 46 98 18 c5 8c 19
       2.792335e-24 2.2900973e-24 -2.5617465e-24 1.4555266e-23
0001b0 85 ac 35 98 71 27 ea 97 b0 7e af 96 55 b6 74 18
       -2.3480802e-24 -1.5131852e-24 -2.8352726e-25 3.1628315e-24
0001c0 b7 f5 04 18 6c 9e f7 97 20 90 76 9e 2e 45 80 98
       1.7184654e-24 -1.6001992e-24 -1.3052936e-20 -3.315708e-24
0001d0 6c 16 bd 17 82 06 f8 17 c0 84 24 18 70 3e c2 16
       1.2219499e-24 1.6028267e-24 2.1263525e-24 3.1381794e-25
0001e0 e8 a8 a7 18 94 28 e3 97 4c ec e8 97 e0 73 f4 96
       4.333904e-24 -1.4679775e-24 -1.5052298e-24 -3.9493453e-25
0001f0 1b 5a 49 18 b5 81 e7 17 db de e8 17 00 ce 19 96
       2.6024133e-24 1.4960768e-24 1.5048905e-24 -1.2424244e-25
000200 61 86 0c 98 bc 95 d3 17 92 78 ea 17 18 8c 1a 18
       -1.816242e-24 1.3673354e-24 1.5152332e-24 1.9974763e-24
000210 b8 b7 3e 18 34 04 55 18 1a c6 2b 18 04 0b 2a 98
       2.4649679e-24 2.7531727e-24 2.2201248e-24 -2.1977546e-24
000220 63 d6 8a 9b eb 5d 62 18 62 10 20 18 af 58 40 97
       -2.296873e-22 2.9257232e-24 2.0687787e-24 -6.215048e-25
000230 08 a4 d6 9a 42 f3 b7 97 08 2a 34 18 4e 5b 07 18
       -8.877333e-23 -1.1887505e-24 2.3285675e-24 1.7494438e-24
000240 3e 47 01 18 bd 1c 30 98 b0 61 95 96 da 3d f4 17
       1.6708827e-24 -2.2761976e-24 -2.4133898e-25 1.5783744e-24
000250 5d 86 6d 18 78 53 42 97 8d c9 27 98 74 0b 2b 98
       3.0699368e-24 -6.2790133e-25 -2.1686001e-24 -2.2107014e-24
000260 21 d9 2f 98 84 85 fe 96 70 15 69 98 a8 4e 51 18
       -2.2727842e-24 -4.1120173e-25 -3.0125367e-24 2.7052328e-24
000270 33 c3 3e 18 ed 62 30 98 aa 23 f7 97 c6 ab 4a 98
       2.4655475e-24 -2.2797412e-24 -1.5971004e-24 -2.6194612e-24
000280 8e d7 49 17 14 90 0b 98 70 69 7c 16 f0 43 33 17
       6.521867e-25 -1.803807e-24 2.0389668e-25 5.792377e-25
000290 24 52 52 98 b2 d5 14 18 52 38 80 98 e8 b4 17 98
       -2.7183334e-24 1.923644e-24 -3.3144093e-24 -1.9607627e-24
0002a0 b0 dd 3d 18 cc 88 be 97 aa e0 b8 17 9d c6 6f 18
       2.4539601e-24 -1.2312995e-24 1.1947434e-24 3.09903e-24
0002b0 a0 8e e3 97 46 c2 c6 17 db 6a 2c 98 dc 04 bb 97
       -1.4705535e-24 1.2844492e-24 -2.2284427e-24 -1.2085818e-24
0002c0 24 a8 ae 17 c0 90 97 15 08 c2 60 17 d2 80 1f 18
       1.1286931e-24 6.121679e-26 7.2623205e-25 2.0615306e-24
0002d0 30 f7 47 98 7e 8f c9 17 bc e1 c1 97 0a e9 22 18
       -2.5844945e-24 1.3025543e-24 -1.2529316e-24 2.1055664e-24
0002e0 aa d3 be 97 d0 4f 79 16 04 2c 56 18 5e 3d 58 98
       -1.2331894e-24 2.0139244e-25 2.7681074e-24 -2.7948328e-24
0002f0 ee 58 a3 17 c0 6b 34 17 04 d2 46 18 18 1e c1 16
       1.0556077e-24 5.8297136e-25 2.5696931e-24 3.1199824e-25
000300 54 d8 c1 17 d2 00 81 98 64 76 3f 98 15 87 1a 18
       1.2526942e-24 -3.3346547e-24 -2.4745943e-24 1.9972232e-24
000310 bf 4e 3e 18 52 28 65 1b 96 2d c9 17 8c 47 19 98
       2.4596681e-24 1.8955464e-22 1.3000828e-24 -1.9810908e-24
000320 d0 5a 0e 98 76 e3 07 98 09 e3 c2 17 8e b7 10 18
       -1.8398918e-24 -1.756318e-24 1.2594268e-24 1.8704235e-24
000330 21 b7 67 18 9d 7d 5c 18 c8 f9 35 18 43 35 22 a0
       2.9948507e-24 2.8497752e-24 2.3519809e-24 -1.3739557e-19
000340 20 6f 41 18 2f d8 de 17 19 78 22 98 a2 4a 33 18
       2.500077e-24 1.4400986e-24 -2.0998643e-24 2.3172888e-24
000350 0a db 44 18 cb e0 29 18 4c e3 bd 96 a4 47 51 98
       2.5442993e-24 2.195623e-24 -3.0678041e-25 -2.7048786e-24
000360 50 3a 95 15 3a 74 3c 98 7a 00 93 97 bc a3 80 18
       6.027262e-26 -2.435711e-24 -9.499773e-25 3.3252554e-24
000370 b4 fa 08 97 da 31 f9 97 88 ff df 97 e8 9e 82 16
       -4.42604e-25 -1.6103832e-24 -1.4475542e-24 2.1102917e-25
000380 70 bf 65 18 99 4f 4a 18 70 20 0f 97 ef 78 ba 17
       2.9694208e-24 2.6148075e-24 -4.6246734e-25 1.2050496e-24
000390 dc 01 21 98 72 df 7c 98 58 94 e0 17 91 77 6b 18
       -2.0809701e-24 -3.2683048e-24 1.4513108e-24 3.0433404e-24
0003a0 e8 f7 dd 97 24 43 7f 97 31 f3 92 17 d8 3c 4a 97
       -1.4344371e-24 -8.2479687e-25 9.496419e-25 -6.5346516e-25
0003b0 df ab 2d 98 a7 ce 60 98 58 03 b7 97 4b d2 fb 97
       -2.2446499e-24 -2.9055654e-24 -1.1826942e-24 -1.627358e-24
0003c0 45 c1 c0 17 78 02 41 18 b3 d2 e9 17 82 d8 08 98
       1.2456497e-24 2.4945912e-24 1.511046e-24 -1.7686897e-24
0003d0 1a 9d 40 18 b8 83 e3 96 a9 b6 49 98 dc 63 2b 18
       2.4894734e-24 -3.6756954e-25 -2.607086e-24 2.2151648e-24
0003e0 b3 ef d5 17 32 20 66 98 0e 91 0e 98 65 b1 ad 97
       1.3825311e-24 -2.9743058e-24 -1.8426304e-24 -1.1224644e-24
0003f0 a8 3b 31 18 9e 43 54 9e 08 2a cc 18 9a 5d 00 98
       2.2906833e-24 -1.12371695e-20 5.2775205e-24 -1.6590869e-24
