models/EURAUD_model.pth (torch, 860300 bytes, 15 tensors)

lstm.weight_ih_l0 f4 [512, 12]
000000 7d 19 4e be 62 69 5d be ad fc 55 be 64 2c bf bd
       -0.2012691 -0.21622232 -0.2089717 -0.09334639
000010 19 f5 a5 3c dd ba 1a be d5 35 2b be 04 10 f9 3b
       0.020258473 -0.15110345 -0.16719754 0.007600786
000020 ea 17 b0 3e cd fd 9f bd 00 2a a2 be c7 49 fa bc
       0.34393245 -0.078120805 -0.31672668 -0.030552758
000030 ca 90 a7 bd a1 f7 bd bd 31 6b 4f be 94 23 25 be
       -0.08181913 -0.09275747 -0.20255734 -0.16126853
000040 ce a6 94 3e 07 c4 ff bd f6 cc 49 bd 0a 03 78 be
       0.29033512 -0.12488561 -0.04926773 -0.2421991
000050 b5 91 19 3e 9b b3 f5 bd c0 77 d0 be 50 91 a5 bd
       0.14996989 -0.11997148 -0.40716362 -0.08084357
000060 52 bb 34 be 63 0d 87 be 73 9b 8d be 4a d3 3b be
       -0.17649582 -0.263774 -0.2765766 -0.18342319
000070 96 04 87 3e e3 c8 59 be fc ca 30 be ad 94 5d bd
       0.26370686 -0.21268038 -0.17264932 -0.054096866
000080 33 4a 57 3e 16 7c 81 bd 31 0b 54 3b 28 e0 2b bd
       0.21024399 -0.06322496 0.0032355303 -0.04196182
000090 7e ca 85 3d 15 b9 c4 3d 9e 74 3a 3d d8 23 9c bc
       0.06532763 0.09605614 0.04552137 -0.01906006
0000a0 f4 4e 50 3f dc ff c3 3d 2d 48 03 3e d1 5c 4e be
       0.8137047 0.09570286 0.12820502 -0.20152594
0000b0 54 df ae 3d d0 78 28 be 5d c0 07 bf bc 64 58 be
       0.0853869 -0.16452336 -0.530279 -0.21132177
0000c0 16 65 a8 be fb bf ab be 4e 92 60 be 58 bf 39 be
       -0.32889622 -0.33544907 -0.21930811 -0.18139398
0000d0 00 55 9f bd ce 3c b1 be e2 99 9d be 74 f1 34 be
       -0.07779884 -0.34616703 -0.30781466 -0.17670232
0000e0 13 55 33 bc cc 5e 8e bd 2e a0 bb bd 96 45 9d bd
       -0.010945576 -0.06951675 -0.09161411 -0.07679288
0000f0 55 1e 2e 3e 49 54 83 3e e9 78 41 3e b7 fc 3a 3e
       0.17003758 0.25650242 0.1889378 0.18260466
000100 bb f4 b9 3e 1e 10 8a 3e 1a f4 95 3e 43 dc 66 bd
       0.36319527 0.2696542 0.29287797 -0.0563624
000110 c8 3f 87 3e 52 46 18 3e b3 31 a0 3e cb f0 3c be
       0.2641585 0.14870575 0.31287917 -0.1845123
000120 5f d0 2d be 3f 9a 83 be 75 20 66 be be d4 9b be
       -0.16974019 -0.25703618 -0.22473319 -0.30435747
000130 b6 c4 19 3d 05 de 89 be f4 d6 90 be f8 1c 6a bd
       0.037541114 -0.269272 -0.28288996 -0.057156533
000140 e6 51 d3 3b 83 06 a7 bd f7 16 64 3d da d5 6f 3a
       0.006448972 -0.08155539 0.055685963 0.0009148993
000150 09 a4 4d bd fa a9 43 bd 5c ba e0 bd 15 00 12 be
       -0.050205264 -0.047769524 -0.10973045 -0.14257844
000160 ed d1 70 be 44 93 03 be 3d 46 1e bc 61 d3 21 bf
       -0.2351758 -0.12849146 -0.009660301 -0.63213164
000170 fa 5b 9d bd c9 6b c7 bd c3 43 d9 be 27 4d be be
       -0.07683559 -0.09737355 -0.4243451 -0.37168238
000180 a2 8a ad bd 2e 00 48 bd df 2a 54 be 35 fd 02 be
       -0.08473708 -0.048828296 -0.20719479 -0.12791903
000190 1b 3d a4 bd 28 62 04 be 73 5a df bd b0 7e 22 3d
       -0.080194674 -0.12928069 -0.10905924 0.0396716
0001a0 88 73 44 3e 17 e4 65 3d b1 9a c8 bc ae ee 2c be
       0.19184697 0.056125727 -0.024487825 -0.16887924
0001b0 6e b6 9f be 0b c3 86 be 3f 4c 9a be 9c 6d b3 be
       -0.3119387 -0.2632068 -0.30136296 -0.35044563
0001c0 d3 f4 ea bd ed 13 89 be 08 06 a4 be 49 f2 c8 bd
       -0.11472478 -0.26773015 -0.3203585 -0.09811837
0001d0 10 c5 ed 3b ac 0a 25 3c 11 46 e5 bc d5 59 b5 bd
       0.0072561577 0.010073345 -0.027987512 -0.08855025
0001e0 b1 f4 dc bd 30 ec f4 bd 8a d1 c6 bd c3 6a 3b bd
       -0.10788859 -0.11959112 -0.09707935 -0.045756113
0001f0 13 14 a0 bc 0f e6 eb bd 9b 5d d8 3c b1 d9 fc 3e
       -0.019540822 -0.115184896 0.026411822 0.49384835
000200 1f 29 7d 3d 2d c2 4e bd 80 92 a9 bd 1c 6b ce 3e
       0.061806794 -0.05047815 -0.08279896 0.40316093
000210 32 2a fe 3d 72 7b 05 bd 35 81 8f bc ec 62 46 bd
       0.12410392 -0.03258843 -0.017517665 -0.048434183
000220 10 6f 0a 3e 44 65 d0 3c b1 a3 59 bd ff 12 83 3d
       0.1351893 0.025438912 -0.053134624 0.064001076
000230 3b b3 97 bd 79 68 76 be 2d 5c 88 3e fe 9e a4 bc
       -0.074072324 -0.2406329 0.26632825 -0.020095345
000240 ac 31 67 be 8c ba 7f be f4 9d 27 be 25 60 4a be
       -0.22577542 -0.24973506 -0.16368848 -0.19763239
000250 57 0c dd bb 0a cd 0c be de 3b 43 bd a1 03 f9 3d
       -0.006745856 -0.13750091 -0.047664516 0.12158895
000260 05 57 43 be d3 fd 9f bd 4d 57 10 be 0f 5a 85 bd
       -0.19076164 -0.07812085 -0.14095803 -0.06511318
000270 cc b3 39 be 52 da 14 be 56 47 1c be e3 ec ad bd
       -0.18134993 -0.14536408 -0.15261588 -0.08492448
000280 fd e4 a8 3d 07 96 5e be 79 d0 90 bd fe a1 1b 3e
       0.08246801 -0.21736918 -0.07071013 0.15198514
000290 31 00 ea 3c ac 12 a9 3c 28 8d 11 3e ba df a1 3d
       0.028564544 0.020638786 0.14214003 0.079040006
0002a0 f1 14 0d be 79 10 43 bd 3f 17 74 bd df 38 b7 bd
       -0.1377752 -0.04762313 -0.05959248 -0.08946394
0002b0 ed 05 04 3d 11 3d f7 bd 9c 56 ee bd 96 d0 5c bc
       0.032232214 -0.12072194 -0.11637613 -0.013477465
0002c0 33 05 d1 3d a1 ad e0 bd 31 d7 72 be 0c 7b 16 be
       0.1020607 -0.10970617 -0.23714902 -0.14695376
0002d0 9a 9f 79 be 3c 80 b6 be 76 9f 89 be 15 98 83 be
       -0.2437729 -0.3564471 -0.26879472 -0.25701967
0002e0 2c 66 2a 3c 4e 6a c1 be 62 2e 81 be 98 89 a7 be
       0.010400336 -0.37776417 -0.252307 -0.32722163
0002f0 24 67 92 be 7b 79 16 be 32 e9 4d be 8a 68 b3 be
       -0.28594315 -0.14694779 -0.20108488 -0.35040694
000300 9c 9a ed bd 84 03 dd bd 4e 65 12 be 93 bb 48 be
       -0.11601755 -0.10791686 -0.14296457 -0.19602804
000310 d6 b2 7f be b3 45 3e be ae 13 99 bd 6c fb 93 be
       -0.24970564 -0.18581276 -0.07474457 -0.28902757
000320 b7 a9 c4 be 33 25 b0 bd 25 2b d4 bd bc 9f 0f be
       -0.38410732 -0.08600845 -0.10359792 -0.14025778
000330 fd 59 66 be 3b 24 9c be 85 9b 4b be 45 ad 29 be
       -0.22495265 -0.30496392 -0.19883545 -0.16570003
000340 d7 7d de bd 4b bf 93 be 21 ff a9 be 08 f0 00 be
       -0.10863846 -0.28856882 -0.3320246 -0.12591565
000350 dc fd 2a be 9b ca b8 bd c7 d1 63 bd 27 b3 22 be
       -0.16698402 -0.09023019 -0.05561998 -0.15888654
000360 7d f2 a0 bb 82 3d ee bc 79 14 92 bd d8 60 00 be
       -0.0049117194 -0.029082064 -0.07132811 -0.12536943
000370 b6 cb 82 3e 1c f3 71 bd cd f4 b3 bd e5 0c c7 be
       0.25546044 -0.059069738 -0.087869264 -0.38877025
000380 50 f8 74 3e b5 d8 a4 be fc ef 46 be a7 0c f2 be
       0.23922849 -0.32196584 -0.19427484 -0.47275278
000390 5a 87 26 be 96 9d 14 bd fc 9a 97 bd 5e 6d 08 be
       -0.1626257 -0.0362831 -0.07402608 -0.1332297
0003a0 fd 4e e4 bc 34 36 cc bd 79 69 6e be 4c 5f b3 be
       -0.027869696 -0.09971276 -0.23282422 -0.35033643
0003b0 97 77 0e bf 58 fb 92 be 33 24 27 bd f7 d7 a2 3a
       -0.5565123 -0.28707385 -0.040806007 0.0012423982
0003c0 29 ec c4 bd fd 76 79 bc 31 2c d0 3a ec 00 8f bd
       -0.096153565 -0.015226123 0.0015882311 -0.06982598
0003d0 83 19 95 3d 5a 7e 49 bc 0d be c8 bd 55 4a de bd
       0.072802566 -0.012298191 -0.09801874 -0.108540215
0003e0 50 02 13 be d4 b3 9c be 68 3e e5 3c 7c 65 04 bd
       -0.14356351 -0.30605948 0.02798386 -0.032323346
0003f0 18 1e a3 bd ff 0a 3b 3d b6 b4 49 bd 49 e7 e9 bd
       -0.07964724 0.045664784 -0.049244605 -0.11421067

lstm.weight_hh_l0 f4 [512, 128]
000000 95 44 2b be c2 94 5e 3e 55 48 04 be ac 30 52 3d
       -0.1672538 0.21736434 -0.12918217 0.05131595
000010 33 15 82 be 93 04 c0 be 61 c9 86 be d9 c7 21 3e
       -0.254068 -0.3750349 -0.26325515 0.15798892
000020 dc 3d 7a bc ef 14 b6 3d 64 c3 f7 3c a2 b7 84 3d
       -0.0152735375 0.088907115 0.030244537 0.06480338
000030 f0 97 ad 3d 82 4a 08 3d 3d d2 a0 be 4c ff 1b 3e
       0.084762454 0.03327418 -0.314104 0.15234107
000040 b8 1a 8e bd d4 1f 8f be 8a 4f fb bd 01 56 33 be
       -0.0693869 -0.2795397 -0.1227103 -0.17513277
000050 07 65 9d 3d 1a af f9 3e 56 13 a0 3c 38 b6 76 be
       0.07685285 0.48766404 0.01954047 -0.24092948
000060 8e b0 a1 be 01 74 85 3d 87 1e 31 3d 3b 4e 37 3d
       -0.31580013 0.065162666 0.043242004 0.04475234
000070 0e 9c 93 3e 88 93 06 3e 1d ae 1f be f5 2a ba be
       0.28829998 0.13142216 -0.15593763 -0.363609
000080 36 6b 36 be 90 6f d4 3d 9c 98 7f be 93 8d c2 be
       -0.17814335 0.10372841 -0.2496056 -0.37998638
000090 d2 bd ed 3c 07 f2 73 be b1 e9 18 3e f4 f7 fc 3d
       0.029021177 -0.23822795 0.14932896 0.12351981
0000a0 55 80 63 be 5e 5b 3a be 27 a8 cc 3e 39 3d 01 be
       -0.22216924 -0.18198916 0.3997204 -0.12621011
0000b0 55 80 30 be fa d8 12 be 2d a6 6f bc 68 cb 06 be
       -0.17236455 -0.14340582 -0.014627022 -0.13163531
0000c0 40 1f 9a be 05 bb a6 3d 2f 11 33 be ea 43 be be
       -0.30101967 0.0814114 -0.17487024 -0.3716119
0000d0 73 ec 9a 3e 6f 6c d6 be 22 0b ca bc e5 25 0e 3f
       0.3025852 -0.41879603 -0.024663512 0.5552657
0000e0 aa ec 81 be d8 98 c7 3e 65 65 97 3e 7a 98 cf bd
       -0.25375873 0.38983798 0.29569545 -0.101365045
0000f0 be 89 4c 3e a3 00 b2 3d 0c 75 b6 3d 39 0a 17 be
       0.1997442 0.08691528 0.08909044 -0.14749993
000100 c9 55 0c be fc b1 04 3e 39 a6 1b be 9f 93 1f 3d
       -0.137046 0.1295852 -0.15200128 0.03895914
000110 44 ba 9c be 86 b4 79 bb dd 7b 83 3e 1f 14 0f 3e
       -0.3061086 -0.0038101985 0.25680438 0.1397252
000120 47 b2 53 bd 63 76 03 3e fc ce 1f 3e 40 de 21 be
       -0.05168369 0.1283813 0.15606302 -0.15807438
000130 6d ae 34 3e fa 03 0b 3e e2 66 8f bc 0c b0 a4 bd
       0.17644663 0.13575736 -0.017505113 -0.08041391
000140 6a 3d cf be 8d 9e 31 bd c1 78 98 be 1c f7 8d 3b
       -0.40476543 -0.043364096 -0.29779628 0.0043324362
000150 f2 21 4a 3e f2 4f ba 3d 82 19 d2 be 3f d7 7b be
       0.19739512 0.090972796 -0.41035086 -0.24593829
000160 cc 71 4b be ce 6a 69 be be 05 a4 be ba 86 a6 be
       -0.19867629 -0.22794649 -0.3203563 -0.32524663
000170 8e 71 80 bc a2 5a fa 3e 55 fc c3 3e d9 3a d7 3e
       -0.015679147 0.48897272 0.38278452 0.42037085
000180 68 d1 06 3e 05 f6 9f 3e 22 97 89 be 38 60 ed 3d
       0.1316582 0.31242386 -0.26873118 0.11590618
000190 fa d6 9f be b4 94 92 be 8a b8 e4 bd e3 45 16 3c
       -0.31218702 -0.28629076 -0.111680105 0.009171936
0001a0 86 63 21 3e 9d 8d 4c be d1 f9 40 bd 1e 0c 78 3e
       0.15760621 -0.19975896 -0.047113243 0.24223372
0001b0 c5 30 74 3d dc 48 58 be 90 c3 8b 3d 45 c2 2a be
       0.059616823 -0.21121544 0.0682441 -0.1667567
0001c0 01 56 09 3e 3b df b4 3e 6d 7b 99 be 83 a4 5c 3e
       0.13411714 0.3532656 -0.2997698 0.21547131
0001d0 b0 3a 63 be 12 a9 15 3e 5e b9 b5 3d e8 4f 1e be
       -0.22190356 0.14615276 0.088732466 -0.1546017
0001e0 9a 0a a7 3d bb 28 f1 3e ec 25 08 bf de 3b 90 3b
       0.08156319 0.47101387 -0.53182864 0.004401668
0001f0 a5 a7 9a 3b fe 7e ba 3d 11 b0 8f 3e b6 34 05 be
       0.004719692 0.09106253 0.28064016 -0.13008389
000200 c8 3a 73 bd ce 8b bd be cb 3a 29 3d 88 36 af 3e
       -0.05938223 -0.37020725 0.041315835 0.34221292
000210 78 b1 86 bc 89 8a 9e 3d 50 2a 44 bb 07 cd 96 be
       -0.016442046 0.07741267 -0.0029932447 -0.29453298
000220 f8 47 cb 3e 6c 40 10 bd 74 6b 61 be 58 b8 f2 be
       0.39703345 -0.035217687 -0.22013646 -0.47406268
000230 9c 8a ee 3e b9 5c 29 be 14 56 c0 3e 35 57 bb bd
       0.46590126 -0.16539277 0.37565672 -0.09147493
000240 67 a6 6f 3e 7e 94 6c be 63 e8 23 3d cb 79 bf 3d
       0.23403321 -0.2310352 0.040016543 0.09349402
000250 cd 24 18 be 39 a6 a9 3e 93 f0 8c be 90 dc ae 3e
       -0.14857788 0.3313463 -0.27527294 0.3415265
000260 7e 4b aa 3d 4d b0 92 3d ff c1 12 3f e6 0d 85 3e
       0.0831518 0.07162533 0.57327265 0.25987166
000270 fa 99 8e 3e 04 ad 89 bd 97 e8 c4 bd 16 28 d2 be
       0.2785185 -0.06722453 -0.096146755 -0.41046208
000280 0f b0 49 bd bd 46 50 bd 8d f6 9f 3d c0 ca eb bd
       -0.04924017 -0.05084871 0.07810698 -0.11513281
000290 fe 6d 22 3d b4 9e a5 be 1a 63 25 3d 05 4a ef 3e
       0.039655678 -0.32347643 0.040377714 0.4673616
0002a0 b6 79 03 3e 53 1e 49 bd 65 33 4f 3c 53 79 a7 3e
       0.12839398 -0.049101185 0.012646531 0.3270975
0002b0 9d e6 9a bd 77 8c 6a 3b 6b 04 a5 be ee 6c 00 bf
       -0.07563517 0.003578929 -0.32229933 -0.50166214
0002c0 b3 67 ea bd 38 c5 4a 3d 89 20 8d be f9 cf 8d be
       -0.1144556 0.04950449 -0.27563885 -0.27697733
0002d0 ca b8 cf bd 3b 21 3c be 42 17 ad 3e 53 9c ba 3b
       -0.101426676 -0.18372051 0.33806807 0.005694905
0002e0 a2 8a 66 bd 00 82 35 be 46 db 46 be 6a 88 8f bd
       -0.056284554 -0.17725372 -0.19419584 -0.07008441
0002f0 89 39 1e be 8e 3e 08 bd ba 32 05 be f4 0a 40 bd
       -0.15451635 -0.03326278 -0.13007632 -0.046885446
000300 9b a3 05 3c c2 4d a4 3d e4 f4 16 3d 5c 8c b0 3e
       0.008156682 0.080226436 0.03685464 0.34482086
000310 d5 7a 0b be c0 dd bc bd 42 53 70 3e d1 b7 fc bd
       -0.13621075 -0.09221983 0.2346926 -0.12339748
000320 ca 0f 2c 3e e2 02 7a 3d e0 f2 87 be 71 37 60 3e
       0.16802898 0.061037906 -0.26552486 0.21896149
000330 f4 c9 d5 bd 01 75 6a be 06 fa c0 be 0a 97 c5 bc
       -0.1043891 -0.22896196 -0.37690753 -0.024119873
000340 70 6a 52 be 01 41 22 bc 75 2b 02 be 8e b7 64 bd
       -0.20548415 -0.009903193 -0.1271189 -0.055839114
000350 e1 2a 6e 3e 8b 79 51 3e 02 58 e4 bd 85 f7 19 3e
       0.23258545 0.20456521 -0.11149599 0.15035827
000360 3b 64 1f be 2a 65 d1 be 9b da b3 3e 74 6c 62 3d
       -0.15565579 -0.40897495 0.3512772 0.05527921
000370 25 b0 c0 bb 88 74 50 3e 43 e7 26 3d da 90 b2 3e
       -0.005880373 0.20356953 0.040747892 0.34876138
000380 a4 05 cb bc 9b 2c 81 bd fb aa 0f 3e a1 f0 bd 3e
       -0.024782963 -0.06307336 0.14030068 0.37097648
000390 6e 29 7c be 90 af a6 bd 51 da 79 be d7 5e 12 3e
       -0.24625179 -0.08138955 -0.24399687 0.14293991
0003a0 ad c9 98 be db a8 d6 bd d6 b6 df bd 09 e8 c8 be
       -0.29841366 -0.104814254 -0.10923545 -0.3923953
0003b0 a8 2e 0c bd 11 85 57 3e 4c 4f 64 3e 5d fb b4 be
       -0.034224182 0.21046855 0.22295874 -0.35348025
0003c0 30 ed 08 3d f7 23 b6 be 59 b6 12 be 58 a9 a9 ba
       0.033429325 -0.35574314 -0.14327373 -0.0012944145
0003d0 14 f8 3f 3e 4d 36 50 be 2d 89 94 be a9 70 91 be
       0.18746978 -0.20333214 -0.29010907 -0.28406265
0003e0 61 1b cc 3d a9 8d 6b 3e cb e7 50 bb d0 22 d8 bc
       0.099661596 0.23003258 -0.003187644 -0.026383787
0003f0 05 b2 2a 3b ff d5 7d 3e b4 52 db bd 2c bf 66 3d
       0.002604605 0.24788664 -0.10709134 0.05633466

lstm.bias_ih_l0 f4 [512]
000000 5b 6e 76 bd d5 e8 79 3d e9 d3 66 3c 14 f8 11 bd
       -0.060163837 0.06101306 0.014088609 -0.035636976
000010 02 44 e1 bd 2c bc 1d bd 73 61 2a 3d 49 6f 62 3d
       -0.109992996 -0.038509533 0.04159684 0.05528191
000020 2e df 03 3e 6e 95 e0 bc f1 2d 80 bd 06 ae 51 be
       0.12878105 -0.027415004 -0.06258763 -0.20476541
000030 12 3e 9b bd 81 04 7f bd ee b9 79 be fa 90 03 be
       -0.07580198 -0.062260155 -0.24387333 -0.12848273
000040 5b 1f 54 be 82 b4 f7 3b 0a ba 17 bd 8a 4a 26 be
       -0.20715086 0.00755936 -0.037042655 -0.16239372
000050 9c 53 74 be f4 de 15 3d 40 ed fe bd 9f 8a 35 bd
       -0.2386002 0.036589578 -0.124475956 -0.044321653
000060 74 9c 31 bd a2 6c 03 be ce 66 66 3c e6 22 83 bd
       -0.043362096 -0.12834409 0.0140625965 -0.06403141
000070 6c 02 8c ba ff 99 40 bd ff 21 30 bc 54 0e 24 be
       -0.0010681874 -0.047021862 -0.010750293 -0.16021091
000080 d7 3c 14 be be 36 22 be dc 16 21 be 16 b2 8f 3d
       -0.14476334 -0.15841195 -0.15731376 0.07016389
000090 ea fa fa bd 80 ad bc 3c 33 1f 14 bd 8c 5a 9c 3c
       -0.12254889 0.02303195 -0.036162566 0.019086145
0000a0 1d 46 db bd b2 84 4d be 9b 34 1b 3e 74 1d ca bd
       -0.107067324 -0.2007015 0.15156786 -0.09868899
0000b0 e8 50 ab bc e3 0d 5c be 3f 06 57 3c 2c 4d 69 be
       -0.020912603 -0.21489672 0.013124048 -0.22783345
0000c0 1b d6 10 bc 11 8a 4f be 95 dc 32 be f4 c0 ee 3c
       -0.008840109 -0.20267512 -0.17466958 0.029144742
0000d0 51 e8 f8 3c 93 f9 ea bd 7f f4 24 bc 99 a1 31 be
       0.030384215 -0.11473384 -0.010068058 -0.17346801
0000e0 0c e7 13 be 0a 2c 59 bd 1f 18 e0 bb 4a f7 91 3c
       -0.14443606 -0.053020515 -0.006838813 0.017818112
0000f0 5a da 87 bd fa df 28 bd e4 00 2d bc d0 4d 4c be
       -0.06633444 -0.041229226 -0.010559294 -0.19951558
000100 2f bc 2c be 36 99 4c be 98 fb 5c bd 4d 72 f4 bb
       -0.16868661 -0.1998032 -0.053950876 -0.007459915
000110 0c 5a 90 3c ab e4 2b be b4 2a 99 bd 00 27 5d bd
       0.017621063 -0.16786449 -0.07478848 -0.05399227
000120 56 5c 16 be 05 79 bc 3c e5 83 43 3d 5f de bc bd
       -0.14683661 0.023006925 0.047733206 -0.092221014
000130 ec 89 93 3c 66 29 83 3d e8 32 58 3d 92 9f 08 3c
       0.018010102 0.064043805 0.052782923 0.008338826
000140 f0 38 c0 bd 90 92 21 be ca 7e 94 bd 9a 23 2e be
       -0.0938586 -0.15778565 -0.072507456 -0.17005768
000150 60 84 ed bd 5e 04 39 be 25 5d 5c be 2f c8 16 be
       -0.11597514 -0.18068072 -0.21519907 -0.14724801
000160 56 bc 58 3d 5e 26 e6 bc 32 52 40 3e a0 5f c1 3d
       0.052913986 -0.028094467 0.18781355 0.09442067
000170 63 a4 6f be 86 94 b8 bd 5e c6 ed bd a3 d2 b6 3d
       -0.23402552 -0.090127036 -0.11610101 0.089268945
000180 87 41 56 be da c6 d4 3d d5 1d 4a be 6c 6b 69 bd
       -0.20923434 0.103894904 -0.19737943 -0.05698721
000190 53 d2 0f 3d a2 00 38 3d 71 84 ab 3d d6 72 f7 bd
       0.03511269 0.04492248 0.083748706 -0.1208245
0001a0 50 95 19 be 61 1a 4c be 56 45 85 be d6 c4 ba bd
       -0.14998364 -0.19931938 -0.26029462 -0.09119575
0001b0 3d 42 34 bd 56 80 a0 3c f7 b1 a6 bd d3 f5 8e bd
       -0.044008482 0.019592445 -0.08139413 -0.06980481
0001c0 26 0e b2 bd 1e 9a bd bc a5 bc 5b 3d e5 94 bb 3c
       -0.08694105 -0.023144778 0.053646702 0.022898147
0001d0 01 20 89 3d 73 55 88 bd a4 16 0e 3e dd a2 33 3d
       0.066955574 -0.06656923 0.13875824 0.04385649
0001e0 49 d5 12 be 1d 6a b5 bc f9 b3 cb bd 0b 79 95 bd
       -0.14339174 -0.022145325 -0.099464364 -0.07298478
0001f0 0d c8 09 3c 65 3d d7 bc 32 07 58 3d ac b9 be bd
       0.008409512 -0.026274392 0.052741237 -0.09312758
000200 d4 a9 8e bd f0 c4 7f 3c 81 ec 59 3e c5 f0 ac bd
       -0.06965986 0.015610918 0.21281625 -0.08444361
000210 b8 18 27 bc 8d 00 b2 be 9f 44 e7 3d df 50 29 3d
       -0.0101987645 -0.34766045 0.11292385 0.04133689
000220 aa 7c bc be 4d 0c 22 3d 66 b6 1b bd 32 c3 9b be
       -0.3681386 0.039562512 -0.038015746 -0.3042236
000230 d2 bc 26 be b6 54 a2 be 8b 8d 6a bd 6c 19 b7 bd
       -0.16282967 -0.31705254 -0.057263892 -0.08940396
000240 6b f7 b1 be cf 14 0d bd b6 63 ee be b2 5f 06 be
       -0.34759077 -0.034443673 -0.46560448 -0.13122442
000250 79 13 cc be c6 c1 d6 be 04 cf 4a bd dd 43 24 be
       -0.39858606 -0.41944712 -0.04951383 -0.16041513
000260 9b 36 5e bd 60 15 e9 bd 3e 94 80 3d 62 26 93 be
       -0.054251295 -0.1138103 0.06278275 -0.2874022
000270 4b 51 cc be 8e d8 c9 3b a4 74 0a bd 6f 85 b3 bd
       -0.39905772 0.0061598485 -0.033802643 -0.08765685
000280 3c 77 ff bd 29 59 bc bc 4a 41 cf bb 90 32 31 bf
       -0.12473914 -0.022991734 -0.0063249217 -0.6921778
000290 f9 5a 1e be 99 55 a7 be 54 e5 b6 be f6 ce 34 be
       -0.15464391 -0.32682493 -0.35721838 -0.17657074
0002a0 d2 2c 2f 3d 41 0a 00 be b5 a8 b8 be 76 23 08 be
       0.042767353 -0.12503912 -0.36066213 -0.13294777
0002b0 98 48 df be 70 a5 46 be 05 98 0f be d6 ae 02 be
       -0.43610072 -0.19399047 -0.14022835 -0.12762007
0002c0 ce 45 3e bd b5 01 6e be ac 42 91 bd c1 c9 ca be
       -0.04645329 -0.23242839 -0.07092795 -0.3960705
0002d0 d7 80 1d be 0d 12 99 be 6c 75 db be 81 e1 60 bd
       -0.1538118 -0.29896584 -0.42863023 -0.054902557
0002e0 d6 cc 24 be 14 4d ae bd 10 8d 2e bd 92 51 d6 be
       -0.16093764 -0.08510795 -0.042614996 -0.41859108
0002f0 24 f6 73 be e8 72 1d 3d 91 b2 61 be a2 cd 43 be
       -0.23824364 0.03843966 -0.22040774 -0.19121411
000300 5f 5d 32 3c 8d 3c 3e 3d c1 88 25 be 76 15 b0 be
       0.010886519 0.046444464 -0.16165449 -0.34391373
000310 60 8b 07 bd 84 45 6f be 48 d1 7c be 3b d6 bb bb
       -0.033091903 -0.23366362 -0.2468921 -0.0057323254
000320 bd f0 50 be b5 46 46 be 84 08 3c be 23 3a 41 be
       -0.20404334 -0.1936291 -0.18362623 -0.18869834
000330 94 69 81 bd 07 26 b1 bd 73 ab 8f be 29 54 b1 bd
       -0.063189656 -0.08649831 -0.28060493 -0.086586304
000340 73 09 61 be bf 2d 86 be 62 5e 96 bd c7 e6 9f bd
       -0.21976261 -0.26206776 -0.07342221 -0.07807689
000350 11 88 ff bd a1 ce 41 be 5f 0f c3 be 9c a0 f8 bc
       -0.124771245 -0.18926479 -0.38097665 -0.030350022
000360 48 e5 2f bc 26 f2 cf bd 24 6a 54 bf 41 e4 51 be
       -0.010735817 -0.10153608 -0.8297446 -0.20497228
000370 78 b6 87 be 50 46 97 3d 90 c5 85 be db e9 e3 3d
       -0.265064 0.07386458 -0.2612729 0.11128589
000380 32 36 0a be 79 ac 69 3e 95 3e 96 be 7f 07 d5 bd
       -0.13497236 0.228197 -0.2934462 -0.104018204
000390 f8 9b 8f be 19 a1 37 bf 13 04 cd be 4f 2f f0 3a
       -0.28048682 -0.7173019 -0.4004217 0.0018324646
0003a0 e5 44 1e be 12 73 0d be 48 38 03 bf 4b 3b 41 be
       -0.15455969 -0.13813427 -0.51257753 -0.18870275
0003b0 39 f9 d8 bd dc 48 fe bc f1 31 ae bd 08 e5 a7 be
       -0.105944104 -0.031040601 -0.08505619 -0.32791924
0003c0 c6 a7 f8 bd 05 7c ce be 24 66 42 be dd a8 23 be
       -0.12141375 -0.40328994 -0.18984276 -0.15982385
0003d0 b3 01 18 bd 66 6a 7c bd 01 4d ec be cb b9 9e bd
       -0.037110996 -0.061624907 -0.461525 -0.07750281
0003e0 81 fe 33 bd 20 1d 77 bd 37 5e bf be 27 eb 50 be
       -0.043943886 -0.06033051 -0.37376568 -0.20402204
0003f0 c2 52 95 be a5 5c cd bd ac 37 42 bc de f4 ef 3d
       -0.29164702 -0.10027436 -0.0118540935 0.117166266

lstm.bias_hh_l0 f4 [512]
000000 91 ef 72 bd f4 f0 69 bc fc 11 71 3d 8e 3b 9a bd
       -0.0593105 -0.014278639 0.05885504 -0.075308904
000010 98 51 df bd d9 b7 8e 3d 3c 88 97 bc da 60 9f 3c
       -0.10904235 0.0696866 -0.018497579 0.019455362
000020 3a 41 f9 3d 51 f7 2f 3d 3b 1c 88 bd 90 a4 0e be
       0.12170644 0.04296047 -0.066460095 -0.13929963
000030 02 3b 83 bd dc 5f 64 bd e4 b0 5c be 65 2a c7 bd
       -0.06407739 -0.05575548 -0.21551853 -0.09724883
000040 da f8 dd bd eb 2a 0e be e1 e5 a8 bc 39 57 ae bd
       -0.1083848 -0.1388356 -0.020617427 -0.0851273
000050 14 e4 18 be 22 ae 1f 3b e4 e6 09 be 38 54 89 bc
       -0.14930755 0.0024365266 -0.13466984 -0.016763791
000060 82 8e 95 bd be ba 26 be 4d d4 09 bd cb 75 2a 3d
       -0.07302572 -0.16282174 -0.03364973 0.041616242
000070 2c 81 c2 3d 49 32 1b be 49 9b 89 bd 5f d1 02 be
       0.09497294 -0.15155901 -0.067190714 -0.12775181
000080 5f b0 74 be 1d 88 96 bd ee 7b ee bc cd 2e 06 3e
       -0.23895405 -0.0735018 -0.029111829 0.1310379
000090 18 f7 1f be d5 d0 0d bd 9f cc 2b 3d 52 89 9d bc
       -0.15621603 -0.034622986 0.04194319 -0.019230518
0000a0 dd 10 1d bd 1c fe 46 be f0 6c e9 3c 5d 13 47 bd
       -0.03834616 -0.19432873 0.028494328 -0.04860245
0000b0 5d 20 ab bd 31 e0 78 be 7b 95 9c bd a8 4f 6c be
       -0.08355782 -0.24304272 -0.07645699 -0.23077261
0000c0 3d 38 2f be 1a 6a b2 bd 17 8c 4c be 26 c0 fa bd
       -0.17111297 -0.087116435 -0.19975315 -0.12243681
0000d0 89 e0 85 bb de 70 27 bc ad 90 19 be 4d 4e bd bd
       -0.0040856046 -0.010219781 -0.14996596 -0.0924345
0000e0 92 a6 65 be 31 e4 a3 bd 6f 50 3c 3d 91 00 23 bd
       -0.22426823 -0.080025084 0.045975145 -0.039795462
0000f0 10 b4 d7 bd a0 7a 4a bd 76 46 98 bc 16 09 31 be
       -0.10532391 -0.04943335 -0.018588286 -0.17288622
000100 c2 60 e7 bd f4 d2 d0 bd a2 5b fe bc a1 d9 37 3b
       -0.11297752 -0.10196486 -0.031049553 0.00280533
000110 be 03 4e bd 22 c9 8d be ee 04 89 3b 2f 1c c1 3c
       -0.050296538 -0.27692515 0.004181496 0.02357301
000120 40 37 ab bd 67 87 12 3d f3 2f c3 bb 5d 15 fb bc
       -0.083601475 0.03577366 -0.0059566437 -0.030649835
000130 f6 07 16 bb 82 6d ec 3d 7f 94 a1 bd f0 39 d1 bd
       -0.0022892929 0.115443245 -0.078896515 -0.10216129
000140 19 56 b8 bc 6e ce 01 be 3b 4d f8 bc 60 2d 65 be
       -0.022501992 -0.12676403 -0.030310264 -0.2238059
000150 3c 62 b6 bd a2 27 b4 bd 5b 76 2d be 77 e2 ee bd
       -0.089054555 -0.08796622 -0.1693968 -0.116642885
000160 be cf 44 3c 3e 73 20 be 38 37 6f 3d 31 c2 36 3d
       0.01201242 -0.15668961 0.05840227 0.04461879
000170 b3 a0 8b be ca cb fa bd f1 91 aa bd 2a a1 55 3d
       -0.2727104 -0.12245901 -0.08328617 0.05215565
000180 5b 12 27 be f8 1d ab 3d 31 b0 65 be 95 e2 36 be
       -0.16315596 0.083553255 -0.22430493 -0.17859872
000190 f7 a8 ef bc 1a f9 09 3e b7 13 ac 3d 1f 3c ed bd
       -0.029255373 0.13473931 0.08402198 -0.11583733
0001a0 7e d8 0d be d1 51 59 be ba b3 58 be 77 5d ce bc
       -0.13852116 -0.21222617 -0.2116231 -0.025191052
0001b0 94 a7 f1 bc 75 a3 e0 3c 75 24 e5 bd a6 a9 48 bd
       -0.029498853 0.027421692 -0.11188594 -0.048989914
0001c0 bc bf fb bd 41 16 41 bd 87 84 3f 3d 68 9b 23 bd
       -0.1229243 -0.047140364 0.046757247 -0.03994313
0001d0 a2 aa 75 3d 8b cf ae bd 58 a1 9e bc e7 e5 87 3d
       0.05997718 -0.085356794 -0.019364044 0.06635647
0001e0 8b 71 0e be 27 db 33 bd f4 63 e8 bb 47 1d c0 bd
       -0.139105 -0.04391017 -0.0070919935 -0.09380584
0001f0 03 cb 6c bd 3b 47 ad bd e8 57 54 bd b9 be 84 3d
       -0.057810795 -0.08460852 -0.051841646 0.0648169
000200 ec 6e a7 3d 4c 5d 0f bd bd 43 88 3d c2 28 35 be
       0.081754535 -0.035001084 0.06653545 -0.17691329
000210 1f ad 09 3d e5 c5 ae be ec 58 5c 3d e9 8d 6f bd
       0.033612367 -0.34135357 0.05379574 -0.058484945
000220 aa 98 c0 be be ce c9 3d 9e d5 20 bd 01 5f 38 be
       -0.37616473 0.09853886 -0.03926622 -0.18004991
000230 1f 24 93 bd 7c 2e b1 be 4e 1f c2 bd be f8 29 be
       -0.07184624 -0.34605777 -0.09478627 -0.16598794
000240 56 c2 6a be 67 20 60 3d 48 6b 9d be d1 09 3f be
       -0.22925696 0.0547184 -0.30745912 -0.18656088
000250 d7 ee d6 be 1a 5e ad be d0 b1 f1 bd 6d 20 a5 bd
       -0.41979095 -0.33860856 -0.11801493 -0.08062825
000260 d5 0c e8 bd 5e 53 2f be d6 66 8c 3c 64 22 58 be
       -0.113305725 -0.17121646 0.01713888 -0.21106869
000270 57 8a aa be 6b f9 49 bd e6 79 2f be e3 4f df bd
       -0.3330867 -0.04931013 -0.17136344 -0.10903909
000280 06 4d f4 bd 97 c8 09 be c3 b8 96 bd 7a 2a 3b bf
       -0.119287536 -0.13455425 -0.07359459 -0.7311169
000290 f5 bf 32 be b4 db 7d be 62 61 ea be eb dc cd bd
       -0.17456038 -0.24790841 -0.45777422 -0.100519024
0002a0 2c e6 8a bd 49 87 4e be 99 b9 8f be 62 2e 1b be
       -0.06782183 -0.20168795 -0.28071287 -0.15154412
0002b0 d6 05 b0 be a2 11 36 be e1 18 5e bd 25 c9 36 be
       -0.34379452 -0.17780164 -0.054222945 -0.17850168
0002c0 88 0b 1b bd b9 a5 10 be dc c6 48 be 13 1d bb be
       -0.037852794 -0.14125718 -0.19607109 -0.3654562
0002d0 6d c8 2d be 5f 56 83 be 20 ca d2 be 87 b1 c3 bd
       -0.16970988 -0.25651833 -0.41169834 -0.09555345
0002e0 42 05 9c bd 84 26 84 bd 03 d1 86 bd 5a 03 b5 be
       -0.0761819 -0.06452659 -0.065828346 -0.3535412
0002f0 8f 2d 81 be 75 df 2c bd b8 53 89 be 56 b7 6f be
       -0.2523007 -0.042205293 -0.26821685 -0.23409781
000300 38 61 68 3d 1a cb b4 bd c0 a3 d2 bd b4 76 bf be
       0.05673334 -0.08827801 -0.10285139 -0.3739525
000310 bd 83 f1 3c 64 b0 76 be 76 23 84 be a3 21 62 bd
       0.029481763 -0.24090725 -0.25808305 -0.05520786
000320 f6 72 85 be 02 a4 89 be 90 6c 51 be c0 c1 8c be
       -0.2606427 -0.2688294 -0.2045157 -0.2749157
000330 44 13 fd bd 53 56 d9 bd 85 6a 7e be 83 49 ab ba
       -0.1235719 -0.10612168 -0.24845321 -0.0013068173
000340 c1 7d fc bd 58 b5 3a be 39 ce aa bd d7 fc 98 bd
       -0.12328673 -0.1823324 -0.08340115 -0.074701004
000350 d9 a8 bb bd 8f ef 41 be 71 40 ce be 54 e1 f5 bd
       -0.091630645 -0.1893904 -0.4028354 -0.120058686
000360 9a c5 be 3d b3 9c 14 be aa a7 5c bf 4e bb b3 be
       0.09315033 -0.14512901 -0.86193335 -0.3510384
000370 d0 16 9c be ce 7a 57 3e d6 fb 49 be 05 9e be 3d
       -0.30486155 0.2104294 -0.19724974 0.093074836
000380 b2 ef 24 3c 5f f4 33 3e 7b 08 be be e9 93 3b be
       0.010066913 0.17573689 -0.37115845 -0.18318142
000390 02 0a aa be df 6d 33 bf ae 31 7b be b4 93 ac bd
       -0.3321076 -0.70089525 -0.2453067 -0.0842661
0003a0 52 db f0 bd 2a 63 d4 bd 78 38 eb be 41 cf 6d be
       -0.11760582 -0.103704765 -0.4594152 -0.23223592
0003b0 44 e5 f0 bd a6 84 bc bd 6d af c0 bd e0 3f af be
       -0.11762479 -0.09204988 -0.0940846 -0.3422842
0003c0 7c c9 0e be 41 82 a2 be 20 d8 71 be 0d 59 4c be
       -0.13944048 -0.3174 -0.23617601 -0.19955845
0003d0 72 5e 48 bc b3 a1 99 bd e3 86 0b bf 2f 8e cb bc
       -0.012229549 -0.07501545 -0.54502696 -0.024848072
0003e0 7a 81 38 be c5 ba 68 bd 4b 28 d0 be b3 a7 4a be
       -0.18018141 -0.056818742 -0.4065574 -0.19790535
0003f0 fe 4b 8f be 1d ca 33 be 84 52 7e ba 6b 29 28 3e
       -0.27987665 -0.17557569 -0.0009701627 0.1642205

lstm.weight_ih_l1 f4 [512, 128]
000000 80 73 af bb d1 f2 0e be 78 a2 f1 3d bd 35 65 3e
       -0.005354345 -0.13959815 0.117985666 0.22383781
000010 23 38 69 3d e1 3f 85 3e 4b 5f 93 3d aa ba 11 be
       0.0569383 0.26025298 0.0719591 -0.14231363
000020 b0 c0 eb bc d5 3a 10 be 1f 12 b3 3c 87 64 d3 3d
       -0.028778404 -0.14084943 0.021859227 0.103219084
000030 c3 6e 0e 3e fd fc 88 3c 25 3e 26 3d 00 b2 a9 bc
       0.1390944 0.016722197 0.04058661 -0.02071476
000040 b4 d5 20 3e 57 ca 26 3e cc b2 a9 bd 42 83 65 bd
       0.15706521 0.16288124 -0.08286056 -0.05603338
000050 03 15 e4 bd e1 8f df 3d 9b 4b 03 bd fe 7f 08 bd
       -0.1113682 0.109161146 -0.032054525 -0.033325188
000060 58 61 b1 3d c3 e9 14 3d 87 3b 9f 3d d3 43 bd bd
       0.08661145 0.036355745 0.07775026 -0.09241452
000070 ca 28 2a bd cf b2 a7 bd 92 01 5b 3d 53 22 9a bd
       -0.041542806 -0.08188402 0.053468294 -0.07526078
000080 a6 48 3a 3d 3c 72 a0 bc 71 24 10 3e a8 2e c2 bd
       0.04547944 -0.019585721 0.14076401 -0.09481555
000090 74 3e e8 bd 3b 2e 9f bd d8 0b a5 3d 95 cf 49 bd
       -0.11340037 -0.0777249 0.080589 -0.04927023
0000a0 96 09 06 3e 7c 42 63 bd 03 5f e8 bc f3 d4 9e 3d
       0.13089594 -0.055483326 -0.028365618 0.077554606
0000b0 87 d6 78 bd 6f 23 5d bd b0 5c 1c bb b9 d9 2d bd
       -0.060751464 -0.05398887 -0.0023858957 -0.042443965
0000c0 ba 75 d4 3d 9e 88 50 3c e7 05 09 be ea ca bd 3d
       0.10374017 0.012727885 -0.13381158 0.092672184
0000d0 7b 75 c5 3d 89 13 82 3e 5f 86 f3 3d 58 7a b7 bd
       0.09641548 0.2540553 0.118908636 -0.08958882
0000e0 92 75 5b 3e 30 35 f6 3c 37 49 fd 3b e8 53 cf 3d
       0.21431568 0.030054659 0.007729675 0.10123426
0000f0 fe 7e 33 bc 56 6d d5 3b 37 d3 03 be 32 07 42 be
       -0.01095557 0.006513278 -0.12873541 -0.18948057
000100 d3 52 fa ba 1d 65 ae 3d 6c 73 af bd bd 04 4d bd
       -0.001909817 0.085153796 -0.08566937 -0.050053347
000110 ad 5e 95 3d 4c b4 0e bd 78 d1 11 3e 00 da 28 be
       0.072934486 -0.034839913 0.14240062 -0.1648941
000120 d9 31 60 3d 3e 12 86 bd ab d9 27 3d d6 63 b8 bd
       0.05473504 -0.06546448 0.04097907 -0.09003417
000130 55 5b 6b bd 83 4c bb bd ed 04 8f 3c c6 31 5a 3d
       -0.057460148 -0.09145453 0.017458403 0.053270124
000140 21 d1 67 be 2d ec 19 3d 5d 49 af 3d 94 c0 f4 3d
       -0.2263837 0.03757875 0.08558915 0.11950794
000150 54 c8 0f 3d f5 fb 29 be b4 6b fb 3d 9b 02 fe bd
       0.035103157 -0.1660002 0.12276402 -0.12402841
000160 91 8e 66 3d e8 09 09 3d 77 9d 05 3d 49 1e 8d bd
       0.056288306 0.033456713 0.032620873 -0.06890542
000170 32 a9 65 bd 31 28 df bc 32 29 92 3d 08 4a 15 be
       -0.05606956 -0.027240844 0.07136764 -0.14579022
000180 41 7a c8 3c 73 f8 cd 3d 4f 44 6e 3d 9d 1e 38 bd
       0.024472358 0.100571536 0.058170613 -0.04495107
000190 4f 41 e5 bd 99 07 4b 3c 67 1e f8 bd 0e 88 95 bd
       -0.11194097 0.012391948 -0.12115174 -0.07301341
0001a0 21 a4 bd 3d 85 71 14 3e 38 cb ea 3c b0 05 c1 bc
       0.09259821 0.1449643 0.028661355 -0.023562282
0001b0 c6 75 f4 3c 3f 82 fa bd 02 42 01 bb 12 e1 6e 3d
       0.029841315 -0.12231874 -0.0019723182 0.058320113
0001c0 49 4a 70 3d 6a c1 32 3e 18 bd d5 bc fd db bc bb
       0.058664594 0.17456594 -0.026091143 -0.0057635293
0001d0 9c 0b af bc 3b 6d 68 bd 64 9f 0b 3e c0 e9 f5 3d
       -0.02136784 -0.056744795 0.13635021 0.12007475
0001e0 66 1a 30 b8 80 09 e2 3b 77 1a 5b bd 06 ff 40 3d
       -4.1986255e-05 0.006898105 -0.053492036 0.04711821
0001f0 75 9b a0 bd ff e2 3c 3d 3d fd 16 bd b9 55 0c 3b
       -0.07842151 0.046114918 -0.0368626 0.00214134
000200 8c ca 79 3d fd 66 85 bd 9b 59 36 3e dd 72 00 bd
       0.06098418 -0.06513784 0.1780762 -0.031359542
000210 f1 06 fd 3d bb d0 af bd 4c da a8 3d b7 61 fe 3d
       0.123548396 -0.08584734 0.08244762 0.124209814
000220 21 91 17 3e eb ca 32 be 1e 91 c3 b9 65 67 55 bd
       0.14801456 -0.1746022 -0.0003730142 -0.052100558
000230 ac 55 40 3d 85 6a fc 3b 4c 13 ef bd 2e 0e 8d bd
       0.046956703 0.007703128 -0.116736025 -0.0688747
000240 e2 60 94 3c 74 1b 92 3d 9e c5 2c be 9a 72 1a 3e
       0.018112604 0.071341425 -0.1687226 0.1508278
000250 5e 2b 05 be bb 97 73 be 51 f1 a6 bc 1a 36 bf bd
       -0.13004825 -0.2378835 -0.02037874 -0.09336491
000260 ce e9 d1 3d 9e cc ff bd 59 fd f4 3d 31 4f 16 be
       0.10249673 -0.124901995 0.11962385 -0.14678647
000270 32 60 38 3d 7f 62 a8 bd f3 6e 90 bd ab c4 f2 bc
       0.045013614 -0.08221912 -0.07052412 -0.029634794
000280 5d fe 9f 3d 9a cd b4 bd b7 16 7a 3d 81 14 9b bd
       0.07812188 -0.08828278 0.06105682 -0.0757227
000290 f2 19 b8 bd 1d a3 2d be 44 88 46 be 3c 2a 3f be
       -0.08989324 -0.16956754 -0.19387919 -0.18668455
0002a0 93 8e 3a 3d 9f 08 1b 3e 0c 05 48 be 84 00 a2 3d
       0.045546126 0.15140007 -0.19533175 0.079102546
0002b0 f2 23 8d bd 6a c4 0a 3e c9 ef dd bd ae 6c 1a 3e
       -0.06891622 0.13551489 -0.10836751 0.1508052
0002c0 a9 ba 0b 3e c3 12 ba bc 75 86 6f 3e 3c 9c 91 3d
       0.13645424 -0.022714024 0.23391135 0.071098775
0002d0 ca 96 8e be 56 fa 20 be 9c 1a b1 bd a4 21 45 3d
       -0.27849418 -0.15720496 -0.086476535 0.048127785
0002e0 18 8c ba 3d 13 09 16 bd b5 3c 76 be ed 1a 72 bd
       0.09108752 -0.036629748 -0.24046595 -0.05910771
0002f0 4f 35 a6 3d 29 2d 55 bd 1f 41 ae 3d d7 43 f4 bd
       0.081156366 -0.05204502 0.085085146 -0.11927002
000300 f9 c5 c0 3d 19 c1 ec 3d 95 e8 f9 bd 1b 4c 5d bd
       0.0941276 0.11560268 -0.122025646 -0.054027658
000310 4f 3e 58 3b 3a 6b 54 bd 96 4c 80 be 79 05 cc bd
       0.0032996123 -0.05186007 -0.2505843 -0.09961981
000320 73 81 69 bd c8 e3 a5 bd 71 f5 e4 bc e1 6d 9b bd
       -0.057008218 -0.081000865 -0.027949067 -0.07589317
000330 00 e8 ea bd 07 7d 9c be f1 b1 8c 3d ef 09 de 3c
       -0.11470032 -0.30564138 0.06869877 0.027104346
000340 73 78 89 3b 37 79 73 3c 15 1e 45 3e 70 b7 66 bd
       0.004195267 0.014860443 0.19249757 -0.056327283
000350 84 8b 0b 3e 4d f9 03 bd cb b6 97 3d 0a ed 30 bd
       0.1362744 -0.032220174 0.07407912 -0.043194808
000360 aa 18 e6 3d 86 96 43 3e a8 05 4d 3d 3f 67 b8 bb
       0.11235173 0.19100389 0.050054222 -0.0056275423
000370 91 4a 27 3e ec e5 8b be e1 56 10 3d 4a d5 ca bd
       0.16337039 -0.27323854 0.035239104 -0.09903963
000380 88 66 58 3e 1c 94 67 be d6 10 cf 3d aa fe 6a be
       0.21132863 -0.22615093 0.10110633 -0.22948709
000390 3f 13 9d 3e ab 06 3c 3e 78 3f 0a 3d 3e 31 a4 bd
       0.30678746 0.18361919 0.033751935 -0.08017205
0003a0 6d f9 62 3e ac e2 07 3e 3b 3c ec 3d cd 99 0b 3e
       0.22165461 0.13270062 0.115349256 0.13632889
0003b0 1a 76 d8 bd d9 cc 5b 3d 10 99 d5 bd f0 7b 4f 3e
       -0.10569401 0.053662155 -0.10429585 0.20262122
0003c0 7e dd fb 3d 66 71 9f be a1 1a 20 3e 6f 8a 76 be
       0.12298106 -0.31141204 0.15635158 -0.24076246
0003d0 0c 3c fc bc 14 e9 2e 3e 71 bf 8a 3e c2 b4 82 3e
       -0.030790351 0.170811 0.27099183 0.25528532
0003e0 00 24 e9 3b 7d c9 7a bb b4 da 20 3e 07 75 2a 3d
       0.0071148872 -0.003826707 0.15708429 0.041615512
0003f0 8d a1 32 3e e2 45 38 3d 71 f0 ac bd ae 5e 89 3e
       0.17444439 0.04498852 -0.08444298 0.26830047

lstm.weight_hh_l1 f4 [512, 128]
000000 77 ad ab 3e 47 61 89 bd de 08 4a be d7 80 09 be
       0.3353078 -0.06708007 -0.19729945 -0.13428055
000010 71 fb 46 be 9a 45 c7 3b 93 91 52 ba 9f 5f 13 be
       -0.19431855 0.006081295 -0.00080325565 -0.14391945
000020 cb 37 34 be e4 e8 05 3e cf 9b 83 3e 82 aa a7 3b
       -0.17599408 0.13077122 0.2570481 0.0051167617
000030 63 83 18 3e a6 c2 08 3e 01 1d de 3c 64 77 59 3e
       0.1489387 0.13355502 0.02711344 0.2123695
000040 b9 bf a3 be 63 0a 14 be 62 ba b6 be ff cb 9f be
       -0.3198221 -0.14457087 -0.35689074 -0.31210324
000050 6c 24 20 be f5 c6 86 be e4 0c da b9 46 f9 04 37
       -0.15638894 -0.26323667 -0.00041589804 7.925852e-06
000060 2c 3b 8d bd ce df e9 bc 09 c3 b8 bd da fc cc bb
       -0.06896052 -0.028549101 -0.09021575 -0.006255728
000070 8e 61 99 3d 45 cf a1 3b 0d 71 83 be 87 a8 09 bd
       0.0748931 0.0049380385 -0.25672188 -0.033607986
000080 63 ed 68 3d 23 4a 5c be 62 b7 92 3e 83 46 9d 3e
       0.056867015 -0.21512656 0.28655535 0.3071786
000090 0b 61 30 be 72 4e 98 bc b1 15 c6 3e ec 6d 1b bc
       -0.17224519 -0.018592093 0.38688424 -0.009486657
0000a0 6b 02 a2 bb 8d ae 3d bd 80 7c 59 3e cb 1d 4d 3c
       -0.004944136 -0.046309043 0.21238899 0.01251931
0000b0 14 c5 94 3e 6d 24 38 3c fa 08 a4 3e e7 a6 9e 3d
       0.2905661 0.011239153 0.320381 0.07746678
0000c0 00 50 50 bd 59 5e 93 3d a9 7e 5d 3e 75 5f fe bc
       -0.050857544 0.0719573 0.21630348 -0.031051377
0000d0 8d 0d 83 be 9b 53 00 3d 0e 78 e6 bd 18 07 07 3e
       -0.25596276 0.031329732 -0.11253367 0.131863
0000e0 1b 1a 35 3e e5 37 c4 bc 7e 3b 83 be 5e cc b2 bd
       0.1768574 -0.023952434 -0.25631326 -0.08730386
0000f0 d6 11 fa 3a 54 77 05 3e be 7e 6f bd 25 b0 e1 3d
       0.0019078802 0.13033801 -0.05847048 0.11019925
000100 62 aa a7 bb 36 f2 0b bc 4c 55 22 3d 77 33 98 be
       -0.0051167468 -0.008541634 0.039632127 -0.29726765
000110 c4 20 a5 3d 5d 2a de 3d c5 f4 44 3e 2e be b7 be
       0.0806289 0.10847924 0.19233997 -0.35887283
000120 da 6e 7c be 0c b1 0e 3d 5e e1 b2 3c 91 9f fe 3d
       -0.24651662 0.034836814 0.02183598 0.124327786
000130 65 e6 08 bd ec 27 00 be e3 30 4e bc 5e 0b 60 be
       -0.033422846 -0.12515229 -0.012584898 -0.21879336
000140 7e b3 6a 3e 4d 82 ad 3c ca 4a 2e bd 8a ef a2 be
       0.22920033 0.021180296 -0.042551793 -0.3182338
000150 4e 68 8c 3d fb 43 1c be 38 3c 02 3e 84 46 51 3e
       0.06855832 -0.15260307 0.12718284 0.20437056
000160 eb 33 81 bd 98 39 c9 3d 8e 90 19 bd 83 46 fb b9
       -0.06308731 0.09825438 -0.037491374 -0.00047926986
000170 c7 3c 23 bd 86 70 86 3e a5 d0 45 be da 88 8e 3d
       -0.039852884 0.26257724 -0.19317873 0.06959696
000180 2f eb ac bd 77 10 c9 be 4f 93 9b 3e 81 0e 4c 3e
       -0.08443295 -0.39270374 0.30385825 0.19927408
000190 03 38 5b be 4a 33 28 be bc b3 b7 bd b4 12 12 3e
       -0.21408086 -0.16425815 -0.089698285 0.14264947
0001a0 65 a5 92 bd 8b 6f 51 3e 76 50 3b 3d 8f 18 8d bd
       -0.07160453 0.20452707 0.04573103 -0.0688945
0001b0 c5 70 82 3e 98 f0 5e bd f6 9b c7 bd 19 b6 b3 3d
       0.2547666 -0.054428667 -0.09746544 0.08774967
0001c0 23 7d 0a 3e c7 7a 0b 3e 21 88 46 be 33 7b 95 bd
       0.13524298 0.13621055 -0.19387867 -0.07298889
0001d0 02 95 c3 3d c7 66 c2 3d d0 0f 87 be d8 e5 97 bb
       0.09549905 0.094922595 -0.2637925 -0.004635554
0001e0 6a 8f 1c be ec 08 18 be 37 73 9a bd 3f 77 78 be
       -0.15289083 -0.14847153 -0.07541507 -0.24264239
0001f0 f7 97 54 3d d4 6d 45 3d c6 fe c7 be 71 8b ce 3d
       0.051902737 0.048200443 -0.39061564 0.1008519
000200 3f 40 61 3e 3f c2 7c 3e a3 6c a6 be 9c c1 12 be
       0.21997164 0.24683474 -0.32504758 -0.14331669
000210 a3 d0 df 3c 4b 5b 06 be df d3 67 3e 50 ce 27 be
       0.027321165 -0.13120763 0.22639416 -0.16387296
000220 e3 b6 10 3e ea 1d a5 3d ce 79 58 3e 10 53 9b 3e
       0.14132266 0.08062346 0.21140215 0.3033681
000230 36 5c c8 3d 51 ff 65 3e 27 32 f7 bd c4 9e a0 3e
       0.09783213 0.22460677 -0.12070113 0.3137113
000240 8d c1 84 be 9d 4d e2 bc 06 20 8a be eb 6f 66 be
       -0.25928918 -0.0276249 -0.26977557 -0.22503631
000250 ad 57 14 3e c5 78 df bd cd 14 75 bd fe 7c 30 3e
       0.1448657 -0.10911707 -0.05983429 0.1723518
000260 d8 ac 32 be 1b 3a 34 be c0 cf 51 be 93 83 50 be
       -0.17448747 -0.1760029 -0.20489407 -0.20362692
000270 f6 8c 9d 3c cc dc 1b bd 15 f6 86 be b9 6f 22 3e
       0.019232254 -0.038052365 -0.2635962 0.15862931
000280 f1 b4 0b be c2 ff 55 3d a7 34 57 3e 82 a4 9c 3e
       -0.13643242 0.052245863 0.21016179 0.3059426
000290 93 a5 40 3e 48 e7 1d be 1c 56 38 3e a3 77 12 be
       0.18813162 -0.15420258 0.18001598 -0.1430345
0002a0 ed d7 38 be 97 ac 1e be 4d 65 26 be 3e aa 97 3e
       -0.18051119 -0.15495525 -0.1624958 0.29622072
0002b0 fc c5 7e 3e b7 0c 19 be 45 22 5c 3e 94 71 ae 3e
       0.24880213 -0.14946257 0.21497448 0.34071028
0002c0 ea ef 65 be 06 2f 1f 3c e6 a7 8e 3e a2 fb 07 bc
       -0.22454801 0.009715801 0.2786247 -0.00829974
0002d0 78 78 72 be 44 8b 14 bd 2d c1 6c be f9 43 b1 bd
       -0.23678768 -0.036265627 -0.23120566 -0.08655543
0002e0 b8 fd 13 3e cd 98 7c be f1 85 4f be b2 23 01 be
       0.14452255 -0.24667664 -0.20265938 -0.12611273
0002f0 c1 49 7c bd 36 04 d2 3d df 20 ac 3c 89 be 08 3d
       -0.061593775 0.102547094 0.021011768 0.033384833
000300 78 45 b7 bc cd 4e 2d 3e 04 31 a1 be 9c ec 78 be
       -0.022371992 0.16924591 -0.31482708 -0.2430901
000310 17 7b 8d bc 8c ad fb bc 11 c9 be 3e 03 14 47 be
       -0.017270608 -0.030722402 0.37262776 -0.19441228
000320 42 20 f5 bd fb a2 af bd f8 05 14 be 5f c9 df bd
       -0.11969043 -0.08576008 -0.14455402 -0.1092708
000330 d0 36 59 be 8a f4 19 3e 9c 1a b6 3d 87 1b d6 bc
       -0.21212316 0.1503469 0.08891794 -0.026136173
000340 33 9a a7 3e de e4 8a bc 72 63 f2 3d 4a 10 13 bb
       0.32734832 -0.016954836 0.11835374 -0.002244013
000350 49 e3 3f 3e 65 50 a1 be 24 cf a4 3d 93 3b 6c 3e
       0.18739046 -0.3150665 0.080473214 0.23069601
000360 c2 cb 6b 3e 89 8b 94 3c d9 1d 4a be 74 e8 f8 3d
       0.23026946 0.018132942 -0.19737948 0.12153712
000370 2f 48 bd 3b b0 78 20 3e 9b b2 a7 bc 71 0a cd 3d
       0.005776427 0.15671039 -0.020470908 0.10011757
000380 6e b0 df 3d 7e 20 94 be ee 2a 90 3e 6e 0a 85 3e
       0.10922323 -0.2893104 0.28157753 0.2598452
000390 cb 1a 91 be 9e 38 eb bd 8c 24 cf 3d 9f 18 38 be
       -0.28340754 -0.11485408 0.10114393 -0.17978142
0003a0 d4 42 31 be e0 4b d9 3d 01 29 a1 3d 80 4e ea bd
       -0.17310649 0.10610175 0.07869149 -0.11440754
0003b0 67 08 45 3e 33 a2 ae 3d 72 1f 53 be 9f 29 14 3e
       0.19241486 0.08527031 -0.20617464 0.14469002
0003c0 e4 89 10 bc 02 89 13 be a3 2e 14 bd 57 a0 5c be
       -0.008821938 -0.14407733 -0.03617729 -0.2154554
0003d0 42 ba 01 3e 8b 74 7d 3e 98 62 83 be 75 5d b1 bd
       0.12668708 0.24751489 -0.2566116 -0.08660404
0003e0 19 2a 5c be 00 e1 65 be 5b 87 21 3e 67 27 8d be
       -0.21500434 -0.22449112 0.1577429 -0.27569124
0003f0 81 c8 80 3e 78 c9 1d 3e 5e 8f 66 be af 21 0d be
       0.25152972 0.15408885 -0.22515628 -0.1378238

lstm.bias_ih_l1 f4 [512]
000000 cd 43 c2 be 79 6e 45 be 67 82 c8 3d 1f 4e 30 be
       -0.37942353 -0.19280423 0.09790497 -0.17217301
000010 40 14 82 be 58 08 0a bb 53 d5 86 be 42 dc b2 bd
       -0.25406075 -0.0021062102 -0.26334628 -0.08733417
000020 66 10 ac be ff 65 10 be 63 70 11 be be e2 3f be
       -0.3360626 -0.14101408 -0.14203028 -0.18738839
000030 31 b1 38 be 55 7e 3f be 7b 67 82 be 71 70 9b bd
       -0.18036343 -0.18700536 -0.25469574 -0.07589806
000040 ad c9 02 bc 3b e3 9e be a2 88 96 3d 4c e5 f1 bd
       -0.007982654 -0.31032738 0.073502794 -0.11811313
000050 7d 7c 74 be c0 fa 2e bd 15 ff ee bd bd c9 90 be
       -0.23875614 -0.042719603 -0.11669747 -0.28278914
000060 c5 92 29 be 1a ba 18 be b8 8d 9f be 29 9f c6 be
       -0.16559894 -0.14914742 -0.3116281 -0.38793305
000070 5a 04 3f be 5b 41 c6 be e7 b2 de 3c f9 49 88 be
       -0.18654004 -0.38721737 0.027184917 -0.26618937
000080 9a a7 40 be a6 41 79 be 86 3c 90 be 08 dd 56 3e
       -0.18813935 -0.24341449 -0.28171176 0.20982754
000090 60 ea 10 be e1 3a 62 be 79 80 4b 3e 43 d3 bc be
       -0.14151907 -0.22092773 0.19873227 -0.3687993
0000a0 dc 11 1e be ce 6b 9b be a7 c6 5a be 3c b2 8b be
       -0.154365 -0.30355686 -0.21364842 -0.2728442
0000b0 fd 17 1f be a3 56 d8 bd af a6 be 3d b1 4c 0b be
       -0.15536495 -0.105634 0.09309136 -0.13603474
0000c0 59 2b 9c be 02 4f 10 be 09 52 da 3d a2 94 a8 bd
       -0.30501822 -0.14092639 0.10660178 -0.082314745
0000d0 5a 10 86 3b 93 26 a0 be 75 bd 36 be e5 f0 82 be
       0.0040913047 -0.3127943 -0.1784571 -0.25574413
0000e0 70 89 b4 be 86 d1 c4 be 2b f5 c2 be 90 f0 82 bd
       -0.35261106 -0.38441104 -0.38077673 -0.0639354
0000f0 8e 32 b0 be 4a bf 7a be d2 29 08 be d7 07 74 be
       -0.3441357 -0.24487033 -0.13297203 -0.23831116
000100 0e 0d 6b be ac e0 4c be 68 cd 0e be 61 ea 28 3e
       -0.22954199 -0.2000758 -0.13945544 0.16495658
000110 4e 9c 89 be cf 44 ad bd a1 eb d6 bd 6e 18 2b 3e
       -0.26877064 -0.0846039 -0.104941614 0.16708538
000120 c0 4e ea be 0c 7e 43 be cf 87 cb be 36 dc 96 be
       -0.45763206 -0.19091052 -0.3975205 -0.29464883
000130 cb 92 03 be 8e 9e 3f be 12 ab 92 be bd 42 b2 be
       -0.12848966 -0.18712828 -0.2864614 -0.34816542
000140 6c 4e 57 3d ed 37 00 bf c0 fc 0d be 27 16 71 be
       0.052565023 -0.50085336 -0.13865948 -0.23543607
000150 91 1a fa bd 6a 64 bd 3d 5c 72 1a be da a7 3f 3d
       -0.122120984 0.09247668 -0.15082687 0.046790935
000160 5b c7 61 be ca b8 5a be 25 df c4 bd ff 0c 91 be
       -0.22048704 -0.21359554 -0.09612874 -0.28330228
000170 1c 0f fa bd 75 30 8e 3d ab 49 b7 bd 6d 68 5d 3d
       -0.12209913 0.06942836 -0.08949598 0.054054666
000180 0b 89 0c be f6 cd 76 be 2a 2e 01 3e 64 e1 ad be
       -0.13724153 -0.24102005 0.12615266 -0.33961022
000190 f9 18 3c be f4 14 03 be 66 f6 b2 be b3 13 dc bd
       -0.18368901 -0.12800962 -0.34953612 -0.10745945
0001a0 7f 59 a0 be 3f 01 53 be b2 f1 27 be eb 92 c0 bd
       -0.3131828 -0.20605944 -0.16400793 -0.094030224
0001b0 1f ee 5c 3d fb 6d 5a bd 32 09 32 be 04 49 ce be
       0.053938027 -0.05332754 -0.1738632 -0.40290082
0001c0 e2 e3 dd be aa 64 4f 3c 8f 05 a2 bd a5 58 31 be
       -0.43337923 0.0126582775 -0.079112165 -0.17318971
0001d0 81 15 44 be 0d a9 86 bd 70 7d 47 3e ac 0e 16 be
       -0.19148828 -0.06575213 0.19481444 -0.14654034
0001e0 ae c8 41 be 10 06 ab be 38 93 3a 3c b6 66 71 bb
       -0.1892421 -0.33403063 0.011387639 -0.0036834902
0001f0 9c bb 80 be cd 73 54 be 3e 62 67 be 65 2e 92 be
       -0.25143135 -0.207473 -0.2259607 -0.2855102
000200 a9 f3 c2 be 0a 71 f4 be 4e a2 9a bc 21 99 70 be
       -0.38076523 -0.47742492 -0.018876221 -0.23495914
000210 41 80 05 be ee a4 a4 b9 c1 1e f9 be 67 6e e0 3d
       -0.13037206 -0.000314034 -0.48656276 0.109585576
000220 82 91 95 be 8e 95 61 be ba 13 df 3d 88 e0 84 bd
       -0.29212576 -0.22029707 0.108924344 -0.064881384
000230 37 50 e2 3d d3 c3 4a bd 6d 24 a3 bd 13 d9 4f bd
       0.11050456 -0.04950316 -0.07965932 -0.050744127
000240 ea 1f 2a 3e ba fa 40 be a8 d1 2d 3e 26 35 8e bd
       0.16613737 -0.18845645 0.16974509 -0.06943731
000250 05 e7 80 bd b6 21 ea 3d 23 57 55 3d d6 97 9f be
       -0.062940635 0.11432211 0.052085053 -0.3117053
000260 5d 21 c9 bd 59 3e 48 be ca 70 cd be 82 f0 f5 be
       -0.09820817 -0.19555034 -0.40125114 -0.48035055
000270 79 35 50 be 2c 79 6b be a5 a9 00 3d ab 9a 2a be
       -0.20332898 -0.22995442 0.031411786 -0.16660564
000280 58 0e b2 be 4e 2f a8 be 03 08 b3 be e6 cb 71 3d
       -0.34776568 -0.3284859 -0.3496705 0.059032343
000290 fd fd d9 3c 51 1d 84 be f0 c4 f8 3d 70 68 67 be
       0.026610369 -0.25803617 0.12146938 -0.22598433
0002a0 a8 93 02 be 5b 10 ed bd fd 60 94 bc cf 7c d3 be
       -0.12751639 -0.11575385 -0.018112654 -0.4130616
0002b0 de 6f ec be a7 d6 2a be 0c 68 83 3d ba 55 8a be
       -0.46179098 -0.16683446 0.0641633 -0.2701853
0002c0 1c d4 e2 be e3 20 0d be af be 95 3d 7e 35 0c 3d
       -0.44302452 -0.13782077 0.07311761 0.0342307
0002d0 ca 33 cd 3d af 6c 5d be e9 e3 8f bd a6 d2 9c 3d
       0.100196436 -0.21623491 -0.07025892 0.076573655
0002e0 33 11 c5 be 47 ce f3 be a4 f7 98 be 45 fb 4b 3e
       -0.38489684 -0.47618315 -0.29876435 0.1992007
0002f0 04 0f d8 be cb 23 8e be 8d 37 03 be 42 b6 3a be
       -0.42198956 -0.27761683 -0.1281416 -0.18233588
000300 47 5a 29 be 2f ba 8c be 6a b2 bc bc 06 33 06 3e
       -0.16538344 -0.27485797 -0.023034293 0.13105401
000310 28 01 cb be da 96 2e be 2a f4 5d bc 74 fb 4d 3e
       -0.3964932 -0.17049733 -0.013546983 0.20115453
000320 a3 dd d2 be 88 f9 9e bc 71 30 ca be 54 9d 81 be
       -0.4118472 -0.019406095 -0.39490083 -0.25315344
000330 f4 55 3f 3d 3f 5d b3 bd a5 46 96 be 58 eb a5 be
       0.04671283 -0.0875802 -0.29350773 -0.32406116
000340 1d 56 53 be dc 22 a1 be b8 2a 3b be ac ca 89 be
       -0.20638318 -0.31471908 -0.18278015 -0.2691244
000350 ec 02 64 be d9 27 03 3e 68 33 8a be 18 6b 97 3e
       -0.2226674 0.1280817 -0.26992345 0.29573894
000360 bf c3 47 be f8 8e 5d 3d cd b6 21 be 5b 6a c4 be
       -0.19508265 0.054091424 -0.15792389 -0.38362393
000370 e1 ee 32 bd aa 03 b0 be 55 72 32 3e b7 20 0b 3e
       -0.043684844 -0.34377795 0.17426427 0.13586698
000380 1d e4 9b bd 55 e6 d8 be e1 58 05 3e a2 84 00 bf
       -0.076118685 -0.4236323 0.13022186 -0.5020238
000390 a2 4f d1 bd c6 e8 76 be 8b 14 d0 be 95 1e e7 3d
       -0.10220267 -0.24112234 -0.40640673 0.1128513
0003a0 a4 39 00 be ac af 93 be bc 3f 47 be f1 19 0f bd
       -0.12521988 -0.28844965 -0.19457906 -0.03493685
0003b0 d3 96 fa 3d 97 b0 95 3d 29 ee 9c be e6 1e 98 be
       0.12235799 0.073090725 -0.30650452 -0.29711074
0003c0 ce 9e b2 be f6 f5 b1 bd 75 58 4a 3d ce d2 49 be
       -0.34886783 -0.086894915 0.049400765 -0.19709322
0003d0 12 24 0d be aa d4 1a 3e 41 f1 f8 3d 67 0d 1c bd
       -0.13783291 0.15120187 0.121553905 -0.03809872
0003e0 45 bc 82 3d 28 be e2 be 48 e8 1a bd e1 0f 1a 3c
       0.06383566 -0.44285703 -0.037819177 0.0094032
0003f0 1d 4d ad be 47 4c 20 3d 8b 6c da 3d 7d 49 01 be
       -0.33847895 0.039135244 0.10665234 -0.1262569
