models/EURCHF_model.pth (torch, 843660 bytes, 15 tensors)

lstm.weight_ih_l0 f4 [512, 12]
000000 39 8d 6e 39 34 79 67 39 27 d3 75 39 6f 99 84 39
       0.00022750058 0.00022075028 0.00023443681 0.0002529132
000010 ce 3c 43 b8 89 be 71 39 38 dd 71 39 7c 06 54 39
       -4.654825e-05 0.00023054531 0.00023065961 0.00020220311
000020 a4 d2 aa 37 c0 6d 20 38 14 ed 1f 39 de 08 19 39
       2.0363666e-05 3.8249185e-05 0.0001525174 0.0001459452
000030 08 b0 90 3a f8 bb 91 3a 73 d8 95 3a ac 64 9f 3a
       0.001103879 0.0011118641 0.0011432305 0.001216074
000040 58 52 09 b9 94 b5 93 3a 66 2c 93 3a ee a6 76 3a
       -0.00013096014 0.0011269324 0.0011228442 0.000940903
000050 8e 04 ec 38 65 e1 4a 3a 18 a0 73 3a 69 a6 51 3a
       0.00011254205 0.0007739275 0.000929357 0.00079975143
000060 6e 49 a9 3a 69 7c a9 3a d2 ee ac 3a c4 0e b5 3a
       0.001291556 0.0012930754 0.0013193733 0.0013813605
000070 02 ec 52 b8 57 ca aa 3a ce c7 ab 3a 2a fc 7c 3a
       -5.02877e-05 0.0013030273 0.0013105811 0.00096506125
000080 6c dd 4c 39 53 4c 4c 3a 7d 91 6e 3a 31 92 5d 3a
       0.00019537442 0.00077933556 0.0009100659 0.0008452265
000090 38 23 8d 3a d1 eb 8b 3a 26 83 8c 3a 6e 09 8d 3a
       0.0010767942 0.0010675137 0.0010720238 0.0010760257
0000a0 8a a0 7c b8 93 b3 8f 3a 38 3f 93 3a d7 dd ea 39
       -6.0230996e-05 0.0010963551 0.0011234051 0.00044797242
0000b0 be ea d9 38 60 7e 1f 3a 06 c1 0c 3a bb c0 fc 39
       0.000103910905 0.00060842 0.0005369339 0.0004820878
0000c0 66 a6 e9 39 f4 88 e2 39 84 99 ed 39 59 77 f7 39
       0.000445652 0.00043208117 0.0004531854 0.00047200432
0000d0 df 0a 19 b9 ba 89 f7 39 83 3f 05 3a 7b 27 c3 38
       -0.00014595267 0.00047214126 0.00050830113 9.3056784e-05
0000e0 77 90 03 b9 ae 9e 62 39 7e e4 54 39 f6 16 b7 38
       -0.00012546951 0.00021612152 0.00020303015 8.730397e-05
0000f0 d8 ee f0 3a d6 01 e7 3a 51 5e f4 3a 90 1c 01 3b
       0.0018381728 0.0017624449 0.0018643831 0.0019700862
000100 88 38 ca b8 c7 2b fc 3a ec d7 01 3b 6c aa 94 3a
       -9.64264e-05 0.0019239121 0.0019812537 0.0011342294
000110 9a b8 c0 38 b3 4a 2e 3a d3 83 89 3a 35 58 62 3a
       9.189658e-05 0.00066487043 0.0010491557 0.00086343597
000120 b6 25 85 3a 4f 48 79 3a 2c 31 89 3a 0d cf 8e 3a
       0.0010158333 0.0009509371 0.0010466925 0.0010895446
000130 c7 9b 5f b8 bb 85 8c 3a 2b de 8a 3a f8 e9 a9 3a
       -5.3312422e-05 0.0010721007 0.0010594776 0.0012963405
000140 18 4a 32 b9 25 e3 0e 3a 36 34 82 3a 1a 6b 7f 3a
       -0.00017003005 0.0005450717 0.0009933773 0.00097434374
000150 61 30 4c 3a a7 ff 49 3a e4 3a 50 3a 29 f2 50 3a
       0.00077891914 0.00077056367 0.00079433457 0.0007970655
000160 04 2f 54 38 5f 67 51 3a d6 23 55 3a 4a 7d dd 39
       5.0588525e-05 0.0007988121 0.0008130645 0.00042245752
000170 ab 78 53 38 ec ba 2f 3a 5e 5c 21 3a 0e 4a fa 39
       5.04187e-05 0.0006703574 0.00061554264 0.0004773889
000180 d4 73 39 3a 7e 9a 26 3a aa 5c 3d 3a d6 5c 36 3a
       0.00070744497 0.00063554186 0.0007223586 0.00069565827
000190 b4 46 d1 38 96 9f 48 3a 90 e8 5a 3a c8 51 bd 39
       9.979066e-05 0.00076531747 0.00083506946 0.0003610982
0001a0 02 f7 ba b8 20 76 78 b8 38 96 86 39 9f c1 ad 39
       -8.91518e-05 -5.923782e-05 0.00025670393 0.0003314139
0001b0 52 c4 f6 39 a6 19 ed 39 3a 68 fa 39 29 c8 00 3a
       0.00047067046 0.00045223272 0.0004776137 0.00049126387
0001c0 a4 22 8c 37 00 5d fb 39 6e da fa 39 c8 33 d1 39
       1.6705431e-05 0.0004794374 0.0004784646 0.00039902166
0001d0 40 30 17 38 64 a2 76 39 82 a8 b3 39 f6 a3 af 39
       3.604614e-05 0.00023520883 0.0003426709 0.00033500761
0001e0 1f 4b 42 3a c8 f2 32 3a 88 af 44 3a ec a1 4c 3a
       0.00074117066 0.00068263384 0.0007502963 0.00078061107
0001f0 99 9c 3f b9 64 6f 48 3a 37 eb 48 3a ca 02 23 3a
       -0.00018273517 0.0007645993 0.0007664444 0.0006218372
000200 d4 07 db b8 83 66 2e 39 5a 6d 94 39 70 11 90 39
       -0.00010444192 0.00016632122 0.00028310233 0.00027478812
000210 89 54 9b 3a 64 7e 96 3a 1a c2 a0 3a 92 08 ad 3a
       0.0011850755 0.0011481759 0.0012264878 0.0013201407
000220 58 42 f8 b9 2c 82 99 3a f9 b8 91 3a e3 20 b8 3a
       -0.00047351676 0.0011711768 0.0011117748 0.0014047887
000230 16 09 7c b9 e7 b4 f6 39 1d 38 9b 3a df b8 86 3a
       -0.00024035978 0.0004705556 0.0011842285 0.0010278485
000240 91 ea 8f b8 60 4c 37 b8 5d 08 37 b8 f0 cb 64 b6
       -6.862463e-05 -4.370173e-05 -4.363839e-05 -3.4093355e-06
000250 bc df 4a 39 c1 5c e3 b8 4c c0 5e b9 20 c0 2b 3a
       0.00019347569 -0.0001084148 -0.00021243206 0.0006551761
000260 04 5d 96 39 ff 4a bd 39 b6 5f 28 3a f6 7c 1c 3a
       0.00028679532 0.00036104766 0.00064229534 0.00059695484
000270 5c 62 78 39 7a fe 69 39 52 51 85 39 e9 2c 98 39
       0.00023687765 0.00022315411 0.00025428325 0.0002902516
000280 d1 f7 53 b9 ee f7 8d 39 49 80 9d 39 63 19 1c 39
       -0.00020214847 0.00027078338 0.00030040953 0.00014886777
000290 c7 29 75 b9 48 d6 14 39 fa 06 7f 39 1a a1 86 38
       -0.00023380584 0.00014194206 0.00024321294 6.4196254e-05
0002a0 9f fd a0 38 6f 44 78 38 b1 e7 87 38 30 1e a4 38
       7.676635e-05 5.919154e-05 6.4804575e-05 7.825752e-05
0002b0 ac 96 7b 37 5f 59 ba 38 fc c4 bc 38 2c c2 f5 b7
       1.4995847e-05 8.885818e-05 9.00123e-05 -2.9296694e-05
0002c0 6e b6 3f b7 12 5d 3d 38 3f 4d 5c b8 55 c6 41 b9
       -1.1426962e-05 4.514779e-05 -5.252403e-05 -0.00018479799
0002d0 fa 01 58 3a 48 9c 5a 3a 03 12 5f 3a 30 07 6b 3a
       0.00082400406 0.0008339328 0.0008509459 0.00089656096
0002e0 04 cb 38 b8 cc 42 62 3a a6 ff 66 3a f0 62 e8 39
       -4.405809e-05 0.00086311693 0.00088118983 0.00044324202
0002f0 e0 43 8d 36 70 d6 29 3a f4 31 46 3a 57 60 13 3a
       4.210029e-06 0.0006478792 0.0007560544 0.0005621961
000300 65 ca c1 b9 de aa c9 b9 2c 02 b0 b9 52 79 a3 b9
       -0.00036962624 -0.00038465013 -0.00033570954 -0.00031180173
000310 b4 f2 b4 b9 60 b3 d4 b9 e0 20 fd b9 16 1c ee 39
       -0.00034513103 -0.00040569436 -0.00048280414 0.00045415823
000320 bb ad fb b9 e8 6a 29 b8 22 20 ca 39 28 95 aa 39
       -0.0004800389 -4.0392304e-05 0.00038552383 0.00032536057
000330 cc 2b 7f 3a 2e 6c 72 3a 76 e0 80 3a 99 4b 88 3a
       0.0009734004 0.00092476874 0.000983252 0.0010398506
000340 79 57 a8 b9 02 2f 85 3a 04 32 88 3a 8f be 28 3a
       -0.0003210863 0.0010161104 0.0010390882 0.0006437087
000350 14 9f f9 b8 a4 31 bb b8 17 bd dd 39 d8 fe e6 39
       -0.00011902876 -8.926101e-05 0.00042293288 0.00044058892
000360 0e 0b 44 3a 9a 67 3b 3a 9e 07 49 3a a0 31 52 3a
       0.0007478454 0.0007148922 0.00076686766 0.0008018259
000370 40 c5 cc 37 56 7f 41 3a 24 77 37 3a 25 3c 7e 3a
       2.4410547e-05 0.000738134 0.00069986493 0.0009698293
000380 15 23 3f 39 c7 06 29 3a e2 e0 64 3a 03 1d 56 3a
       0.00018228249 0.0006447848 0.000873102 0.0008167775
000390 b4 e9 e3 39 e6 ae db 39 ce 19 ea 39 90 e1 fc 39
       0.00043470936 0.00041901245 0.00044651184 0.00048233243
0003a0 7c 6a 5f b8 5f d8 dc 39 ac 42 cc 39 12 91 18 3a
       -5.3266514e-05 0.0004212288 0.00038959587 0.0005819957
0003b0 fc c8 f2 37 f0 6a 65 39 ca 1a 00 3a cf 63 f1 39
       2.8942239e-05 0.00021878979 0.00048868044 0.00046041465
0003c0 b2 9a 19 3a 3b 8a 18 3a 27 e6 1d 3a 5a f9 2b 3a
       0.0005859538 0.0005818938 0.000602337 0.00065602886
0003d0 ce 4c c6 b9 00 77 2f 3a f0 26 44 3a fc 3c bb b8
       -0.00037822727 0.00066934526 0.0007482609 -8.928214e-05
0003e0 07 ff 9a b9 d3 b7 0c b9 65 41 94 38 90 7e a6 36
       -0.0002956318 -0.0001341992 7.0693706e-05 4.9619193e-06
0003f0 d6 fb b9 b7 d8 1a c3 b6 34 fc 42 b7 e0 ae ce 35
       -2.2170989e-05 -5.814578e-06 -1.1622022e-05 1.5399091e-06

lstm.weight_hh_l0 f4 [512, 128]
000000 34 16 10 b6 9a 84 ae b6 78 21 bb 35 e8 94 96 b5
       -2.1470596e-06 -5.201041e-06 1.3942326e-06 -1.1219208e-06
000010 a2 72 24 b6 c4 ee 77 36 90 4e f7 b5 b1 c3 be 36
       -2.450463e-06 3.6944848e-06 -1.8425799e-06 5.6852227e-06
000020 60 51 8e b5 94 4e 48 b6 b6 0b 00 37 38 48 0e 37
       -1.0603508e-06 -2.984806e-06 7.632121e-06 8.480674e-06
000030 aa 4f ca b6 00 54 ab 33 2f db c2 36 40 59 09 36
       -6.0293432e-06 7.9780875e-08 5.807167e-06 2.0466541e-06
000040 86 13 23 b7 78 69 0c b6 48 39 28 b7 e4 99 7e b6
       -9.720103e-06 -2.0923017e-06 -1.0026917e-05 -3.7938526e-06
000050 9c 9e 41 36 a1 a3 af b6 78 4f 47 b6 6c 3a 80 36
       2.8851564e-06 -5.2344553e-06 -2.9699568e-06 3.8214985e-06
000060 68 c5 b2 b6 44 cf 8d b6 c4 57 80 b6 40 c1 94 b4
       -5.3277945e-06 -4.2262564e-06 -3.8249145e-06 -2.7707756e-07
000070 c8 69 be 35 80 78 92 b3 70 d4 bd b4 e0 90 64 36
       1.418689e-06 -6.8205736e-08 -3.5358562e-07 3.4058976e-06
000080 98 0b d2 36 cc f6 8d b6 b8 18 d6 b5 e6 6f d6 b6
       6.2598374e-06 -4.2308584e-06 -1.5951437e-06 -6.3907237e-06
000090 a8 80 ee 36 18 bc f8 b3 10 8d 93 36 cd dc 40 b6
       7.1079303e-06 -1.1582614e-07 4.397363e-06 -2.8738752e-06
0000a0 20 c5 67 b5 d0 ef c0 36 b8 ce 46 b6 8b 00 4c 36
       -8.634106e-07 5.7499637e-06 -2.9624625e-06 3.0398685e-06
0000b0 60 9a 45 b5 26 e3 82 b7 cd 6f c4 36 88 fa 18 36
       -7.3612864e-07 -1.5602982e-05 5.8542705e-06 2.2795593e-06
0000c0 90 39 8d b6 3c 2f f9 b6 53 76 e2 b6 80 2c 97 34
       -4.2088286e-06 -7.426277e-06 -6.7490996e-06 2.815832e-07
0000d0 e4 e5 aa b6 02 7e 7c 36 36 96 80 36 a4 df 5c b6
       -5.0931576e-06 3.7624272e-06 3.832184e-06 -3.291273e-06
0000e0 f0 47 f6 35 80 b0 44 b6 03 bd e1 b6 40 fd 15 b6
       1.8349365e-06 -2.9309012e-06 -6.7275264e-06 -2.235014e-06
0000f0 74 52 94 b6 8f ca cd 36 c0 23 50 b6 7c 48 b3 35
       -4.4203425e-06 6.133057e-06 -3.1015225e-06 1.3357635e-06
000100 30 10 75 36 00 19 f0 b3 4e 22 44 b6 f8 9b be b5
       3.6517267e-06 -1.11804184e-07 -2.9226244e-06 -1.4201496e-06
000110 2d 28 d9 36 8e bb c0 b5 dc 57 fb 35 2e b7 c8 36
       6.471781e-06 -1.43597e-06 1.8726528e-06 5.9817894e-06
000120 04 b6 60 37 60 84 c5 b6 5c 90 45 36 a0 8f 6d b5
       1.3393819e-05 -5.886468e-06 2.9439316e-06 -8.849838e-07
000130 e4 6a 68 36 8e 01 72 37 5c a4 57 b6 8b 03 17 b7
       3.4632913e-06 1.4424686e-05 -3.2133166e-06 -9.001126e-06
000140 d6 00 80 36 52 b6 e4 b6 7f 23 a1 36 30 a7 02 36
       3.8147946e-06 -6.8161544e-06 4.802306e-06 1.9468825e-06
000150 4e da 49 b7 41 60 0a b7 70 f8 cf b5 74 4f 8d b5
       -1.2031362e-05 -8.247852e-06 -1.5495007e-06 -1.0528443e-06
000160 cc fe 31 b6 10 90 6b 36 49 5a 9e b6 de 06 b4 b6
       -2.6523367e-06 3.5101584e-06 -4.7192775e-06 -5.3652175e-06
000170 80 1a 71 34 ca 28 85 36 80 c2 40 b3 5c 0a 11 b6
       2.2454515e-07 3.9684573e-06 -4.488038e-08 -2.1612714e-06
000180 1c cf 82 b6 70 bc 94 36 76 48 35 36 a0 5f e8 b5
       -3.8984126e-06 4.4326807e-06 2.701328e-06 -1.7313178e-06
000190 30 ba 8a 36 70 65 dd b6 68 24 ae b5 2a 84 2a b7
       4.1343956e-06 -6.598122e-06 -1.2974606e-06 -1.01635615e-05
0001a0 34 d3 8f 36 d4 02 0d b5 52 c6 2b b7 56 c6 c9 36
       4.2863194e-06 -5.253071e-07 -1.0238569e-05 6.013356e-06
0001b0 68 48 43 36 18 f9 f7 b6 6c aa d0 b6 36 83 59 b6
       2.909941e-06 -7.390172e-06 -6.218723e-06 -3.2411895e-06
0001c0 7b cb 04 37 0c b9 14 37 1c 86 30 b6 3c d5 28 36
       7.91519e-06 8.864572e-06 -2.6304106e-06 2.515807e-06
0001d0 e0 30 6e b5 f8 1e d7 35 70 d2 b3 35 1a ec a5 36
       -8.873303e-07 1.6027761e-06 1.3397785e-06 4.944869e-06
0001e0 b7 80 3d b7 b0 93 61 b5 8a 99 c5 36 56 3a 9a b6
       -1.1295247e-05 -8.4033945e-07 5.888932e-06 -4.596349e-06
0001f0 95 a9 94 b6 60 36 04 b7 ca cd 56 b7 10 73 a3 b5
       -4.4304857e-06 -7.880473e-06 -1.2803308e-05 -1.2177934e-06
000200 24 ce 20 37 a4 84 b1 b8 a4 b9 8a 38 a8 41 bf b7
       9.584739e-06 -8.464724e-05 6.614931e-05 -2.2799548e-05
000210 c8 be 0b b8 ef 61 82 38 e2 ae 94 37 8b 97 47 38
       -3.331786e-05 6.2171246e-05 1.7724411e-05 4.7586433e-05
000220 50 e3 95 b7 b6 57 9e b7 99 e3 9f 37 80 ff 58 37
       -1.7868035e-05 -1.8875911e-05 1.906026e-05 1.29340915e-05
000230 c6 2c 2b b8 14 f5 24 b8 da 3d cc b6 2b 61 22 38
       -4.0811276e-05 -3.9328894e-05 -6.0868742e-06 3.8714305e-05
000240 ca c8 3f 38 e1 db 2f b8 5c 13 f3 b7 c7 4b 00 b7
       4.5724948e-05 -4.192803e-05 -2.8976872e-05 -7.647038e-06
000250 58 19 85 38 17 b8 1f 37 ed 10 8f b7 da 3a 44 38
       6.346655e-05 9.52e-06 -1.705481e-05 4.678485e-05
000260 43 81 23 b8 27 a2 76 b8 80 c3 f6 b7 ab 98 82 38
       -3.8982613e-05 -5.8801987e-05 -2.9416522e-05 6.22732e-05
000270 2f 7c 5b 38 bb b6 16 b8 c2 53 41 b7 8e de 32 b8
       5.2329324e-05 -3.5932968e-05 -1.1523198e-05 -4.2645777e-05
000280 68 10 68 38 56 48 1d b8 ff 92 80 b6 fa 9c a1 38
       5.532839e-05 -3.7499085e-05 -3.83181e-06 7.7063174e-05
000290 e7 36 f0 37 89 d8 ea 34 3b dd 6a 38 7d ef a4 b7
       2.8635795e-05 4.3743447e-07 5.5995984e-05 -1.9661844e-05
0002a0 4e 5d e9 37 52 e4 fb 37 66 8f 31 b8 e7 7d cb b7
       2.7819213e-05 3.0027852e-05 -4.233364e-05 -2.4258114e-05
0002b0 d2 9e 3a b8 18 63 b9 37 d6 e4 2e b7 68 9e 7a 37
       -4.449377e-05 2.2099863e-05 -1.0424488e-05 1.4938043e-05
0002c0 81 df 41 b7 84 e1 28 b8 b5 a0 b8 b7 bc b3 8b 38
       -1.1555735e-05 -4.026435e-05 -2.2009344e-05 6.6615146e-05
0002d0 1e a4 b1 b7 52 41 b7 37 66 f1 5b b8 b8 39 34 38
       -2.1176467e-05 2.1845717e-05 -5.243849e-05 4.29691e-05
0002e0 34 a7 b5 38 ff bb 7e b8 a3 6f 49 b8 c8 b5 d5 b8
       8.6618966e-05 -6.0733404e-05 -4.8026104e-05 -0.00010190491
0002f0 55 b0 13 b7 94 ef 0e b7 7f 4c ef b7 e0 f1 5b 37
       -8.802938e-06 -8.519641e-06 -2.8526641e-05 1.3109733e-05
000300 87 92 da 38 5c d5 8b 37 a6 e8 ba b6 f4 f4 17 b8
       0.00010422343 1.6669444e-05 -5.570316e-06 -3.6229336e-05
000310 17 d7 ce b7 bb 1e a2 37 85 03 63 b8 5a bf fb 36
       -2.4657273e-05 1.9326215e-05 -5.4124295e-05 7.502659e-06
000320 1f 67 cb 37 c8 04 a7 b8 07 5f 2e b8 11 e2 86 b6
       2.4247505e-05 -7.964071e-05 -4.1573334e-05 -4.019829e-06
000330 40 db 8a 37 1c 21 fe 37 f5 cd 53 38 40 aa 56 36
       1.6552978e-05 3.0294577e-05 5.0498133e-05 3.1987583e-06
000340 3b 81 6a 38 52 10 12 b7 d2 16 f2 37 c2 6d e6 b7
       5.5910303e-05 -8.706078e-06 2.8859275e-05 -2.7469247e-05
000350 c0 ea 0b b7 18 48 05 b8 b4 d8 43 b8 b3 c1 9f b7
       -8.339703e-06 -3.1776814e-05 -4.6693443e-05 -1.9044475e-05
000360 b2 b1 b2 b7 9b db d3 b7 ad 6c 9b b7 2f 40 11 38
       -2.1302e-05 -2.5255422e-05 -1.8528046e-05 3.463047e-05
000370 3a 82 4a 38 7e 38 66 38 d6 86 77 b7 9a c9 a6 38
       4.8281836e-05 5.4888886e-05 -1.4753741e-05 7.953048e-05
000380 c4 be bd b8 4c 64 f9 b6 34 14 d6 37 7e 2c 13 b8
       -9.047755e-05 -7.4324544e-06 2.5520196e-05 -3.5088968e-05
000390 ca 59 30 38 d3 46 40 b8 7e 5b 8f 37 ae bb 2f b8
       4.2045293e-05 -4.5842327e-05 1.7089533e-05 -4.189804e-05
0003a0 1f 11 94 38 6e 7b 41 b5 62 22 91 b8 b2 c4 00 b8
       7.060379e-05 -7.2077717e-07 -6.920543e-05 -3.0700765e-05
0003b0 e9 67 6b b8 bc 98 99 b8 56 6b c6 38 58 bd 1d 38
       -5.612514e-05 -7.3240575e-05 9.4613686e-05 3.7608057e-05
0003c0 f8 96 35 37 dc 15 0c 38 be ca 92 b7 8f e5 33 37
       1.0823591e-05 3.339896e-05 -1.7498965e-05 1.072268e-05
0003d0 24 f7 8c 38 a3 d3 f6 37 a3 77 9a b7 36 2c 4a 38
       6.721754e-05 2.9424036e-05 -1.841394e-05 4.8201728e-05
0003e0 5d 26 0b b8 03 7a 81 b6 46 6f 29 38 ed 58 cb b7
       -3.317591e-05 -3.8587036e-06 4.039637e-05 -2.4240895e-05
0003f0 3d 3a aa b7 83 98 9b b8 73 f5 18 b8 76 d3 c9 38
       -2.0292699e-05 -7.4193835e-05 -3.6468216e-05 9.6238145e-05

lstm.bias_ih_l0 f4 [512]
000000 db 15 4e 39 6e ac 65 3a 74 7f 9f 3a ff 3c 91 3a
       0.00019653833 0.0008761351 0.0012168721 0.00110808
000010 81 2f 92 39 fe b5 c2 3a fc 29 3e 3a 42 0c 2e 3a
       0.00027882683 0.0014855263 0.0007254181 0.00066394
000020 90 56 10 3a 78 71 e4 39 4e 3c 3c 3a 94 2c 7f 3a
       0.0005506063 0.0004357209 0.0007180617 0.00097341207
000030 e8 7f 6a b9 4e b7 a5 b8 70 ae c8 38 41 d8 c2 39
       -0.00022363628 -7.901956e-05 9.569235e-05 0.00037163685
000040 08 32 f5 b9 02 da 38 3a 50 e5 4f 3a 4c 36 b3 39
       -0.00046767318 0.00070515287 0.00079305936 0.00034181995
000050 7b c4 32 39 fe 9c 9a b8 f2 c8 44 ba b0 37 e5 b8
       0.00017048598 -7.372534e-05 -0.000750675 -0.000109299435
000060 25 6d ed 39 6e af b1 3a af 9b 11 3a b2 99 c6 b8
       0.00045285482 0.001355631 0.00055545097 -9.470004e-05
000070 bf 2d 0d 3a 41 a3 bf 39 ac e9 73 b9 59 dd 22 3a
       0.000538554 0.00036551993 -0.00023261335 0.0006212793
000080 5c 4f 4a 3a 54 2d 66 b9 56 17 5f 38 62 54 5b 39
       0.0007717514 -0.00021951395 5.3189076e-05 0.00020916903
000090 de 1d 55 3a 11 34 53 b4 a7 00 94 3a 82 02 a8 39
       0.0008129756 -1.9669848e-07 0.0011291698 0.00032045325
0000a0 e0 98 88 39 f2 a7 c6 3a 4f 4c 27 3a 7b 39 d9 39
       0.00026053842 0.0015156253 0.00063819153 0.00041432292
0000b0 2f b5 a3 3a 21 3a e2 39 3d 00 4f b9 1c 1b e1 b9
       0.001248991 0.00043149389 -0.00019741147 -0.00042935542
0000c0 80 cd b7 39 94 b9 99 b8 1f aa 6b 3a 8f 8b b0 ba
       0.0003505759 -7.330175e-05 0.00089898886 -0.0013469326
0000d0 d1 e0 8d 39 23 b2 37 3a 15 c5 c8 3a a6 44 b2 b8
       0.00027061117 0.00070074404 0.0015317524 -8.500488e-05
0000e0 a9 03 f3 3a c7 4c 22 b9 e1 00 c8 3a 09 61 fc 3a
       0.001854052 -0.00015478126 0.0015259051 0.0019254993
0000f0 39 a9 ed 39 2c 03 39 39 67 b9 0f 3a 94 03 16 39
       0.00045330243 0.00017644156 0.0005482644 0.00014306448
000100 53 1d 24 3b fd 9a f2 ba a9 2e 05 3a d4 75 f1 39
       0.0025041893 -0.0018509325 0.00050805 0.0004605489
000110 2d 4b 32 3a 3e aa 33 37 f8 93 64 b9 e8 85 25 39
       0.0006801363 1.0708869e-05 -0.00021798897 0.0001578551
000120 4e ae 76 3a 1c 9b 3a 3a da 63 81 3a 2b 0e a6 39
       0.00094101287 0.000711845 0.0009871677 0.00031672543
000130 b8 a3 56 3a 7e e4 4d ba 80 de e1 39 79 6f cc 39
       0.0008187848 -0.00078541774 0.0004308112 0.00038992966
000140 63 0a 37 3a 6d 10 69 39 47 c6 56 3a d9 db 4c 3a
       0.0006982444 0.0002222673 0.0008192998 0.0007814742
000150 fa 82 cb b8 fb 91 87 3a 77 07 8f 3a aa 33 ff 39
       -9.7041906e-05 0.0010343188 0.0010912259 0.00048675883
000160 ac 5d 9b b8 17 87 b8 3a 74 f8 44 3a 1b fd 9e 39
       -7.408424e-05 0.0014078346 0.0007513829 0.00030324687
000170 f8 b4 05 3a 9c ed 83 3a 0c e1 0e b8 40 a6 a9 3a
       0.0005100514 0.001006532 -3.406503e-05 0.0012943223
000180 02 9e 0a 3b 8f b3 c2 39 24 9d f7 39 bc 0e ed 39
       0.002115131 0.00037136345 0.0004722859 0.0004521514
000190 16 b4 a7 3a b6 16 1d 3a 97 31 52 39 7d 4b 80 3a
       0.0012794759 0.0005992459 0.00020045634 0.0009788122
0001a0 3e 7c 8d 3a e0 67 19 37 4d bc 21 3b 09 1a d4 39
       0.0010794473 9.143696e-06 0.0024678886 0.0004045519
0001b0 e0 bd ef 38 1a 80 cb 3a 88 8d bb 3a e5 f0 48 3a
       0.00011431775 0.0015525848 0.0014309147 0.00076652906
0001c0 35 05 6c 3a c7 5a 1a 3a 3d 8a 93 39 0d a4 0a 39
       0.00090034615 0.00058881607 0.0002814102 0.00013221819
0001d0 81 19 c5 ba a8 ff 82 3a 65 5d 89 b9 6d 6a fe 39
       -0.0015037508 0.0009994404 -0.0002620026 0.0004852595
0001e0 4d 2f ba 3a 44 ca 91 36 95 88 48 3a a4 00 e8 39
       0.001420477 4.3448836e-06 0.0007649747 0.00044250966
0001f0 c8 6e cf 39 a7 e5 e0 ba e8 b8 2c b8 d7 b1 16 3b
       0.00039564655 -0.0017158285 -4.1180203e-05 0.0022994184
000200 9a 0d 14 39 4d 72 28 3a 74 5c 7b 3a 3f 4d 88 3a
       0.00014119447 0.00064257235 0.0009588667 0.0010398998
000210 6c 15 52 39 6a 10 a1 3a 36 be 12 3a b8 a8 13 3a
       0.00020035141 0.0012288217 0.00055978016 0.0005632746
000220 62 48 07 3a 92 0e ca 39 87 a5 20 3a 50 ed 2b 3a
       0.0005160627 0.00038539298 0.0006128181 0.00065584946
000230 f9 df df b9 14 a2 47 b9 76 47 bc 38 6c f7 53 39
       -0.00042700747 -0.00019038498 8.977849e-05 0.000202147
000240 66 40 1c ba 7e b4 18 3a 6a 4c 26 3a 84 02 70 39
       -0.0005960524 0.0005825235 0.0006343784 0.00022889121
000250 60 a2 2d 38 f3 b4 00 b9 11 3d 62 ba d3 74 d3 b9
       4.1397638e-05 -0.0001227444 -0.00086303154 -0.00040332097
000260 3e cf 56 39 7d f9 9e 3a 18 a7 d4 39 0a 94 82 b9
       0.00020485834 0.0012128797 0.00040560286 -0.0002490583
000270 65 a1 ea 39 3a 71 7b 39 fb 4a 9b b9 c4 ac 06 3a
       0.00044752206 0.00023979406 -0.0002961977 0.00051374384
000280 7b f2 11 3a 64 f9 00 ba 64 7d 27 38 3e e2 60 39
       0.00055674434 -0.00049199746 3.9932682e-05 0.00021446586
000290 f4 16 47 3a ba 77 90 33 7b 67 54 3a 42 7c b2 39
       0.0007594668 6.727301e-08 0.0008102578 0.00034043385
0002a0 ea 87 07 39 20 67 b8 3a 48 b4 f3 39 45 4a c0 39
       0.00012925235 0.001406882 0.00046482892 0.0003667643
0002b0 f0 0c 90 3a 54 25 94 39 ed 97 9a b9 9d 60 32 ba
       0.0010990184 0.0002825657 -0.00029486362 -0.00068045576
0002c0 6a 8d a8 39 37 df 97 b9 38 a2 6d 3a 78 7f e1 ba
       0.0003214882 -0.00028967272 0.0009065005 -0.0017204126
0002d0 48 4e 80 37 e5 19 2f 3a 8e bf a9 3a 42 3c e7 b8
       1.5295242e-05 0.0006679579 0.0012950765 -0.00011026162
0002e0 5c 54 ce 3a b1 72 a6 b9 c2 1d b8 3a e4 3f cc 3a
       0.0015741694 -0.0003174744 0.0014046954 0.0015583006
0002f0 aa 84 ad 39 d5 0a 94 38 30 60 d8 39 e6 f0 f4 38
       0.00033095974 7.0592076e-05 0.00041270396 0.000116796975
000300 b9 fe 11 3b 04 4f 17 bb 0f 75 03 3a 9c 5d 84 39
       0.002227707 -0.0023087868 0.00050146965 0.00025246746
000310 47 84 35 3a c0 95 3e 36 8c eb a1 b9 70 e2 f3 38
       0.0006924313 2.8399372e-06 -0.0003088381 0.0001162932
000320 29 32 50 3a 8a d2 f9 39 cc 91 48 3a fa 5d 64 39
       0.0007942045 0.00047649845 0.000765112 0.00021778783
000330 c8 d8 2c 3a 43 60 6b ba 3c 70 a1 39 37 cd 91 39
       0.0006593582 -0.00089788827 0.00030791934 0.00027809452
000340 98 57 1f 3a 43 81 42 39 40 b1 2b 3a c2 cb 23 3a
       0.0006078421 0.00018549435 0.00065495446 0.0006248319
000350 56 6d 05 b9 cc 86 66 3a 80 7e 63 3a cf 0e bb 39
       -0.00012724599 0.000879389 0.0008678213 0.00035678453
000360 cd 14 71 b9 cb 0c b3 3a 7f 21 3a 3a ba 42 72 39
       -0.000229913 0.0013660429 0.0007100328 0.00023103776
000370 90 11 d4 39 88 06 36 3a a2 76 2a b8 cf d0 8f 3a
       0.00040448876 0.0006943722 -4.0641644e-05 0.0010972264
000380 05 60 ef 3a c2 65 a1 39 d7 cc cd 39 42 f0 a9 39
       0.0018262869 0.00030784128 0.00039253265 0.00032413198
000390 31 cf 92 3a 4e 45 e2 39 09 28 2b 39 94 5f 3f 3a
       0.0011200664 0.00043157715 0.00016322745 0.0007300314
0003a0 a2 e3 5a 3a a3 2c 1c 37 e9 40 06 3b 33 bd bf 39
       0.000834996 9.308717e-06 0.0020485467 0.00036571323
0003b0 f6 02 94 b8 0a 4e 90 3a 06 81 9e 3a dd 98 39 3a
       -7.0577415e-05 0.0011009586 0.0012092895 0.00070799683
0003c0 07 6f 65 3a 44 fa 7c 39 63 bd 3a 39 c6 df 0a 39
       0.0008752201 0.00024125824 0.00017808894 0.00013244068
0003d0 51 7a 0a bb df c2 54 3a e6 80 c8 b9 e4 29 ef 39
       -0.0021130035 0.0008116196 -0.0003824301 0.00045616843
0003e0 39 b0 aa 3a 6b e0 5f 36 09 7b 1d 3a ba 3a b3 39
       0.0013022489 3.3360218e-06 0.00060074084 0.00034185295
0003f0 5f 2c b7 39 be 5a 00 bb c7 6c a0 b9 1a 3a 05 3b
       0.0003493754 -0.0019585337 -0.00030598624 0.002032882

lstm.bias_hh_l0 f4 [512]
000000 d9 15 4e 39 6e ac 65 3a 74 7f 9f 3a ff 3c 91 3a
       0.0001965383 0.0008761351 0.0012168721 0.00110808
000010 81 2f 92 39 fe b5 c2 3a fc 29 3e 3a 42 0c 2e 3a
       0.00027882683 0.0014855263 0.0007254181 0.00066394
000020 90 56 10 3a 77 71 e4 39 4e 3c 3c 3a 94 2c 7f 3a
       0.0005506063 0.00043572087 0.0007180617 0.00097341207
000030 e8 7f 6a b9 4e b7 a5 b8 70 ae c8 38 41 d8 c2 39
       -0.00022363628 -7.901956e-05 9.569235e-05 0.00037163685
000040 08 32 f5 b9 02 da 38 3a 4f e5 4f 3a 4c 36 b3 39
       -0.00046767318 0.00070515287 0.0007930593 0.00034181995
000050 7b c4 32 39 fe 9c 9a b8 f2 c8 44 ba b0 37 e5 b8
       0.00017048598 -7.372534e-05 -0.000750675 -0.000109299435
000060 28 6d ed 39 6e af b1 3a af 9b 11 3a b2 99 c6 b8
       0.0004528549 0.001355631 0.00055545097 -9.470004e-05
000070 bf 2d 0d 3a 44 a3 bf 39 ac e9 73 b9 59 dd 22 3a
       0.000538554 0.00036552 -0.00023261335 0.0006212793
000080 54 4f 4a 3a 54 2d 66 b9 50 17 5f 38 62 54 5b 39
       0.0007717509 -0.00021951395 5.3189055e-05 0.00020916903
000090 de 1d 55 3a a9 33 53 b4 a6 00 94 3a 82 02 a8 39
       0.0008129756 -1.96697e-07 0.0011291697 0.00032045325
0000a0 e0 98 88 39 f2 a7 c6 3a 4f 4c 27 3a 7b 39 d9 39
       0.00026053842 0.0015156253 0.00063819153 0.00041432292
0000b0 2f b5 a3 3a 21 3a e2 39 42 00 4f b9 1c 1b e1 b9
       0.001248991 0.00043149389 -0.00019741154 -0.00042935542
0000c0 82 cd b7 39 94 b9 99 b8 1f aa 6b 3a 8f 8b b0 ba
       0.00035057595 -7.330175e-05 0.00089898886 -0.0013469326
0000d0 d1 e0 8d 39 23 b2 37 3a 15 c5 c8 3a 2a 63 b2 b8
       0.00027061117 0.00070074404 0.0015317524 -8.506172e-05
0000e0 a9 03 f3 3a c7 4c 22 b9 e2 00 c8 3a 09 61 fc 3a
       0.001854052 -0.00015478126 0.0015259052 0.0019254993
0000f0 39 a9 ed 39 2b 03 39 39 67 b9 0f 3a 99 03 16 39
       0.00045330243 0.00017644155 0.0005482644 0.00014306455
000100 53 1d 24 3b fd 9a f2 ba a9 2e 05 3a d4 75 f1 39
       0.0025041893 -0.0018509325 0.00050805 0.0004605489
000110 34 4b 32 3a 48 aa 33 37 f8 93 64 b9 ea 85 25 39
       0.0006801367 1.0708878e-05 -0.00021798897 0.00015785513
000120 4e ae 76 3a 1c 9b 3a 3a da 63 81 3a 2b 0e a6 39
       0.00094101287 0.000711845 0.0009871677 0.00031672543
000130 b8 a3 56 3a 7e e4 4d ba 80 de e1 39 79 6f cc 39
       0.0008187848 -0.00078541774 0.0004308112 0.00038992966
000140 63 0a 37 3a 6d 10 69 39 47 c6 56 3a d9 db 4c 3a
       0.0006982444 0.0002222673 0.0008192998 0.0007814742
000150 fa 82 cb b8 fb 91 87 3a 77 07 8f 3a b1 33 ff 39
       -9.7041906e-05 0.0010343188 0.0010912259 0.00048675903
000160 ac 5d 9b b8 17 87 b8 3a 74 f8 44 3a 1b fd 9e 39
       -7.408424e-05 0.0014078346 0.0007513829 0.00030324687
000170 f9 b4 05 3a 9c ed 83 3a 08 e1 0e b8 40 a6 a9 3a
       0.00051005144 0.001006532 -3.4065015e-05 0.0012943223
000180 02 9e 0a 3b 8f b3 c2 39 24 9d f7 39 be 0e ed 39
       0.002115131 0.00037136345 0.0004722859 0.00045215146
000190 16 b4 a7 3a b6 16 1d 3a 97 31 52 39 7d 4b 80 3a
       0.0012794759 0.0005992459 0.00020045634 0.0009788122
0001a0 3e 7c 8d 3a e0 67 19 37 4d bc 21 3b 05 1a d4 39
       0.0010794473 9.143696e-06 0.0024678886 0.00040455177
0001b0 e0 bd ef 38 1a 80 cb 3a 88 8d bb 3a e5 f0 48 3a
       0.00011431775 0.0015525848 0.0014309147 0.00076652906
0001c0 35 05 6c 3a c7 5a 1a 3a 3d 8a 93 39 0d a4 0a 39
       0.00090034615 0.00058881607 0.0002814102 0.00013221819
0001d0 81 19 c5 ba a8 ff 82 3a 65 5d 89 b9 6d 6a fe 39
       -0.0015037508 0.0009994404 -0.0002620026 0.0004852595
0001e0 4d 2f ba 3a 44 ca 91 36 95 88 48 3a a4 00 e8 39
       0.001420477 4.3448836e-06 0.0007649747 0.00044250966
0001f0 c8 6e cf 39 a7 e5 e0 ba 18 b8 2c b8 d7 b1 16 3b
       0.00039564655 -0.0017158285 -4.1179446e-05 0.0022994184
000200 9b 0d 14 39 4f 72 28 3a 74 5c 7b 3a 3f 4d 88 3a
       0.00014119448 0.0006425725 0.0009588667 0.0010398998
000210 6c 15 52 39 6a 10 a1 3a 36 be 12 3a b8 a8 13 3a
       0.00020035141 0.0012288217 0.00055978016 0.0005632746
000220 62 48 07 3a 92 0e ca 39 88 a5 20 3a 50 ed 2b 3a
       0.0005160627 0.00038539298 0.00061281817 0.00065584946
000230 f9 df df b9 14 a2 47 b9 76 47 bc 38 6c f7 53 39
       -0.00042700747 -0.00019038498 8.977849e-05 0.000202147
000240 68 40 1c ba 80 b4 18 3a 69 4c 26 3a 7f 02 70 39
       -0.0005960525 0.00058252364 0.00063437835 0.00022889113
000250 34 a2 2d 38 f3 b4 00 b9 11 3d 62 ba d3 74 d3 b9
       4.1397478e-05 -0.0001227444 -0.00086303154 -0.00040332097
000260 3e cf 56 39 7d f9 9e 3a 18 a7 d4 39 0a 94 82 b9
       0.00020485834 0.0012128797 0.00040560286 -0.0002490583
000270 65 a1 ea 39 37 71 7b 39 ff 4a 9b b9 c4 ac 06 3a
       0.00044752206 0.00023979401 -0.0002961978 0.00051374384
000280 7a f2 11 3a 64 f9 00 ba 64 7d 27 38 3d e2 60 39
       0.0005567443 -0.00049199746 3.9932682e-05 0.00021446585
000290 f4 16 47 3a 12 df 90 33 7b 67 54 3a 2a 7c b2 39
       0.0007594668 6.746099e-08 0.0008102578 0.00034043315
0002a0 ea 87 07 39 20 67 b8 3a 48 b4 f3 39 45 4a c0 39
       0.00012925235 0.001406882 0.00046482892 0.0003667643
0002b0 f0 0c 90 3a 60 25 94 39 ed 97 9a b9 9d 60 32 ba
       0.0010990184 0.00028256606 -0.00029486362 -0.00068045576
0002c0 68 8d a8 39 37 df 97 b9 38 a2 6d 3a 78 7f e1 ba
       0.00032148813 -0.00028967272 0.0009065005 -0.0017204126
0002d0 48 4e 80 37 e5 19 2f 3a 8e bf a9 3a 3a 9f e7 b8
       1.5295242e-05 0.0006679579 0.0012950765 -0.000110445966
0002e0 5c 54 ce 3a b1 72 a6 b9 c2 1d b8 3a e4 3f cc 3a
       0.0015741694 -0.0003174744 0.0014046954 0.0015583006
0002f0 aa 84 ad 39 d5 0a 94 38 30 60 d8 39 e6 f0 f4 38
       0.00033095974 7.0592076e-05 0.00041270396 0.000116796975
000300 b9 fe 11 3b 04 4f 17 bb 0f 75 03 3a a0 5d 84 39
       0.002227707 -0.0023087868 0.00050146965 0.00025246758
000310 46 84 35 3a c0 95 3e 36 8c eb a1 b9 70 e2 f3 38
       0.00069243123 2.8399372e-06 -0.0003088381 0.0001162932
000320 29 32 50 3a 8a d2 f9 39 c8 91 48 3a f5 5d 64 39
       0.0007942045 0.00047649845 0.00076511176 0.00021778776
000330 c8 d8 2c 3a 45 60 6b ba 3c 70 a1 39 37 cd 91 39
       0.0006593582 -0.0008978884 0.00030791934 0.00027809452
000340 96 57 1f 3a 41 81 42 39 40 b1 2b 3a c2 cb 23 3a
       0.000607842 0.00018549433 0.00065495446 0.0006248319
000350 56 6d 05 b9 cc 86 66 3a 7e 7e 63 3a ce 0e bb 39
       -0.00012724599 0.000879389 0.00086782116 0.0003567845
000360 cd 14 71 b9 cb 0c b3 3a 7f 21 3a 3a b8 42 72 39
       -0.000229913 0.0013660429 0.0007100328 0.00023103773
000370 8f 11 d4 39 88 06 36 3a a3 76 2a b8 d0 d0 8f 3a
       0.00040448873 0.0006943722 -4.0641648e-05 0.0010972265
000380 08 60 ef 3a c2 65 a1 39 d7 cc cd 39 42 f0 a9 39
       0.0018262872 0.00030784128 0.00039253265 0.00032413198
000390 31 cf 92 3a 50 45 e2 39 09 28 2b 39 99 5f 3f 3a
       0.0011200664 0.0004315772 0.00016322745 0.0007300317
0003a0 a3 e3 5a 3a a3 2c 1c 37 e9 40 06 3b 33 bd bf 39
       0.00083499606 9.308717e-06 0.0020485467 0.00036571323
0003b0 f6 02 94 b8 0a 4e 90 3a 04 81 9e 3a de 98 39 3a
       -7.0577415e-05 0.0011009586 0.0012092893 0.0007079969
0003c0 0d 6f 65 3a 44 fa 7c 39 63 bd 3a 39 c6 df 0a 39
       0.00087522046 0.00024125824 0.00017808894 0.00013244068
0003d0 50 7a 0a bb df c2 54 3a e6 80 c8 b9 e6 29 ef 39
       -0.0021130033 0.0008116196 -0.0003824301 0.0004561685
0003e0 39 b0 aa 3a 6b e0 5f 36 09 7b 1d 3a ba 3a b3 39
       0.0013022489 3.3360218e-06 0.00060074084 0.00034185295
0003f0 5f 2c b7 39 be 5a 00 bb c7 6c a0 b9 1a 3a 05 3b
       0.0003493754 -0.0019585337 -0.00030598624 0.002032882

lstm.weight_ih_l1 f4 [512, 128]
000000 c0 e2 78 a6 8c eb 19 a6 46 ed 80 26 6e 37 bd 25
       -8.634959e-16 -5.3401764e-16 8.946097e-16 3.2823834e-16
000010 47 66 29 a6 5c 89 60 a6 78 78 2e a6 88 5a 2d 26
       -5.8772265e-16 -7.790177e-16 -6.053164e-16 6.0144125e-16
000020 01 4d 87 26 2b 7a 74 a6 43 6d 7e a6 c8 bd 46 a6
       9.388379e-16 -8.4820074e-16 -8.827203e-16 -6.895225e-16
000030 9b 65 43 a6 da 16 72 26 72 f0 ee 25 8a 02 4a a6
       -6.7791917e-16 8.3991586e-16 4.144935e-16 -7.008627e-16
000040 6c 87 0d a6 30 7d 87 24 ac 52 d1 a5 a0 a9 9a a5
       -4.9102733e-16 5.875899e-17 -3.631174e-16 -2.6829684e-16
000050 44 6b 31 a6 57 bf 10 a6 02 40 d4 a5 f9 c1 55 26
       -6.1554583e-16 -5.021935e-16 -3.681951e-16 7.41621e-16
000060 c7 a9 80 26 e4 07 42 26 56 22 49 a6 24 29 81 26
       8.927802e-16 6.7317965e-16 -6.978242e-16 8.962324e-16
000070 1a 88 82 26 6d 27 82 a6 85 69 26 a6 1d c1 40 a6
       9.057452e-16 -9.031248e-16 -5.7735825e-16 -6.68751e-16
000080 c6 22 ca 25 68 20 83 a6 68 f5 1e a6 4a bc ed a5
       3.5064978e-16 -9.098735e-16 -5.514985e-16 -4.1240536e-16
000090 54 47 88 a6 d3 e3 2e 26 34 5f 0d 26 3a 8e 17 a6
       -9.456229e-16 6.0677136e-16 4.9048226e-16 -5.25814e-16
0000a0 41 62 6a a6 ad ef 69 a6 c7 b3 4d a6 27 a6 55 26
       -8.131822e-16 -8.1162935e-16 -7.1367306e-16 7.41244e-16
0000b0 b9 aa 6d a6 24 32 83 a6 8a fe 69 26 4f c8 e0 25
       -8.2457265e-16 -9.103542e-16 8.118308e-16 3.899354e-16
0000c0 9c 7f 4b a6 57 55 46 a6 d1 6f 13 26 3a 82 6f 26
       -7.0602716e-16 -6.8810707e-16 5.115241e-16 8.309627e-16
0000d0 05 d5 76 a6 c1 2c ce 25 08 2b 84 a6 04 a9 20 25
       -8.563709e-16 3.576563e-16 -9.171004e-16 1.3935053e-16
0000e0 42 27 79 26 f2 60 70 26 a2 10 ce a5 98 89 9a 24
       8.6442433e-16 8.339811e-16 -3.5746574e-16 6.701995e-17
0000f0 e5 9a 77 a6 8a e7 7c 26 60 62 3d a4 75 78 41 26
       -8.590526e-16 8.7743857e-16 -4.106617e-17 6.7123576e-16
000100 74 e1 af 25 70 cc 50 a6 30 60 f3 25 60 ab 53 24
       3.0510434e-16 -7.244156e-16 4.221896e-16 4.5898492e-17
000110 56 67 7b a6 aa 1f 3a 26 e7 eb 1f a6 0d c2 5f a6
       -8.7223165e-16 6.4574626e-16 -5.5483914e-16 -7.7631655e-16
000120 34 6b 0e a6 18 b0 27 a6 54 17 e8 a5 2e 0e 32 a6
       -4.9411434e-16 -5.8178416e-16 -4.0261392e-16 -6.1775373e-16
000130 30 37 76 26 26 cd 20 26 02 ff 74 26 2b 4f 58 26
       8.542319e-16 5.578918e-16 8.5000106e-16 7.5047347e-16
000140 a2 c3 5c 26 e7 90 0e 26 7c 06 4c 26 d5 b6 83 a6
       7.6592965e-16 4.9462526e-16 7.0785506e-16 -9.139508e-16
000150 08 5d 90 a5 dc ff 24 a6 5d a8 87 26 b8 a8 64 a5
       -2.5043058e-16 -5.7245684e-16 9.413142e-16 -1.9833012e-16
000160 84 40 f7 a5 32 b0 73 26 44 ad 6c 26 08 72 9c a5
       -4.2891387e-16 8.454635e-16 8.2113767e-16 -2.7138957e-16
000170 e0 bd 71 a6 ac 94 af a5 3c 91 7e 26 a8 a0 15 26
       -8.3871e-16 -3.0458405e-16 8.832078e-16 5.191249e-16
000180 f0 ed 83 a6 90 7b 98 25 28 85 4a a6 ab eb 03 26
       -9.154444e-16 2.6451526e-16 -7.026329e-16 4.5769145e-16
000190 9a 55 51 26 2e f3 73 a6 ac f4 2e a6 5e 10 81 a6
       7.2627453e-16 -8.463713e-16 -6.069997e-16 -8.95561e-16
0001a0 08 6f 3f 25 10 fe c8 a5 fa a0 85 26 4f 9b 78 26
       1.6604228e-16 -3.486663e-16 9.272362e-16 8.6252767e-16
0001b0 0b b6 7e a6 84 41 c4 a5 ba 49 78 26 58 a7 3f a5
       -8.8370667e-16 -3.4044975e-16 8.61422e-16 -1.6623307e-16
0001c0 51 07 f3 a5 04 91 4e 26 c5 5b 7b 26 24 26 e5 a5
       -4.2158738e-16 7.166714e-16 8.720749e-16 -3.9751013e-16
0001d0 20 33 81 26 c0 5b 45 a4 d2 02 f1 a5 07 0e 19 a6
       8.965031e-16 -4.279528e-17 -4.1808747e-16 -5.310155e-16
0001e0 ea cd 8a a6 6c 26 83 a6 be 2b 9a 25 e0 6e 80 26
       -9.631487e-16 -9.100365e-16 2.6744382e-16 8.911837e-16
0001f0 58 8c 86 26 91 2a 6a 26 78 2f d4 a4 fc 75 60 26
       9.336158e-16 8.1242747e-16 -9.202076e-17 7.787551e-16
000200 6a 0a fc 25 7d cd d5 a5 ee bb 81 25 ce 0a 88 26
       4.3722088e-16 -3.7088854e-16 2.250528e-16 9.439824e-16
000210 1a e2 13 a6 03 c7 6c a6 78 f1 52 25 26 bf 4c 26
       -5.1307295e-16 -8.214866e-16 1.8296409e-16 7.103577e-16
000220 ac dc 75 25 a9 49 1f a6 fc 0d 3c a6 28 96 54 a6
       2.1325129e-16 -5.5264035e-16 -6.5244555e-16 -7.3755775e-16
000230 1b 39 06 26 32 43 75 26 2f c5 a6 a5 f2 5b 06 26
       4.656798e-16 8.5092517e-16 -2.8930027e-16 4.66152e-16
000240 26 d2 55 26 4e d3 4e a6 18 32 e4 25 64 7f 5d 26
       7.4184024e-16 -7.175698e-16 3.958564e-16 7.6847424e-16
000250 98 df 7c 25 76 f8 42 a6 26 4a 8a 26 08 6f 36 a5
       2.1933272e-16 -6.7644e-16 9.595772e-16 -1.5823602e-16
000260 84 67 e1 25 70 15 11 26 42 48 9a 25 9e 7f 34 a6
       3.9101423e-16 5.0336034e-16 2.6763705e-16 -6.2623e-16
000270 c6 54 7a 26 da 0d 3b 26 f2 e1 1f a6 a8 90 1c 26
       8.6851063e-16 6.489743e-16 -5.547042e-16 5.431942e-16
000280 01 39 41 a6 22 78 1f a6 7e 26 34 26 42 0a 02 26
       -6.703758e-16 -5.5327017e-16 6.250221e-16 4.511671e-16
000290 21 11 6e a6 00 3e 2e 24 28 00 29 a6 00 d8 68 26
       -8.259605e-16 3.778275e-17 -5.8633865e-16 8.0783904e-16
0002a0 7f 39 6c a6 33 b0 10 a6 1e dc 1f 26 a0 39 77 26
       -8.195687e-16 -5.019883e-16 5.546252e-16 8.5773436e-16
0002b0 62 c4 cb a5 10 5e 12 26 d8 1e ce 24 a6 b0 06 a6
       -3.534796e-16 5.0781404e-16 8.939051e-17 -4.672999e-16
0002c0 78 f7 37 26 89 1f 56 26 76 e9 49 a6 f8 d6 8b a6
       6.382626e-16 7.4288903e-16 -7.005228e-16 -9.70333e-16
0002d0 92 c9 7d a6 f1 65 86 26 da 7d 6b 26 e4 ce a5 a5
       -8.8050187e-16 9.325749e-16 8.1702564e-16 -2.8763132e-16
0002e0 4f 07 39 a6 22 43 88 26 00 8d 22 a6 ef c3 40 a6
       -6.4194674e-16 9.455092e-16 -5.639613e-16 -6.687892e-16
0002f0 7a 4b 2a a6 90 0e ea a4 75 83 3a a6 cd bc ee 25
       -5.908289e-16 -1.0150599e-16 -6.470987e-16 4.1414355e-16
000300 23 af 63 26 00 02 f5 a4 f6 3e 13 26 9f e4 5a a6
       7.89938e-16 -1.062552e-16 5.10862e-16 -7.5943783e-16
000310 df b0 88 26 ea 8a eb 25 a0 33 7f 26 92 6e 56 26
       9.484837e-16 4.0860134e-16 8.854086e-16 7.4396015e-16
000320 75 0d 52 26 fa 3c 34 a6 1f 87 0f 26 78 e7 ea a4
       7.2876624e-16 -6.2532684e-16 4.9796215e-16 -1.01873447e-16
000330 8a a1 5d a6 b5 e1 4f a6 c9 70 65 26 a2 05 4a a6
       -7.6893704e-16 -7.212344e-16 7.960319e-16 -7.009046e-16
000340 76 71 9e 25 56 9c 44 a6 0d fb 31 26 34 70 32 a6
       2.7485515e-16 -6.8213035e-16 6.174945e-16 -6.190822e-16
000350 a1 67 89 26 16 ca 60 a6 3f 7b 73 a6 ae 5e 4c a6
       9.534373e-16 -7.798949e-16 -8.447459e-16 -7.0905033e-16
000360 aa eb c1 a5 92 b3 79 26 f8 0c 20 a6 69 b0 04 26
       -3.3639855e-16 8.663259e-16 -5.5528727e-16 4.603578e-16
000370 64 b4 69 25 cc e3 c5 a5 a2 79 1c a6 b0 d5 23 25
       2.0270647e-16 -3.4328414e-16 -5.4288216e-16 1.4210396e-16
000380 80 3c c6 a4 b0 42 7d a5 d4 11 54 26 6a f6 f9 25
       -8.59713e-17 -2.1966847e-16 7.3576437e-16 4.336159e-16
000390 05 65 4b a6 60 49 cd 24 44 c2 87 a6 42 d7 64 a6
       -7.056668e-16 8.902888e-17 -9.420163e-16 -7.939512e-16
0003a0 3f fc 47 a6 25 eb 61 26 2b 61 74 a6 77 a8 86 a6
       -6.938385e-16 7.8381237e-16 -8.4786193e-16 -9.34378e-16
0003b0 d4 d1 df 25 39 02 53 26 6c 1a cc 25 ca a1 06 a6
       3.8826519e-16 7.3208343e-16 3.5406263e-16 -4.6709854e-16
0003c0 11 33 3e 26 22 ec bf a5 cb ec 52 26 77 bd 18 a6
       6.59887e-16 -3.3293228e-16 7.31793e-16 -5.2992366e-16
0003d0 72 37 60 26 30 3b 41 a5 d1 65 86 26 84 b7 4a a6
       7.7790754e-16 -1.6760135e-16 9.325715e-16 -7.033154e-16
0003e0 e3 d4 39 26 20 d3 8a 26 00 40 c3 a2 10 95 15 a4
       6.4473284e-16 9.632899e-16 -5.292262e-18 -3.2435486e-17
0003f0 37 e5 08 a6 3e af 43 a6 24 83 e3 a5 e0 8e 0e a4
       -4.749512e-16 -6.7891713e-16 -3.9467087e-16 -3.091236e-17

lstm.weight_hh_l1 f4 [512, 128]
000000 db f9 30 26 a0 11 be 25 a1 de 39 a6 d0 9c c7 25
       6.1400884e-16 3.297169e-16 -6.4486487e-16 3.4627257e-16
000010 87 50 21 a6 24 a2 51 a6 4f f7 3b a6 66 13 3e 26
       -5.596723e-16 -7.2731183e-16 -6.5213824e-16 6.594578e-16
000020 a1 91 49 a6 a4 a1 31 a6 38 07 64 25 21 0d 5f a6
       -6.993325e-16 -6.1628275e-16 1.9778293e-16 -7.738646e-16
000030 c1 65 85 26 e8 ec 2e a5 60 16 87 a5 ac 93 0e 26
       9.256309e-16 -1.5172361e-16 -2.343393e-16 4.946628e-16
000040 f8 2a 83 26 6f 01 49 26 30 ae a6 24 1c 9e 67 a6
       9.101598e-16 6.9737827e-16 7.228611e-17 -8.0358503e-16
000050 06 64 fa a5 40 ec 6e 24 d9 41 6a a6 43 39 5b a6
       -4.3435865e-16 5.1808135e-17 -8.12743e-16 -7.605849e-16
000060 4c d6 75 a6 24 f8 18 26 56 0e 7c a6 de c7 7b a6
       -8.5291877e-16 5.3071887e-16 -8.744949e-16 -8.735399e-16
000070 fd 71 85 a6 ca 47 de a5 a8 83 ee 24 3b 58 69 26
       -9.259625e-16 -3.8559507e-16 1.0343908e-16 8.095769e-16
000080 60 ec 5d 26 3d a5 7e a6 c6 d9 6d a6 a8 b0 4a 25
       7.6995125e-16 -8.834789e-16 -8.252103e-16 1.758056e-16
000090 b5 49 33 a6 84 3b 59 25 30 dc ab a5 df 68 06 26
       -6.220299e-16 1.8841914e-16 -2.9812976e-16 4.6632716e-16
0000a0 a8 1d 45 a6 11 53 1f a6 c8 8d 25 a6 a4 f5 9a a5
       -6.8388297e-16 -5.527678e-16 -5.7438024e-16 -2.6881194e-16
0000b0 7d 6d 15 26 98 aa 09 26 8c 98 83 a6 4e c5 8f 25
       5.1843144e-16 4.776262e-16 -9.131299e-16 2.4940245e-16
0000c0 24 35 bb a5 14 e7 08 26 22 2f 71 26 10 e7 35 a5
       -3.2475338e-16 4.749765e-16 8.367755e-16 -1.5777534e-16
0000d0 da ba 84 a6 a6 cd 48 26 9a 61 2a 26 f8 bb 70 a5
       -9.209986e-16 6.9667645e-16 5.9112873e-16 -2.0880368e-16
0000e0 ac 6c 79 26 88 75 c2 a5 fb d4 86 a6 5f c2 62 26
       8.6536507e-16 -3.3733278e-16 -9.355846e-16 7.8672923e-16
0000f0 9d 0f 80 a6 80 39 bb a2 04 9f 6b 25 60 1e 75 a6
       -8.886016e-16 -5.074733e-18 2.0436877e-16 -8.5042616e-16
000100 40 51 0d a6 a8 09 49 a6 82 d5 86 26 b9 b0 fb a5
       -4.9029316e-16 -6.974897e-16 9.355989e-16 -4.366131e-16
000110 59 55 21 a6 f0 30 db a5 76 10 87 a5 1d 4e 3a a6
       -5.5973764e-16 -3.8023605e-16 -2.342992e-16 -6.4637577e-16
000120 b4 24 69 26 40 f9 70 25 ea c8 0b a6 9b 38 2f a6
       8.0887856e-16 2.0901131e-16 -4.84976e-16 -6.0792036e-16
000130 f0 c1 b4 a5 ba 28 71 26 f4 ea 89 a6 57 41 83 a6
       -3.135644e-16 8.3668866e-16 -9.569969e-16 -9.107661e-16
000140 68 fc a4 25 3c 81 48 25 7e 58 c3 a5 98 ab f3 a5
       2.8620502e-16 1.7391021e-16 -3.3887072e-16 -4.2270057e-16
000150 cc 95 8b 26 6c 99 fd 25 f6 0f 8c 25 60 76 9c a4
       9.685665e-16 4.3992467e-16 2.4296944e-16 -6.785475e-17
000160 68 07 10 a6 2d 90 26 a6 36 8c 77 25 22 77 0c 26
       -4.9970073e-16 -5.7788214e-16 2.147134e-16 4.873371e-16
000170 e0 d0 08 a6 60 d9 b0 a3 5f 8a 66 a6 b5 2f 50 26
       -4.7467557e-16 -1.917402e-17 -7.998481e-16 7.222915e-16
000180 e9 8d 5f a6 e0 79 40 26 48 a8 60 26 50 30 51 a6
       -7.756099e-16 6.6778553e-16 7.7943675e-16 -7.2576917e-16
000190 c0 41 4a 24 89 c9 20 a6 90 0f 19 a6 ea b2 53 26
       4.385746e-17 -5.578428e-16 -5.310363e-16 7.3447804e-16
0001a0 50 a5 b9 a4 90 cd 18 26 30 f3 66 26 7c 56 85 a6
       -8.051101e-17 5.3014183e-16 8.012686e-16 -9.25217e-16
0001b0 4e 62 11 a6 30 15 f9 24 e0 f0 76 25 e1 be 30 a6
       -5.044021e-16 1.0802243e-16 2.141871e-16 -6.1320956e-16
0001c0 2d 88 6e a6 42 0e 54 a6 2c c3 ed 25 a2 66 4f 26
       -8.275739e-16 -7.35716e-16 4.12452e-16 7.1956645e-16
0001d0 5e 6f 9a 25 f8 25 5b 26 3d 8d 1b 26 38 92 25 25
       2.6790207e-16 7.6032345e-16 5.396784e-16 1.436101e-16
0001e0 ac 0b b2 a5 0c 96 29 a6 fe 09 06 a6 6f 3f 56 26
       -3.0885987e-16 -5.8837005e-16 -4.650413e-16 7.4332133e-16
0001f0 53 63 1b 26 d0 97 5a 24 29 59 82 26 68 f8 bd a5
       5.3911037e-16 4.7399805e-17 9.044729e-16 -3.29546e-16
000200 c5 dc 7d 26 60 ec 77 a6 01 5c 5b a6 6a e2 10 26
       8.8076206e-16 -8.601569e-16 -7.6105577e-16 5.0266884e-16
000210 80 6a 50 a6 c0 0a 9a a4 72 e3 44 a6 5c 4d 70 26
       -7.230883e-16 -6.6805065e-17 -6.8309406e-16 8.337157e-16
000220 fe 25 81 a6 2a 21 32 a6 e4 3d 95 a5 60 b7 0b 25
       -8.961471e-16 -6.18011e-16 -2.5889319e-16 1.2118458e-16
000230 38 60 41 a6 b3 31 25 a6 7c 41 17 26 d9 93 8a a6
       -6.7090727e-16 -5.731323e-16 5.2477397e-16 -9.615748e-16
000240 10 f3 4a 26 e4 8f 73 a6 bc 7f 01 26 b9 7c 37 a6
       7.041224e-16 -8.450257e-16 4.492898e-16 -6.365991e-16
000250 62 b4 83 a6 f2 f6 ef 25 88 57 e1 24 de 7f 6b 26
       -9.138844e-16 4.1627228e-16 9.772648e-17 8.1705296e-16
000260 4d 3c 67 a6 d3 13 42 a6 f5 21 36 26 c0 d8 b8 24
       -8.022595e-16 -6.733414e-16 6.3189955e-16 8.016447e-17
000270 e8 45 50 a6 2c 93 78 a5 63 a1 78 26 49 e1 83 a6
       -7.2259237e-16 -2.1560435e-16 8.6261004e-16 -9.151015e-16
000280 64 23 f4 a5 96 28 a5 a5 20 1e a3 a5 af b3 24 a6
       -4.2351234e-16 -2.865044e-16 -2.8296406e-16 -5.7142447e-16
000290 80 de 51 25 7a d4 1a a6 d6 58 30 a6 54 da 27 25
       1.8203246e-16 -5.371744e-16 -6.118266e-16 1.4558913e-16
0002a0 99 fb 21 26 00 af 57 23 88 c7 6c a6 e4 33 02 a5
       5.6199074e-16 1.1692231e-17 -8.2149363e-16 -1.1293284e-16
0002b0 66 bb 14 a6 50 d4 97 a5 73 eb 75 26 ce 9f 40 26
       -5.1601787e-16 -2.6338193e-16 8.5320544e-16 6.6829957e-16
0002c0 d6 15 ac a5 18 80 e4 24 42 54 82 a6 36 f0 29 26
       -2.985204e-16 9.909624e-17 -9.0434e-16 5.89592e-16
0002d0 ce 51 e1 25 60 61 67 a5 19 bd 69 26 2c de 5e 26
       3.908671e-16 -2.0069048e-16 8.109439e-16 7.732282e-16
0002e0 17 c4 5f a6 df 7a 95 a5 e1 b0 53 a6 d5 63 56 a6
       -7.763442e-16 -2.593064e-16 -7.3445046e-16 -7.438146e-16
0002f0 d6 e3 4c 26 48 59 2a a6 be df 90 25 02 82 64 a6
       7.1085493e-16 -5.9101597e-16 2.5131632e-16 -7.9279584e-16
000300 da 97 24 25 0a 84 39 a6 99 50 42 26 68 d9 b8 a5
       1.4276182e-16 -6.4363715e-16 6.74165e-16 -3.2066232e-16
000310 f8 9e c0 25 bf a5 b2 a5 08 be 92 24 13 e0 85 26
       3.3414412e-16 -3.0990392e-16 6.363933e-17 9.289464e-16
000320 10 38 44 a6 d2 5c ad a5 70 da 7d a6 b0 93 7a a5
       -6.807714e-16 -3.0073614e-16 -8.8073046e-16 -2.1734082e-16
000330 14 e8 58 25 30 1e 53 26 7c 69 46 a6 b5 30 7c a6
       1.8813645e-16 7.324624e-16 -6.883801e-16 -8.7496074e-16
000340 e2 40 41 a5 96 3e b7 25 12 d1 84 a6 7c 45 85 a6
       -1.6762065e-16 3.178785e-16 -9.216009e-16 -9.247563e-16
000350 8b 6a 05 26 38 31 9e a5 fe 8e 91 25 4b e8 4f 26
       4.6288037e-16 -2.7441983e-16 2.5250386e-16 7.213237e-16
000360 62 4c 49 a6 70 b0 63 a5 7c a5 7b a6 73 9e 43 a6
       -6.98394e-16 -1.9748891e-16 -8.730739e-16 -6.7868954e-16
000370 9c b0 17 a6 f4 fd 65 26 94 6c 44 a5 2c 64 1a a6
       -5.2628e-16 7.9794506e-16 -1.7037078e-16 -5.356524e-16
000380 be ce d5 a5 c1 c9 58 26 3a 79 9d a5 3a 71 ad a5
       -3.7089704e-16 7.521348e-16 -2.7317305e-16 -3.0087441e-16
000390 00 f8 c6 24 d8 2c 82 26 20 83 e2 a3 e3 1b 05 26
       8.628894e-17 9.032717e-16 -2.4558503e-17 4.618144e-16
0003a0 c6 1c a9 25 de df a9 25 96 1f 78 a6 58 50 ab a5
       2.9336324e-16 2.9468525e-16 -8.608509e-16 -2.9718214e-16
0003b0 85 92 88 26 d0 e7 27 24 2a 7a 81 a6 36 0a 67 a6
       9.47661e-16 3.6408705e-17 -8.984286e-16 -8.0158063e-16
0003c0 86 76 48 26 7a 9d cf a5 2a ce 77 a6 9b 6b 2b a6
       6.954957e-16 -3.6015486e-16 -8.5974744e-16 -5.9473375e-16
0003d0 6a 42 29 26 27 2f 30 26 18 95 88 a6 3e 1d 33 a6
       5.872366e-16 6.112617e-16 -9.477308e-16 -6.214273e-16
0003e0 16 79 26 26 d4 41 d9 a5 60 b1 98 23 7c 05 56 26
       5.775692e-16 -3.7688106e-16 1.6554994e-17 7.42536e-16
0003f0 a3 d0 00 a6 90 ac 42 26 64 1a 38 26 6e f2 3c a6
       -4.4691676e-16 6.7541137e-16 6.387359e-16 -6.5554156e-16
