models/EURCHF_model.pth (torch, 860300 bytes, 15 tensors)

lstm.weight_ih_l0 f4 [512, 12]
000000 a3 99 7b be 58 4b 7b be d3 17 90 be e3 40 20 be
       -0.24570327 -0.2454046 -0.28143176 -0.15649752
000010 c2 21 28 be 64 82 36 be 1d 95 4b be 4b a5 4e be
       -0.16419128 -0.17823178 -0.19881101 -0.20180242
000020 7f 2d 42 be ad dd a6 3c 24 f8 a9 bd 68 29 5a be
       -0.18962668 0.020369375 -0.08299282 -0.21304858
000030 42 50 f7 3d 9d 33 1b 3d d3 76 4a 3e 8e 42 87 3e
       0.12075855 0.03789102 0.1977189 0.26417965
000040 31 27 b0 3e 12 79 c3 3d 76 53 03 3e 6a dc 08 3e
       0.344049 0.09544577 0.12824807 0.13365331
000050 6f ee cb 3c b7 bd 62 3e fe eb 27 3e 86 1a d1 3d
       0.024893967 0.22142683 0.16398618 0.10210137
000060 fd b8 09 be 78 b5 3e be 4f c6 da bd 5a c1 c0 bd
       -0.13449474 -0.18623912 -0.106823556 -0.09411879
000070 c8 a2 5b bd 68 cc 14 bb fb cf d0 3b e0 28 97 be
       -0.053622037 -0.0022704843 0.0063724495 -0.29523373
000080 5d b5 5c 3e 88 1e c5 bd ea 9d 13 be ed ac e5 bd
       0.2155356 -0.09624964 -0.14415708 -0.112146236
000090 ba 63 2c 3e 78 81 09 3e bb 28 61 3d 9e b9 a2 ba
       0.16834918 0.13428295 0.054970484 -0.0012414937
0000a0 15 3c 7c 3e 4c ed fc 3d 29 f3 11 3d 0d 20 10 bf
       0.24632294 0.12349948 0.035632286 -0.56298906
0000b0 51 e0 a5 3e 92 3d 42 be c0 2d 14 3d 2e a8 58 be
       0.32397702 -0.189688 0.036176443 -0.21157905
0000c0 22 bb 4c 3e 7d b3 f9 3d c0 b4 0b 3e dc 1b d8 3d
       0.1999326 0.12192438 0.1364317 0.10552189
0000d0 f9 0f 46 be c4 c3 a6 3d 8d c7 ce 3d 0f 35 04 be
       -0.1934203 0.08142808 0.10096655 -0.12910865
0000e0 ee b0 8f be 8f b8 94 bc 21 f1 77 be eb 04 0b be
       -0.28064674 -0.01815441 -0.24213077 -0.13576095
0000f0 78 11 3b be 09 db 9f bd c4 60 9a bd ee f8 c1 bd
       -0.18268383 -0.078054495 -0.07537988 -0.09471308
000100 29 66 31 bd 42 09 4d 3c 6b 4e d7 bd 04 06 54 bd
       -0.04331032 0.012514414 -0.10513004 -0.05176355
000110 e2 76 8f 3e ab c6 1a be 04 63 bb be cc 7f d0 3c
       0.28020388 -0.15114848 -0.3659898 0.025451563
000120 ed 07 55 be 8f 51 45 be f9 6b 5a be 7d c0 6e be
       -0.20803805 -0.19269393 -0.21330251 -0.23315616
000130 c2 e7 02 3d 8d 54 3b be 35 51 a1 bd 42 af e9 3b
       0.031959303 -0.18293972 -0.07876817 0.007131488
000140 ca f5 ae 3e 90 15 69 bd 1b 7e ae bd ec 9d a4 3d
       0.34171897 -0.05690533 -0.085201465 0.08037934
000150 e4 88 57 3c 52 e0 bc 3d 49 59 0b bd ea 99 d8 3b
       0.013155196 0.09222473 -0.034020696 0.006610145
000160 60 36 6a be 7b 82 0f 3d 54 76 24 3e 06 f7 d6 be
       -0.22872305 0.035036545 0.16060764 -0.4198534
000170 04 74 82 3c 17 9a a8 be 52 42 c1 be 0a f2 15 be
       0.015924461 -0.3293006 -0.3774591 -0.14643112
000180 ff da f5 bd 31 fd 6e bd ba ae c1 bd d4 9b 1c be
       -0.12004661 -0.05834693 -0.094571546 -0.15293819
000190 e0 bf 16 be 6d 1a bf bc f8 f1 1f be 79 b6 4e be
       -0.14721632 -0.02332803 -0.15619648 -0.20186795
0001a0 b1 b5 c5 3d e6 aa 62 bc e6 e9 bf bd 93 64 2a bc
       0.096537955 -0.013834691 -0.093707845 -0.010399955
0001b0 93 e8 89 3e 0d 53 a5 3e a5 fc 24 3e fe 98 53 3e
       0.26935253 0.32289925 0.16112001 0.2066383
0001c0 5c 90 82 3e 81 23 4a 3e 7f 5f 56 3e ce e7 85 bd
       0.25500762 0.19740106 0.20934866 -0.06538354
0001d0 41 cb 6c 3e ee 15 69 3c 8e cd 8f 3d 70 c9 19 3d
       0.2312441 0.01422642 0.07021628 0.03754562
0001e0 ab 5d 90 be 9b bc 9f be 2d 7e 99 be 76 38 a3 be
       -0.28196463 -0.31198582 -0.29979077 -0.31879014
0001f0 9c bb 67 3c 2c 02 d5 be 76 61 d9 be 67 7b 31 3d
       0.014143851 -0.4160322 -0.4245717 0.043330576
000200 dc a0 9e bd 83 2f 56 3d 55 d8 6c 3d e7 8d 8e 3d
       -0.07745525 0.052291404 0.057823498 0.069606595
000210 a5 3c 1d 3e 75 df de 3c 86 7b b4 3d 9a 8b 09 3e
       0.15355165 0.027206162 0.08812623 0.1343216
000220 bc f9 a0 be 9e 0c c2 3d b7 5d 07 3e b9 3c 65 bd
       -0.31440532 0.09475063 0.13219343 -0.055966113
000230 29 60 12 bf 4e fc b1 3d a3 06 f7 bd 64 8e e6 bd
       -0.5717798 0.086907014 -0.12061813 -0.112576276
000240 fb ef 40 be 10 cf 82 bd 61 b4 0d be 2a 2a 08 be
       -0.18841545 -0.0638715 -0.1383834 -0.13297334
000250 38 e5 6e 3e 8b b4 c7 bd 6c bc fe bd 43 5e 28 3e
       0.23329628 -0.09751233 -0.12438282 0.16442208
000260 44 a3 f5 bd b6 32 cc bd b4 ae 4a 3d 07 0d f2 bc
       -0.11994031 -0.0997061 0.049483016 -0.029547228
000270 be b3 02 3e 5f 4d a3 3d 7a 9b d1 3c 7d 17 95 3d
       0.12763879 0.07973742 0.025586832 0.07279871
000280 bd 53 62 3e 70 6a df 3b 14 76 e1 3c e1 a9 97 be
       0.22102256 0.0068181083 0.027522124 -0.29621795
000290 1c 7f d4 3b a1 b0 a3 3d a0 32 8b bd c4 1a 00 be
       0.006484879 0.07992674 -0.06796765 -0.1251021
0002a0 87 12 9d 3d 0e 2d 29 bd fe ea ed bc e4 17 13 bd
       0.076695494 -0.041302733 -0.029042717 -0.035911456
0002b0 ad 51 f8 3e 6f fd 8d bd 0f 77 f2 ba 50 ac 58 be
       0.48499814 -0.06933104 -0.0018498617 -0.21159482
0002c0 98 60 d6 3e 60 4d e3 bd b5 76 ea 3d 94 62 31 3d
       0.4187057 -0.110987425 0.11448423 0.043306902
0002d0 dc f7 93 3e 6c bc 97 3e fa fe 33 3e f4 0c 92 3e
       0.2890004 0.29635942 0.17577735 0.28525507
0002e0 01 be f1 3e fc cd c1 3e 99 56 9f 3e 78 5b cd bd
       0.47215274 0.37852466 0.31120756 -0.10027212
0002f0 33 e0 b0 3e 33 51 4a 3d 80 ac 98 3b e7 50 89 3c
       0.3454605 0.049393844 0.0046592355 0.01676221
000300 c3 e9 ab bd 4f d9 58 be b1 a8 30 be 5d 32 95 be
       -0.08394196 -0.21176647 -0.1725185 -0.29139987
000310 7f a0 88 be dc 88 23 be 4a bb 86 be e5 ee a9 be
       -0.2668495 -0.15970176 -0.26314765 -0.33190075
000320 26 1f 3d bd c3 1e 13 be 23 01 46 be 51 d5 df bd
       -0.046172284 -0.14367203 -0.19336371 -0.10929359
000330 9e 3a 23 3e 30 c5 2f 3d c1 90 8a 3d 08 96 dc 3d
       0.1594033 0.042912662 0.06765891 0.10770804
000340 90 32 10 be 4f 74 82 3e 62 dc 65 3e 8e 03 20 be
       -0.14081788 0.2547936 0.2244735 -0.15626356
000350 05 1c e4 bd 83 7d 82 be 78 2d 97 bd 5c 1a 67 bd
       -0.11138157 -0.25486383 -0.07381719 -0.056421623
000360 19 04 20 be 65 2b d3 bd e7 5e 92 be 85 fb 8a be
       -0.15626563 -0.10311011 -0.2858803 -0.2714502
000370 89 8a 4f 3d 04 a3 92 bd f3 95 d2 bd db f2 7a be
       0.050669227 -0.07159999 -0.10282507 -0.24506705
000380 84 78 45 3d fb 52 74 be da c3 89 be 40 b9 5e be
       0.048210636 -0.2385978 -0.26907235 -0.21750355
000390 fa f5 df bd 2d 64 2e be 4d a0 0c be ee 97 99 be
       -0.10935588 -0.17030402 -0.13733025 -0.29998726
0003a0 fc c4 2b 3d bd 2c 90 be b4 b4 5f be ca 54 81 be
       0.041935906 -0.28159133 -0.21846277 -0.2526
0003b0 d6 dd 60 3d d9 7d 8b bc e4 f7 a5 3b 7c 38 1d be
       0.05489906 -0.017027782 0.0050649513 -0.15353578
0003c0 86 a5 5a 3e 1a 47 82 3e f3 43 4a 3e 1c 7c 21 3e
       0.21352205 0.2544487 0.19752483 0.1577
0003d0 73 cb 40 3e e6 dd 84 3e 99 56 92 3e 1e e7 66 bd
       0.1882761 0.25950545 0.28581694 -0.056372754
0003e0 fa 27 2f 3e 8a 6c 53 bd a8 8b 57 3e a2 72 57 3e
       0.17105094 -0.051617183 0.21049368 0.21039823
0003f0 c2 86 84 be 73 29 86 be ee 49 d5 bd bd 03 07 be
       -0.25884062 -0.26203498 -0.104144916 -0.1318502

lstm.weight_hh_l0 f4 [512, 128]
000000 74 36 a9 bd 45 65 d9 3e e1 e5 04 be 21 11 e9 bd
       -0.08262339 0.42460075 -0.12978317 -0.1138022
000010 0c b1 86 be 7e 7e 1c 3e b8 11 46 3e fa d2 b0 3e
       -0.2630695 0.15282628 0.19342697 0.34535962
000020 47 40 e3 3d fc 6a 0d be b4 d3 37 3d 0d 42 8a 3e
       0.11096244 -0.13810343 0.04487963 0.27003518
000030 4f 9f 15 be 28 3f 53 bd 75 fb 5e bd 32 4d 65 be
       -0.14611553 -0.051573902 -0.054439027 -0.22392729
000040 5c 76 10 3e d7 35 c5 3e ab bd dd 3d 89 7d c1 bd
       0.1410765 0.3851764 0.10827192 -0.09447772
000050 8d 10 9c 3e cf 2e 82 3c fe 1b 99 be c0 c7 2f 3c
       0.30481377 0.01589146 -0.2990417 0.010728776
000060 43 69 96 3e c7 3a 9a 3d a5 93 1a be 52 1a 65 3c
       0.29377183 0.07530742 -0.15095384 0.013983326
000070 43 e6 89 3d 1f 27 27 be e9 68 bf be 18 d7 4b 3e
       0.06733372 -0.16323517 -0.37384728 0.1990627
000080 9e 2d 9e be 08 c9 91 3c de 2d 1e 3c 83 f8 73 be
       -0.30894178 0.017796054 0.00965449 -0.23825268
000090 aa 6b 2a be ab f2 96 3d 8f 10 21 be c8 45 24 3e
       -0.16642633 0.07370504 -0.15728973 0.16042244
0000a0 3f 13 89 be 81 a4 23 3e 7a e4 b4 bd 85 e4 d9 bd
       -0.26772496 0.15980722 -0.08832641 -0.1063929
0000b0 bb af 86 be 7d 18 2e be 1e 34 5d 3e 7c eb b3 bc
       -0.26305947 -0.17001529 0.21601912 -0.021962874
0000c0 6c 8e d8 3d 68 b8 16 be 3e 66 d2 3d b9 2b 67 3e
       0.1057404 -0.14718783 0.102734074 0.22575273
0000d0 59 94 e4 bd 5f 0d 4d bd 96 25 57 bd 4e 50 d3 ba
       -0.111611076 -0.05006158 -0.05252608 -0.0016121955
0000e0 e3 56 a0 3e d5 10 a1 3d ee 17 46 be ec a7 c9 3d
       0.3131629 0.078645386 -0.19345066 0.09846482
0000f0 e5 b5 c0 bd 50 0b 28 3e a3 c3 df 3d 1c 37 1f 3e
       -0.09409694 0.16410565 0.109259866 0.15548366
000100 26 6c a9 be 45 08 83 3d 14 dd c8 3c 6c 92 c5 3c
       -0.33090323 0.06398062 0.02451948 0.024117671
000110 7d 60 3f 3e d5 41 09 be 69 06 d1 3d c0 b6 b0 be
       0.18689151 -0.13404019 0.10206301 -0.34514427
000120 0c a9 47 be f2 d2 9d be 84 d7 35 be e8 26 39 3e
       -0.1949808 -0.30825 -0.17757994 0.18081248
000130 d3 02 8a be 55 23 5c 3e 73 73 8c 3e 60 37 bf be
       -0.2695528 0.21497853 0.2743183 -0.37346935
000140 89 dd 93 be d9 39 5d bb 65 ac b3 be 93 28 97 3d
       -0.28879955 -0.0033756404 -0.35092464 0.07380786
000150 73 4e 84 bd f2 76 90 be 94 ea a7 be 90 a8 b7 be
       -0.064602755 -0.28215748 -0.32796156 -0.3587079
000160 6d fd 84 be 6d 88 9f 3e 18 ec 8d bc a0 6a 80 be
       -0.259746 0.31158772 -0.017324492 -0.25081348
000170 7d 37 ee 3d 21 02 df 3d 1b 71 8d be 21 1c df 3d
       0.11631677 0.10889078 -0.27625355 0.10894037
000180 6c 92 e2 3c 1e 40 3c be ca 52 e0 3d 82 8b ad bd
       0.02765771 -0.18383834 0.10953291 -0.08473875
000190 c4 a4 ed 3b 29 80 d5 3d e3 0d 6d 3b b8 21 2b be
       0.0072523076 0.10424835 0.0036171607 -0.16712081
0001a0 08 0f 5c 3d a9 76 ee bd 09 05 98 bd 5c 3d 2c 3e
       0.053725272 -0.116437264 -0.074228354 0.16820282
0001b0 aa 2b 78 3d 0a 39 d2 3d 2c 8b 3c be 86 6f 75 bd
       0.060588516 0.102647856 -0.18412465 -0.05992081
0001c0 08 98 9d bd 7d 14 ea 3a 14 b1 3c 3e 61 fa 99 3e
       -0.07695013 0.0017858889 0.18426925 0.30073836
0001d0 01 5c 85 be 48 7b e4 bd bb 76 c7 bd 14 a6 b1 be
       -0.26046756 -0.111563265 -0.09739443 -0.3469702
0001e0 83 e3 63 be 94 38 66 3d 00 89 61 3e 54 44 58 3e
       -0.22254758 0.0562063 0.22024918 0.21119815
0001f0 0f 4e a0 be 80 3f 8d bd 28 e4 84 be 41 e2 c4 3d
       -0.31309554 -0.06896877 -0.2595532 0.09613467
000200 8f ee 36 3d 2e 3b 6b be 87 1b 44 3e 68 46 f4 bc
       0.0446611 -0.22971794 0.19151126 -0.029818729
000210 b4 e2 44 3e 3b 82 d7 bc f5 a9 ea be ff d0 51 be
       0.19227105 -0.026307216 -0.45832792 -0.20489882
000220 c9 74 0e be 5e 5c 98 be ce 99 f5 3d 41 e5 6a be
       -0.13911738 -0.2975797 0.119922265 -0.22939016
000230 09 31 a6 be 46 22 d9 3c 95 e8 22 bf 52 de ca be
       -0.32459286 0.0265056 -0.6363614 -0.39622742
000240 af e3 06 3d b6 05 c7 be 5b 60 50 bd 5b 3d 56 3d
       0.03293198 -0.38871545 -0.05087314 0.052304607
000250 89 e5 0c 3d 9f be 0d bd 23 63 19 be 3e a3 1b 3c
       0.03439859 -0.03460562 -0.14979224 0.009499369
000260 42 77 36 bf da 3e b8 bb 3b 39 40 be ea 54 b5 3d
       -0.71275723 -0.005622727 -0.18771832 0.08854087
000270 c4 ed de b9 ef b3 94 3e d0 d6 fc 3e ae c4 a0 bd
       -0.0004252029 0.29043528 0.4938264 -0.07850014
000280 f4 f5 4c 3f 7b c3 ea 3e 8e f6 b3 3e 0c cb 7b be
       0.80062795 0.45852265 0.35149044 -0.24589175
000290 2d b6 5e 3e ed 89 79 be 10 ba 92 bc c7 d5 21 be
       0.21749182 -0.24369021 -0.017910987 -0.15804206
0002a0 62 1c d4 3c 5e 44 14 3e 73 ac d7 3d 4b ff bc be
       0.02589244 0.14479205 0.10530939 -0.36913523
0002b0 7e e1 22 be 3f dc 3d bf eb 9c 8b bd f1 3a d5 3d
       -0.15906331 -0.74164194 -0.06817039 0.10411633
0002c0 ac 87 bf 3e ac 39 37 be 49 de c6 bd db 82 81 bd
       0.37408197 -0.17893094 -0.09710366 -0.06323787
0002d0 13 46 37 3e d9 ce 0e be 6a 5b 82 be 78 ee 8c bd
       0.17897825 -0.13946094 -0.25460368 -0.06881422
0002e0 0d 0c 05 3e 5b 56 8f be 0c 37 fc be 63 2d ab 3e
       0.12992878 -0.27995571 -0.49260747 0.33433065
0002f0 cd 54 f5 3c ea 61 f0 be e3 44 5b be 1a b7 0f 3d
       0.029947663 -0.46949703 -0.21412997 0.03508673
000300 3d da 1d 3f ec 0b d7 3d 5d 23 8a 3d 54 2c 79 3d
       0.6166113 0.10500321 0.06745026 0.06083329
000310 83 62 4a 3f 53 b5 a8 3e 7e 4a 49 3e df 35 9a be
       0.79056567 0.3295084 0.19657323 -0.30119225
000320 82 74 b6 3e 1b 1d b6 3d c1 31 81 be 87 1f ad 3d
       0.35635763 0.0889227 -0.25233272 0.08453279
000330 6c 65 85 3d 74 94 9b be 7d e4 99 3e 5f 98 60 3d
       0.06513485 -0.30386698 0.30057135 0.054832812
000340 a3 34 d3 be d5 13 eb bd 2b 6c 7c bd 08 6d 6f 3e
       -0.41251096 -0.11478392 -0.061626595 0.23381436
000350 e2 98 0a be f3 02 75 3e 33 b0 60 be a0 60 9b bf
       -0.13534883 0.23926906 -0.21942215 -1.2138863
000360 fc c3 70 be f3 0f a7 bd 76 f0 26 3e 64 74 68 3d
       -0.23512262 -0.08157339 0.16302666 0.056751624
000370 64 ab 09 3d 26 55 c0 3d 5c 2c 82 3e 3f e2 b9 bd
       0.033610716 0.09391241 0.2542447 -0.09076356
000380 f3 db 88 be e6 12 40 3f 1a 68 30 3e be 8d fb 3c
       -0.26730308 0.75028837 0.17227212 0.030707236
000390 67 4f c3 bd 7f 68 90 3e 57 bb c8 bb 96 41 18 bf
       -0.09536629 0.28204724 -0.0061258483 -0.59475076
0003a0 7a aa b3 3d 3a 6b 4b bc e4 dd d5 be 70 32 3e bb
       0.0877275 -0.0124157015 -0.41770852 -0.0029021762
0003b0 0e 9d 95 3e ef 6c 11 be 91 4b 34 be 52 b2 ee 3c
       0.29221386 -0.14201711 -0.17606951 0.029137764
0003c0 0b b0 56 3d 3e a1 b2 3b f8 f8 82 3d 86 84 af 3d
       0.05241398 0.0054513505 0.06395143 0.08570199
0003d0 7a 5f ef 3e 2f 1f fd bc d3 16 fe 3d 06 07 dd bb
       0.4675253 -0.030898659 0.12406697 -0.006745222
0003e0 d7 be e3 3e 83 b2 e2 bc 43 5e 49 3d 70 55 75 be
       0.44481537 -0.027673012 0.04916216 -0.23958373
0003f0 01 65 19 bf 6d 8d 6b bc f5 d5 84 3e e7 6c 14 3e
       -0.59919745 -0.01437698 0.25944486 0.14494668

lstm.bias_ih_l0 f4 [512]
000000 ed 79 19 bd 04 2d 6b 3e 89 7e a0 bd d4 2a 12 3e
       -0.037469793 0.22966391 -0.07836635 0.1427415
000010 39 42 87 bd 5a e4 a4 3c 07 6c 2f 3d 3c d7 2b bc
       -0.06604428 0.020128418 0.042827632 -0.010488328
000020 dc 77 01 bd bd 9e 0b 3d 40 ec af bd 1f 08 2e bd
       -0.031608447 0.03408693 -0.08589983 -0.042488214
000030 04 62 07 be 5c 99 29 ba 12 97 14 3e 53 1b d8 3d
       -0.13220984 -0.00064696907 0.14510754 0.10552087
000040 e5 aa 76 bd 5e 77 6a 3d b0 97 80 3d 52 c2 e5 bc
       -0.06022157 0.057242744 0.06278932 -0.02804676
000050 49 8e 95 3d f8 b1 12 be de e2 cf 3d 66 43 a5 3d
       0.07302529 -0.14325702 0.10150693 0.08069496
000060 fa 36 d0 3b 1c e0 c5 bc c1 13 e6 3b 7e 45 d3 3c
       0.00635421 -0.024154715 0.007021398 0.025789972
000070 7a 88 9e bd ed 4a aa 3d 10 22 31 3e f8 cb 3d bc
       -0.077408746 0.08315072 0.1729815 -0.0115842745
000080 db 23 3a 3e 18 04 8c bd 77 84 cc 3b 78 ca d7 bd
       0.1817774 -0.06836718 0.006241377 -0.10536665
000090 16 90 98 bd 60 61 cc bd db 9c 20 be ee 41 36 be
       -0.07449357 -0.0997951 -0.15684836 -0.17798588
0000a0 40 e0 08 3e 3b 74 10 bc 21 5a fc 3d 7a 17 de 3c
       0.13366795 -0.008816774 0.12321878 0.027110804
0000b0 18 1f 5b bd af d3 3c bc f2 5f b5 3c 55 e2 88 bc
       -0.05349645 -0.011525079 0.022140477 -0.016709486
0000c0 65 39 a6 bd 96 71 cc 3c 63 d2 8d 3d 6b 9a 0d be
       -0.08116416 0.024956506 0.06924894 -0.13828437
0000d0 1a 31 a4 bd 3f 48 ed bd 60 70 26 bc 17 42 ec 3c
       -0.08017178 -0.115860455 -0.010158628 0.028840108
0000e0 f1 ae 14 3e e9 64 a1 bd 1a d5 37 3e 4c 54 31 3e
       0.1451986 -0.07880575 0.17952386 0.17317313
0000f0 c7 47 1f 3e ff 23 f4 bd 66 fa 3a 3d 5b a6 2c bd
       0.15554725 -0.11920928 0.045648955 -0.042150836
000100 a9 93 aa 3d f1 8f 90 bd cc 34 16 3e a7 d5 1a be
       0.08328945 -0.07058705 0.14668578 -0.15120564
000110 ab 83 f8 3d 67 fb f2 bd 40 af e4 3c f7 d8 16 3e
       0.12134489 -0.118643574 0.027915597 0.14731203
000120 98 ea 86 bd 9a 73 50 3d 41 d3 9c 3d 0e 37 0f 3d
       -0.06587714 0.050891496 0.07657481 0.034964614
000130 94 f8 15 bd da a3 f1 bd 4b d2 0b 3e a0 42 05 3e
       -0.036614016 -0.1179883 0.13654439 0.13013697
000140 b5 ed c8 bd fd 04 e4 bd 79 db 55 be 8a 2a a9 3d
       -0.09810964 -0.11133764 -0.20884503 0.08260067
000150 32 e2 ae bc ac af ce 3c 2c 0a 9c 3d 4f 55 e1 3e
       -0.021348093 0.025230251 0.07619128 0.44010398
000160 03 f3 0f be b9 71 c7 3d a0 6c c4 bd 34 b5 ea bc
       -0.14057545 0.09738488 -0.09591031 -0.028650858
000170 be 67 d6 bd f1 a5 5d be 9c 52 ec 3d 8b 33 8e bd
       -0.10469006 -0.21645333 0.11539194 -0.06943425
000180 3e a8 74 3d d4 05 3c bd b9 78 1e bd dd ec f0 bd
       0.05973076 -0.045903996 -0.03868935 -0.11763928
000190 97 c3 95 bd 39 83 c5 bd 31 53 17 bd 8b 8c 88 3e
       -0.073126964 -0.09644169 -0.036944572 0.26669726
0001a0 ee 6e 82 bd 12 f0 4f 3e 4c 60 ab 3d f8 63 da 3d
       -0.063688144 0.20306423 0.083679765 0.10663599
0001b0 0a 9d 0a bd 9e d3 8c bd 30 e7 fe 3c ac 96 e0 bd
       -0.03384117 -0.068763 0.031116098 -0.109662384
0001c0 22 a0 94 3d cd ed 8e bd fd 5f af bd 44 82 41 3d
       0.072571054 -0.06978951 -0.0856323 0.04724337
0001d0 a9 8a c1 bd e6 f0 5e 3d 3f 41 80 3d c0 7a 35 bc
       -0.094502755 0.054428957 0.06262445 -0.011076629
0001e0 b0 f6 1c bd 78 07 75 3d 20 7c e5 3d 10 ef c8 3d
       -0.038321197 0.059821576 0.112053156 0.098112226
0001f0 7f 97 99 bc c8 b1 02 bd 80 68 ff 3c 7a 75 82 bc
       -0.018748997 -0.031907827 0.03117776 -0.015925158
000200 dc fe a2 bc 82 db b8 be 91 97 be be 4f d7 b3 be
       -0.019896917 -0.3610497 -0.3722501 -0.35125205
000210 2e 57 47 be 02 d4 17 bd f3 c5 15 bd b4 68 5c be
       -0.1946685 -0.03706742 -0.036565732 -0.21524316
000220 e8 8a 14 be 24 64 97 be 44 7c 92 3c cb 66 63 3d
       -0.14506114 -0.2956859 0.01788152 0.055517953
000230 27 ff 23 3e fb 64 7a be a7 31 34 be 46 7f a4 be
       0.16015302 -0.24452583 -0.17597066 -0.32128352
000240 75 75 4d bd e9 3b 60 be e2 5a 45 bd d8 69 11 be
       -0.050160844 -0.21897854 -0.048182376 -0.14200532
000250 a3 cb 91 be a6 9c 10 be 4d c6 04 be e1 71 5f be
       -0.28475675 -0.14122257 -0.1296627 -0.21820785
000260 e3 3c 90 be a6 f2 04 bd 7e 39 9d be b7 5c ee bd
       -0.28171453 -0.03245797 -0.30707926 -0.11638778
000270 1c 43 cb bd df 25 2e 3e 1b 10 b2 be 02 41 9d bd
       -0.099249095 0.17006634 -0.34777912 -0.07678415
000280 e8 2f 6f be 95 72 48 3d 4a 53 2b be 42 8d bf bd
       -0.23358119 0.0489374 -0.16730991 -0.09353115
000290 18 07 44 3c e3 19 ff bc 52 13 08 bd 3c 66 aa bc
       0.011964582 -0.031140273 -0.03322155 -0.020800702
0002a0 e0 b2 71 3c 75 66 6c bd ae fb 8a 3d b5 a9 9a be
       0.01475212 -0.0577149 0.06786285 -0.302076
0002b0 4a 95 a6 be 8c a0 9f be 8b 0d 69 bd f2 c2 20 be
       -0.32535774 -0.31177175 -0.05689768 -0.15699366
0002c0 28 8b 23 be b5 f1 8f be b0 e4 97 bc 12 1c 74 bd
       -0.15971053 -0.28114095 -0.018541664 -0.059597082
0002d0 ae 55 25 be ab 8d 0a be a1 d3 10 be ef 90 1a be
       -0.16145965 -0.13530605 -0.1414323 -0.1509435
0002e0 4d 02 a3 be c4 ca 8b be b2 a5 ce be d6 85 91 be
       -0.31837693 -0.27303135 -0.4036079 -0.2842242
0002f0 9c 5e 51 bb 69 38 d7 bd dd 44 91 bd 80 1e 80 bd
       -0.003194726 -0.10508806 -0.07093213 -0.062558174
000300 64 42 c6 bd 10 a0 3b be c2 d6 f2 be af 73 3d 3d
       -0.09680632 -0.18322778 -0.47429472 0.046252903
000310 b4 2b 3d be 80 3e b0 bb 15 fb 0b be a7 25 86 be
       -0.18473703 -0.0053785443 -0.13669999 -0.262006
000320 8b cb 20 bc e9 da ab be 07 2d 31 be cb fb 00 3d
       -0.009814153 -0.33565453 -0.17302333 0.03149013
000330 9e 21 83 be 11 a9 c0 bd b6 3d 88 be 83 68 60 be
       -0.25611585 -0.09407247 -0.26609582 -0.21914868
000340 68 a0 fd bd 4b 08 0c be 68 75 8d bb 52 f4 27 be
       -0.12384111 -0.13675039 -0.0043169744 -0.16401795
000350 73 0f d4 bd 04 87 48 be 53 bf 8d be c3 ad d5 bd
       -0.10354509 -0.19582754 -0.2768503 -0.10433533
000360 b7 6c 5b bd a2 75 7c b9 7b b3 d5 bd b3 5d 23 bd
       -0.053570475 -0.00024076414 -0.10434624 -0.03988428
000370 e1 57 14 be f6 f5 ba bb 07 19 83 be 6d bc de bd
       -0.14486648 -0.0057055904 -0.25605032 -0.10875783
000380 24 c4 68 be 03 5e 8c be a2 d0 1e be d7 06 4c be
       -0.22731072 -0.27415475 -0.15509275 -0.19924484
000390 1c a9 33 be c2 6d ad 3c ee 83 31 bd 63 4e fe be
       -0.17544979 0.0211705 -0.04333871 -0.4966918
0003a0 0c 9c 64 be c7 94 1c be 5e f7 d1 bd 5b 81 58 3d
       -0.22325152 -0.15291129 -0.1025226 0.052857738
0003b0 6e 4c 53 3d ff bf 40 be 3c df aa bd da d1 81 bd
       0.05158656 -0.1882324 -0.0834336 -0.06338854
0003c0 5e 82 65 be 29 9d 87 be c7 83 e1 bd 24 8c 58 be
       -0.22413012 -0.2648709 -0.11011463 -0.2114721
0003d0 d3 f4 5d be ce 75 65 be bf a9 c0 bd da 67 a6 bd
       -0.21675424 -0.2240822 -0.094073765 -0.08125277
0003e0 de 7a 32 39 18 89 c1 bd 6b 8d a3 be bb 5f 60 be
       0.00017021174 -0.09449977 -0.3194383 -0.21911518
0003f0 12 79 c5 be fa 7e d2 be 2e bb 2f be 7e 96 63 be
       -0.38568932 -0.411125 -0.17161247 -0.22225377

lstm.bias_hh_l0 f4 [512]
000000 b3 30 40 bb e8 fd 42 3e 81 5a 10 be 41 c6 0c 3e
       -0.0029325902 0.1904217 -0.14097025 0.13747503
000010 3f 9c 30 3d d9 d1 24 bd 67 36 d4 bd 14 34 08 bd
       0.043117758 -0.04023919 -0.10361939 -0.03325279
000020 e4 82 49 bc 9d 6a 22 3c 2c 7f 19 3d 99 9c 1d 3d
       -0.012299273 0.009913114 0.037474796 0.03847942
000030 6c 56 e2 3c d1 c2 37 3d b6 9c c3 3d 15 34 30 3e
       0.0276291 0.044863526 0.095513746 0.17207368
000040 ed 63 30 be fd cd f7 bc ae 52 09 3d 46 d9 9a 3d
       -0.17225619 -0.03024959 0.033526115 0.07560973
000050 ad 2f f5 3d dd 0b 83 bd 56 25 93 3c 76 5f be 3d
       0.11971984 -0.06398747 0.01796214 0.092955515
000060 5d d8 d3 3d 30 66 10 3d 96 82 71 bc a5 88 9b bc
       0.103440024 0.035253704 -0.014740607 -0.018986056
000070 90 8d bc bc b1 32 a3 3d c0 f3 0f 3e 58 89 af 3b
       -0.023016721 0.07968653 0.14057827 0.005356949
000080 f3 8f 10 3e a4 bd ca bd 92 ea 33 3b 41 76 f7 bc
       0.14117412 -0.09899452 0.0027453047 -0.030207755
000090 6d e8 84 bd 2e 7d b8 bd f8 39 97 bd 7a 60 2b be
       -0.06489644 -0.09008251 -0.073841035 -0.16736022
0000a0 96 37 fd 3c cd a2 e2 bd 5f c7 04 3e db a4 d8 b9
       0.030910295 -0.11066208 0.12966679 -0.00041321557
0000b0 3f 4b 61 3d 16 1b e0 3c 83 f1 bd 3d a0 4c 98 39
       0.0550034 0.027356666 0.0927458 0.0002904879
0000c0 c7 36 00 bd 49 05 02 3d 41 83 8e 3d 5c c3 b3 bd
       -0.03130224 0.03174332 0.069586284 -0.08777496
0000d0 a3 0a d7 bc 8f 88 22 bd 83 ad f6 bc bd f6 ae bc
       -0.02625019 -0.039681014 -0.030112034 -0.021357888
0000e0 0e 7a 00 3e 1b a2 16 bc 5a 88 3b 3e 50 49 19 3e
       0.1254656 -0.009193922 0.18313733 0.14969373
0000f0 d5 06 04 3e be 07 0d be 7e 25 ee 3c b4 9f 83 3c
       0.12893231 -0.13772485 0.029070612 0.016067363
000100 aa 84 79 bc 6b 0f 2f be 14 ea e8 3d bf b3 c9 bd
       -0.0152293835 -0.17095725 0.11372772 -0.09848737
000110 d3 08 23 3e 59 b5 5f be 5f a8 84 bd 9a 13 37 3e
       0.15921335 -0.21846522 -0.06477427 0.17878571
000120 c8 5d 8b 3d 47 42 28 3e fb e6 3f 3d a1 19 e4 3d
       0.06804997 0.16431533 0.04685114 0.11137701
000130 e7 e9 96 ba 04 d4 db bd 07 59 78 3e 12 f0 2d 3e
       -0.00115138 -0.10733798 0.24252711 0.16986111
000140 9e a1 18 be ff 4f 6c bd 7c 2a 05 be b7 2e 7d 3e
       -0.14905402 -0.057693478 -0.13004488 0.24724852
000150 b0 6e 73 bd 79 88 4c 3c 5e c8 bd 3c 2b e2 9f 3e
       -0.05943173 0.0124837095 0.023166832 0.3122724
000160 0b ba cb bd 43 8f 8f bd 5a 13 a3 bd a6 40 c1 bd
       -0.09947594 -0.07009747 -0.079626754 -0.09436159
000170 97 66 d1 ba f1 f9 68 be 3f 15 40 3e 6a 07 27 bc
       -0.0015976009 -0.22751595 0.18758105 -0.010194639
000180 00 6f b2 3d 13 db 73 3d 48 b0 30 bb 23 4d d1 3c
       0.08712578 0.059535097 -0.002696054 0.025549477
000190 70 66 06 be d9 cb d4 bd 06 cf 21 bd 29 96 c9 3e
       -0.13125014 -0.10390443 -0.039504074 0.39372376
0001a0 ea 27 0a be 9a f3 41 3e 1e f7 b2 3c 54 45 d1 3d
       -0.13491789 0.18940583 0.02184635 0.102183014
0001b0 f7 cc cf bd f5 3b 03 3d f6 c1 b9 3d 41 ef 00 3d
       -0.10146516 0.0320396 0.09070198 0.03147817
0001c0 c3 8f 87 3d 9d 60 91 bd 97 f6 f2 bc 79 fc 12 3e
       0.06619217 -0.07098506 -0.029658599 0.14354123
0001d0 59 5e 0d be 29 fe 87 3d 41 dc ca bd 3e 77 ad 3d
       -0.13805522 0.06640274 -0.09905291 0.08470009
0001e0 b1 55 d6 bb f9 21 9e 3d 83 52 5e 3d f6 92 12 3e
       -0.006540977 0.077213235 0.054277908 0.14313874
0001f0 57 b3 6e 3d a1 0b 7f bd 1d a8 c7 3d 1a 53 83 bd
       0.0582765 -0.06226695 0.09748862 -0.06412335
000200 20 fe 23 be 06 2f de be 8f 3d bf be d5 ed 82 be
       -0.1601491 -0.4339525 -0.37351653 -0.25572076
000210 7d a8 9e be 44 d5 e7 bd 25 9f 04 be 8c f0 1e be
       -0.3098792 -0.11319974 -0.12951334 -0.15521449
000220 30 ca 69 be aa 8f ac be c1 93 eb ba 10 f8 41 bc
       -0.22831035 -0.33703357 -0.0017973111 -0.011838928
000230 73 49 3b 3e cc 56 b4 be 10 78 86 be 86 cd a8 be
       0.18289737 -0.3522247 -0.26263475 -0.32969302
000240 bb ab 62 be 83 c2 84 be 77 9e 2a 3c 5e b8 54 bc
       -0.22135822 -0.2592965 0.0104137575 -0.01298341
000250 43 a2 bb be d7 5d d3 bc db 20 06 be 79 5d 26 be
       -0.36647233 -0.025801582 -0.13098471 -0.16246594
000260 f9 16 97 be 8b 89 f5 bd 1c bd 84 be b9 8e 4f be
       -0.29509714 -0.11989125 -0.2592553 -0.20269288
000270 0a 68 08 bd dd 82 04 3e e5 ba 83 be d8 67 b5 bb
       -0.033302344 0.12940545 -0.25728527 -0.005536061
000280 70 0c 93 be 2a f2 f8 bc 54 49 90 bd c4 d9 d7 bd
       -0.28720427 -0.03038891 -0.07045236 -0.10539582
000290 3e 9f df bd d5 c3 ad bd 8f fd 68 bd fc 69 0d bd
       -0.10919045 -0.084846176 -0.056882437 -0.034524903
0002a0 17 dd c5 3d cd 49 15 be b0 79 88 3d 91 ee a0 be
       0.0966131 -0.14578934 0.06663835 -0.31432012
0002b0 ba c0 c1 be 2e e0 98 be df 25 f4 3c d4 42 51 be
       -0.3784235 -0.29858536 0.029803215 -0.20435649
0002c0 44 ff 45 be 3f 1b 1e be a0 59 06 be 53 ec 8d bd
       -0.19335657 -0.15440081 -0.13120127 -0.06929841
0002d0 bb 6a c4 bd f7 88 2e be dd 12 37 be 9f 29 23 be
       -0.0959067 -0.17044435 -0.1787829 -0.15933846
0002e0 85 af af be e0 ea 8e be 48 63 cb be 10 19 a5 be
       -0.34313598 -0.2791357 -0.39724183 -0.32245684
0002f0 c7 04 e4 bd 73 6c d5 bd cf c8 8f bd 22 fa db ba
       -0.11133724 -0.10421076 -0.07020723 -0.0016782919
000300 fe cb 07 be 1a b2 8e be 4e 7b ab be 41 6e b5 bc
       -0.1326141 -0.27870256 -0.33492512 -0.0221473
000310 41 8b 84 be 2c 2f 9f bd a2 6d 80 be f7 12 af be
       -0.25887492 -0.07772669 -0.25083643 -0.34194157
000320 b8 fc 13 3d 03 29 cb be 15 98 66 be 85 0e 78 bd
       0.036129683 -0.39679727 -0.22518952 -0.060560722
000330 f7 12 0c be 3c e3 5f be 0a 03 85 be bb fd 9d be
       -0.1367911 -0.21864027 -0.2597888 -0.30857643
000340 8b 1d e2 bd a0 9d 1f be 45 a3 c2 bc e0 45 2e be
       -0.11040791 -0.15587473 -0.023759494 -0.17018843
000350 ce 71 81 bd b5 10 83 be 73 df 76 be ad 17 1a be
       -0.06320535 -0.25598684 -0.24108677 -0.15048094
000360 db 66 c1 bd 63 cb ff bc 23 91 e4 bd ed 8b 28 bd
       -0.09443446 -0.031224912 -0.11160495 -0.04114907
000370 03 b4 5c be 74 c1 e4 3b ce 59 69 be cb 06 d5 bd
       -0.21553044 0.006981069 -0.22788164 -0.10401686
000380 24 06 1e be 03 89 87 be d6 30 30 be 65 0c 75 be
       -0.1543203 -0.2647172 -0.1720613 -0.2393051
000390 0b 95 5b bd 29 0b ee 3b 3e 5d 81 bd 91 65 c5 be
       -0.053608935 0.007264514 -0.06316613 -0.38554052
0003a0 5c 25 a7 be 53 8d 40 be 92 30 ee bd 4c 7c 26 3d
       -0.3264569 -0.18803911 -0.11630358 0.040645882
0003b0 9c c5 42 3d 12 be a4 bd 38 ab 97 bd 16 39 1f bd
       0.047551736 -0.080440655 -0.07405704 -0.0388728
0003c0 a8 a9 30 be e8 d4 6d be 0b 93 0e 3d 4e e8 6e be
       -0.17252219 -0.23225749 0.0348082 -0.23330805
0003d0 8b 94 5d be db 7b ab bd f9 ef d5 bd aa 8b 30 bd
       -0.21638696 -0.08373233 -0.10446162 -0.043101944
0003e0 b7 2b 91 bd 16 3a 88 bd f1 f1 86 be ca 6f 8b be
       -0.07088416 -0.06651704 -0.26356462 -0.27233726
0003f0 60 f4 c1 be 98 88 08 bf 64 7d a8 bd ee 51 56 be
       -0.37881756 -0.53333426 -0.08227041 -0.20929691

lstm.weight_ih_l1 f4 [512, 128]
000000 b0 41 e5 bd 38 84 c8 3d f9 3b ee 3c 3c c5 08 bc
       -0.111941695 0.09790844 0.029081332 -0.008347806
000010 c0 a7 40 be 0e 1f c5 3d 54 39 5a 3e 59 3a 69 be
       -0.18813992 0.09625064 0.21310931 -0.22776164
000020 75 78 59 3e 12 2a 14 3e 5b 23 87 bd d2 10 a1 bd
       0.21237357 0.14469174 -0.065985404 -0.07864536
000030 68 cc 42 3e 78 41 1a bd fd 15 ca 3d 38 d0 5d 3b
       0.19023287 -0.037660092 0.09867475 0.0033846032
000040 36 d5 57 3e c8 37 bb bd fc 7f 18 3e e1 61 1e be
       0.21077427 -0.09141499 0.14892572 -0.15467025
000050 85 18 f2 3c 3b 64 02 be b4 82 f9 bd a3 18 f4 bd
       0.029552707 -0.12733547 -0.12183133 -0.119187616
000060 55 cd 8b bc 68 69 8a bc a7 68 5e bd 91 d1 91 be
       -0.017065683 -0.016895965 -0.054299023 -0.284802
000070 28 0e 31 be 12 b2 50 be dc 4b a5 3e 2d a4 ef 3d
       -0.17290556 -0.20380428 0.3228444 0.11701236
000080 70 ce 65 bd fe 00 5a 3d ae 6e 2a 3e 52 44 8e 3d
       -0.056105077 0.053223602 0.16643783 0.06946625
000090 e3 b6 a0 bc b7 93 5b 3e e2 8e 4b 3e b2 f9 cc bc
       -0.019618457 0.21443067 0.19878724 -0.025021408
0000a0 a2 eb 01 3e 2d b4 70 3d 06 3b 87 bd 9e 06 2e be
       0.12687543 0.05876558 -0.06603055 -0.16994712
0000b0 a4 53 c8 3c 63 da 7a 3e 39 d4 de bd 5e 1f c2 bd
       0.024453945 0.2449737 -0.10880322 -0.09478639
0000c0 a7 df e7 3d 4d 9f da 3d 57 ec a7 bb 34 fd eb bd
       0.11321955 0.106749155 -0.0051246095 -0.11522904
0000d0 8b 97 3e bd d6 dc 95 3e 4c 9d 0e be 5d 79 99 3c
       -0.04653124 0.29270047 -0.13927191 0.018734628
0000e0 38 19 85 bd 1a 1d 82 3e 3e 33 29 3e 2c 01 e5 bd
       -0.06498951 0.25412828 0.16523454 -0.11181864
0000f0 44 dd 26 3c 24 0f 67 bd 21 cc f1 3c 9b e5 e2 3c
       0.01018459 -0.056410924 0.029516282 0.027697375
000100 f3 0e eb bd b3 ff 7e be 83 69 0b bd 3e e6 69 3c
       -0.11477461 -0.24902229 -0.03403617 0.014276085
000110 e2 fe 29 be 6a 7b 52 3d c4 b4 26 be 19 98 aa 3d
       -0.16601136 0.051387228 -0.16279894 0.083297916
000120 55 28 14 3e 14 09 c0 bd 0a 90 f5 bd 37 eb 53 be
       0.1446851 -0.093767315 -0.11990364 -0.20695196
000130 d8 2b 1b 3e e5 61 53 3d 0b 0c c5 bc 74 3d 83 3e
       0.15153444 0.05160703 -0.024053594 0.25632823
000140 d2 ed 95 3d e5 17 1d bc 9b 0f 75 bd 1f e1 5d be
       0.07320751 -0.009588216 -0.059829336 -0.21667908
000150 1d ca b0 bd 77 cf 05 3e e0 f6 20 be 76 30 0b 3e
       -0.086323 0.13067423 -0.15719175 0.13592705
000160 1a d9 4d bd 27 2b b4 bc f2 be f4 3d c2 ad f7 3d
       -0.050255872 -0.021993233 0.119504824 0.120936885
000170 2f 16 20 3e fc 64 d0 bd 13 8f c4 3b b4 87 fe 3d
       0.15633462 -0.10175511 0.005998501 0.12428227
000180 bc e0 c8 3b 89 85 ce 3d 47 fd f6 bc 24 2e 0a be
       0.006130306 0.100840636 -0.030150069 -0.13494164
000190 bb e5 a3 bc 22 46 07 3e d0 a2 ff 3d 6a b2 a5 3c
       -0.020007005 0.13210347 0.12482226 0.020226676
0001a0 12 53 8c bc ac f7 d1 3d 2a dd e3 bc 14 63 72 bd
       -0.017129455 0.10252318 -0.02781542 -0.05917652
0001b0 31 09 f7 3b ab 87 37 be 8a e2 36 3d 13 bb 05 3e
       0.0075389375 -0.17922847 0.04464964 0.13059644
0001c0 11 cd ae 3c b4 88 3b be 18 b8 8c bd e2 69 87 3d
       0.021338018 -0.18313867 -0.068710506 0.066119924
0001d0 36 5b 04 3d 24 eb 0d be 12 0d d5 bd 33 67 dd 3b
       0.032313548 -0.1385923 -0.104028836 0.006756687
0001e0 fd 3f 43 be cd 77 3c 3c c0 2e 73 be aa ae 9c bd
       -0.19067378 0.011503172 -0.23748302 -0.07650502
0001f0 67 bb 38 3e 18 f8 2c be 2a a4 07 3c 26 0c 36 3d
       0.18040238 -0.16891515 0.008278886 0.04444518
000200 01 77 72 3e cd 4d b3 bd fe a7 19 bd fb 1c 41 3e
       0.23678209 -0.08755074 -0.037513725 0.18858711
000210 2b e8 69 be f9 c6 e9 bd 3c f0 be 3d 84 36 39 3e
       -0.22842471 -0.11414904 0.09323165 0.18087202
000220 a6 a6 37 3e 19 cf 78 bd 3e 3d 8b be 8b 73 d9 bd
       0.17934665 -0.06074438 -0.27195162 -0.10617741
000230 ab 9c a7 3d d9 05 b4 3e f9 0e 35 3e eb 74 d6 bd
       0.08184179 0.3516071 0.17681493 -0.10471519
000240 d6 06 86 bd df cb 47 3d ac 18 38 3d e4 1e 57 3e
       -0.065442726 0.04877841 0.044945404 0.21007878
000250 0d f3 2d bd e6 e6 e6 3d 68 fc 3a 3e 55 44 93 3d
       -0.04246812 0.11274509 0.18260348 0.07190768
000260 2b 90 51 3d 5c b9 13 bc 6c c9 c9 bd 79 e8 75 3c
       0.05116288 -0.009016361 -0.09852871 0.015009039
000270 4f c3 3b 3e 12 14 97 3d d9 5f 24 3e 7f 8f f7 3d
       0.18336223 0.07376875 0.16052188 0.120879166
000280 62 48 12 3e 57 9b 92 be 31 91 fc bd 9d 63 91 3e
       0.14285424 -0.2863414 -0.123323806 0.2839631
000290 d6 3d e3 bd 65 5f 10 bd 32 94 a8 3d 4f 92 3e 3e
       -0.11095779 -0.035247225 0.08231391 0.186105
0002a0 4d 1f 0b bd 94 71 02 be 16 d2 29 be 92 fc cf 3d
       -0.033965398 -0.12738639 -0.16584048 0.10155596
0002b0 7a 6d 6c 3e e4 15 49 3e b1 07 1b 3e e1 83 4f 3d
       0.23088637 0.19637257 0.15139653 0.05066288
0002c0 b4 c5 38 bd 79 a8 31 3e e1 3c 99 3e 5b e6 d1 3d
       -0.04511042 0.17349423 0.2992926 0.10249015
0002d0 3c 79 a1 bc f9 5b 88 3d 22 c4 df 3d 98 f6 20 3e
       -0.01971113 0.066581674 0.10926081 0.15719068
0002e0 b6 8a 6d 3d 12 07 32 be e4 2a 88 3e 68 81 aa bd
       0.057993613 -0.1738551 0.26595223 -0.083254635
0002f0 3c bc e4 3c 36 5a 9e 3e 7b c6 92 3d 92 91 08 be
       0.027921788 0.309282 0.071667634 -0.1333678
000300 3c 68 c5 bd 30 d9 6c be 1d cc a7 bd cf d2 b4 bd
       -0.09639022 -0.23129725 -0.081932284 -0.08829271
000310 15 11 3b bd a8 18 2d bd fb de 3a be 0c 06 5f be
       -0.045670588 -0.042259842 -0.18249123 -0.2177965
000320 b0 d5 2d bd f3 94 cd bd 21 bc 24 3e e4 c4 76 3b
       -0.042440116 -0.100381754 0.1608739 0.0037653977
000330 2b 5a 1e 3e bf b7 3a 3e 00 95 21 bd 87 f8 54 3d
       0.15464084 0.18234156 -0.039448738 0.051994827
000340 59 af ea 3d 9e f6 0c 3e 7f 0a b8 3b a1 1c 59 3d
       0.11459226 0.13765952 0.0056164856 0.05300582
000350 d0 24 fc 3d 31 f9 91 3e b1 2e 04 3d f6 97 99 bd
       0.12311709 0.2851043 0.03227109 -0.074996874
000360 df 6a 6f 3e 52 0d 22 3e c4 b5 b6 3d 84 e9 30 be
       0.23380612 0.15825394 0.08921388 -0.17276579
000370 3a 52 e7 be 62 43 13 3d 6f cd 16 be 65 03 16 bd
       -0.4517992 0.035952933 -0.14726804 -0.03662433
000380 23 8c 5d 3e 40 f4 82 be 01 51 30 be 63 a0 95 bd
       0.21635489 -0.25576973 -0.172184 -0.07305982
000390 f5 67 6b 3e 32 95 b4 be d0 e6 b0 3d ae 5b a0 be
       0.22988875 -0.35270077 0.08637774 -0.31319946
0003a0 1a e6 5b 3d aa 6f 2e 3d 03 54 1b 3e 07 44 01 3e
       0.05368624 0.04258696 0.15168767 0.12623607
0003b0 90 1b 45 be 34 bd 4a 3e fd 9f 79 3e e5 b2 0c be
       -0.19248796 0.19798738 0.24377437 -0.13740118
0003c0 42 67 1a be d3 ec 2e be 72 79 34 3e b9 8a 86 bd
       -0.15078452 -0.17082529 0.17624453 -0.06569428
0003d0 c2 5e d9 bd 00 3d 30 be bc 82 83 be 18 60 90 3e
       -0.10613777 -0.1721077 -0.2568568 0.28198314
0003e0 62 11 2f 3d bb 23 99 bd 49 e7 97 bc ef 4c 2e 3d
       0.042741187 -0.07477518 -0.018542903 0.04255384
0003f0 13 2d 88 3d 78 c9 a8 3d 91 45 4f bd 38 82 1c 3e
       0.06649222 0.08241552 -0.050603453 0.1528405

lstm.weight_hh_l1 f4 [512, 128]
000000 66 d5 af 3e 12 0a 90 bd cb 53 3d 3e ab f5 36 3d
       0.34342498 -0.07033171 0.18488996 0.04466788
000010 6e 37 80 3e bf 41 78 be a1 a2 f0 bc cc e1 59 be
       0.2504229 -0.2424383 -0.029374423 -0.21277541
000020 8c 3b 55 bd e6 2f eb 3e bd f0 92 be 9f c2 1d 3d
       -0.05205874 0.4593498 -0.28699294 0.038515683
000030 8f 53 69 be ea 7d 6e bc c2 ce 5e be 83 79 8b be
       -0.22785781 -0.014556387 -0.2175856 -0.27241144
000040 00 08 95 bd 8e 34 3f 3e 24 46 0b bd 48 a1 91 3d
       -0.072769165 0.18672392 -0.03400244 0.0711084
000050 81 bc 50 3e b2 50 1e 3e f4 62 33 3e 2f c7 77 3c
       0.20384409 0.1546047 0.17518216 0.015123173
000060 2f f1 53 be bd 1e 48 bc 30 f9 9f 3e 5b 36 dd bd
       -0.20697473 -0.01221436 0.31244802 -0.10801383
000070 2f 04 8a be 9c af b5 be 23 df d4 3d ac eb 88 3e
       -0.26956317 -0.35485542 0.103941225 0.26742303
000080 cf f2 39 be 68 98 8c 3e f2 bf 00 be 9f 7d 36 3e
       -0.1815903 0.27460027 -0.12573221 0.17821358
000090 fb 08 c3 bd 40 ab 55 be 04 5c 3e be 7e 0a af 3e
       -0.09523197 -0.20866108 -0.18589789 0.34187692
0000a0 0d d5 48 3e 01 ac 1c be 85 b4 03 be 3a b5 09 be
       0.19612522 -0.1529999 -0.12861831 -0.13448039
0000b0 88 ad b5 3e ad f6 95 be b1 64 93 3d 86 34 ef 3c
       0.35483956 -0.2928976 0.0719694 0.02919985
0000c0 4b 23 8b be 4f 71 60 3d e7 46 08 3e 7c 1c 46 be
       -0.27175364 0.05479556 0.13308297 -0.19346803
0000d0 c0 d3 4c 3e cb 9b 9c be 71 2b 48 be 02 9e cf bd
       0.20002651 -0.3058761 -0.19547822 -0.101375595
0000e0 ec 07 ac bd 9b e5 28 be 16 2c 6c bd 97 0c 9b be
       -0.083999485 -0.16493838 -0.05765923 -0.30283043
0000f0 46 c1 ca be c2 51 77 3e 77 fa 47 3c 4a 20 a1 3e
       -0.3960058 0.24152282 0.012205712 0.31469947
000100 82 46 b5 bd 0c 3a 91 3d 27 f3 96 be d2 e9 79 3e
       -0.08851339 0.0709115 -0.29482386 0.24405602
000110 7e 3a fd 3d d9 30 23 3e ce c5 61 be 20 73 35 be
       0.12364672 0.15936603 -0.22048113 -0.17719698
000120 a4 3b 48 be df da 8c be 75 d8 73 3e a2 05 5e be
       -0.19554001 -0.27510735 0.2381304 -0.21681836
000130 7a d2 83 be 74 5c 42 be 00 f5 0e 3e 9f d2 46 be
       -0.25746518 -0.1898058 0.13960648 -0.19416283
000140 63 75 ba be af 5b 7e 3e b7 c0 66 3e b1 3e 9f bd
       -0.36417684 0.24839662 0.22534452 -0.07775629
000150 43 fc 1e be 77 b2 d9 3e f4 d0 38 be ff 8b 8d be
       -0.15525918 0.4251897 -0.1804846 -0.2764587
000160 df d5 25 3e ef 00 7e 3e 40 b5 97 3e 5b 5b 6e 3e
       0.16194867 0.24805044 0.2963047 0.23277037
000170 ce ca 18 be 03 41 9e 3e 45 8c 2e 3e b0 d5 b8 3e
       -0.14921114 0.30908975 0.17045696 0.3610053
000180 7f 81 6b be 2a 93 b8 3d 21 c7 eb be ab 9d a2 3e
       -0.22998618 0.09012444 -0.4605036 0.31760916
000190 bb 89 95 be a4 d0 59 be 00 d2 01 be 50 31 3b 3b
       -0.29206643 -0.21270996 -0.12677765 0.0028563328
0001a0 d2 30 90 be 6f e9 54 3e fb c6 6d be ea ad a2 3e
       -0.28162247 0.20792173 -0.23220436 0.3177331
0001b0 72 9f 69 be 06 57 0e be 15 61 51 3e 5b 5f 78 3e
       -0.2281473 -0.13900384 0.2044719 0.24255125
0001c0 ee 99 83 be 25 65 8a bd f1 8f df bd ef 84 54 bd
       -0.25703377 -0.06757573 -0.109161265 -0.051884588
0001d0 7f fb a4 be d5 7c 68 be 83 18 61 3d ae 36 e4 3d
       -0.32223126 -0.2270387 0.054955017 0.11143242
0001e0 bc de 73 3e 9b b3 c8 bd db 00 7c 3e a0 12 c4 3e
       0.23815435 -0.09799882 0.24609701 0.3829546
0001f0 11 0c 3f 3e 03 c8 05 be 2e 5e 51 be af c1 61 3e
       0.18656947 -0.1306458 -0.20446083 0.2204654
000200 58 d2 05 3e a8 61 b0 be 55 52 87 3c 9f a5 c6 3c
       0.13068521 -0.34449506 0.016518751 0.024248896
000210 06 da 6f 3e 1a 88 48 bd c7 4c 01 3e 77 52 9b bd
       0.23423013 -0.04895792 0.12626944 -0.07584088
000220 fc a0 1a be 65 39 82 3e a3 25 13 3d ea 19 6b bc
       -0.15100473 0.25434414 0.035924565 -0.01434944
000230 80 27 85 be bf 8e f3 bd f9 5d 90 be 04 9a 5d be
       -0.260067 -0.11892461 -0.28196695 -0.21640784
000240 eb 21 5e be 22 00 27 3e 81 f1 b4 3e 48 e1 32 3e
       -0.21692626 0.16308644 0.35340503 0.1746875
000250 6d e4 d5 bd db 22 39 3e e2 c5 98 bd ef d3 50 3d
       -0.104439594 0.18079703 -0.07459618 0.050983366
000260 ce c6 95 be b9 22 20 bd 66 70 bc 3d d1 d0 0e bd
       -0.29253238 -0.039095614 0.09201126 -0.03486711
000270 4e 31 04 bf c9 d6 a1 bd 87 a8 b3 bd ab 8c 16 3e
       -0.51637733 -0.07902295 -0.087723784 0.14702098
000280 fa 19 6c be 70 f2 a2 3e bb ff f3 bd 09 44 42 be
       -0.23056784 0.3182559 -0.11914011 -0.18971266
000290 ad 2c 99 be f7 ec 67 3e d9 03 c2 bc 93 ca 9b 3c
       -0.29916897 0.22648989 -0.023683475 0.019017493
0002a0 98 e9 31 3e 31 0e 67 be 83 f2 86 3e ea 26 8d bd
       0.17374265 -0.22564007 0.26356897 -0.06892188
0002b0 81 4c 5f 3e 22 31 9d be 11 12 c4 3d 29 87 76 3a
       0.21806528 -0.30701548 0.095737584 0.00094042957
0002c0 1d b0 76 be a2 9b 3f 3e 26 76 b9 3d 32 8d 8f 3b
       -0.2409062 0.18711713 0.09055738 0.0043808455
0002d0 ed 20 c1 bd 44 65 ed 3d e8 d7 0c bb ff d2 42 bb
       -0.09430108 0.115915805 -0.0021490995 -0.0029727814
0002e0 ab c0 5d 3d 52 d4 45 3e cf c3 71 3e 30 53 12 be
       0.05413882 0.19319275 0.23609851 -0.14289546
0002f0 fc e7 16 be c6 40 2f 3e 1e d7 14 bc 4a 7c be 3d
       -0.14736933 0.17114553 -0.009084491 0.0930105
000300 34 9b 03 be 42 47 b8 3d b4 36 78 be b3 99 70 3e
       -0.12852174 0.08997966 -0.24239618 0.23496132
000310 43 a3 85 3b 56 c3 94 3e a9 5a 56 be 4d 07 b6 bb
       0.0040783 0.2905528 -0.20933022 -0.0055550695
000320 d9 7f 8a bd 79 1c d5 bd 2c 3e 15 be b4 ca 18 be
       -0.06762666 -0.10405821 -0.14574498 -0.14921075
000330 69 69 92 bd eb 4c c0 be 4e 81 a3 3e 13 82 fa bd
       -0.07149012 -0.37558684 0.3193459 -0.12231841
000340 d4 9a 85 be 18 de 6a 3e 50 86 30 3e 03 2a 2e bd
       -0.26094687 0.22936285 0.17238736 -0.042520534
000350 a4 fc 90 be 03 9d 66 3e e4 9f 1d be d2 59 a7 bd
       -0.2831775 0.22520833 -0.15393025 -0.08171429
000360 47 07 da bd dc 0f fd 3d d3 ea d8 bc 6f c7 cf 3d
       -0.10645919 0.123565406 -0.02647916 0.10145461
000370 46 ae 91 be fb 7c 77 3e 2d 63 5d 3d b7 56 09 3e
       -0.28453273 0.2416877 0.05404966 0.13411985
000380 5b 3f 76 3d eb 9b 8a be 94 73 21 be 77 b1 86 3d
       0.060119014 -0.2707208 -0.15766746 0.065768175
000390 9d 79 38 be d0 b8 2f be 10 55 f9 bd 52 48 64 be
       -0.18015142 -0.17160344 -0.121744275 -0.22293213
0003a0 01 70 59 be 82 75 12 3e c8 42 e3 bc 14 37 82 3e
       -0.21234132 0.14302638 -0.027741805 0.25432646
0003b0 c3 f0 29 3d b8 b4 47 bc 83 1c 6e bc 2d 6b 59 3e
       0.041489374 -0.012189083 -0.014533165 0.2123229
0003c0 f2 ff 13 be 28 48 0c 3e ac e4 17 3d 3e 78 dd bd
       -0.14453104 0.136994 0.037083313 -0.1081395
0003d0 65 9e 84 bd 8a 89 4b be 43 4f e5 3d c6 0d 99 bd
       -0.06475524 -0.19876686 0.111967586 -0.0747333
0003e0 02 d0 02 be 5f 2c 85 be 19 87 00 3e 82 8b d0 bd
       -0.12774661 -0.26010415 0.12551536 -0.10182859
0003f0 78 2e b7 3d d0 2a 00 be 33 3d be bd 28 6a 5d 3e
       0.0894441 -0.12516332 -0.092890166 0.21622527

lstm.bias_ih_l1 f4 [512]
000000 32 bd dd be 15 a2 ab be 13 b3 88 be af 83 d4 be
       -0.43308407 -0.33522096 -0.26699123 -0.41506717
000010 87 78 fe bd 02 5e e3 3c 7d 32 7c be 6d 14 cf be
       -0.124253325 0.027754787 -0.24628635 -0.4044527
000020 6e 61 aa be 1e 47 a2 be a5 65 a0 be 0c 20 96 be
       -0.33277458 -0.31694883 -0.3132755 -0.29321325
000030 f9 21 e7 3d 61 9b db bd 8c 2f 87 be f1 0d 56 be
       0.11285777 -0.107229955 -0.26403463 -0.20903756
000040 73 19 72 be da ec 9b be ac 7a 58 be f0 84 66 be
       -0.2364252 -0.3045414 -0.21140546 -0.22511649
000050 20 e4 a3 be fe 6f 2e be f3 9d 2d be 23 cf 52 be
       -0.32009983 -0.17034909 -0.16954784 -0.20586829
000060 7e a1 9c be 71 16 c6 be 49 a0 c4 be 8f 22 ff bd
       -0.3059196 -0.38688996 -0.38403538 -0.124577634
000070 10 6e af be 1b 9c b3 be d9 18 35 be 89 ea 38 be
       -0.3426366 -0.35080037 -0.1768526 -0.18058218
000080 ab 30 78 be fc 6b 82 bd 1d d7 e3 be 37 60 b8 bd
       -0.24237315 -0.06368253 -0.44500056 -0.090027265
000090 7f 38 27 be 7c 6d 20 be 43 e5 90 bd cb 92 87 be
       -0.16330145 -0.15666765 -0.07074978 -0.26479182
0000a0 ff 8a 01 3e e4 87 a1 be e8 c6 46 be cf f4 a3 be
       0.12650679 -0.3154899 -0.19411814 -0.32022712
0000b0 10 2d f1 bb 6c 87 8f 3c 3f a7 3c be a6 87 84 be
       -0.007360108 0.017520629 -0.18423174 -0.25884742
0000c0 79 98 e7 3d 76 1e bb bd 0e 8a a1 be cf b7 48 be
       0.11308379 -0.09136669 -0.3155064 -0.19601367
0000d0 bc 6a cd be 5b 56 2c be f8 8d a1 be 85 dc 8f be
       -0.40120494 -0.16829817 -0.31553626 -0.2809793
0000e0 f3 ba fa bb 22 3a 97 be 86 a6 67 be c3 ef 8a bd
       -0.0076516806 -0.2953654 -0.22622117 -0.06784012
0000f0 eb 5b c5 be 0a c2 39 be c6 40 ad be 7b d3 d2 bd
       -0.3854669 -0.18140426 -0.3383848 -0.10294243
000100 3b 95 36 be 6d 90 37 bd ce 76 a7 3d 56 35 ec be
       -0.17830364 -0.04481547 0.08176957 -0.46134442
000110 3e 11 07 be 72 4b 88 bc 60 93 91 bc aa 2c bd be
       -0.13190171 -0.016637538 -0.01777047 -0.36948138
000120 46 d7 07 bd 05 0e 88 3d 81 6f 91 be 85 4b 2b 3e
       -0.033164285 0.06643299 -0.28405383 0.16728027
000130 48 23 c5 be 4f 86 89 be aa 67 82 3e 40 64 41 bd
       -0.3850348 -0.26860282 0.25469714 -0.047214746
000140 cd dc d0 be 8f 4a a7 bc 74 32 d4 3c fe a1 e4 be
       -0.40793458 -0.020421294 0.025902964 -0.4465484
000150 b4 d7 8d be 4d da bf be d3 82 14 3e 5d 4f e7 be
       -0.2770363 -0.37471238 0.1450303 -0.45177737
000160 69 19 83 be d6 2e c7 be 2c 9e 72 be 09 0d ad 3c
       -0.25605324 -0.3890292 -0.2369315 0.02112438
000170 d8 2d d2 be d2 7c 86 bd 32 50 2b 3e a3 b1 2e 3b
       -0.410506 -0.06566776 0.16729811 0.0026656173
000180 78 2f 9d be d2 c6 a4 be 4a c5 ca be 1c b0 13 3c
       -0.30700278 -0.32182938 -0.39603645 0.009014156
000190 93 51 70 bd b9 e2 c8 3c 37 3b f1 be 71 63 00 3d
       -0.058671545 0.024522172 -0.4711549 0.031344835
0001a0 f9 64 96 be 2f 21 9b bd 9e f1 55 bd bc 36 09 3d
       -0.2937391 -0.07574689 -0.052232377 0.033499464
0001b0 99 e1 88 bd cb 4b 9d be 82 d6 99 be a6 5b 4a 3b
       -0.06683654 -0.30721888 -0.3004647 0.003087738
0001c0 5b d9 71 be 9e 36 58 be 54 61 61 be 1c 2e c8 be
       -0.23618071 -0.21114585 -0.22009784 -0.3909768
0001d0 8b 7a c2 be 70 94 bf be 61 df 87 bd c6 f6 de be
       -0.37984118 -0.37417936 -0.06634403 -0.43547648
0001e0 ee 53 98 be 56 fb 6d be c1 ce cc 3d 8f 99 dc be
       -0.29751533 -0.23240408 0.10000373 -0.43085906
0001f0 21 7b a5 be 6f 5c 91 3d 62 29 cc be 4a 4a cd be
       -0.32320502 0.070977084 -0.39875323 -0.4009574
000200 71 34 ce be 80 00 35 be ad cc 2f be e1 aa bc be
       -0.40274385 -0.17675972 -0.17167921 -0.3684912
000210 ea e5 a1 bd b1 9a 64 3e 1c 51 ab be 94 fd ac be
       -0.07905181 0.22324635 -0.3346032 -0.33787215
000220 48 6d cc be 07 df a8 be ea f6 82 be 21 00 08 be
       -0.39927125 -0.32982656 -0.25579005 -0.13281299
000230 b0 69 1f 3e cc ce ab 3d 45 18 1d bd ad 45 e0 3d
       0.1556766 0.08389053 -0.038353223 0.109507896
000240 d3 55 07 bc f2 67 0c bd 39 ee 9d be 92 93 9c 3c
       -0.008260208 -0.034278817 -0.30845812 0.019113336
000250 17 79 d6 be e4 b8 21 3e 30 16 a5 bd 5b c0 d0 3d
       -0.4188926 0.15793186 -0.080608726 0.10192939
000260 b4 ba df be 4a 3a 0e bc d8 a7 a8 be d2 92 3e bd
       -0.4369713 -0.008680889 -0.32940555 -0.046526738
000270 9b 2d 99 be fd 52 01 bf 4d 3d 44 be b2 d6 0c bd
       -0.29917607 -0.50517255 -0.1916401 -0.034384437
000280 ab 0e 47 3d 57 a6 01 3e 8b 77 34 be fd 7a d5 bd
       0.048597973 0.1266111 -0.17623727 -0.10423849
000290 c6 2b f4 bc 86 8c f8 3d 3d fc 64 be ae f6 2d be
       -0.029806029 0.12136178 -0.22361846 -0.16988632
0002a0 ea b0 01 3e 6d 71 72 be a9 a8 5a be 19 b5 bd bd
       0.12665144 -0.23676081 -0.21353401 -0.09263057
0002b0 d5 b2 b6 bd 2f 0d fc bc 88 b2 47 bd 84 fa 38 be
       -0.08920828 -0.030768005 -0.048754245 -0.18064314
0002c0 7f bf 97 3e c0 cd a6 3d 68 67 b6 be 58 96 10 bd
       0.29638287 0.081447124 -0.35625768 -0.03529963
0002d0 2f 85 9c be 1d 98 b1 3d 24 f2 4c be 33 2d 71 be
       -0.3057036 0.086715914 -0.20014244 -0.23552398
0002e0 88 87 4b 3e b2 9a 26 be 25 ff c0 be f5 6f d9 3d
       0.1987592 -0.16269949 -0.3769466 0.10617057
0002f0 b1 43 0d bf 03 aa 23 bd 11 99 b7 bd c0 86 dc 3d
       -0.55181414 -0.039957058 -0.08964742 0.10767889
000300 90 a9 6c bd bb fd a0 3e 11 5a 8e 3e 84 1f 58 be
       -0.057778895 0.3144358 0.2780309 -0.21105772
000310 2f be 21 3d 54 61 17 be ac 19 61 3e 02 3c e6 bd
       0.039488014 -0.14783221 0.2198245 -0.11241914
000320 2c 60 00 bc ba 63 66 3e e5 7c cb be 05 78 51 3e
       -0.007835429 0.2249898 -0.39743724 0.2045594
000330 88 d2 a0 be 2c 81 4c be 95 5c 0b 3e 78 6e 35 3e
       -0.31410623 -0.1997115 0.13609536 0.17717922
000340 4c 32 bf be f7 2f a7 3d d5 83 85 bd c1 cb ce be
       -0.3734306 0.081634454 -0.065192856 -0.40389827
000350 b6 46 e6 bd a1 b2 a8 be 47 53 c6 3d 69 71 50 3d
       -0.11243956 -0.32948783 0.09683853 0.050889406
000360 92 70 0d 3d 3f 44 bd be 9a 22 41 be 3e ae f8 3d
       0.034531184 -0.3696613 -0.18860856 0.12142609
000370 0f 0a 84 be 5f cc e2 3d 8b f4 41 3e 78 de 0c 3e
       -0.25788924 0.11074137 0.18940942 0.1375674
000380 ce 02 7f be 44 68 90 3d d1 ba 15 bf c7 79 2f 3e
       -0.24903414 0.07051137 -0.58488184 0.17136298
000390 a9 29 16 3e 7f 76 e9 3b 63 37 86 be 3d fc 6e be
       0.1466433 0.0071247215 -0.26214132 -0.23338409
0003a0 76 d3 f1 be 85 8f 06 3d fd 31 b1 3d 3c f7 2a 3d
       -0.47231644 0.032851715 0.08652113 0.041739687
0003b0 04 34 5f bd 44 43 4a bd 09 64 62 3d dd b0 d4 3d
       -0.054492965 -0.049380556 0.055271182 0.103852965
0003c0 f1 a6 d1 bd 84 e1 f0 bc 36 01 12 3d 3b 90 b0 be
       -0.1023692 -0.02940441 0.035645686 -0.3448504
0003d0 21 ac 24 be 24 c2 e6 bd 4e d9 00 3e 1c d3 c2 be
       -0.16081287 -0.11267498 0.12582895 -0.3805169
0003e0 fd e9 df be 14 6f 56 bd 6a 0a f5 bd 9f b5 9a be
       -0.43733206 -0.052352026 -0.11964877 -0.3021669
0003f0 3d e6 0c be 8a b6 bb 3d 09 0a 97 be 5e 15 05 bf
       -0.13759704 0.09165676 -0.29499844 -0.5198573
