models/EURCAD_model.pth (torch, 860300 bytes, 15 tensors)

lstm.weight_ih_l0 f4 [512, 12]
000000 42 00 29 3d 72 27 9c 3d 82 28 75 bd 73 eb 84 3a
       0.04126001 0.07624711 -0.059853084 0.001014097
000010 d5 48 19 3f 9d b4 12 bd 78 cf 58 3d 6d dd d9 be
       0.5987676 -0.035816777 0.052932233 -0.42551747
000020 78 15 fa 3d 88 e3 02 3e 21 13 7d 3c 71 e9 94 be
       0.12211126 0.12782109 0.015446455 -0.29084352
000030 d0 74 d6 3c e1 0c 06 3e 26 bd 59 3d 2a e0 ab ba
       0.026178747 0.1309085 0.0531589 -0.0013113071
000040 aa da fa 3e 3b 02 90 3c 5b ea 55 bd 4a c9 05 3d
       0.48994952 0.017579189 -0.052225452 0.032662667
000050 a0 5b 50 3e f7 ba ab be e4 5e 0a be 17 4a 66 3e
       0.20347452 -0.3354108 -0.1351276 0.224892
000060 57 d1 60 be e1 a8 6b be da 17 7b be c8 c8 82 be
       -0.21954857 -0.23013641 -0.24520817 -0.2554381
000070 b6 88 14 3f 8b 9f 7f be 8f 7f 85 be 33 ae 63 be
       0.58021104 -0.24963205 -0.26073882 -0.2223442
000080 3d ed ca 3e d9 be af 3c bc b8 8f 3d 4a 00 c5 bd
       0.39634123 0.021453308 0.07017657 -0.09619196
000090 b3 07 1d be f5 30 30 be e5 77 c3 bc 21 ee 39 be
       -0.15334968 -0.17206176 -0.023860881 -0.18157245
0000a0 9c 21 68 be b7 17 27 be 32 b1 bd bc a5 da be be
       -0.22669071 -0.1631764 -0.023155782 -0.37276188
0000b0 fd 43 d6 3d ca 01 3c be 12 de a6 bd 4b fa ff be
       0.104621865 -0.18360057 -0.08147825 -0.49995646
0000c0 93 70 79 bd 5f 74 70 be 5f 15 12 be 23 b3 e6 bd
       -0.060898375 -0.23481892 -0.14265965 -0.11264636
0000d0 8b ba a3 be f6 16 f0 bd b7 bf 52 be c0 b6 5e 3d
       -0.31978258 -0.117231295 -0.20580946 0.054373503
0000e0 3a 4e b0 be 52 c6 b9 bc 45 12 a6 3c f8 9b 56 bd
       -0.34434682 -0.022677574 0.020272383 -0.052394837
0000f0 bf 6a ff bd 6f e6 96 be 7b 13 88 be 4f 52 a5 be
       -0.12471532 -0.29472682 -0.26577362 -0.3228936
000100 4d cf a1 3d 8f 73 88 be 05 cc 89 be 41 1b 50 be
       0.079008676 -0.26650664 -0.26913467 -0.20322897
000110 31 5a 4c be a2 8a 00 be 5e 29 7e 3d 86 48 4b be
       -0.1995628 -0.12552884 0.06205117 -0.19851884
000120 a6 9e 74 be c7 db a4 be 60 64 a7 be 59 a5 99 be
       -0.23888645 -0.32198927 -0.32693768 -0.30008963
000130 21 5f 18 3e 2a 46 a5 be 4e 70 a6 be 5a 53 fb bd
       0.14880039 -0.32280093 -0.32507557 -0.122717574
000140 de f6 5a bd 47 8d e0 bd fd 03 ac bd ae 10 ad bd
       -0.053458087 -0.109644465 -0.08399198 -0.08450447
000150 62 dd 89 be f2 1c 5f be 86 73 8a be f4 67 ac be
       -0.26926714 -0.21788386 -0.27041262 -0.3367306
000160 11 42 11 3e 55 32 77 be 1b 82 8c be e8 8a 9f be
       0.14185359 -0.24140294 -0.27443013 -0.31160665
000170 7b 79 ac bc f2 59 16 be 7b 54 1d be f5 c0 29 be
       -0.02105402 -0.14682749 -0.15364258 -0.16577514
000180 11 19 65 be 86 85 92 be 68 fe 7a be 3a a5 bf be
       -0.22372843 -0.28617495 -0.24511111 -0.37430745
000190 07 d4 3a be ab 42 c5 be 94 6f 6f be f1 49 bc 3c
       -0.18244945 -0.38527426 -0.23382407 0.022984477
0001a0 f5 3a 75 be ff 9c 81 bd 7f 2b b6 3d 70 41 0d be
       -0.23948272 -0.06328773 0.08895015 -0.13794494
0001b0 37 9a 6e 3d 2f 0c b7 3d 22 f9 33 3e f6 66 99 bd
       0.05825254 0.08937871 0.17575505 -0.07490341
0001c0 ca d8 55 be 60 e7 93 bd ea 69 8c bd e4 24 c5 3d
       -0.2088348 -0.07221866 -0.06856139 0.09626177
0001d0 b4 b2 83 3d b9 f6 10 be 0c 8f b2 3c 1f ba a6 3d
       0.06430569 -0.14156617 0.021796726 0.081409685
0001e0 a0 46 52 be 61 36 a8 be aa 3a 48 be a8 a9 8e be
       -0.20534754 -0.32853988 -0.19553629 -0.27863812
0001f0 1f 01 1a bd 09 c5 78 be 2b 0b a3 be 9c 45 4c bc
       -0.037598725 -0.24293913 -0.31844458 -0.012467768
000200 9d 2e 87 bd c2 41 c6 bd 64 46 1b be 10 2e d3 bd
       -0.06600688 -0.09680511 -0.1516357 -0.1031152
000210 b5 46 a5 3d 67 30 9c 3d 4a a9 3e bd 83 51 ef 3d
       0.08070127 0.076264195 -0.046548165 0.11685469
000220 b3 63 b9 3d 03 40 41 bd c1 bd bd bd 16 4c e5 3d
       0.09052219 -0.047180187 -0.09264708 0.11196153
000230 61 2d a7 bd ca 1b fb bd 36 5a fa 3d 23 59 7b 3d
       -0.08162952 -0.1226116 0.122242376 0.061364304
000240 fc 30 1d 3e 33 43 84 3d 4d 50 0c 3e bd 64 08 3e
       0.15350717 0.0645813 0.13702507 0.13319679
000250 3c b3 b9 3d 2a d4 32 3e c0 c3 7e 3d 0a 3a b0 bd
       0.09067389 0.17463747 0.0621984 -0.0860482
000260 3b 22 4d 3d a0 ad 07 3e 3f e6 fd 3d 54 a0 9f 3c
       0.050081473 0.13249826 0.123974316 0.01948563
000270 dd 0b d1 3d 28 0d bd 3d d9 c1 0e 3e 9c 29 3a 3e
       0.10207341 0.09231025 0.13941135 0.18179935
000280 d1 f3 f3 3e 1e 84 9e 3d 12 21 26 3e fe 4b 58 3e
       0.47646955 0.07740043 0.16223553 0.21122739
000290 da 28 64 3e 5b e4 1d 3f 44 8b cf 3e 26 58 4f 3e
       0.22281209 0.6167657 0.4053594 0.2024847
0002a0 f3 51 24 be 76 23 92 be 95 9a 88 be d4 46 b4 be
       -0.16046886 -0.2854268 -0.26680437 -0.35210288
0002b0 e7 01 ae bd 48 9c b6 be 34 f2 74 be 97 d2 83 bd
       -0.084964566 -0.35666108 -0.23920518 -0.06436651
0002c0 3c 41 31 3e ab a5 a9 be 73 28 86 bd 2b d0 12 be
       0.17310041 -0.33134207 -0.06550684 -0.14337222
0002d0 fd 7b 87 3e 01 78 25 3e 6f 16 96 3e 80 96 82 3e
       0.26461783 0.16159059 0.2931399 0.25505447
0002e0 7a e0 9e 3e 3c 09 91 3e 12 fe c5 3d d7 91 bc 3e
       0.31030637 0.28327358 0.09667601 0.36830017
0002f0 2a 4e a0 bd e6 dd f9 bd 1e 01 1e 3e 23 ce 5d 3e
       -0.078274086 -0.12200527 0.15430114 0.21660666
000300 97 dd e8 3d 8e d6 5a 3e c3 20 90 3b 18 f7 85 3d
       0.1137039 0.21370909 0.0043984368 0.0654127
000310 36 61 a5 be 73 36 a8 3c 31 29 0e 3e d1 ab a4 be
       -0.3230073 0.020533776 0.13882901 -0.32162336
000320 4d 7f 4b bc 79 1b a1 bd 3d 9c 25 3e 97 f2 de be
       -0.012420488 -0.07866568 0.16172881 -0.43544456
000330 87 40 82 3c 6d cb a7 3c e5 ea cf 3c e3 dc 36 bd
       0.01589991 0.020482743 0.025380561 -0.044644248
000340 92 ee c8 3d 5d 06 7a 3d 1c 91 bd 3d 5c ee 6e 3e
       0.09811129 0.061041225 0.09256193 0.23333114
000350 64 3d 19 3f 5a 4c 70 be e5 29 63 3d c8 9e 8a 3d
       0.598593 -0.23466626 0.055459876 0.06768566
000360 82 e1 b0 3c 89 9f 18 bd 43 f9 8b bd b4 86 74 bd
       0.021591906 -0.03726152 -0.06834652 -0.059698775
000370 83 84 e1 3e aa 88 fb 3d a0 91 75 3b 2d fc 11 3e
       0.4404641 0.12281926 0.0037470832 0.14256354
000380 42 5f 34 bd 94 ca 49 be 64 ae e6 3c 12 f5 a7 3e
       -0.044036157 -0.19706184 0.028159328 0.3280416
000390 aa ba 42 3e 2e a3 d2 3d 58 0a 57 3e e1 b1 c9 3d
       0.19016519 0.1028503 0.2100004 0.09848381
0003a0 12 6a 58 be 1f 40 36 3e b4 f9 1b 3e 6d 80 31 bd
       -0.21134213 0.17797898 0.15231973 -0.043335367
0003b0 fb ef 8d 3e 57 08 96 be 9e 76 53 bc 55 bf e8 bd
       0.27722153 -0.29303238 -0.0129066985 -0.11364619
0003c0 64 5d 9f be 51 7e 39 be 70 66 61 be 39 90 67 be
       -0.3112594 -0.18114592 -0.22011733 -0.2261361
0003d0 11 7d 45 3c 71 e1 c1 be 46 e3 47 be 4c 36 95 be
       0.012053744 -0.3786731 -0.19520292 -0.29142988
0003e0 8d 5b b1 bd 5e 1b 6c be 45 66 a5 be 8f 86 ae be
       -0.0866004 -0.23057315 -0.32304588 -0.34087035
0003f0 7d 55 15 be 1c 30 2f be 77 8e 18 be 80 32 82 be
       -0.14583392 -0.17108196 -0.14898096 -0.25429153

lstm.weight_hh_l0 f4 [512, 128]
000000 ba d5 55 be 69 4d 8c 3e 98 c9 92 3e ed e3 59 3c
       -0.20882311 0.2740281 0.2866943 0.013298971
000010 e0 25 3a bf ca a3 59 3e b7 99 b1 bd 95 02 37 bd
       -0.7271404 0.21253887 -0.08671897 -0.044680197
000020 f8 3a 16 be 5f 5e 86 3e ac 9b 88 3e 6e e1 25 be
       -0.14670932 0.26243874 0.26681268 -0.16199276
000030 98 09 50 be 40 da 8a 3f e6 99 32 3b 53 3e 72 3e
       -0.2031616 1.0847855 0.0027252375 0.23656587
000040 17 21 0a bf 4b 2b 84 bf 25 cc 20 bc 1a 21 9f be
       -0.5395674 -1.0325712 -0.009814297 -0.31079942
000050 18 80 95 be fb 7e 3b bd cd 53 3f 3d 3b 73 c5 be
       -0.2919929 -0.045775395 0.046710778 -0.38564476
000060 40 7d 27 3c 51 10 8f 3c 60 67 63 3e 7a 23 57 be
       0.010222733 0.017463835 0.22207403 -0.21009627
000070 a5 ee ed 3e c7 a6 0b bf c9 98 f6 3d 59 d6 90 3d
       0.46471134 -0.5455136 0.1204086 0.070721336
000080 b9 f2 b0 be 27 40 47 bd 19 6f 3d be 2f 11 a1 bd
       -0.34560183 -0.048645165 -0.18499412 -0.07864606
000090 3e d5 6b 3e 28 20 4e bd ce 70 a7 bd 24 63 b5 be
       0.23030564 -0.050323635 -0.08175813 -0.354272
0000a0 a0 1f 88 be 3f 66 9c be 53 f7 a0 bc 08 bc 18 3f
       -0.26586628 -0.30546758 -0.019649183 0.5966191
0000b0 f9 e7 0a 3f c0 2e 1f bf b0 06 e7 3e 5b 13 fd be
       0.5426021 -0.6218071 0.4512229 -0.4942883
0000c0 6a 3c 24 bd f0 43 92 3d bd 96 78 3e d2 8a 3a 3e
       -0.040096678 0.07141864 0.24276252 0.18217018
0000d0 b0 9e 53 3e cf 4e 8d bd 87 28 a9 bd c7 fb 18 be
       0.20666003 -0.06899797 -0.08259683 -0.14939795
0000e0 07 a1 a3 be 65 e4 c9 be 26 7c 10 3e 9e 73 f2 3c
       -0.31958792 -0.39432064 0.14109859 0.029596146
0000f0 19 66 28 be 6c 1b f9 be f2 38 e3 bc 1b 00 c6 3e
       -0.16445197 -0.48653734 -0.027737115 0.38671955
000100 d9 40 50 be dc a9 2b 3f c9 3f 48 be 80 0d 81 3e
       -0.20337237 0.6705606 -0.19555582 0.25205612
000110 ac d1 28 bd 34 07 95 be b8 67 be 3e 4c 3a 83 bf
       -0.041215584 -0.29107058 0.37188506 -1.0252166
000120 47 7b 00 bc a7 ec 91 ba 25 c9 5d 3f f2 cf 3a 3d
       -0.007841892 -0.001113315 0.8663505 0.04560847
000130 12 10 6c bd 44 12 02 bf 2d 9a 1e be ce a3 68 be
       -0.057632513 -0.5080912 -0.15488501 -0.22718737
000140 96 f3 f8 3b c9 27 4f be a0 33 a5 be 78 15 19 3e
       0.007597397 -0.2023002 -0.3226595 0.14949596
000150 a5 b6 4b be 38 f4 01 3f 29 99 bc be 96 47 08 3e
       -0.19893892 0.50763273 -0.36835602 0.13308558
000160 6c 47 3f 3e 72 80 1a be 37 ed 03 be ce e5 10 3e
       0.18679589 -0.1508806 -0.12883459 0.14150164
000170 c2 22 7e be 09 7a 4e bd 74 e4 82 3e 39 85 d9 3d
       -0.24817947 -0.05040935 0.2556492 0.10621113
000180 e3 7d 4a 3f 72 fd 4b 3e 85 04 e3 3e f2 58 c5 3c
       0.7909834 0.199209 0.44339386 0.024090264
000190 9d 39 44 3e 9d f7 21 be ba ae a0 bd 65 5f 24 3f
       0.19162603 -0.15817113 -0.078458264 0.6420806
0001a0 91 1b e2 3e ce 83 d6 bd 34 98 c8 be 99 bc 37 ba
       0.44161656 -0.104743585 -0.39178622 -0.0007008999
0001b0 9c 31 a4 bc e4 e5 4e be f0 5b 24 3e fc 42 60 be
       -0.020043187 -0.20204884 0.16050696 -0.21900553
0001c0 a8 1a b8 3e 27 66 81 3e 4c e6 20 3d 95 44 8d 3d
       0.35957837 0.2527325 0.03928213 0.068978466
0001d0 bc bf 00 3e 48 fb 22 3e 4a 20 8b 3d 9f eb 39 bc
       0.12573141 0.15916169 0.06793268 -0.01134768
0001e0 07 02 9a be f0 a1 f1 3d 9f c9 04 3e 32 55 b3 3d
       -0.30079672 0.11798465 0.12967537 0.08756484
0001f0 a7 eb 90 be 23 02 a0 be d0 99 9d 3e 5e be b1 3e
       -0.28304788 -0.3125163 0.30781412 0.3471555
000200 df c8 9b be 01 9b 63 bd 68 2e 85 bf c6 83 30 be
       -0.3042669 -0.055567745 -1.0404787 -0.17237768
000210 3e 0d d2 3d 28 68 75 bd e7 a1 b4 be a9 38 d8 be
       0.10256432 -0.059913784 -0.35279772 -0.42230728
000220 47 ee af 3e d4 35 8d 3f 96 7c 9f be 56 f4 cb be
       0.3436148 1.1032052 -0.3114974 -0.3983485
000230 cd 37 7e bd a1 04 d3 be 06 39 48 be 78 86 fd be
       -0.062064935 -0.4121447 -0.19553003 -0.49516654
000240 89 c0 1c 3f 80 39 02 be 06 d4 24 bf 23 16 96 3e
       0.61231285 -0.12717247 -0.6438602 0.29313764
000250 7b ba e3 3e 90 ca 1d bf bb 76 3b 3f 93 0e 57 3f
       0.4447821 -0.6163721 0.73228043 0.84006613
000260 34 cd e6 3e 57 9d 06 3f 37 2b dd be a1 4c b9 be
       0.45078433 0.5258383 -0.43197033 -0.36191276
000270 c7 41 4c 3f c7 03 54 3f 5c 0d f5 be eb 0a 95 3f
       0.7978787 0.82818264 -0.47861755 1.1643957
000280 44 ca 6c 3f 87 55 88 bf da bf 31 bf e0 0a 0f bd
       0.9249613 -1.0651101 -0.6943337 -0.03492248
000290 ab 21 80 3f fe 66 59 bd 35 17 19 3e 04 ad b7 3c
       1.0010275 -0.053076737 0.14950259 0.022421367
0002a0 97 b1 13 3d a1 4b e6 be e9 44 3c 3e b1 e9 e6 3e
       0.036058035 -0.44979575 0.18385662 0.45100167
0002b0 8e b8 3b bf 6f 22 61 3e 17 67 4b bf 48 ef b1 3e
       -0.73328483 0.21985792 -0.7945418 0.3475287
0002c0 90 75 17 be fa b0 d6 be a1 0e 51 3e d3 25 fd be
       -0.1479094 -0.41931897 0.20415737 -0.4944292
0002d0 65 76 7c be eb cc 42 3f 1e 02 22 3e 89 32 33 bf
       -0.24654539 0.7609393 0.1582112 -0.69998986
0002e0 a7 e3 19 bf ab b4 49 3f 29 6a d4 3e 1a a8 b2 be
       -0.60112995 0.787913 0.41487244 -0.34893876
0002f0 72 9f d0 be 02 30 f7 bd 61 8e fb 3e 18 c1 b0 3e
       -0.40746647 -0.12069704 0.49132064 0.3452232
000300 1c 02 b4 3c c0 b3 72 3e e6 74 91 3f 0c 30 47 bf
       0.021973662 0.23701382 1.13638 -0.7780769
000310 51 cf 86 3f 6d 86 55 bf c8 3a 7d be d8 47 07 bd
       1.0532018 -0.8340824 -0.24729455 -0.0330275
000320 62 d5 cb 3e 33 f9 2d 3e 77 25 78 be 29 73 31 be
       0.39811236 0.16989593 -0.24233042 -0.17329086
000330 b9 e0 00 3e 3f cd 61 3e d8 a6 59 be a5 43 9e 3e
       0.12585725 0.22050951 -0.21255052 0.30910984
000340 87 a9 9b be a7 72 09 3f 29 06 bf 3c 95 95 88 bf
       -0.30402777 0.5369057 0.023318367 -1.0670649
000350 9e 0c 1e 3e e9 c6 26 3d a3 39 1f 3f 18 12 cd 3d
       0.154345 0.04071704 0.6219732 0.10013217
000360 27 73 f0 be 59 6b 27 bd a4 e6 bf be 39 b7 e9 be
       -0.46962854 -0.04087386 -0.37480652 -0.456476
000370 75 a0 a1 3e 56 a8 3e be d7 55 29 bf 2a 5a 62 3e
       0.31567731 -0.18618903 -0.66146606 0.22104707
000380 63 02 ae 3e d3 f3 bf be fd ad e5 be e8 da bd 3e
       0.33986196 -0.3749071 -0.44859305 0.37081075
000390 30 49 1f be 46 49 8b bf a3 72 fa be 3d 00 0a 3e
       -0.15555263 -1.0881736 -0.48915586 0.13476653
0003a0 77 b4 10 3f 60 fd 34 3f 6d a2 d6 3e 49 38 81 bd
       0.5652537 0.7069912 0.41920796 -0.06309564
0003b0 33 43 c5 be 10 80 9d be 43 50 48 be 28 a0 a0 3d
       -0.3852783 -0.30761766 -0.19561867 0.078430474
0003c0 ce d8 05 bf e1 09 6a bd b0 f3 37 3f f2 ad 31 bf
       -0.5228394 -0.057138328 0.7185621 -0.69406044
0003d0 14 a7 59 be 4d 9c 40 bf 77 cd 93 3e 83 cd a9 be
       -0.21255141 -0.75238496 0.28867695 -0.33164605
0003e0 87 ab 48 3f 61 00 dd 3e 54 de d5 3e 1d 3d c6 bd
       0.7838673 0.43164352 0.41771185 -0.09679625
0003f0 02 0e 0a 3f d2 03 33 bf 3f 0c 25 3f 6a 70 20 bf
       0.53927624 -0.69927704 0.6447181 -0.6267153

lstm.bias_ih_l0 f4 [512]
000000 00 0b f6 bd 95 00 a6 be ed 28 a4 bd c0 95 fa bd
       -0.12013817 -0.3242232 -0.080156185 -0.12235594
000010 f7 97 95 bd aa 83 69 bd 17 6e 14 be fd 69 45 be
       -0.073043756 -0.05701033 -0.14495121 -0.19278713
000020 c4 05 80 bc 6c 3a 89 bb 29 a7 af bd 98 f4 03 be
       -0.01562775 -0.0041878726 -0.08576805 -0.12886274
000030 52 dd 85 ba 92 27 95 3d 9c 0e 02 be d4 ef b3 bc
       -0.0010213053 0.07282938 -0.12700886 -0.021964945
000040 09 87 d3 bc b7 30 c0 bd b9 91 bb 3c 44 ea 32 be
       -0.025821226 -0.093842916 0.022896634 -0.17472178
000050 10 4a 4a be af 00 3e be ca 79 cf bd 5a 8d ea bd
       -0.19754815 -0.18554948 -0.10130651 -0.11452742
000060 22 89 0d be 9c 95 c9 bd 0e 94 c4 bd 6f 5d 1d be
       -0.13821843 -0.09842989 -0.09598552 -0.15367673
000070 ae 10 01 3e 24 71 55 be 8e 45 0b be 6b 15 09 bd
       0.12604019 -0.20843941 -0.13600752 -0.03346769
000080 59 0d 21 3d 9e 4e 5a 3d 4d 78 0e be 03 21 c6 bd
       0.03931937 0.05329763 -0.13913079 -0.09674265
000090 29 6d c4 bc e0 da 2c bd 65 c9 dd bd f8 32 8a 3d
       -0.023977833 -0.042200923 -0.108294286 0.06748003
0000a0 a2 2a a5 bb 3d 77 1c be 37 05 77 3d d1 83 41 be
       -0.0050404826 -0.15279861 0.060307708 -0.1889794
0000b0 b2 9b 6b bc eb 42 4e bd 5e 45 cb bd 0c 2e d0 3c
       -0.014380382 -0.050356787 -0.0992534 0.025412582
0000c0 b1 c4 17 be 42 8f fb bd c3 c4 3e bd be cd e6 3c
       -0.14821126 -0.12283184 -0.046574365 0.028174277
0000d0 20 37 7f bd ab 9e 1e be 45 cd 73 be 8a 66 6e 3d
       -0.06230843 -0.15490215 -0.23808773 0.058203258
0000e0 d5 79 8e 3d fe 3c f1 3d 82 a0 cb 3d 01 6a b7 bd
       0.06956831 0.117792115 0.09942724 -0.089557655
0000f0 17 f7 a1 3d 72 37 90 bc c0 ed a3 bd c1 f7 94 3b
       0.07908457 -0.017604563 -0.080043316 0.004546136
000100 89 d5 ad bd cd 3d 4e be 70 a1 bc 3d 81 48 bb bd
       -0.08487994 -0.20140763 0.09210479 -0.091446884
000110 8c 44 40 bd 72 2e 64 3d b0 fb 00 be 4c 62 71 bc
       -0.04694037 0.055708356 -0.12596011 -0.014732908
000120 d5 a1 04 be 1a 71 10 be 2e 16 19 3d dc 8f 0a be
       -0.12952359 -0.14105645 0.037374668 -0.1353144
000130 ba 80 cb bc 49 9a 45 be c9 21 2f bd b2 83 ca bd
       -0.024841655 -0.19297136 -0.04275683 -0.098884
000140 8e 21 f1 bd 63 8a 39 be c6 9e 88 bd 78 61 5f be
       -0.11773978 -0.18119197 -0.06670909 -0.21814525
000150 33 e4 84 be f8 ff 07 be ad 1f be 3d 23 3f f8 bd
       -0.25955352 -0.13281238 0.092833854 -0.121214174
000160 c0 e2 07 be 54 90 e3 bd b8 71 82 be 7d e3 84 bd
       -0.13270092 -0.11111513 -0.25477386 -0.064887024
000170 80 d4 07 be 2f 29 05 be 76 e6 45 be a0 dc d9 bd
       -0.13264656 -0.13003992 -0.19326195 -0.10637784
000180 24 53 af bd 36 03 d0 bc 72 1f 80 bd a5 7a c4 bd
       -0.0856078 -0.025392156 -0.06255998 -0.09593705
000190 3c 0d d7 3b 37 cf 16 be f3 a4 cc bd 9c 64 71 3c
       0.006562857 -0.14727484 -0.09992399 0.01473346
0001a0 9f 96 39 be f0 d1 e1 bd 8c 9f 6a bc 1f f5 d0 3c
       -0.18123864 -0.110263705 -0.0143202655 0.025507508
0001b0 06 c2 24 be bb 30 ee bd 46 11 a1 bc 53 a3 6b be
       -0.16089639 -0.11630388 -0.019661557 -0.23011522
0001c0 b4 12 b9 bd f0 67 fb bd 58 24 2e 3e 5b cd eb 3d
       -0.090367705 -0.12275684 0.17006052 0.11513778
0001d0 ba 25 f4 3d 0d 17 8c bd 0a 73 2f be e6 3f 77 bd
       0.11921258 -0.06840334 -0.17133728 -0.060363673
0001e0 e3 00 0e bd 09 a7 dd bd c1 12 d1 bd 64 1b 26 be
       -0.034668814 -0.10822875 -0.10208655 -0.16221386
0001f0 7b dd 0d be f8 46 e2 bd a7 f1 41 be 52 71 45 3d
       -0.1385402 -0.110486925 -0.1893984 0.048203774
000200 0a b2 fd be a6 28 c3 be d9 dc 45 bb 39 16 14 be
       -0.49549896 -0.3811695 -0.003019145 -0.14461602
000210 2d 43 08 bb 12 75 f9 be d1 4f c6 bd bd 46 3e be
       -0.0020791993 -0.4872213 -0.096831925 -0.18581672
000220 38 47 81 be 0d 1d 8a be 21 3a 84 bc 41 fa 5b be
       -0.25249648 -0.2697529 -0.016141 -0.21482183
000230 93 d5 ec bd 62 4b da be 6d 12 5c be 24 a5 6f bf
       -0.115641735 -0.42635638 -0.21491404 -0.9361136
000240 94 55 a3 be 09 c3 ae bd c7 fb 39 bf af 3b e4 be
       -0.31901228 -0.08533294 -0.72649807 -0.44576785
000250 c2 16 0d be 70 06 49 be 0f ee 3b bc 2b c7 de be
       -0.13778213 -0.19631362 -0.011470332 -0.43511328
000260 eb 3f 88 be a5 68 00 be 84 81 ff be f7 77 b4 be
       -0.26611266 -0.12539919 -0.499035 -0.35247776
000270 f8 df 17 be 2b cc 21 be 32 a1 c0 bd 58 e4 2e be
       -0.14831531 -0.1580054 -0.094057456 -0.17079294
000280 2c e0 a7 be 50 4c 89 be 6e ff 72 bd 9b 0e 50 bf
       -0.32788217 -0.26816034 -0.059325628 -0.81272286
000290 e3 07 5f 3d b2 ba fe bd 58 41 b5 3c 5e 6e 0d be
       0.05445088 -0.12437953 0.022125885 -0.13811633
0002a0 4e 5d 06 3e f6 b7 c1 be c2 95 ca be 42 bf 6f be
       0.1312153 -0.37835664 -0.3956738 -0.23412803
0002b0 d2 5d 50 be 0a 1c ad bd 22 8d b7 be c0 51 63 bf
       -0.2034829 -0.08452614 -0.35849863 -0.88796616
0002c0 aa f7 fc be 01 fd 06 be c4 40 10 be 74 f5 5c bf
       -0.49407703 -0.13182451 -0.14087206 -0.8631203
0002d0 e5 aa e8 3b 84 0d be be 84 57 a8 be 70 7f a6 be
       0.0071004503 -0.37119687 -0.3287927 -0.32519102
0002e0 3f 86 14 bf 3e 60 3a bf 43 28 e1 be 9b 24 82 bc
       -0.58017343 -0.72803104 -0.4397603 -0.015886595
0002f0 41 29 46 be fa a6 c1 3d 40 18 29 be dd dd d5 bd
       -0.19351675 0.094556764 -0.16513157 -0.10442708
000300 2c f4 d4 bd 35 e8 f9 bd e7 ab 93 be 8b e4 2f bd
       -0.103981346 -0.12202493 -0.2884209 -0.042942565
000310 d3 ae 2f be 48 ca 44 be 8c 7e cd bd f0 ce 10 3e
       -0.17156534 -0.19217789 -0.100339025 0.1414144
000320 58 36 17 bf 6a d2 89 3d a3 69 82 be 80 1f aa 3d
       -0.59067297 0.067295864 -0.2547122 0.083067894
000330 4d 84 5c be 65 4f fa bd 20 d4 29 bd 4a 10 3f be
       -0.21534844 -0.122221746 -0.041462064 -0.18658558
000340 71 ed 37 bc 4c b0 6a be 21 6c de 3d 7d 8e a9 be
       -0.011226044 -0.22918814 0.10860468 -0.33116522
000350 44 52 d2 be 80 0e 87 be 6d cf 2b bf 1f df aa bd
       -0.4107839 -0.2637825 -0.6711338 -0.08343338
000360 8f 81 e5 3c a6 23 35 bf f2 2d 6b be 36 8f b7 bd
       0.02801588 -0.7075752 -0.22966745 -0.08962862
000370 ac ba 2e bd d9 cc bc bd 07 fb a4 be 3f 6c e4 bd
       -0.042658493 -0.09218759 -0.3222277 -0.11153459
000380 18 0c 15 be f9 21 a0 bc b4 2b 86 be 57 a4 0b be
       -0.14555395 -0.01954745 -0.26205218 -0.1363691
000390 0b 46 b4 bd 73 90 f8 be 90 8b c0 be 29 f2 28 be
       -0.08802422 -0.48547706 -0.37606478 -0.16498627
0003a0 0b 1d 04 bf 77 34 6b be f2 c3 c5 be 86 c9 b9 3c
       -0.51606816 -0.22969232 -0.38626057 0.022679102
0003b0 4c ba 69 be 9c 5f 39 be bc 50 31 be 42 fc e6 be
       -0.22824973 -0.18102878 -0.17315954 -0.45114332
0003c0 c3 b6 81 be 18 1d d6 be 39 86 19 bf 9c de c9 bd
       -0.2533475 -0.41819072 -0.5997043 -0.098569125
0003d0 8f e2 44 bf 16 f5 a3 be a7 bb d8 bd a7 42 44 bf
       -0.769082 -0.32022923 -0.10582667 -0.76664203
0003e0 39 9d b3 be 9f 51 94 be fb a5 0a bf 53 2f 5f bd
       -0.3508089 -0.28968522 -0.54159516 -0.05448849
0003f0 8c e9 a9 be 6a 16 48 bf 1b cc 31 bd a0 85 08 bf
       -0.33185995 -0.781592 -0.04340754 -0.53328896

lstm.bias_hh_l0 f4 [512]
000000 7b 4a eb bc b1 e0 a7 be d3 c1 ae bd 32 49 2c bd
       -0.028722038 -0.32788613 -0.08533063 -0.042061992
000010 81 ad 83 bc 71 12 cd bc 23 62 21 be d1 6d 07 be
       -0.016073944 -0.025033208 -0.15760092 -0.13225485
000020 ac 88 28 3d 43 a5 d3 3d a3 1f f5 bd f7 32 23 be
       0.041145965 0.103342555 -0.11968925 -0.1593741
000030 e9 13 b3 bd 06 f7 48 3e ca 5a e7 bd 91 78 33 3d
       -0.08744032 0.19625482 -0.112966135 0.043816153
000040 0d 73 71 bc a0 05 30 bd f8 93 0e 3e 38 6a ce bd
       -0.014736903 -0.042974114 0.13923633 -0.10078853
000050 ed da 90 bd e1 40 c2 bd d8 18 c8 bd 90 05 fa bd
       -0.07073007 -0.09485031 -0.097703636 -0.12208092
000060 d0 17 2e be 68 d1 b6 bd 82 41 08 be 4d 21 41 bd
       -0.17001271 -0.0892666 -0.13306239 -0.0471509
000070 20 9c 00 3e f0 c4 4b be fb e4 c5 bd 4d b0 80 bd
       0.12559557 -0.19899344 -0.09662815 -0.06283627
000080 64 b9 80 3c 0c 8a e0 3b 6b 03 53 be eb a5 68 be
       0.015713401 0.006852394 -0.20606773 -0.22719543
000090 46 42 4c bd de 0f de 3c 95 83 df bd f4 70 5a 3d
       -0.04986789 0.027107175 -0.10913769 0.053330377
0000a0 1b ed f8 3d 6b 55 f2 bd 66 67 82 3d 7b 71 21 be
       0.12154599 -0.118326984 0.06367378 -0.15765946
0000b0 8a 38 b2 3d ae 29 98 3d e8 e4 19 be 98 86 a6 3c
       0.0870219 0.07429825 -0.15028727 0.020327851
0000c0 05 d5 16 bd 9a 50 c1 bd e5 33 56 3c b5 5b dc bd
       -0.036824245 -0.09439202 0.013073896 -0.10759679
0000d0 3a 97 29 bd 37 6f f0 bd a1 a0 3b be fc a0 e4 3d
       -0.041403987 -0.117399625 -0.18322994 0.11163518
0000e0 bf 14 09 3e 44 7a 2f 3d 62 3e 1d 3e af 8c 86 bd
       0.1338682 0.04284121 0.15355828 -0.06569802
0000f0 36 25 93 bb 97 c0 82 bb f8 15 65 be 3a eb fe bc
       -0.00449052 -0.0039902437 -0.22371662 -0.031118024
000100 07 38 20 be 3d d6 a8 bd bc b8 62 3d e9 7f b7 bd
       -0.15646373 -0.08243988 0.055351958 -0.08959944
000110 ed d3 db bd f6 44 10 bd 00 47 41 bd b6 b6 96 3c
       -0.10733781 -0.035222016 -0.04718685 0.01839767
000120 7b 01 09 be dc 92 c4 bd e9 26 34 bc 74 82 7a bd
       -0.13379471 -0.09598324 -0.010995605 -0.061159566
000130 e4 df bd bc c7 16 01 be 3a 71 2f be 64 eb 96 bd
       -0.023178048 -0.12606345 -0.17133036 -0.07369116
000140 ae 7c 93 bd 77 59 6f bd 72 30 aa bd 3a ef b5 bd
       -0.07201515 -0.05843493 -0.083100215 -0.088835195
000150 b1 2c 8b be f0 73 48 be d3 81 5d 3d 38 3b 0c bd
       -0.27182534 -0.19575477 0.05407889 -0.034236163
000160 90 c8 ae bd a5 b8 2a be 2f b6 2a be 87 bb 93 bc
       -0.08534348 -0.16671999 -0.1667106 -0.018033756
000170 52 fb ff bc c0 ec ba bd 34 0b 10 be 84 1e a6 bd
       -0.031247769 -0.09127188 -0.14066774 -0.08111289
000180 80 37 bb bd 1b 89 4c bd 03 c3 48 bc 00 f2 f4 bd
       -0.09141445 -0.04993544 -0.012253526 -0.1196022
000190 b0 d7 ea bb 85 d7 9b bd 7e fb 4d be 22 c6 36 3d
       -0.0071668252 -0.076094665 -0.20115468 0.044622548
0001a0 e2 09 ab bd ed a9 5f be 15 5d e5 bc f4 42 1b bd
       -0.08351494 -0.21842165 -0.027998487 -0.03790565
0001b0 a6 15 0f be 01 7c f3 bd d6 cf 2c bd 5b e7 31 be
       -0.13973102 -0.11888886 -0.042190395 -0.17373411
0001c0 40 91 28 be 67 a9 08 be a6 b0 b6 3d 72 0c 50 38
       -0.16461658 -0.13345872 0.08920412 4.9602655e-05
0001d0 a7 3c 59 3d 76 8d 42 bd 36 1c 1b be d6 a1 66 bd
       0.05303636 -0.04749819 -0.1514748 -0.056306683
0001e0 fc d7 3f bd 00 a3 5b bd 55 dd 91 bd aa 12 11 bd
       -0.046836838 -0.053622246 -0.07122294 -0.03541819
0001f0 d7 4d 30 be bf 77 ce bc 26 7f b9 bd 3e 70 17 ba
       -0.17217194 -0.025203584 -0.09057455 -0.0005776918
000200 77 2e f7 be 65 30 05 bf 39 e5 0d be b7 7f 1e be
       -0.48277637 -0.5202697 -0.13856973 -0.15478407
000210 ca d1 d3 3d 4c 0b f4 be c9 eb 31 be 6f 5a da bd
       0.103427485 -0.4766487 -0.17375101 -0.1066178
000220 ec b5 ac be 0c 68 d5 be b5 38 2e bc e3 c7 2c be
       -0.33732545 -0.41680944 -0.010633637 -0.16873126
000230 53 4e f6 bc 88 8c e7 be f5 df 6d be c4 51 6c bf
       -0.030066645 -0.45224404 -0.23229964 -0.92312264
000240 f0 d3 b2 be 42 e7 09 be 21 71 51 bf 9d 09 14 bf
       -0.3492732 -0.13467124 -0.81813246 -0.5782717
000250 56 de 93 bd 5c f0 40 be e9 c1 8e 3c eb 3b bc be
       -0.072201416 -0.1884169 0.017426448 -0.36764464
000260 71 10 7d be a7 72 11 bd ed d5 d1 be 25 c5 9a be
       -0.24713303 -0.03550973 -0.40983525 -0.30228534
000270 4e c4 35 be 96 d7 7a bd cc 84 8e bb 8e 9d 89 be
       -0.17750666 -0.061240755 -0.0043493267 -0.26878017
000280 20 51 bf be 60 ed a9 be 2e c1 1f be 7b e7 52 bf
       -0.3736658 -0.33188915 -0.15601036 -0.8238446
000290 89 1f 69 3c eb fe a9 bd 4e 81 83 bd 3c 1d 8b be
       0.01422871 -0.08300575 -0.06421147 -0.27170742
0002a0 93 1a 26 3e 2a 93 5b be e5 5b 04 bf d8 4a 22 be
       0.16221075 -0.21442857 -0.5170272 -0.15848863
0002b0 f0 ee 55 be ae 82 0f be aa a0 a8 be 34 39 7f bf
       -0.20891929 -0.14014694 -0.32935077 -0.9969666
0002c0 7c 68 da be 90 5d 96 bd 52 0a 4e be d0 f4 64 bf
       -0.4265784 -0.073420644 -0.20121124 -0.89436054
0002d0 99 93 05 be 40 ea 88 be 0a 14 8a be 57 d5 84 be
       -0.13044585 -0.2674122 -0.26968414 -0.25944015
0002e0 97 18 2b bf d8 31 5d bf d9 2e f5 be aa 4e 1b 3c
       -0.66834396 -0.8640418 -0.47887304 0.009479204
0002f0 28 45 bb be fa 79 42 3e b0 5e 00 be 19 ee 8a bd
       -0.365762 0.18991843 -0.1253612 -0.06783695
000300 ea 3f 68 bd f5 ab 19 be 1c 5d 70 be 60 4f fe 3c
       -0.05670158 -0.15007003 -0.23473018 0.031043708
000310 af 0c 5e be ba 66 bb bd 31 87 0a be d0 31 79 3d
       -0.21684526 -0.09150453 -0.13528134 0.06083852
000320 1e e5 17 bf 2b f1 2f 3d 86 33 4d be 67 68 91 3d
       -0.5933398 0.042954605 -0.20039186 0.07099991
000330 55 57 78 be 48 43 4e bc bd 43 09 be 69 aa 95 be
       -0.24252065 -0.012589283 -0.13404746 -0.29231575
000340 4c 92 01 be 00 1a 4d be 92 3e 02 3e 4f c3 b1 be
       -0.12653464 -0.2002945 0.12719181 -0.3471932
000350 2c a1 ac be 5b 97 54 be ff 27 2f bf e5 3c 47 3d
       -0.33716714 -0.20760863 -0.68420404 0.048642058
000360 fb b9 45 bd bc 0c 2b bf 2f 4c 81 be 5e df b7 bc
       -0.048273068 -0.66816306 -0.25253436 -0.022445377
000370 60 0f bd bd 4d 36 1d be 9f 16 97 be 49 80 02 be
       -0.09231448 -0.15352745 -0.29509446 -0.1274425
000380 40 63 8a be f9 9c 85 bd 64 7e 8f be 71 9a a8 bd
       -0.27028847 -0.06524081 -0.28026116 -0.08232582
000390 d9 61 96 bd 53 df f5 be f6 36 ad be 93 18 14 be
       -0.07342882 -0.48021945 -0.33830994 -0.144625
0003a0 fc 05 ec be f8 50 af be e0 bb 07 bf c4 04 5d 3d
       -0.46098316 -0.34241462 -0.5302105 0.053959623
0003b0 d7 00 b2 be 6a 94 3b be 0a 06 5c be f0 d3 d7 be
       -0.34766266 -0.18318334 -0.21486679 -0.42153883
0003c0 e3 47 21 be 68 37 ed be 37 9d 1b bf 12 72 2e be
       -0.15750079 -0.46331334 -0.60786766 -0.17035702
0003d0 cf bd 31 bf 2a 87 62 be 6f 40 85 bd 33 83 34 bf
       -0.6943025 -0.22121873 -0.0650643 -0.70512694
0003e0 fc 65 45 be 28 cc e2 be bf fc d3 be 6c ff ce bd
       -0.19277185 -0.44296384 -0.41403767 -0.101073116
0003f0 5a ba b0 be 62 4f 41 bf de a6 a4 bd 1a 9a 05 bf
       -0.34517175 -0.75511754 -0.0803964 -0.52188265

lstm.weight_ih_l1 f4 [512, 128]
000000 30 ea 9f bd 07 33 5c be 7e 26 58 be 05 fa 04 be
       -0.078083396 -0.2150384 -0.21108434 -0.12986
000010 0b 84 0a 3e 6d b9 09 3c 5c ee 89 be 45 6b 95 3b
       0.13526933 0.008406025 -0.26939666 0.0045599067
000020 6c ec a4 3e 88 0c ab 3e c2 77 86 3e 71 c4 7e bd
       0.32211626 0.33407998 0.26263243 -0.06219906
000030 81 f4 03 bd 79 d8 80 3e 66 02 0e 3e 00 fc a4 be
       -0.0322156 0.25165156 0.13868102 -0.3222351
000040 1c 1b b4 3d b2 02 ac be 2d 44 99 3e 68 76 76 3e
       0.08794233 -0.33595806 0.29934826 0.24068606
000050 fb 61 2c be 65 83 95 3e f3 29 bd bd 09 e9 23 bd
       -0.16834252 0.2920181 -0.09236517 -0.04001716
000060 49 3a 95 3e 3a 24 3c bd 76 b6 b6 3d 26 e0 da bd
       0.2914603 -0.045932986 0.089215204 -0.10687284
000070 a0 65 ca 3e df 4a 0e be cd da b0 3e 8e 7c 4e 3c
       0.3953066 -0.13895749 0.34541932 0.012602938
000080 e4 e7 86 3d 5f 01 b8 be 6b ea df 3c 89 03 b6 3c
       0.065871984 -0.35938546 0.027333459 0.022218483
000090 cf 43 93 bd 03 2d ef bc 6f fc 42 3e ce 8b 5a be
       -0.07190668 -0.029196268 0.19041608 -0.21342394
0000a0 88 eb 43 be dc 0b ad bd 72 4d a9 3e 25 d0 81 3e
       -0.19132817 -0.084495276 0.330669 0.25354114
0000b0 95 3d 69 3e 85 76 d8 bd 7f 57 cf 3d 44 11 d6 3e
       0.22777398 -0.10569481 0.101241104 0.41810048
0000c0 3b 3b b1 be 19 57 a1 3d e8 99 69 bd 76 e2 b8 be
       -0.34615502 0.07877941 -0.057031542 -0.36110276
0000d0 36 4e b0 bc 10 a1 1d be ba e7 82 bd 61 68 b0 be
       -0.021521669 -0.15393472 -0.063918546 -0.34454635
0000e0 ab b5 8d be c2 54 23 3e 84 80 ef 3d f6 b9 a8 3d
       -0.27677664 0.15950301 0.11694434 0.08238594
0000f0 6d 0e 8d be 67 4f 81 bd 9e a0 17 be 3d ab 1a 3d
       -0.27550068 -0.06313973 -0.14807364 0.03776096
000100 87 59 a2 3e bf c4 0f 3e 51 37 92 3e d4 4f 9d 3d
       0.3170893 0.14039896 0.28557828 0.07681242
000110 2a 76 ab bd be 30 2c be d7 3f 33 be 5f 3f 37 3e
       -0.083721474 -0.16815469 -0.17504822 0.17895268
000120 ee 0f 6c bd 1a 70 e1 bd e6 d9 e5 3d 6c 0d b0 3e
       -0.05763238 -0.1100771 0.112232015 0.3438524
000130 38 b8 b8 bd 21 9b 7e 3e 07 2e 1f 3e 7f 08 45 be
       -0.09019512 0.24863864 0.15544902 -0.19241522
000140 d8 e0 07 3e 21 17 03 3e 4d a3 a4 bd a4 85 44 be
       0.13269365 0.12801792 -0.0803896 -0.19191605
000150 c0 9c a9 3d ba d3 b8 bb 1a 43 c7 3e 3c 8e 9a 3d
       0.08281851 -0.005640474 0.38918382 0.0754666
000160 42 c1 b1 3d 38 4b 21 be 6b 94 17 3e 28 1d ee 3b
       0.08679439 -0.1575135 0.1480271 0.0072666593
000170 15 f7 8c bd 96 42 bd bd 60 f1 5d be 86 8c b1 be
       -0.06883065 -0.09241216 -0.21674109 -0.34677523
000180 5a 75 1f 3e 51 60 15 bc 1a 13 c1 bc 1b c5 90 3e
       0.1557211 -0.009117202 -0.023568679 0.2827538
000190 98 d7 29 bd 76 7f 38 be f0 3c 66 bc a9 e1 a3 3e
       -0.04146537 -0.18017372 -0.014052615 0.32008103
0001a0 ca 15 17 3e c8 af 99 3e 09 ca e7 bd 6f b0 bc bd
       0.14754406 0.30016923 -0.11317832 -0.092133395
0001b0 3b e1 01 bd 36 c3 00 3e 6b b2 be bd 0e 1b e6 ba
       -0.031708937 0.12574467 -0.09311374 -0.001755567
0001c0 1b ae 43 3d b1 bf 24 3d 17 b1 f9 bc b4 8c 51 3d
       0.04777346 0.040221874 -0.03047995 0.051159576
0001d0 c6 aa 0a 3f 47 c9 ab 3d e1 8b 7f bd 0b 08 ed 3c
       0.5416683 0.08388 -0.06238926 0.0289345
0001e0 af 55 da 3d 4f 9b 9d 3c 6a e2 4f 3d e1 77 04 be
       0.10660874 0.019239096 0.050753035 -0.12936355
0001f0 6d d9 23 be b2 65 0b bf a0 b7 4e 3e 4f 75 7c 3e
       -0.1600091 -0.5445205 0.20187235 0.24654125
000200 c2 48 94 3d a1 86 1c be 89 f9 fe bd f2 9c 83 bd
       0.0724044 -0.15285732 -0.12449939 -0.06426419
000210 ef ae e2 3c 83 72 0f 3d 47 e2 34 bd 92 aa 6c 3d
       0.027671305 0.035021316 -0.044161107 0.057779856
000220 33 80 56 3d 11 99 8a 3d 00 d4 ed 3d c8 a0 58 be
       0.052368354 0.06767476 0.116127014 -0.21155083
000230 3d ba 99 bd 9e b3 62 3e 4b 20 c5 3d 25 1a a4 bc
       -0.07506225 0.22138831 0.096253 -0.020031998
000240 75 33 6a be ed da a8 bd 31 0b d4 3e 5f 18 47 3e
       -0.22871192 -0.08244882 0.41414788 0.1944289
000250 5f 68 73 3d ed a0 3f 3e 5d 56 b5 bb e7 13 a5 be
       0.059425708 0.18713732 -0.005533977 -0.32241747
000260 c1 96 7e 3e 14 13 35 bd fe ec de 3d 19 7c b3 bd
       0.24862196 -0.044207647 0.108850464 -0.08763904
000270 72 fb 3e 3c 3f 7b 39 3e b6 48 15 3d 59 3e 93 bd
       0.011656629 0.18113421 0.036446296 -0.07189626
000280 2b 94 84 3d e8 87 85 bd 83 48 80 bd d3 90 eb 3c
       0.06473573 -0.06520063 -0.062638305 0.028755581
000290 c3 1c 1b 3e a0 c0 ca bd 61 85 11 3d 1a f9 6d bc
       0.1514769 -0.099000216 0.03552759 -0.0145247225
0002a0 8a 00 d8 bd 6f b7 7b 3d 2f 97 ba 3b a3 87 0e bc
       -0.10546978 0.061454233 0.005694292 -0.0086993305
0002b0 a4 9f 28 3e 12 dd ea bd 9e 06 d9 bd 82 5c 6d 3e
       0.16467148 -0.11467947 -0.10596965 0.2317982
0002c0 01 c3 89 3d 14 7d ce 3d 24 4d 3a 3e 69 05 db bd
       0.06726647 0.100824505 0.1819349 -0.10694391
0002d0 3e 92 18 bd 3e 91 42 bd 8d bb 89 3d f1 08 70 bd
       -0.037248842 -0.047501795 0.067252256 -0.058602277
0002e0 5f ec 18 bd 0a 49 40 be d2 5e 6a bd b0 b5 14 3e
       -0.037334796 -0.18777862 -0.057219334 0.14522433
0002f0 6c 9b 3e bd 23 37 8e 3c 0d 9f 79 3d a3 fe af bb
       -0.04653494 0.017360276 0.0609427 -0.0053709312
000300 0f bc a1 bd 0c 83 16 3c 60 c6 5d 3d 81 8c 8a 3e
       -0.078971975 0.009186517 0.054144263 0.2706032
000310 71 ba 12 bd 6f eb 2c be a8 96 92 3d 96 94 0e 3e
       -0.035822336 -0.16886686 0.07157642 0.13923869
000320 3d d2 9a bd d2 2f 8e bd b4 3a a5 be b4 c2 0d 3e
       -0.07559631 -0.06942715 -0.3227135 0.13843805
000330 4e d3 16 3d df 79 bc 3c 6b 71 c1 3d 91 b5 58 bc
       0.03682261 0.023007331 0.09445461 -0.013226883
000340 cc 9c 90 bc 04 48 3c 3e 74 77 c0 bc 56 a4 1c be
       -0.017652892 0.18386847 -0.02349446 -0.15297064
000350 b6 d7 96 3d 85 15 bc bc 8f 79 99 3c 87 9b f5 bd
       0.07365362 -0.02295948 0.018734721 -0.11992555
000360 f0 23 d2 3d ce 57 00 be 0c 93 b9 3d de 4e 37 3d
       0.10260761 -0.12533495 0.0906125 0.044752948
000370 cf ca 18 be e6 f9 ef bc d9 14 1c be 3d c2 bf 3d
       -0.14921115 -0.029293966 -0.15242328 0.0936322
000380 78 a9 db 3a cb c2 5f bd fe 5a ad bb 31 c2 f9 3d
       0.001675888 -0.05462913 -0.005290388 0.12195242
000390 1b 9a c3 bd 17 e1 6d be 72 4c 8b 3c 62 54 e4 bc
       -0.09550878 -0.23230396 0.017004225 -0.027872268
0003a0 d1 5a 18 3e 94 73 2e be e9 da c3 bc 30 35 81 bd
       0.14878394 -0.17036277 -0.023908095 -0.06308973
0003b0 07 97 44 bd 36 4b 41 bd ff 84 3a bd 91 1e 2c be
       -0.047995593 -0.047190867 -0.04553699 -0.16808535
0003c0 43 aa bf bd 82 fc d2 3d 07 d4 04 be eb 15 48 be
       -0.09358647 0.10302068 -0.12971507 -0.19539611
0003d0 ef 12 6b 3e 80 53 0c bd ce c2 fe 3d 37 cc 12 bd
       0.22956441 -0.03425932 0.124395 -0.035839286
0003e0 03 4c 15 3e 1b 97 29 bd f4 80 c6 3d 6e d3 11 be
       0.14579777 -0.04140387 0.096925646 -0.1424081
0003f0 07 45 1b 3d 26 91 0f bd a5 1c 49 bd ad 02 c3 bd
       0.037907626 -0.035050534 -0.049099583 -0.09521995

lstm.weight_hh_l1 f4 [512, 128]
000000 0e 7c 09 3d 8d 93 64 3d d0 68 d5 be 68 13 2d 3d
       0.033565573 0.055804778 -0.41681528 0.042254835
000010 8d 29 96 bb 1e 00 0f be 68 f0 e1 bc 8c ad e6 3d
       -0.00458259 -0.13964888 -0.027580455 0.1126357
000020 5c a8 de 3d 59 59 b8 3d 5c ea 15 bd f3 db b8 be
       0.10871956 0.09001417 -0.036600456 -0.36105308
000030 92 77 7d bd e2 02 35 3e bb 95 37 be d8 39 3c bb
       -0.06188161 0.17676881 -0.17928211 -0.0028721
000040 13 a1 30 be d2 00 9c 3e 7d 84 a7 be 29 e1 96 be
       -0.17248945 0.30469376 -0.32718268 -0.2946866
000050 a3 b7 1f 3e 65 73 d8 3e 2d 5c d5 bc 63 43 22 be
       0.15597396 0.4227554 -0.02604493 -0.15846018
000060 b5 3e 9f 3c 1b 66 16 bd f9 9e a5 be e3 43 82 3e
       0.01943908 -0.03671847 -0.3234785 0.25442418
000070 a6 f8 85 3e 1a 62 6a be 58 d5 83 3e b3 99 b6 3d
       0.26166266 -0.22888985 0.25748706 0.089160345
000080 8b cb c7 bd 0b 88 ad 3d 3b 77 b8 be 6a 10 1c be
       -0.097556196 0.08473214 -0.36028466 -0.15240636
000090 eb 6e d0 3d 03 de 98 3c 0f 90 bf 3e 7d 21 ce ba
       0.10177406 0.018660551 0.37414595 -0.0015726533
0000a0 2c 43 a5 3e 37 29 64 3e 5e ce 32 3e 84 ae 9c 3d
       0.3227781 0.22281347 0.17461535 0.07650474
0000b0 be b7 89 be be 62 aa bd 05 89 fc 3c 24 58 ea 3d
       -0.26897997 -0.08319615 0.030827055 0.11442593
0000c0 99 3d a8 3e 0a 32 30 bd 14 6f 1a 3e 87 81 85 be
       0.32859495 -0.04301647 0.15081435 -0.26075384
0000d0 82 06 5c 3e 98 8c bd 3c 62 3b 5e 3e 00 f8 b1 3e
       0.21486858 0.02313833 0.2170234 0.3475952
0000e0 67 41 a7 3e 1d c6 af 3e df c7 13 3e 04 55 39 be
       0.32667086 0.34330836 0.14431714 -0.18098837
0000f0 2c 42 0b be a3 c5 3a be f5 a9 be 3e 94 90 37 be
       -0.13599461 -0.18239455 0.37239042 -0.17926246
000100 27 62 09 bd 7a d7 22 be a9 23 a3 3e 00 f0 c0 3d
       -0.03354087 -0.1590251 0.31863144 0.09420776
000110 f9 82 86 3d 23 f3 a5 3c d3 88 c4 bd f1 b6 73 3d
       0.0656795 0.020257538 -0.0959641 0.05950064
000120 d3 89 b9 bc 11 83 0e be 05 f7 19 3e 23 8c 5e 3e
       -0.022648728 -0.13917185 0.15035637 0.21733145
000130 75 9c 0c 3e a0 9c 97 be f8 68 63 bd 25 1d ae 3e
       0.13731559 -0.29611683 -0.055520028 0.3400661
000140 3a 36 87 be 81 b6 5a 3d 30 9a 4d 3e d5 e5 ce 3e
       -0.2640856 0.053396706 0.20078349 0.40409723
000150 df 07 b5 bd 2d d4 70 be 64 5b aa 3e 43 78 3c 3e
       -0.08839392 -0.23518439 0.3327285 0.18405251
000160 47 c2 33 3d ec ca 2a be 9a be 38 3e f9 65 17 3e
       0.04388645 -0.16678971 0.18041459 0.14784993
000170 53 87 ce bd 11 39 e8 be 32 f4 f8 bc 5e f8 c2 be
       -0.10084405 -0.45356038 -0.030389879 -0.38080114
000180 8b cc 22 3d de 16 b8 bd c5 11 cc 3c 29 15 84 bd
       0.03974585 -0.089887366 0.024910817 -0.064493485
000190 1d 77 9d 3b 38 86 ae 3e 56 8c ac ba 7b 19 0a 3e
       0.004805459 0.34086776 -0.0013164382 0.13486283
0001a0 4f fd fe bd db 55 a7 be 7d dd 9d bc 9d 3f ee 3e
       -0.124506585 -0.3268269 -0.019270653 0.46532908
0001b0 2b 0f 9d 3e af 3c 96 3d 45 7b 79 bd 00 06 37 bd
       0.30675635 0.07335793 -0.060908575 -0.044683456
0001c0 03 25 bf bd f0 a0 83 3e e5 50 b0 3e a9 74 aa 3c
       -0.09333231 0.25708723 0.34436718 0.020807581
0001d0 b8 da 64 be 90 0e 11 3e 8a 60 21 3e 0c 6e 55 3d
       -0.2234906 0.14165711 0.15759483 0.052106902
0001e0 4a d5 ee 3d c1 8f e4 3d fc a6 b6 be 4c d2 00 3d
       0.116617754 0.111602314 -0.35674274 0.031450555
0001f0 90 02 92 3e 0a 9e a5 be f2 f4 19 3e 6d 61 63 be
       0.2851758 -0.32347137 0.15034845 -0.22205134
000200 22 41 9f bd 22 17 15 3e 5d be db be 1a b0 58 3e
       -0.07776095 0.14559606 -0.42918673 0.21160927
000210 d4 2a 0f 3e 19 75 b7 bd 1f 99 ec bd 62 85 d9 bd
       0.13981181 -0.089578815 -0.11552643 -0.10621144
000220 da a2 65 3e a4 cf 80 bd 3f 09 d3 3d 02 ef 2a be
       0.22425404 -0.06289604 0.10304498 -0.16692737
000230 68 fe 26 3d 69 67 0d 3e db 79 17 be 3a 60 25 bd
       0.040769964 0.13808979 -0.14792578 -0.040374972
000240 b2 b5 49 bd 44 79 e4 3e 54 1e 04 bf a5 c1 99 be
       -0.049245544 0.44623768 -0.5160878 -0.30030552
000250 b9 9d 0b 3d 2e 54 b8 3e f9 92 0d bd 0a 07 5a be
       0.034085963 0.36001724 -0.034563992 -0.21291748
000260 c7 32 55 bd f8 98 98 3d 38 76 ed be ad ad a9 3e
       -0.05205038 0.074510515 -0.46379256 0.33140317
000270 22 77 64 3e 8c be 22 be f8 27 0b 3e d9 3d 5f bc
       0.2231107 -0.15893 0.13589466 -0.0136255855
000280 8d a4 87 3c 3a 9c d2 3b 15 86 c1 be d5 d7 83 be
       0.016557956 0.006427315 -0.3779761 -0.25750604
000290 09 7e 83 3d d8 cd 0c 3e f9 df 9f 3e bd 82 b2 bd
       0.06420524 0.13750398 0.31225565 -0.087163426
0002a0 1b 86 b4 3e 2e 0e 98 3d d2 a7 09 3e 4d a4 a2 bc
       0.35258564 0.074245796 0.13442925 -0.019853735
0002b0 90 42 ec be ce 16 4e bd fa 95 e4 bc 72 26 dc 3d
       -0.46144533 -0.050314717 -0.027903546 0.1074952
0002c0 8e 4e 9e 3e d4 13 8f bd 35 a7 c1 3d 77 75 75 be
       0.30919307 -0.06986204 0.0945572 -0.2397059
0002d0 d4 40 bc 3e 09 19 d0 3c 3e 4a d4 3d fa 75 e7 3e
       0.3676821 0.025402563 0.10365723 0.45207196
0002e0 8b ad ce 3e 30 7e a6 3e e2 37 17 bc 08 ef 53 be
       0.40366778 0.32518148 -0.009229632 -0.20696652
0002f0 85 5a 14 be f8 4b 05 be 26 c1 b7 3e 1a db 7d be
       -0.14487655 -0.13017261 0.35889548 -0.24790612
000300 ca 8f fb 3c 53 99 13 be 5e 5e c4 3e 3b c1 6e 3d
       0.030708212 -0.14413957 0.38353246 0.058289748
000310 fc 86 c7 bc b0 6b c9 bb 18 94 2e 3d e0 54 0a bc
       -0.024356358 -0.0061468706 0.042621702 -0.008443087
000320 44 49 ee bd 99 00 19 3d d5 74 b4 bd 6a 49 aa 3e
       -0.11635068 0.037354086 -0.088113464 0.33259135
000330 77 c0 ad 3d d1 02 32 bd d2 b2 74 3c ac 08 9a 3e
       0.084839754 -0.043459717 0.014935212 0.3008474
000340 09 96 b9 be 6d 43 25 3e 05 e4 8a 3e 94 ba 9e 3e
       -0.3624728 0.16139002 0.2712709 0.31001723
000350 be c8 80 bd e1 9d 3e be 31 75 d9 3e 9e e3 af 3e
       -0.062882885 -0.18614914 0.42472222 0.34353346
000360 af 4a 26 3e bd 90 8e be ac a7 67 3e 9f ad 27 3e
       0.16239427 -0.27844802 0.22622555 0.16374825
000370 74 86 0a be d9 81 ba be 43 3f ba bc 84 f6 ed be
       -0.13527852 -0.3642719 -0.022735244 -0.4647714
000380 12 fb 13 be 23 9a 3f bd 1e 18 b9 3c 8f dc 2a be
       -0.14451244 -0.046777856 0.022594508 -0.16685699
000390 a2 bf 0a 3e 5b 2e bb 3e 2d 5a 09 be 1c 0d 32 3e
       0.13549665 0.36558804 -0.13413306 0.17387813
0003a0 6b 81 f4 bd dc 8a e5 be a3 ad 98 3c 61 60 c9 3e
       -0.11938747 -0.44832504 0.018637484 0.39331344
0003b0 b7 d7 6b 3e 39 c7 55 bd a5 be 17 bd aa 32 6a bc
       0.23031507 -0.052191947 -0.037047047 -0.014294306
0003c0 a6 2e 49 be 8f 79 42 3e d8 bd c6 3e 7f 9a ab bd
       -0.19646701 0.18991683 0.38816714 -0.08379077
0003d0 0d c9 ed bd 16 04 2c bc 80 89 4e bd dd 3a 29 be
       -0.11610613 -0.010499021 -0.0504241 -0.16526361
0003e0 29 df 4f 3e 2e 98 47 3e 00 51 9b bd 07 38 40 3e
       0.20299973 0.19491646 -0.07583809 0.18771373
0003f0 4a c5 ce 3e 85 6f ab be 93 b9 37 3d 70 3c ad be
       0.40384895 -0.3348352 0.04485471 -0.33835173

lstm.bias_ih_l1 f4 [512]
000000 f0 ac 7c be ec ff 9f be 9d 9d 21 3d c4 87 cd be
       -0.24675345 -0.3124994 0.039456952 -0.40142643
000010 88 62 37 be 66 c6 a2 be 72 65 a5 be de 8f 61 be
       -0.1790868 -0.3179199 -0.3230396 -0.22027537
000020 5e af 8f be d1 c6 4b be 2c 54 92 be 66 fe 18 be
       -0.28063482 -0.19900061 -0.28579843 -0.14940795
000030 86 3b 36 be 3a 27 8e be a4 1a a9 be 03 84 7a be
       -0.17796144 -0.27764302 -0.33028138 -0.24464421
000040 53 34 c7 3c 29 e4 c0 bc ec 84 80 3e b5 d2 a5 be
       0.024316942 -0.023546295 0.2510141 -0.3238732
000050 af 74 15 3d cf 96 42 be 01 bc 8c be 90 4e ae be
       0.03648823 -0.19002841 -0.27487186 -0.34044313
000060 45 80 6b be 84 ca 58 be 8d 78 c7 3d a1 5f 8c be
       -0.2299815 -0.21171004 0.0973979 -0.2741671
000070 b4 51 8c be d8 54 a0 be 79 96 c3 be 3b 9e 94 be
       -0.27406085 -0.3131473 -0.3820074 -0.2902697
000080 8a 87 31 be 0c bd bb be 3e 0f 33 3e 4c 12 89 be
       -0.1733686 -0.3666767 0.17486283 -0.26771772
000090 51 fd c9 be 46 91 a7 be 3c 7f e4 be 71 d7 13 bb
       -0.39451078 -0.32728022 -0.44628322 -0.0022558833
0000a0 03 8e 12 be c7 03 a9 be c5 34 d9 bd 39 11 91 be
       -0.14311986 -0.33010694 -0.10605768 -0.28333452
0000b0 5f 98 29 3e 45 65 9c be 03 8f b2 be c4 b8 9b be
       0.16562031 -0.30546013 -0.34874734 -0.30414402
0000c0 b5 26 00 3e 10 55 60 be 17 56 4d be a1 48 84 be
       0.12514766 -0.21907449 -0.20052372 -0.2583666
0000d0 6d e2 0b be 6a 4e 2b be 65 e9 5d bd 03 de 52 3e
       -0.13660593 -0.16729131 -0.05417766 0.20592503
0000e0 0f 09 31 3e 99 aa 97 bd 32 3e c0 be 7f 43 6f be
       0.17288612 -0.07405586 -0.3754745 -0.23365591
0000f0 9a 19 37 be 23 9d 9b be cc c8 1c 3d 34 af 91 be
       -0.1788086 -0.30393323 0.038277432 -0.28453982
000100 f4 a6 b4 be c8 8f bd be 95 5f 81 be bc da 55 be
       -0.35283625 -0.3702376 -0.25268236 -0.20884222
000110 c0 41 8c be ee a4 34 be f8 02 89 be e2 3e a0 be
       -0.27393913 -0.1764104 -0.26760077 -0.31297976
000120 1f ad 96 be c7 f4 92 be bb a7 55 be 3c ca a6 be
       -0.29428956 -0.28702375 -0.20864765 -0.32576168
000130 15 3e 70 be 5a 80 19 bd 49 de 69 be 2c b9 84 3c
       -0.23461182 -0.03747592 -0.22838701 0.016201578
000140 0a 8e b6 3b 82 19 9b be 92 c7 7e be 44 09 4f be
       0.0055711316 -0.30292898 -0.24880818 -0.20218378
000150 42 c1 4e be bc 0e 8e be 42 ac 03 3e 4a 71 b8 be
       -0.2019091 -0.27745616 0.1285868 -0.36023933
000160 68 44 8b be 24 f6 c7 be bf d5 4e be ee 4d a5 3d
       -0.27200627 -0.39054978 -0.20198725 0.080715045
000170 5d 35 fe bd 60 ed c2 3c 3b b5 8f be e1 61 fa 3b
       -0.12412522 0.02379483 -0.28067955 0.0076410626
000180 5a c1 1c be 58 e4 21 3d 12 21 64 be b9 43 b8 be
       -0.15308133 0.039524406 -0.2227824 -0.35989168
000190 cb 95 89 be 33 71 1e 3d 27 e2 c7 bd eb 10 45 bd
       -0.26872095 0.038682174 -0.09759932 -0.048111837
0001a0 8d f3 e6 bd 2b 50 60 3d 61 5d 91 be 6d e1 37 3e
       -0.112769224 0.054763954 -0.28391555 0.17957087
0001b0 bc 39 94 be e1 a0 60 be 44 a8 6f be d0 c3 ac be
       -0.28950298 -0.2193637 -0.23404032 -0.33743143
0001c0 6b 20 88 be f1 af 8c be 30 03 97 3e 84 1a d9 be
       -0.26587233 -0.27477983 0.2949462 -0.42403042
0001d0 49 7c b4 be 14 62 9a be d2 24 64 be 7d 84 92 be
       -0.35251072 -0.30152953 -0.22279671 -0.28616706
0001e0 b8 e7 03 be b4 8c b5 be 0d 68 41 be 41 06 b0 be
       -0.12881362 -0.3545891 -0.18887348 -0.3437977
0001f0 25 95 81 3e 66 40 59 be fa b8 51 be 21 e3 a5 be
       0.253091 -0.21215972 -0.20480719 -0.32399848
000200 2e cd 0d be 87 67 81 be 47 81 9b 3a 22 60 7c be
       -0.13847801 -0.25274298 0.0011864089 -0.24646047
000210 e3 47 c5 3d 1d 52 e1 be d3 ac 74 be eb ef cb be
       0.09632852 -0.4400796 -0.23894052 -0.3983148
000220 14 84 4f be cf fd 55 bd 68 39 de bd f1 8a 09 bd
       -0.20265228 -0.052244004 -0.10850793 -0.03357977
000230 c1 09 34 be ab 42 d4 be 78 53 d9 bd 5a 08 7f be
       -0.17581846 -0.41457114 -0.106116235 -0.2490553
000240 53 d1 cc 3d be 6b c3 bc 2e 04 3c 3e 7d 42 b0 be
       0.10000863 -0.023855086 0.1836097 -0.34425727
000250 47 09 05 3e 7e ae 9f 3d be 6e 21 be 93 b3 c1 be
       0.1299182 0.077969536 -0.15764901 -0.37832317
000260 0c 58 07 be 10 30 e0 be 60 c2 75 3e 68 fd af be
       -0.13217181 -0.4378667 0.2399993 -0.3437302
000270 f6 1a d0 be 8d 8d 8c be 37 62 de be 70 02 67 be
       -0.4064557 -0.27451745 -0.43434307 -0.22559524
000280 9c 26 d6 be fc 81 3b be 7f 24 b9 3d 5a c3 cc be
       -0.41826332 -0.18311304 0.09040164 -0.3999279
000290 fd 2c 9d be 0f 39 ed be 8f d2 89 be a3 d8 e8 bc
       -0.30698386 -0.46332595 -0.26918456 -0.028423613
0002a0 fe ba 8d be 27 85 9f 3d 48 01 55 bc f4 26 84 be
       -0.27681726 0.07789069 -0.013000794 -0.2581097
0002b0 00 46 12 3e b0 79 1d bd 1f 8b c5 be c8 b7 9b be
       0.14284515 -0.03844613 -0.38582703 -0.3041365
0002c0 5f 04 85 3d 9e 9d b2 be 15 d7 3f bb 19 70 d5 be
       0.06494974 -0.34885877 -0.0029272486 -0.41687086
0002d0 7e 89 3d be 4a f6 50 bd d2 20 b3 bd 79 0f 87 3e
       -0.1850948 -0.05101613 -0.08746494 0.26378992
0002e0 c2 bd e1 bc ae 3b 3a 3e b3 da d2 be 59 55 b6 be
       -0.027556304 0.18186828 -0.4118248 -0.3561199
0002f0 ce ef 3a 3c bb f4 8e be 40 93 80 bd 07 89 e2 be
       0.011409713 -0.2792109 -0.06278086 -0.4424517
000300 3d c9 b1 be a2 46 b6 be b1 1a a6 bd 17 26 b7 be
       -0.34723845 -0.35600764 -0.0811056 -0.35771248
000310 a4 f3 ac be 86 fe 0d be b1 74 7b bd f8 5e b7 be
       -0.33779633 -0.13866624 -0.061390582 -0.35814643
000320 e5 3d 8f be 3b 16 3d be 36 84 9d bd 23 ab 49 be
       -0.2797691 -0.18465512 -0.07691233 -0.1969419
000330 7a 7e 74 be 9b 4e a5 bd 4c f6 6f be 9f d5 fb 3d
       -0.23876372 -0.080716334 -0.23433799 0.12296604
000340 56 25 92 be c2 82 9a be 36 74 cc be c0 88 cf be
       -0.2854411 -0.30177885 -0.39932412 -0.4053402
000350 33 7d 07 3d 89 33 3b be c1 95 c8 3d cb 11 ca be
       0.033078384 -0.18281378 0.09794188 -0.394667
000360 9c 29 6d be d6 2c e7 be b4 7b 94 be b1 7d 99 3e
       -0.23160404 -0.45151395 -0.29000628 0.29978707
000370 99 b7 b8 3b 5a 27 5e be 5a 33 c7 be 91 e3 ce bd
       0.005637121 -0.21694699 -0.38906366 -0.101019986
000380 18 76 5f be e9 41 10 3e d1 52 99 bd 8c d0 a9 be
       -0.21822393 0.14087643 -0.07486499 -0.3316692
000390 82 07 ab be 47 da 84 3e 5d 3e 8d be de 5b ea bd
       -0.33404166 0.25947782 -0.27586642 -0.114433035
0003a0 d7 ec 78 be a4 b0 35 3e 94 ad 39 be 04 ae 6f 3e
       -0.24309097 0.17743164 -0.18132621 0.23406225
0003b0 39 5a 3b be eb f0 c7 be a9 92 48 be 68 14 cb be
       -0.18296136 -0.39050993 -0.19587196 -0.39664006
0003c0 c3 7d ea be 97 e0 8e be 05 c9 5f 3e 93 a7 0c be
       -0.45799074 -0.27905723 0.21854027 -0.137358
0003d0 a0 fe fc be 6a 64 f5 bd de 11 4d bd db 78 31 be
       -0.49413013 -0.11982043 -0.050065868 -0.17331259
0003e0 ac b5 95 be 69 d2 96 be 71 72 1c be 29 3f 88 be
       -0.29240167 -0.29457405 -0.15278031 -0.26610687
0003f0 fd 88 37 3e d3 3b b7 be 2c b8 78 be 9b 64 b6 be
       0.1792335 -0.3578783 -0.24289006 -0.3562363
