models/EURCAD_model.pth (torch, 843660 bytes, 15 tensors)

lstm.weight_ih_l0 f4 [512, 12]
0	0x3a05796b	0.000509164
1	0x3a0a155a	0.0005267464
2	0x3a071ce7	0.0005154148
3	0x3a0abd02	0.00052924466
4	0x3923db61	0.00015626616
5	0x3a020c82	0.000496097
6	0x39f7da6f	0.00047274257
7	0x398f6805	0.00027352586
8	0x38457545	4.7077676e-05
9	0x39e1bd1f	0.0004305625
10	0x39dcc991	0.0004211185
11	0x39bcfbf0	0.00036045862
12	0xb8863386	-6.399215e-05
13	0xb781f024	-1.5489823e-05
14	0xb8855158	-6.357086e-05
15	0xb80582ac	-3.183137e-05
16	0x39690fe8	0.00022226537
17	0xb8ada71c	-8.2804094e-05
18	0xb8e64ff8	-0.0001098215
19	0x379c1d2c	1.8610233e-05
20	0x395ed62c	0.00021251355
21	0x390940d0	0.00013089483
22	0xb6c038a4	-5.7286397e-06
23	0x3894a137	7.0872185e-05
24	0xb86f8666	-5.710721e-05
25	0xb879c36c	-5.9548227e-05
26	0xb844703c	-4.6834568e-05
27	0xb850bca0	-4.9766735e-05
28	0xb913bd3d	-0.00014089509
29	0xb82e7122	-4.1590196e-05
30	0xb8049f82	-3.1619806e-05
31	0x38d050d5	9.933269e-05
32	0xb912883f	-0.000139744
33	0xb8c4c83f	-9.383307e-05
34	0xb7df0a84	-2.6588568e-05
35	0xb851d0e2	-5.002402e-05
36	0x38ee7330	0.0001137018
37	0x38fe819c	0.000121358054
38	0x38f06d88	0.000114644936
39	0x38fe009e	0.00012111779
40	0x38d07926	9.9407785e-05
41	0x38e7bdc9	0.000110502886
42	0x38e80bc6	0.00011064815
43	0x388690e2	6.4166044e-05
44	0x38b87d46	8.797138e-05
45	0x385b3ff0	5.2273215e-05
46	0x38a2f7b1	7.770898e-05
47	0x38867909	6.4121625e-05
48	0x3930c3be	0.00016857588
49	0x39318670	0.00016930117
50	0x39315f83	0.00016915616
51	0x3933429b	0.00017095583
52	0x3718e378	9.112868e-06
53	0x393045af	0.00016810627
54	0x39339847	0.00017127498
55	0x39039b96	0.00012551094
56	0x370a1048	8.229232e-06
57	0x387c5605	6.0161594e-05
58	0x38a1c487	7.713684e-05
59	0x38a93866	8.069053e-05
60	0x393e966e	0.00018175851
61	0x394691ef	0.00018937116
62	0x394677f8	0.00018927443
63	0x394a85c7	0.00019314057
64	0xb723e4e0	-9.768846e-06
65	0x39429ae2	0.0001855898
66	0x39530415	0.00020124049
67	0xb94583dc	-0.00018836505
68	0xb80f7948	-3.420681e-05
69	0xb909206e	-0.00013077419
70	0xb8bdaaaa	-9.044011e-05
71	0xb9030de4	-0.00012498308
72	0x3a09b24e	0.0005252705
73	0x3a09f517	0.00052626565
74	0x3a0bcff3	0.0005333416
75	0x3a0bb4e3	0.00053293834
76	0x3a21a0c1	0.0006165617
77	0x3a077b2b	0.0005168195
78	0x3a0b3764	0.0005310683
79	0x3a15434b	0.00056939264
80	0x3999db90	0.0002934602
81	0x39ffac97	0.0004876598
82	0x39dbf7c4	0.00041955535
83	0x398c2e18	0.00026737223
84	0x38dc3e64	0.00010502039
85	0x38f5ed94	0.00011726763
86	0x38e36d82	0.00010844601
87	0x38f198ec	0.000115202594
88	0x394bd898	0.00019440276
89	0x38e36574	0.000108431006
90	0x38f73290	0.00011787296
91	0xb91cdd74	-0.00014959817
92	0x3956a23c	0.00020469067
93	0xb79f9d29	-1.902746e-05
94	0xb7af090c	-2.0865838e-05
95	0xb6abe3c8	-5.1227144e-06
96	0x3a306322	0.0006728639
97	0x3a35569b	0.0006917507
98	0x3a3d728f	0.00072268484
99	0x3a3cca58	0.00072017824
100	0x399384e1	0.00028137027
101	0x3a2b4a2e	0.0006534186
102	0x3a332205	0.00068333774
103	0x39acdb55	0.00032969812
104	0x3955e08e	0.00020396916
105	0x39907138	0.00027550175
106	0x39cb6374	0.00038793276
107	0x39698041	0.0002226839
108	0x398ab9dd	0.0002645989
109	0x398e9cfb	0.0002720131
110	0x398e0d9c	0.0002709449
111	0x398f534a	0.0002733714
112	0xb8e961b2	-0.00011128503
113	0x39887a05	0.00026030853
114	0x398ba774	0.00026636908
115	0xb8daa48b	-0.000104256986
116	0xb9074f6c	-0.0001290419
117	0xb93786ba	-0.0001750243
118	0x38a5c53e	7.904552e-05
119	0x38e4546a	0.000108876106
120	0x38525af4	5.015261e-05
121	0x385095bc	4.9730515e-05
122	0x3820f634	3.8376267e-05
123	0x383bf1b0	4.4809363e-05
124	0x39a6497a	0.00031716732
125	0x382ae07c	4.0740226e-05
126	0x383dd788	4.526184e-05
127	0x380a1a88	3.2926473e-05
128	0x3981e373	0.0002477426
129	0xb8ee0031	-0.0001134876
130	0xb705cd38	-7.975199e-06
131	0x37c27e48	2.3185406e-05
132	0x339e98a7	7.3852156e-08
133	0x33902123	6.71155e-08
134	0x33a02d2b	7.4587966e-08
135	0x33a1aca1	7.528548e-08
136	0x3313f4e4	3.444883e-08
137	0x3393d106	6.883242e-08
138	0x334dc00c	4.7904948e-08
139	0x34b83578	3.4311574e-07
140	0xb3a13176	-7.5061436e-08
141	0xb0c86500	-1.4580621e-09
142	0x3405e69a	1.2470483e-07
143	0x342251cc	1.5117183e-07
144	0x398a49f6	0.00026376516
145	0x3988e6b8	0.0002611184
146	0x39899c56	0.00026247156
147	0x398a5a51	0.00026388702
148	0x39237436	0.00015588183
149	0x3989bccb	0.00026271338
150	0x398e6972	0.00027162913
151	0x396c0714	0.0002250935
152	0x3917d507	0.00014479841
153	0x38caf098	9.676925e-05
154	0x3900a1c8	0.000122673
155	0x38fd64c0	0.00012082746
156	0x331c7a3c	3.6432752e-08
157	0x335bbca4	5.116148e-08
158	0x31618f68	3.2823326e-09
159	0x3330ab0d	4.1133763e-08
160	0x320f1ba4	8.32998e-09
161	0x3191bc68	4.2414747e-09
162	0x32817ace	1.5073422e-08
163	0x33961a70	6.989728e-08
164	0xb33b8f88	-4.366987e-08
165	0x32da19f8	2.539035e-08
166	0x3301b3e3	3.019876e-08
167	0x32f6e628	2.8742832e-08
168	0x39e3ac9b	0.00043425415
169	0x39e89ed8	0.00044368836
170	0x39e6d1ac	0.00044025236
171	0x39ecf53a	0.00045196136
172	0x398ee78a	0.0002725686
173	0x39e32f08	0.00043331855
174	0x39e7c5ce	0.0004420713
175	0x39931fcd	0.00028061718
176	0x3982951e	0.00024906633
177	0x397b3bcd	0.00023959503
178	0x395b663d	0.00020923554
179	0x390fc628	0.00013711362
180	0x39fd98ec	0.00048369856
181	0x3a038c72	0.00050181814
182	0x3a0085db	0.00049027585
183	0x3a04ad75	0.00050612475
184	0x39dbb2ae	0.00041904062
185	0x39f56f87	0.00046813136
186	0x39f05536	0.00045839854
187	0x3a04982f	0.00050580775
188	0x39d1193c	0.00039882388
189	0x3a0fcf12	0.0005485873
190	0x3a189ee6	0.00058220176
191	0x39da3d7e	0.00041626015
192	0x381b3e0e	3.7012673e-05
193	0x383e8716	4.542534e-05
194	0x38052804	3.174694e-05
195	0x38304ddc	4.2034182e-05
196	0x39454981	0.00018814766
197	0x381d4e72	3.7504775e-05
198	0x379cac36	1.8676841e-05
199	0x394ba912	0.00019422572
200	0x3983b39e	0.00025120092
201	0x39633ac4	0.00021670299
202	0x395064e6	0.00019874013
203	0x395b1bfc	0.00020895893
204	0x39097b09	0.00013111172
205	0x3908362c	0.00012990151
206	0x390b895d	0.00013307245
207	0x390b8b14	0.00013307884
208	0x38c31029	9.301335e-05
209	0x39090fc1	0.00013071207
210	0x390f0383	0.00013638851
211	0x38b7f186	8.771107e-05
212	0x38bf66c7	9.1267335e-05
213	0x38ed3823	0.00011311497
214	0x38d8ebd1	0.00010343607
215	0x3856655d	5.1115978e-05
216	0x39e6fe4d	0.00044058487
217	0x39e8205f	0.00044274607
218	0x39e99bf1	0.0004455741
219	0x39ed68be	0.00045282202
220	0x396fde39	0.000228756
221	0x39e7da25	0.00044222284
222	0x39f197cc	0.000460802
223	0x394bcff4	0.00019437057
224	0x3931f87c	0.00016972603
225	0x398a39d0	0.00026364485
226	0x399015b0	0.0002748198
227	0x38f48db6	0.000116612224
228	0xb52ba657	-6.394452e-07
229	0xb52739bd	-6.229637e-07
230	0xb52c9fca	-6.4307517e-07
231	0xb5256e27	-6.162758e-07
232	0xb516388a	-5.596163e-07
233	0xb541aad4	-7.214669e-07
234	0xb568c682	-8.67156e-07
235	0x358cd039	1.0491414e-06
236	0xb555707c	-7.951237e-07
237	0xb598cfe0	-1.1385382e-06
238	0xb4ddd720	-4.1320982e-07
239	0x346fda3c	2.2338003e-07
240	0x391fdb86	0.000152452
241	0x392bac1d	0.00016371948
242	0x3926bd23	0.00015901453
243	0x3930ce9c	0.00016861636
244	0x39aa11e9	0.0003243827
245	0x3917fe52	0.00014495224
246	0x390ad680	0.00013240613
247	0x397c272e	0.00024047188
248	0x39a139b8	0.00030751317
249	0x396db341	0.00022668859
250	0x398a9314	0.00026430993
251	0x3987a481	0.00025871772
252	0x38e14bc6	0.0001074295
253	0x38d8973e	0.00010327854
254	0x38dd8744	0.000105632964
255	0x38d85d98	0.00010317116

lstm.weight_hh_l0 f4 [512, 128]
0	0x37dc7dc6	2.6284612e-05
1	0x379463f4	1.768952e-05
2	0xb73f8bba	-1.141702e-05
3	0x3586351c	9.999235e-07
4	0x360f9e85	2.140093e-06
5	0xb695e428	-4.467107e-06
6	0x358199d8	9.656023e-07
7	0xb5afab00	-1.3088284e-06
8	0x37dc97c2	2.6296711e-05
9	0xb58c7578	-1.0465001e-06
10	0x36450220	2.9356524e-06
11	0x357ff100	9.5345604e-07
12	0x369bde92	4.6452706e-06
13	0xb4833b48	-2.4443784e-07
14	0x36a804f4	5.007367e-06
15	0x363ae339	2.784842e-06
16	0xb769aa2c	-1.39275035e-05
17	0xb3a5b300	-7.715971e-08
18	0xb5a7d19c	-1.2503474e-06
19	0x35e6995b	1.7180968e-06
20	0xb71542f0	-8.896677e-06
21	0xb665c62c	-3.423901e-06
22	0x36f62492	7.3356287e-06
23	0x36aefb5e	5.214867e-06
24	0xb75e0098	-1.3232369e-05
25	0x3416172d	1.397827e-07
26	0x34b60988	3.3907077e-07
27	0xb64e5258	-3.0744322e-06
28	0xb40850c0	-1.2695364e-07
29	0xb534d712	-6.7368194e-07
30	0x37209473	9.571307e-06
31	0x3641570e	2.8809914e-06
32	0xb665f4cd	-3.4266152e-06
33	0xb75b1e95	-1.3060538e-05
34	0xb4b90a10	-3.4466257e-07
35	0xb4f38b40	-4.5363595e-07
36	0x36a95380	5.046313e-06
37	0xb547e378	-7.446429e-07
38	0xb4c59d8f	-3.6808748e-07
39	0xb5d63924	-1.5960873e-06
40	0xb6b29f59	-5.323364e-06
41	0xb6c1d8c8	-5.777085e-06
42	0x3608897c	2.0345606e-06
43	0x359a387c	1.1490333e-06
44	0xb5a646a4	-1.2388523e-06
45	0x37b17d48	2.1158383e-05
46	0x35fb3c9c	1.8718597e-06
47	0xb561e5be	-8.415335e-07
48	0x365aa996	3.2583243e-06
49	0x37424c4b	1.1581064e-05
50	0x36caf08e	6.0480734e-06
51	0xb5f084d4	-1.7920052e-06
52	0xb692996b	-4.3689993e-06
53	0xb6a110fb	-4.8001507e-06
54	0xb4c176e0	-3.6035544e-07
55	0x36824b98	3.883102e-06
56	0x369fa134	4.757336e-06
57	0x36eabb8c	6.9955768e-06
58	0xb4cfc650	-3.8701046e-07
59	0xb704c85b	-7.914462e-06
60	0x3637203c	2.7287888e-06
61	0xb76fa702	-1.4284395e-05
62	0x382cb57d	4.117702e-05
63	0xb51010e0	-5.3668737e-07
64	0x360cd0b8	2.0983116e-06
65	0xb7d5459e	-2.5423997e-05
66	0xb46bf100	-2.1973756e-07
67	0xb74bfdf2	-1.2158869e-05
68	0xb6d647c5	-6.386052e-06
69	0xb5e3b9fa	-1.6966944e-06
70	0xb6bc487e	-5.611276e-06
71	0x3719321c	9.131178e-06
72	0xb5905a02	-1.0755032e-06
73	0xb610fcf4	-2.160491e-06
74	0x3605488a	1.9860768e-06
75	0x37bb9242	2.2360244e-05
76	0xb3a0ca40	-7.48737e-08
77	0x370676ef	8.014714e-06
78	0x32538900	1.2312967e-08
79	0x3613bcac	2.2014528e-06
80	0xb783e576	-1.5723268e-05
81	0x36ed609a	7.0743963e-06
82	0x34bd3820	3.524483e-07
83	0xb6a2b8f4	-4.8495076e-06
84	0x35c680f0	1.4789675e-06
85	0x370f337b	8.53545e-06
86	0x37f9bc6c	2.9770854e-05
87	0x36ca448c	6.028049e-06
88	0x3714e070	8.873743e-06
89	0x3813a4ac	3.5200894e-05
90	0xb51b68e0	-5.789461e-07
91	0xb6a0675d	-4.7804047e-06
92	0xb5d56930	-1.590035e-06
93	0xb7494dc8	-1.19986435e-05
94	0xb5960896	-1.117837e-06
95	0x340d3580	1.3151111e-07
96	0xb5ce1228	-1.535348e-06
97	0xb6fc5fa0	-7.5213175e-06
98	0xb423f0c0	-1.5268142e-07
99	0x3539db98	6.923742e-07
100	0xb7027bfa	-7.777469e-06
101	0xb5815fc8	-9.639125e-07
102	0x36d89999	6.4551828e-06
103	0xb5e3fa75	-1.698571e-06
104	0x34a25b18	3.024113e-07
105	0xb80e4b60	-3.3925637e-05
106	0xb5d4b048	-1.5846535e-06
107	0x35c5dfc8	1.4742773e-06
108	0x36a6fad0	4.976384e-06
109	0xb4b5b4fd	-3.3845564e-07
110	0xb4a00760	-2.9807688e-07
111	0x3691540c	4.331121e-06
112	0x36920261	4.351416e-06
113	0x36b23d46	5.3119466e-06
114	0x367a68a0	3.7313803e-06
115	0xb73e768c	-1.1352484e-05
116	0xb65ab278	-3.2588414e-06
117	0x368617be	3.996275e-06
118	0xb7489cbc	-1.19574215e-05
119	0x35d3307a	1.5734834e-06
120	0xb64bf0a9	-3.038944e-06
121	0x35856cda	9.940952e-07
122	0xb5d5c7db	-1.5927902e-06
123	0x36f571dc	7.314824e-06
124	0x36aac577	5.0893827e-06
125	0xb625f188	-2.4727506e-06
126	0xb6249870	-2.4526635e-06
127	0xb6ff77d8	-7.613544e-06
128	0x36a06e2b	4.781197e-06
129	0x366674a4	3.4340565e-06
130	0x3480be90	2.398051e-07
131	0x36381257	2.7428812e-06
132	0x360ba09e	2.0806106e-06
133	0xb515dbc8	-5.582665e-07
134	0xb7089ba2	-8.142468e-06
135	0xb68a6bc4	-4.125266e-06
136	0x369c43fc	4.6570767e-06
137	0xb6a5ddaa	-4.9431883e-06
138	0xb6149986	-2.214308e-06
139	0xb473bb2e	-2.2699234e-07
140	0x36881719	4.0558048e-06
141	0x3385bb3a	6.2273514e-08
142	0xb6e78b9d	-6.9005896e-06
143	0x36958b20	4.4567423e-06
144	0xb6087182	-2.033165e-06
145	0xb65112c1	-3.1154343e-06
146	0x36ade804	5.182812e-06
147	0xb4bc489a	-3.5070553e-07
148	0x355b29a8	8.1644475e-07
149	0xb5880956	-1.0135507e-06
150	0xb71c4d8c	-9.31638e-06
151	0xb64235d8	-2.8939594e-06
152	0x36edf74a	7.0919386e-06
153	0xb39f6263	-7.421911e-08
154	0xb5670fa9	-8.6076994e-07
155	0xb6b4c244	-5.3870335e-06
156	0x36af69f4	5.227741e-06
157	0x34628236	2.109526e-07
158	0xb6faf522	-7.479118e-06
159	0x34e59204	4.2760814e-07
160	0x34d9496a	4.0472815e-07
161	0xb5fde111	-1.8915472e-06
162	0x35f3d7a4	1.816767e-06
163	0xb6aec10f	-5.208079e-06
164	0xb6601b0e	-3.339435e-06
165	0xb668e755	-3.4705347e-06
166	0xb45bf49a	-2.048495e-07
167	0x36eb5a4c	7.0140577e-06
168	0xb663f244	-3.3966653e-06
169	0xb5dbcb08	-1.6375861e-06
170	0x3658b4fa	3.229185e-06
171	0x3620bd43	2.3952023e-06
172	0x369d586d	4.6892587e-06
173	0x3736c112	1.0892998e-05
174	0x368052b3	3.8243247e-06
175	0x33d25a26	9.795285e-08
176	0xb67c5886	-3.7602454e-06
177	0xb461fa40	-2.1045798e-07
178	0x38224562	3.8688428e-05
179	0xb7cc99d3	-2.4390325e-05
180	0x36dec800	6.6393986e-06
181	0x36fe2b75	7.574849e-06
182	0x35cc8028	1.5236483e-06
183	0x36875fa3	4.034447e-06
184	0xb6cdd26e	-6.1339733e-06
185	0x3733eb9c	1.07240885e-05
186	0x369266dd	4.363114e-06
187	0xb648b580	-2.990797e-06
188	0xb72a8d3e	-1.0165675e-05
189	0xb5cdc10e	-1.5329877e-06
190	0xb7a8cdcb	-2.012299e-05
191	0xb6534009	-3.1478723e-06
192	0x3692396f	4.357825e-06
193	0xb6b164af	-5.286732e-06
194	0x3506bc62	5.0193023e-07
195	0x36274df6	2.4930318e-06
196	0xb5562898	-7.9780284e-07
197	0x369b1c12	4.622628e-06
198	0xb80bc355	-3.33221e-05
199	0xb62779f0	-2.4955916e-06
200	0xb69719c8	-4.503152e-06
201	0xb69704dc	-4.5007164e-06
202	0xb6855117	-3.973149e-06
203	0x3703ecf4	7.863378e-06
204	0xb65dcea4	-3.3051847e-06
205	0x36463a28	2.953815e-06
206	0xb36db9fe	-5.535002e-08
207	0x36a638c0	4.953792e-06
208	0xb6b26ca0	-5.317459e-06
209	0xb72ad7a2	-1.01829955e-05
210	0x3602289e	1.9395152e-06
211	0x36016298	1.9279887e-06
212	0x36d6d28a	6.402207e-06
213	0xb7021c7c	-7.755236e-06
214	0x36427b14	2.8979894e-06
215	0xb7006d0d	-7.654785e-06
216	0x35a472a6	1.2252319e-06
217	0xb806efdb	-3.2171472e-05
218	0x36cd2bb5	6.1145643e-06
219	0x36d2fc2c	6.2878444e-06
220	0xb6867d78	-4.0081177e-06
221	0x34889430	2.5439795e-07
222	0xb6457eda	-2.9429125e-06
223	0x36a37992	4.871931e-06
224	0xb6d612ed	-6.3799002e-06
225	0xb66c529e	-3.521483e-06
226	0x3708cd71	8.154065e-06
227	0x36b6a650	5.443384e-06
228	0xb5672714	-8.611107e-07
229	0xb69c5726	-4.6593077e-06
230	0x36af4e3f	5.2245155e-06
231	0xb67275ce	-3.6129381e-06
232	0x35c83ff3	1.4919773e-06
233	0xb8107efd	-3.4450542e-05
234	0x3703039e	7.809051e-06
235	0xb6d01282	-6.2010376e-06
236	0xb6e08ffc	-6.692482e-06
237	0x3380af08	5.9923025e-08
238	0x3675ec80	3.6645506e-06
239	0xb6d728a1	-6.412229e-06
240	0xb71b6bb4	-9.2637965e-06
241	0xb7054053	-7.942394e-06
242	0xb61db4c8	-2.3500052e-06
243	0xb6ba16ef	-5.545902e-06
244	0x369c528b	4.6587716e-06
245	0xb68bf74c	-4.171312e-06
246	0x3706fc02	8.0456975e-06
247	0xb63260d8	-2.6580437e-06
248	0x36ab9f12	5.1147153e-06
249	0xb69ac13c	-4.612053e-06
250	0xb61ab4d2	-2.305304e-06
251	0xb64931a4	-2.9980229e-06
252	0x360dc8fc	2.1127626e-06
253	0x36ea55a6	6.9837142e-06
254	0xb6ac21ee	-5.1299494e-06
255	0xb6e70ac0	-6.885588e-06

lstm.bias_ih_l0 f4 [512]
0	0x3a30b011	0.0006740103
1	0x38a690c3	7.942461e-05
2	0x3783e719	1.572403e-05
3	0x38ef6da4	0.0001141683
4	0x39507368	0.00019879418
5	0x36ad4480	5.163776e-06
6	0x3a3e8911	0.0007268349
7	0xb875486e	-5.8480007e-05
8	0x3a2e3d59	0.0006646715
9	0x380ce5bf	3.359257e-05
10	0x395cb7a0	0.0002104924
11	0x33df53e8	1.0399509e-07
12	0x39c20148	0.00037003518
13	0x31a28810	4.730289e-09
14	0x393c080c	0.00017932075
15	0x3a0a0605	0.0005265179
16	0x37ad9254	2.0691346e-05
17	0x3930d957	0.00016865633
18	0x39bb4002	0.0003571511
19	0xb53f25f1	-7.1208257e-07
20	0x39d98970	0.00041491864
21	0x3983cd86	0.00025139394
22	0x3a226474	0.0006194778
23	0xb9fba55e	-0.0004799766
24	0x36792928	3.7127847e-06
25	0xafdd9338	-4.030427e-10
26	0x36f9d244	7.4452564e-06
27	0x39c0bac2	0.0003676024
28	0xb5667180	-8.584684e-07
29	0xb61d6664	-2.3454422e-06
30	0x39567e7b	0.00020455748
31	0xb6477c4a	-2.9725657e-06
32	0x37b0c82b	2.1074045e-05
33	0x399f7eb0	0.00030421233
34	0x3836626e	4.348385e-05
35	0x3927d9fc	0.00016007567
36	0xb8935fa2	-7.027319e-05
37	0x38d5a5ef	0.00010187539
38	0xb38882f0	-6.356811e-08
39	0x39f82463	0.00047329356
40	0x3955e025	0.00020396763
41	0x392e7794	0.0001663848
42	0x3890f15d	6.9114125e-05
43	0x391af060	0.00014776131
44	0x383df527	4.5289427e-05
45	0x3a7ae871	0.00095713796
46	0x39513604	0.00019951916
47	0xb4c7145e	-3.7081458e-07
48	0x3986342a	0.00025597337
49	0x39c42035	0.0003740803
50	0x39c8d597	0.0003830611
51	0x392d41ee	0.00016523126
52	0x39dcbc5a	0.00042102003
53	0x3920f090	0.00015348406
54	0x390b00ab	0.00013256322
55	0x39e8ff0a	0.00044440507
56	0x38fb70e6	0.00011989642
57	0x3a687053	0.0008866835
58	0x38bc9164	8.99162e-05
59	0x36a714fc	4.9794307e-06
60	0x39938020	0.00028133485
61	0x38a28352	7.749222e-05
62	0x3a41b6ba	0.0007389594
63	0x38ef95c5	0.00011424305
64	0xb7359244	-1.0822496e-05
65	0x3a5c4763	0.00084029714
66	0x37635444	1.3549874e-05
67	0x38887768	6.5072265e-05
68	0x399a1252	0.0002938682
69	0xb931e862	-0.00016966605
70	0x39ef88fe	0.000456877
71	0x391dbf2a	0.00015043901
72	0x39529c2e	0.00020085342
73	0x3922cec6	0.00015526553
74	0x399a4796	0.00029426505
75	0xb9c7f3e2	-0.00038137945
76	0x39d609a5	0.00040824446
77	0x3a0e4ec7	0.0005428609
78	0x346ed902	2.2244424e-07
79	0x3a0fae66	0.00054810045
80	0x39825bd3	0.00024863947
81	0x38e730c4	0.00011024022
82	0x38c903dc	9.585146e-05
83	0xb6c54532	-5.879113e-06
84	0x390d6dd9	0.0001348773
85	0x38f83e05	0.000118371136
86	0x39237b03	0.00015590717
87	0x397fbb52	0.00024388477
88	0x37f128c7	2.8748427e-05
89	0x3997aaf0	0.00028928323
90	0x39c2a39c	0.00037124462
91	0x39fb2aeb	0.00047906427
92	0x396eba0d	0.00022766758
93	0x386534a4	5.464688e-05
94	0x393d65d9	0.00018062386
95	0x38f4660e	0.00011653836
96	0x3a285366	0.0006421119
97	0x3a4b9e18	0.0007767393
98	0x3ad47460	0.0016208999
99	0x393c9718	0.00017985364
100	0x35edde00	1.7722487e-06
101	0x394572f9	0.00018830215
102	0x3a887225	0.0010409994
103	0x399ead2e	0.00030265137
104	0x39155aed	0.0001424362
105	0xb959ae04	-0.00020759559
106	0x3992af42	0.00027977867
107	0x38fc5256	0.00012031633
108	0x389c02f2	7.439208e-05
109	0xb4c3fa31	-3.650362e-07
110	0x3997f566	0.000289838
111	0xb8cd08c4	-9.7767945e-05
112	0x3979c265	0.00023818908
113	0x39c1e28e	0.00036980625
114	0x393279f6	0.00017020837
115	0x39d35642	0.00040309323
116	0x39cea499	0.00039414017
117	0xb9afa4fb	-0.0003350152
118	0x3a2f544e	0.00066882826
119	0x384774a7	4.755394e-05
120	0x39da57c6	0.00041645597
121	0x390afcea	0.00013254923
122	0x398346bf	0.00025038977
123	0x39cdd308	0.00039257878
124	0x39e34814	0.00043350516
125	0x380a451d	3.296613e-05
126	0x3938bbf6	0.00017617628
127	0x39463626	0.00018902923
128	0x39ea392d	0.00044674557
129	0x37a30614	1.9433945e-05
130	0xb79c2834	-1.861537e-05
131	0x38853974	6.352636e-05
132	0x3940522d	0.0001834116
133	0xb8d8742f	-0.000103213235
134	0x39daa1f9	0.0004170088
135	0xb91147f4	-0.00013855082
136	0x39ba490c	0.0003553111
137	0xb6eb1b58	-7.006729e-06
138	0x38c93725	9.594698e-05
139	0x3416c5c6	1.4041788e-07
140	0x398e0159	0.00027085355
141	0x32e52a10	2.6678237e-08
142	0xb685da20	-3.989102e-06
143	0x39aa085d	0.00032431158
144	0xb7f4433c	-2.9118375e-05
145	0x38e6bfd3	0.00011002985
146	0x3970c784	0.00022962509
147	0xb5918890	-1.0843087e-06
148	0x3983692c	0.00025064626
149	0x39544f2f	0.00020247394
150	0x398ba01e	0.00026631443
151	0xba1fe6df	-0.0006099771
152	0x35898b86	1.0247902e-06
153	0xb02e0163	-6.33028e-10
154	0x36b3bf28	5.356869e-06
155	0x3954e0f4	0.00020301697
156	0xb898b63e	-7.28187e-05
157	0xb66059f5	-3.3430963e-06
158	0x38bb4bca	8.930972e-05
159	0xb5c87106	-1.4934055e-06
160	0x354b9880	7.584531e-07
161	0x397042ec	0.00022913114
162	0x381768b3	3.6098714e-05
163	0x388ec1d2	6.8071895e-05
164	0xb9179756	-0.00014456859
165	0x3872a361	5.7849455e-05
166	0x32f4d540	2.8502313e-08
167	0x39958013	0.00028514917
168	0x386f670c	5.707801e-05
169	0x382c5cba	4.1094354e-05
170	0x386c686a	5.6364028e-05
171	0x387f65b6	6.0891463e-05
172	0xb70e8636	-8.495108e-06
173	0x3a5f0052	0.00085068226
174	0xb8bcd2c0	-9.003794e-05
175	0xb430f120	-1.6478998e-07
176	0x395ad09d	0.00020867815
177	0x39a4b78a	0.00031417265
178	0x392e3a1b	0.00016615579
179	0x383e6e36	4.5402172e-05
180	0x39b796cb	0.0003501683
181	0x37f6c870	2.9418821e-05
182	0xb7d63eb0	-2.553998e-05
183	0x398c4650	0.00026755268
184	0xb80bc718	-3.3325603e-05
185	0x3a1bc1af	0.0005941642
186	0x3891dfff	6.955861e-05
187	0xb8a91a68	-8.0634665e-05
188	0x384873ce	4.7791567e-05
189	0x387207a4	5.7704412e-05
190	0x3a342115	0.00068713847
191	0x383e068a	4.530562e-05
192	0xb8685872	-5.539548e-05
193	0x3a4fc896	0.0007926313
194	0x3756840a	1.2786137e-05
195	0x3879de56	5.9573293e-05
196	0x39330e80	0.00017076172
197	0xb96f5fbc	-0.0002282848
198	0x3997d34a	0.00028958387
199	0xb820dac0	-3.83507e-05
200	0x38bd36f3	9.0224574e-05
201	0x383de43f	4.5273682e-05
202	0x3918f8e0	0.00014588563
203	0xba05b813	-0.00051009766
204	0x3992dbcb	0.0002801105
205	0x39a8c83c	0.00032192643
206	0xb528af95	-6.284038e-07
207	0x39ded334	0.00042500498
208	0x38f9d3a4	0.000119126664
209	0xb95e88e0	-0.0002122256
210	0x37e6f82c	2.75337e-05
211	0xb77e018a	-1.5139938e-05
212	0x381161ca	3.4661767e-05
213	0x372501f0	9.8352175e-06
214	0x388798c6	6.465758e-05
215	0x38b48037	8.606951e-05
216	0xb84ec2d4	-4.9295675e-05
217	0x38dfbe22	0.000106688836
218	0x398289b4	0.0002489813
219	0x3988ca24	0.00026090548
220	0x3912b024	0.00013989263
221	0xb78289fc	-1.5561462e-05
222	0x38ec654f	0.00011272227
223	0xb84ac51b	-4.834412e-05
224	0x3a106af0	0.0005509099
225	0x39d8e082	0.00041366002
226	0x3ab3afb2	0.0013708977
227	0x38a3fbf9	7.819379e-05
228	0x36acee90	5.153772e-06
229	0x3793b952	1.7610062e-05
230	0x3a347a3c	0.00068846694
231	0x393ea2ae	0.00018180415
232	0x38dfc27c	0.00010669694
233	0xb99d56a4	-0.00030009926
234	0x393f469a	0.0001824148
235	0xb7fdc9ee	-3.0253981e-05
236	0xb7b0f55c	-2.109509e-05
237	0x34a41f4e	3.0570158e-07
238	0x39b6b75e	0.00034850364
239	0xb95f0b7e	-0.00021271218
240	0x389cb04e	7.471499e-05
241	0x39022306	0.00012410813
242	0x38ba27ee	8.8766086e-05
243	0x3950be31	0.00019907278
244	0x39967946	0.00028700585
245	0xba022206	-0.00049641763
246	0x39fae0e6	0.00047851278
247	0xb8b21990	-8.492463e-05
248	0x391dce00	0.00015049428
249	0x37dc7e46	2.6284844e-05
250	0x391c1d73	0.0001488829
251	0x39ccebda	0.00039085635
252	0x399a81b4	0.00029469805
253	0xb7bc3c50	-2.2439432e-05
254	0x38b2a6af	8.518749e-05
255	0xb7de5ef0	-2.6508671e-05

lstm.bias_hh_l0 f4 [512]
0	0x3a30b009	0.00067400985
1	0x38ab9f3f	8.183577e-05
2	0x378464a6	1.5782494e-05
3	0x38ef6d9c	0.000114168244
4	0x39507369	0.0001987942
5	0x36ad4480	5.163776e-06
6	0x3a3e8912	0.000726835
7	0xb8754862	-5.8479964e-05
8	0x3a2e3d6c	0.0006646726
9	0x380ce8ce	3.3595417e-05
10	0x395cb7a0	0.0002104924
11	0x33df4dac	1.0398375e-07
12	0x39c20145	0.0003700351
13	0x319ad5f0	4.5063118e-09
14	0x393c0810	0.0001793208
15	0x3a0a0605	0.0005265179
16	0x37ad88ee	2.068697e-05
17	0x3930d957	0.00016865633
18	0x39bb4002	0.0003571511
19	0xb53f0740	-7.1163595e-07
20	0x39d98970	0.00041491864
21	0x3983cd86	0.00025139394
22	0x3a226474	0.0006194778
23	0xb9fba55e	-0.0004799766
24	0x3679138e	3.7115274e-06
25	0xafc7390a	-3.6238418e-10
26	0x36f9d242	7.4452555e-06
27	0x39c0bac2	0.0003676024
28	0xb5667080	-8.5845386e-07
29	0xb61d6655	-2.3454388e-06
30	0x39567e7b	0.00020455748
31	0xb62f1ead	-2.6094888e-06
32	0x37b319aa	2.1350414e-05
33	0x399f7eb0	0.00030421233
34	0x3836626e	4.348385e-05
35	0x3927da01	0.00016007574
36	0xb8935fa2	-7.027319e-05
37	0x38d5a5f0	0.0001018754
38	0xb387f3c8	-6.330771e-08
39	0x39f82465	0.00047329362
40	0x3955e025	0.00020396763
41	0x392e7794	0.0001663848
42	0x3890f15c	6.911412e-05
43	0x391af060	0.00014776131
44	0x383e0d65	4.5312005e-05
45	0x3a7ae8d0	0.0009571435
46	0x395135c8	0.00019951828
47	0xb4c2a765	-3.6257111e-07
48	0x3986342a	0.00025597337
49	0x39c42127	0.00037408734
50	0x39c8d597	0.0003830611
51	0x392d41ee	0.00016523126
52	0x39dcbc59	0.00042102
53	0x3920f090	0.00015348406
54	0x390b00ab	0.00013256322
55	0x39e8ff0f	0.00044440522
56	0x38fb70e6	0.00011989642
57	0x3a687053	0.0008866835
58	0x38bc9164	8.99162e-05
59	0x36a71274	4.979136e-06
60	0x39938020	0.00028133485
61	0x38a2833f	7.7492085e-05
62	0x3a41ae70	0.0007388359
63	0x38ef95c5	0.00011424305
64	0xb7359824	-1.0823864e-05
65	0x3a5c4762	0.0008402971
66	0x376324f2	1.3538856e-05
67	0x38888f50	6.5116794e-05
68	0x399a1252	0.0002938682
69	0xb931e864	-0.00016966608
70	0x39ef88fe	0.000456877
71	0x391dbf30	0.0001504391
72	0x39529c2e	0.00020085342
73	0x3922ced4	0.00015526573
74	0x399a4796	0.00029426505
75	0xb9cd00a9	-0.0003910114
76	0x39d609a6	0.0004082445
77	0x3a0e4ec6	0.0005428608
78	0x346ed902	2.2244424e-07
79	0x3a0fae68	0.00054810056
80	0x39825bd3	0.00024863947
81	0x38e730c4	0.00011024022
82	0x38c903d9	9.5851436e-05
83	0xb6d16304	-6.2402123e-06
84	0x390d6dd3	0.0001348772
85	0x38f83e05	0.000118371136
86	0x39237a9b	0.00015590565
87	0x397fbb4e	0.00024388472
88	0x37f0ebc5	2.8720018e-05
89	0x3997ab20	0.00028928462
90	0x39c2a39c	0.00037124462
91	0x39fb2aeb	0.00047906427
92	0x396eba0d	0.00022766758
93	0x38651217	5.4614702e-05
94	0x393d65d9	0.00018062386
95	0x38f4660e	0.00011653836
96	0x3a285366	0.0006421119
97	0x3a4b9e19	0.0007767394
98	0x3ad47460	0.0016208999
99	0x393c9718	0.00017985364
100	0x35edcca0	1.771743e-06
101	0x394572f9	0.00018830215
102	0x3a887225	0.0010409994
103	0x399ead2e	0.00030265137
104	0x39155aed	0.0001424362
105	0xb959ae04	-0.00020759559
106	0x3992af42	0.00027977867
107	0x38fc5256	0.00012031633
108	0x389c02f4	7.43921e-05
109	0xb4c758c9	-3.7131238e-07
110	0x3997f609	0.00028984275
111	0xb8cd08c4	-9.7767945e-05
112	0x3979c265	0.00023818908
113	0x39c1e28e	0.00036980625
114	0x393279f6	0.00017020837
115	0x39d35640	0.00040309317
116	0x39cea499	0.00039414017
117	0xb9afa4fc	-0.00033501524
118	0x3a2f544e	0.00066882826
119	0x384774a7	4.755394e-05
120	0x39da57c4	0.0004164559
121	0x390afced	0.00013254928
122	0x398346bf	0.00025038977
123	0x39cdd312	0.00039257907
124	0x39e34810	0.00043350505
125	0x380a452b	3.296618e-05
126	0x3938bbf6	0.00017617628
127	0x39463626	0.00018902923
128	0x39ea392c	0.00044674554
129	0x37a7d2cc	2.0006111e-05
130	0xb79c38b4	-1.8623054e-05
131	0x38853976	6.352637e-05
132	0x3940522d	0.0001834116
133	0xb8d8742f	-0.000103213235
134	0x39daa1fb	0.00041700885
135	0xb91147f4	-0.00013855082
136	0x39ba4906	0.0003553109
137	0xb6eb11a4	-7.0055994e-06
138	0x38c93725	9.594698e-05
139	0x3416d2ad	1.4046482e-07
140	0x398e015c	0.00027085363
141	0x32e503c6	2.6660825e-08
142	0xb685da20	-3.989102e-06
143	0x39aa085e	0.0003243116
144	0xb7f4444c	-2.911887e-05
145	0x38e6bfd3	0.00011002985
146	0x3970c77e	0.000229625
147	0xb5918665	-1.0842456e-06
148	0x3983692c	0.00025064626
149	0x39544f2c	0.0002024739
150	0x398ba029	0.00026631475
151	0xba1fe6df	-0.0006099771
152	0x358b733a	1.0389842e-06
153	0xb032b3b7	-6.5011413e-10
154	0x36b3bf28	5.356869e-06
155	0x3954e0f4	0.00020301697
156	0xb898b651	-7.281884e-05
157	0xb66059f8	-3.343097e-06
158	0x38bb4bd2	8.9309775e-05
159	0xb5c67656	-1.478659e-06
160	0xb60f9978	-2.139799e-06
161	0x397042dd	0.00022913092
162	0x381768b3	3.6098714e-05
163	0x388ec1d2	6.8071895e-05
164	0xb9179755	-0.00014456858
165	0x3872a35b	5.7849433e-05
166	0x32f1b710	2.813934e-08
167	0x39958013	0.00028514917
168	0x386f670c	5.707801e-05
169	0x382c5cba	4.1094354e-05
170	0x386c686a	5.6364028e-05
171	0x387f65b6	6.0891463e-05
172	0xb70e77a3	-8.491715e-06
173	0x3a5f067e	0.00085077423
174	0xb8bcd26b	-9.003732e-05
175	0xb447418a	-1.8557162e-07
176	0x395ad09d	0.00020867815
177	0x39a4b83e	0.0003141779
178	0x392e3a1a	0.00016615578
179	0x383e6e3e	4.54022e-05
180	0x39b796c6	0.00035016815
181	0x37f6c86c	2.9418814e-05
182	0xb7d63eb0	-2.553998e-05
183	0x398c4652	0.00026755274
184	0xb80bc715	-3.3325592e-05
185	0x3a1bc1af	0.0005941642
186	0x3891e002	6.9558635e-05
187	0xb8a91a6c	-8.0634694e-05
188	0x384873ce	4.7791567e-05
189	0x387207e2	5.7704638e-05
190	0x3a340fcb	0.00068688084
191	0x383e068a	4.530562e-05
192	0xb8685ab3	-5.539758e-05
193	0x3a4fc892	0.00079263106
194	0x3756833a	1.2785948e-05
195	0x3878d738	5.9328246e-05
196	0x39330e80	0.00017076172
197	0xb96f5fbc	-0.0002282848
198	0x3997d34b	0.0002895839
199	0xb820daca	-3.8350736e-05
200	0x38bd36f3	9.0224574e-05
201	0x383de43f	4.5273682e-05
202	0x3918f8e0	0.00014588563
203	0xb9f7dc73	-0.0004727576
204	0x3992dbcb	0.0002801105
205	0x39a8c83c	0.00032192643
206	0xb528d1a5	-6.288995e-07
207	0x39ded335	0.000425005
208	0x38f9d3a4	0.000119126664
209	0xb95e88e0	-0.0002122256
210	0x37e6f7c0	2.7533504e-05
211	0xb77ce026	-1.5072559e-05
212	0x381161ba	3.466171e-05
213	0x372501f0	9.8352175e-06
214	0x388799e4	6.465966e-05
215	0x38b48044	8.60696e-05
216	0xb84f0d28	-4.93649e-05
217	0x38dfbdfb	0.00010668855
218	0x398289b4	0.0002489813
219	0x3988ca24	0.00026090548
220	0x3912b019	0.00013989247
221	0xb7822ae7	-1.5517186e-05
222	0x38ec654f	0.00011272227
223	0xb84ac51b	-4.834412e-05
224	0x3a106af0	0.0005509099
225	0x39d8e07c	0.00041365984
226	0x3ab3afb2	0.0013708977
227	0x38a3fc5d	7.819452e-05
228	0x36acf5ac	5.1545994e-06
229	0x3793b952	1.7610062e-05
230	0x3a347a3c	0.00068846694
231	0x393ea2ab	0.0001818041
232	0x38dfc27b	0.000106696934
233	0xb99d569f	-0.0003000991
234	0x393f469b	0.00018241482
235	0xb7fdc9ee	-3.0253981e-05
236	0xb7b0f55c	-2.109509e-05
237	0x349fa93c	2.9739192e-07
238	0x39b6b787	0.00034850484
239	0xb95f0b7e	-0.00021271218
240	0x389cb05c	7.471509e-05
241	0x39022307	0.00012410815
242	0x38ba27f9	8.8766166e-05
243	0x3950be31	0.00019907278
244	0x39967946	0.00028700585
245	0xba022203	-0.00049641746
246	0x39fae0e6	0.00047851278
247	0xb8b21998	-8.4924686e-05
248	0x391dce06	0.00015049436
249	0x37dc7e76	2.6284932e-05
250	0x391c1d74	0.00014888291
251	0x39ccebda	0.00039085635
252	0x399a81b4	0.00029469805
253	0xb7bc3c50	-2.2439432e-05
254	0x38b2a6af	8.518749e-05
255	0xb7de5e60	-2.6508409e-05

lstm.weight_ih_l1 f4 [512, 128]
0	0x24defe51	9.670798e-17
1	0x2348a6e6	1.0877364e-17
2	0xa30d2c67	-7.653028e-18
3	0xa404cd26	-2.8796705e-17
4	0x23d55452	2.3129217e-17
5	0xa4647798	-4.954092e-17
6	0xa3522259	-1.1391396e-17
7	0x229c89f0	4.242993e-18
8	0xa3922250	-1.5843884e-17
9	0x229a7eee	4.1876176e-18
10	0xa338c492	-1.0016285e-17
11	0x2236e250	2.4785408e-18
12	0x2360ecb0	1.2193185e-17
13	0xa38c8b42	-1.5237808e-17
14	0x2226d7d0	2.2611445e-18
15	0xa48c8884	-6.094659e-17
16	0x23428e35	1.05468746e-17
17	0x24ca05f4	8.761362e-17
18	0xa3e69fee	-2.5004383e-17
19	0x233ee368	1.0348076e-17
20	0xa3ce9d2f	-2.2401135e-17
21	0x24897095	5.9605e-17
22	0x24a40eac	7.114852e-17
23	0xa1c24b68	-1.3165911e-18
24	0xa34040bf	-1.0422051e-17
25	0x23601938	1.2148405e-17
26	0x24380e29	3.9910634e-17
27	0x2320a8eb	8.709387e-18
28	0xa238f4b0	-2.5066186e-18
29	0xa2bec538	-5.1708417e-18
30	0xa35c4268	-1.1940286e-17
31	0x2353cefe	1.1482165e-17
32	0xa20acbdc	-1.881041e-18
33	0xa3602f48	-1.21530765e-17
34	0x24274885	3.627378e-17
35	0xa2d30012	-5.719174e-18
36	0x248e1335	6.161522e-17
37	0xa312b4f8	-7.9529975e-18
38	0xa39b42b5	-1.6833385e-17
39	0xa362aab8	-1.2287636e-17
40	0x2487d63f	5.8909864e-17
41	0x2421dce2	3.5098405e-17
42	0xa39d7746	-1.7072488e-17
43	0xa4049ef0	-2.8757563e-17
44	0xa3da0888	-2.363922e-17
45	0x23a1bdb1	1.7535992e-17
46	0xa45fadb7	-4.850256e-17
47	0x22c149d0	5.2390907e-18
48	0xa373f0d4	-1.3224054e-17
49	0x240d2940	3.060944e-17
50	0x244d83ee	4.4564038e-17
51	0x24b86668	7.997076e-17
52	0xa51ad9ec	-1.3431206e-16
53	0xa32a2060	-9.222574e-18
54	0x2449d8c5	4.3768538e-17
55	0xa42dd417	-3.7693042e-17
56	0xa3fa6c34	-2.715088e-17
57	0xa4957ec6	-6.483321e-17
58	0x241205ba	3.1663554e-17
59	0x9f17ada0	-3.2119113e-20
60	0xa4acab10	-7.48829e-17
61	0x236bea1b	1.2788949e-17
62	0x237d8e1e	1.3745252e-17
63	0xa39051da	-1.5647177e-17
64	0x248189ea	5.617847e-17
65	0x212d7340	5.876721e-19
66	0xa37a0b74	-1.35549524e-17
67	0x2381c75e	1.4070643e-17
68	0xa39e5ed0	-1.7170549e-17
69	0xa4804849	-5.563361e-17
70	0xa27b94c0	-3.409559e-18
71	0xa3adb14f	-1.883179e-17
72	0x228c61e0	3.8050705e-18
73	0x24f72fe7	1.07200324e-16
74	0x242a925e	3.6986852e-17
75	0x23651638	1.241882e-17
76	0x2565bae9	1.9925911e-16
77	0x244c1b40	4.425853e-17
78	0xa39d536f	-1.705731e-17
79	0x24a70b54	7.2443896e-17
80	0x230537fe	7.221801e-18
81	0x23a74190	1.8133943e-17
82	0x247e61ba	5.5160248e-17
83	0xa3ab933e	-1.8602217e-17
84	0xa40352fa	-2.847638e-17
85	0x24389dee	4.003241e-17
86	0x23374cb9	9.9366965e-18
87	0x2445a382	4.2856062e-17
88	0xa39259b0	-1.5867336e-17
89	0xa39f517c	-1.7273325e-17
90	0x240487f3	2.873809e-17
91	0xa3fdb95c	-2.7508818e-17
92	0x23c6cb54	2.1553316e-17
93	0xa35dbe3f	-1.202072e-17
94	0xa46ce553	-5.1368588e-17
95	0xa4445a20	-4.2577064e-17
96	0x23df9256	2.4239684e-17
97	0x24a003ac	6.939516e-17
98	0x23042480	7.1634635e-18
99	0x24fb8146	1.09072896e-16
100	0x232d2a81	9.387349e-18
101	0xa29a0100	-4.1742842e-18
102	0x23f016ec	2.603056e-17
103	0x233bc238	1.0178418e-17
104	0xa4bafe2d	-8.109523e-17
105	0x2389bc21	1.4933245e-17
106	0xa4babdfb	-8.098648e-17
107	0x24bc0691	8.154313e-17
108	0xa44c631d	-4.43194e-17
109	0xa1e8ba10	-1.5770182e-18
110	0x23b3a658	1.9477668e-17
111	0x237e629c	1.3790249e-17
112	0x24135aed	3.195256e-17
113	0x22ee7179	6.4630173e-18
114	0x24623c22	4.9056873e-17
115	0x243c296e	4.0801094e-17
116	0xa4104192	-3.1280563e-17
117	0x2534c6bb	1.5679844e-16
118	0x2521097a	1.3967735e-16
119	0x241f4b53	3.454143e-17
120	0xa3ec8acb	-2.5645952e-17
121	0xa34104dc	-1.046358e-17
122	0xa453e990	-4.5951167e-17
123	0x2419805b	3.3285308e-17
124	0xa43288d7	-3.8713505e-17
125	0xa30b4f2c	-7.55197e-18
126	0xa42a7e04	-3.6969613e-17
127	0xa489b7d0	-5.972567e-17
128	0xa8a96f44	-1.8811023e-14
129	0x27009630	1.7844985e-15
130	0x26df01d1	1.5474226e-15
131	0x260ab180	4.8118925e-16
132	0x28c77288	2.2143108e-14
133	0xa984aed8	-5.892308e-14
134	0xa7400efd	-2.6653478e-15
135	0xa79f9f80	-4.4304295e-15
136	0xa99aa0dc	-6.8668785e-14
137	0xa95a576f	-4.848156e-14
138	0xa7c29e68	-5.401756e-15
139	0x27de3f1d	6.1685805e-15
140	0x299ef355	7.058821e-14
141	0x27979eab	4.2082947e-15
142	0x28c18cda	2.1488389e-14
143	0xa93513d0	-4.0207258e-14
144	0x26c9f260	1.4012873e-15
145	0x28343d98	1.0005363e-14
146	0xa9410926	-4.2862544e-14
147	0xa756d324	-2.9812925e-15
148	0x29c643f5	8.804755e-14
149	0xa98d0603	-6.262701e-14
150	0x288b9e6b	1.5500803e-14
151	0x264d3a68	7.120282e-16
152	0xa745ab52	-2.7432115e-15
153	0xa7de0c70	-6.1630863e-15
154	0x28e446bc	2.5343761e-14
155	0xa9256be5	-3.6730943e-14
156	0x297496a3	5.430954e-14
157	0x291fbb35	3.546747e-14
158	0xa874b67a	-1.3584289e-14
159	0x26340142	6.245175e-16
160	0xa77dfbb7	-3.5247258e-15
161	0xa7eb5520	-6.5317895e-15
162	0x27b5bf6c	5.044513e-15
163	0xa6c6539b	-1.3761671e-15
164	0xa811f248	-8.101653e-15
165	0xa7d39584	-5.872637e-15
166	0xa56c0de8	-2.0474449e-16
167	0xa91a28f6	-3.4230397e-14
168	0x291c10c8	3.4653514e-14
169	0xa9046fc8	-2.9406843e-14
170	0xa7d602e1	-5.9400053e-15
171	0x293fe724	4.2611002e-14
172	0xa9b1a7ad	-7.889466e-14
173	0xa6282f50	-5.835083e-16
174	0x282e6150	9.680042e-15
175	0x276ec170	3.3133998e-15
176	0xa6e9d9b0	-1.6226627e-15
177	0xa72cec32	-2.3997837e-15
178	0xa98b3ac8	-6.183037e-14
179	0xa8213670	-8.9491e-15
180	0x28d115b3	2.3213072e-14
181	0xa83a2970	-1.03340595e-14
182	0xa91738fe	-3.3578168e-14
183	0xa8bb390c	-2.078591e-14
184	0x297263ce	5.382136e-14
185	0x282b99de	9.5257715e-15
186	0x28f9d414	2.7736528e-14
187	0xa83e1bd0	-1.055315e-14
188	0x289c7738	1.7371182e-14
189	0x2581b982	2.2503638e-16
190	0xa86b9b97	-1.3078859e-14
191	0xa9a4728a	-7.3029324e-14
192	0x2859469e	1.20612325e-14
193	0x275f8d59	3.1024092e-15
194	0xa8594328	-1.2060482e-14
195	0xa66b5580	-8.164788e-16
196	0xa7ed9cfd	-6.595092e-15
197	0x285c8ae4	1.224257e-14
198	0x2a0b7af4	1.2388338e-13
199	0x28f84039	2.7561383e-14
200	0xa980484e	-5.696885e-14
201	0xa7b3a4d0	-4.986117e-15
202	0x28d95dc4	2.4132504e-14
203	0x24e41080	9.890719e-17
204	0xa7901700	-3.9992966e-15
205	0x29a22679	7.200919e-14
206	0xa664f2b2	-7.9432304e-16
207	0xa9887066	-6.059111e-14
208	0xa918217f	-3.3779833e-14
209	0xa963c33c	-5.0573464e-14
210	0xa98db123	-6.292386e-14
211	0xa6a32fcd	-1.1323353e-15
212	0xa9507132	-4.628346e-14
213	0xa9b1ddea	-7.898875e-14
214	0xa81415fc	-8.2204175e-15
215	0xa7f7ca58	-6.8775653e-15
216	0x260b1e18	4.8266097e-16
217	0xa5126930	-1.269912e-16
218	0xa8cc71d0	-2.2697908e-14
219	0xa90e0184	-3.153165e-14
220	0x25a81e00	2.9163683e-16
221	0xa610292e	-5.0015845e-16
222	0xa89a5c74	-1.713753e-14
223	0x29b813f1	8.174701e-14
224	0xa945e022	-4.393719e-14
225	0xa7be859c	-5.2880453e-15
226	0x27624590	3.140151e-15
227	0x27bc2fa0	5.2232117e-15
228	0xa8088fa2	-7.580662e-15
229	0xa845df8d	-1.0984172e-14
230	0xa82cd508	-9.594112e-15
231	0xa9748f0b	-5.4302954e-14
232	0x28aeda8c	1.941266e-14
233	0xa8679bc6	-1.2856854e-14
234	0x293cabdc	4.189345e-14
235	0x2965845a	5.096301e-14
236	0xa6c06da4	-1.3352394e-15
237	0xa8d013eb	-2.3101277e-14
238	0x279c4192	4.336979e-15
239	0x2955ccce	4.747314e-14
240	0x290be272	3.106061e-14
241	0x28e030e2	2.4890195e-14
242	0xa811ba76	-8.089549e-15
243	0xa9145238	-3.2933915e-14
244	0x28cb086e	2.2541183e-14
245	0xa7facbf0	-6.961005e-15
246	0x28901e62	1.6000388e-14
247	0x284e6ae4	1.1458475e-14
248	0xa93719d7	-4.0656575e-14
249	0x28905362	1.6023373e-14
250	0x27709a20	3.3390242e-15
251	0x292b25ac	3.8002303e-14
252	0x29d27682	9.346431e-14
253	0x28b4838a	2.004106e-14
254	0x2932c1f6	3.9692174e-14
255	0xa903c2ee	-2.9256918e-14

lstm.weight_hh_l1 f4 [512, 128]
0	0xa3facfd2	-2.719307e-17
1	0xa3235ba8	-8.855657e-18
2	0x2310c113	7.847141e-18
3	0x24072c3d	2.931093e-17
4	0xa3554eec	-1.15634655e-17
5	0xa2dfdb19	-6.067625e-18
6	0xa3817504	-1.4035766e-17
7	0x226c0c18	3.1990366e-18
8	0xa2c0111c	-5.205982e-18
9	0xa3b1bc53	-1.9270137e-17
10	0xa30da337	-7.678187e-18
11	0xa385a210	-1.4488525e-17
12	0x23445a97	1.06443644e-17
13	0x22b99c50	5.0309853e-18
14	0x2383c3b4	1.4285932e-17
15	0xa3a3ef62	-1.7773878e-17
16	0xa329e73f	-9.210477e-18
17	0xa3a0d743	-1.7438402e-17
18	0x2344a8bf	1.0660915e-17
19	0x2224a404	2.2312974e-18
20	0xa32472d4	-8.914774e-18
21	0xa21a22c0	-2.0889288e-18
22	0x220a2548	1.8722224e-18
23	0xa2d960f0	-5.8920604e-18
24	0xa337e02a	-9.9679185e-18
25	0x236ae563	1.273374e-17
26	0x2344d017	1.0669246e-17
27	0x22975bd4	4.102586e-18
28	0x219a5aa0	1.0459434e-18
29	0x2369d9e6	1.2677097e-17
30	0x22c1117c	5.2331267e-18
31	0xa3746f4c	-1.32508345e-17
32	0x22b10b5a	4.7987965e-18
33	0xa2e56816	-6.218078e-18
34	0xa399c0d3	-1.6669957e-17
35	0xa35dae80	-1.2017386e-17
36	0xa284789a	-3.5906364e-18
37	0xa413c81e	-3.204505e-17
38	0xa33b6e0c	-1.0160594e-17
39	0xa3a2da13	-1.7656433e-17
40	0x2226e110	2.2616342e-18
41	0xa3af0e2d	-1.8979542e-17
42	0x23ecc326	2.566982e-17
43	0x2180fad8	8.740015e-19
44	0x21a0b1a0	1.0889039e-18
45	0xa3b48ce0	-1.9575302e-17
46	0xa3448573	-1.065344e-17
47	0xa2b98209	-5.028203e-18
48	0x240f03f9	3.1011547e-17
49	0xa42837df	-3.6476518e-17
50	0xa3aecfc4	-1.895311e-17
51	0xa394aa0a	-1.6118206e-17
52	0xa2d3adc8	-5.7375663e-18
53	0x2344353d	1.0636455e-17
54	0x23fb3e48	2.7239852e-17
55	0xa379b9c1	-1.3537652e-17
56	0xa305b9b3	-7.249268e-18
57	0xa39df76e	-1.7126765e-17
58	0xa28c68d4	-3.8058067e-18
59	0x23976e5a	1.6418189e-17
60	0xa3b96185	-2.0099041e-17
61	0xa3d169ca	-2.2704629e-17
62	0x22b15eae	4.8076192e-18
63	0x237193ed	1.3095961e-17
64	0x21928810	9.92936e-19
65	0x232baafb	9.306135e-18
66	0xa3674afc	-1.2538414e-17
67	0xa2f09bdc	-6.5217153e-18
68	0x229de02a	4.279228e-18
69	0xa132cf60	-6.0583204e-19
70	0xa3d56d68	-2.3139842e-17
71	0xa3b9930a	-2.0120014e-17
72	0x232a9dcc	9.249133e-18
73	0xa34e0d54	-1.1170105e-17
74	0x23476214	1.08085805e-17
75	0x24185f7a	3.3040618e-17
76	0x222e4aa8	2.362092e-18
77	0xa39e7e25	-1.7183819e-17
78	0xa36f0372	-1.29569455e-17
79	0x22b29e0e	4.8414344e-18
80	0x234442fa	1.0639364e-17
81	0xa43047eb	-3.8224833e-17
82	0xa3486f1c	-1.086555e-17
83	0x2311f029	7.911322e-18
84	0xa395ad84	-1.6228099e-17
85	0x22bf5c4e	5.1868385e-18
86	0xa449e020	-4.377477e-17
87	0xa363a739	-1.23411054e-17
88	0x23972520	1.6387176e-17
89	0x20705b80	2.0359066e-19
90	0x22ee76f9	6.4635996e-18
91	0x22cea464	5.6010467e-18
92	0xa35ceb86	-1.1976098e-17
93	0x24338604	3.8927953e-17
94	0xa2285d44	-2.281762e-18
95	0xa3acc65d	-1.8732287e-17
96	0xa3344730	-9.772894e-18
97	0xa208ef40	-1.8558095e-18
98	0x21cf1040	1.4031167e-18
99	0xa34041f4	-1.0422307e-17
100	0x2234e07c	2.451339e-18
101	0x23473302	1.0798613e-17
102	0x22c90256	5.4483632e-18
103	0x23185834	8.258614e-18
104	0xa311bd43	-7.9005435e-18
105	0xa3bfd5f0	-2.0798868e-17
106	0x2289dfec	3.737101e-18
107	0x23983bee	1.6505254e-17
108	0x22d7158e	5.829869e-18
109	0xa2a4a780	-4.4629637e-18
110	0x22bf7808	5.189774e-18
111	0xa3e8bf8e	-2.5234617e-17
112	0xa37ba55d	-1.3641754e-17
113	0x23602a2a	1.2151993e-17
114	0xa2f1c7c8	-6.5534708e-18
115	0x22b707ec	4.9610637e-18
116	0xa3af2418	-1.8988824e-17
117	0xa305623a	-7.230745e-18
118	0x224b485c	2.7549937e-18
119	0xa2fb7d82	-6.8166573e-18
120	0xa39bfd90	-1.6912522e-17
121	0xa2e506e4	-6.207787e-18
122	0xa3a6d594	-1.808821e-17
123	0x22883932	3.692343e-18
124	0x2332fa5c	9.702415e-18
125	0xa33a9707	-1.01150615e-17
126	0x23883d25	1.4771045e-17
127	0x24051df1	2.886514e-17
128	0x24c6d2ea	8.6226114e-17
129	0x2895528a	1.6578119e-14
130	0xa8cfaabd	-2.3055663e-14
131	0x265ad1fe	7.5918536e-16
132	0x26972296	1.0487104e-15
133	0xa4d76d36	-9.34264e-17
134	0xa5624580	-1.9625923e-16
135	0xa3b46a58	-1.9560677e-17
136	0x238ca9a0	1.525067e-17
137	0xa858a606	-1.2026409e-14
138	0x2582c050	2.268172e-16
139	0x2302e0e4	7.0949366e-18
140	0xa8d0357d	-2.3115836e-14
141	0xa704efb8	-1.8448632e-15
142	0x2698e67a	1.060959e-15
143	0x28294080	9.395371e-15
144	0x2498d633	6.628236e-17
145	0x294caf9e	4.5449423e-14
146	0xa78916fc	-3.805006e-15
147	0xa7118024	-2.0192257e-15
148	0xa29615bc	-4.0680594e-18
149	0x24b1681c	7.693788e-17
150	0xa6d47374	-1.4741749e-15
151	0x228890ac	3.701605e-18
152	0xa73a0d48	-2.5819885e-15
153	0xa613c115	-5.1262545e-16
154	0x238d8110	1.534191e-17
155	0x27996d1e	4.2584336e-15
156	0x22d0cb00	5.6593448e-18
157	0x26109201	5.015791e-16
158	0x24933929	6.384792e-17
159	0x2820587b	8.90097e-15
160	0xa49b75f0	-6.742033e-17
161	0xa79ad388	-4.297293e-15
162	0x2641eb20	6.727898e-16
163	0xa8970680	-1.6767187e-14
164	0x230bd9d2	7.58133e-18
165	0x26bdd447	1.3172047e-15
166	0xa49d627c	-6.8254735e-17
167	0x268a7138	9.606362e-16
168	0xa66399d8	-7.8964943e-16
169	0xa7867e8f	-3.7329686e-15
170	0xa7e4a990	-6.3466552e-15
171	0x2775e250	3.4123264e-15
172	0xa79e2f8c	-4.390536e-15
173	0xa5407aa6	-1.66949e-16
174	0xa8e7bdf2	-2.5728528e-14
175	0xa805f6f5	-7.436533e-15
176	0x280862ac	7.570913e-15
177	0xa61ecf07	-5.5097836e-16
178	0x2635cea0	6.307702e-16
179	0x22ca1516	5.4774535e-18
180	0xa703f3ec	-1.8312132e-15
181	0xa154b4f0	-7.2067863e-19
182	0x28d07f22	2.3147774e-14
183	0xa587a13c	-2.3528024e-16
184	0x234d0f94	1.1116371e-17
185	0xa10e9f80	-4.832257e-19
186	0x2767ccb0	3.2168651e-15
187	0x23c56d03	2.1404951e-17
188	0xa74c90c7	-2.8389171e-15
189	0xa8cbc382	-2.2622315e-14
190	0x2718dec6	2.1215003e-15
191	0xa6c434d3	-1.361455e-15
192	0x238c6a30	1.5223803e-17
193	0x2894bceb	1.6513231e-14
194	0x279e5b3b	4.395272e-15
195	0xa749fbe0	-2.8030895e-15
196	0x287b115e	1.3937065e-14
197	0x288cccb0	1.5631891e-14
198	0xa6516752	-7.2651466e-16
199	0x225598c0	2.8947748e-18
200	0x28aa0857	1.8877408e-14
201	0xa49ecae6	-6.88653e-17
202	0x29265212	3.693059e-14
203	0x27851a4e	3.6943435e-15
204	0x278a001c	3.8302813e-15
205	0x242f6bfd	3.8038546e-17
206	0x247b0d52	5.4438232e-17
207	0xa9244810	-3.647782e-14
208	0x27878af8	3.7620697e-15
209	0xa84de5c0	-1.1429605e-14
210	0x24809aec	5.57736e-17
211	0xa6b7fc49	-1.2766558e-15
212	0xa617a144	-5.2607205e-16
213	0xa80e262f	-7.890863e-15
214	0x246f1eb4	5.185087e-17
215	0xa806ead9	-7.489419e-15
216	0x248d26d4	6.121478e-17
217	0xa7d6fd8a	-5.967182e-15
218	0xa3f228e4	-2.625501e-17
219	0xa73c9ca0	-2.6175148e-15
220	0x286c99fa	1.313402e-14
221	0x284a2afa	1.1222572e-14
222	0x26af011c	1.2143365e-15
223	0x249ee685	6.891209e-17
224	0x226e38a8	3.2285008e-18
225	0x2314e448	8.0714365e-18
226	0x2411491b	3.1503786e-17
227	0x292366fa	3.628259e-14
228	0x25576a57	1.8684307e-16
229	0xa79cc228	-4.3509203e-15
230	0xa7982adc	-4.2234943e-15
231	0xa7ade2ec	-4.8263175e-15
232	0xa846f0da	-1.1043434e-14
233	0xa90ea582	-3.167389e-14
234	0x283a0d5c	1.0327971e-14
235	0xa3114710	-7.875514e-18
236	0xa5f1fa9e	-4.197666e-16
237	0xa3ca48b2	-2.1931672e-17
238	0xa4ee3280	-1.033016e-16
239	0xa86429ee	-1.26656345e-14
240	0x23e15b70	2.4433274e-17
241	0xa495240f	-6.4679535e-17
242	0xa889340f	-1.5232632e-14
243	0x26ea8f5e	1.6275871e-15
244	0xa3f92d38	-2.7015785e-17
245	0x24a42572	7.11871e-17
246	0x27b0d6b3	4.908259e-15
247	0x291fc393	3.5474726e-14
248	0xa8094119	-7.6191435e-15
249	0xa8c34c88	-2.1682539e-14
250	0xa8bf5cff	-2.124559e-14
251	0x24adf73f	7.544564e-17
252	0xa4af91aa	-7.6140917e-17
253	0xa763e4d0	-3.1626618e-15
254	0x26ddf118	1.5400304e-15
255	0xa8aab637	-1.8952815e-14
