models/EURGBP_model.pth (torch, 843660 bytes, 15 tensors)

lstm.weight_ih_l0 f4 [512, 12]
0	0x3aa4eabe	0.0012582166
1	0x3abd75c6	0.0014454655
2	0x3aa1d44e	0.0012346597
3	0x3ab6a021	0.001393322
4	0x39e38573	0.0004339624
5	0x3a9632ab	0.0011459192
6	0x3a8d9b47	0.0010803723
7	0x3a46dbb8	0.0007585841
8	0x3a8775c2	0.0010334777
9	0x3af151d7	0.0018411231
10	0x3aa2ef31	0.0012430904
11	0x3a563532	0.0008171379
12	0x39398d24	0.00017695554
13	0x3a69e07e	0.00089216966
14	0x39988361	0.00029089584
15	0x3a6fe642	0.00091514376
16	0x3926c9c2	0.00015906154
17	0x39d31086	0.00040257367
18	0x39ed4034	0.00045251998
19	0xba371c5a	-0.00069851207
20	0x397c152a	0.00024040477
21	0x3a46d8e6	0.0007585421
22	0x3a2ec7a3	0.00066673214
23	0xb7c00790	-2.2891705e-05
24	0x3aa14eb2	0.0012306778
25	0x3aaa3111	0.0012984594
26	0x3aa274a6	0.0012394383
27	0x3aa9600f	0.0012922304
28	0x39d0ce54	0.00039826578
29	0x3a9a6a44	0.0011780937
30	0x3a9a5379	0.0011774144
31	0x3a230721	0.0006219019
32	0x3a000f66	0.0004885107
33	0x3a7cda9a	0.0009645611
34	0x3a71d65a	0.0009225361
35	0x3a287419	0.00064259913
36	0x3aaeb196	0.0013328071
37	0x3adfc0ad	0.0017070972
38	0x3ab73bef	0.0013979654
39	0x3ae20b7f	0.0017245858
40	0x39b26757	0.000340278
41	0x3aaecdc2	0.0013336467
42	0x3aaed302	0.0013338032
43	0x3a095888	0.00052393274
44	0x39e3797c	0.00043387327
45	0x3abebea4	0.0014552665
46	0x3ac851e2	0.0015283192
47	0x3a5a764e	0.0008333669
48	0x3889ea3e	6.5763e-05
49	0x388984f6	6.557435e-05
50	0x3889b120	6.565661e-05
51	0x3887707f	6.458256e-05
52	0xb7419028	-1.153726e-05
53	0x38906e0e	6.886954e-05
54	0x38979d2e	7.229518e-05
55	0x37d60e75	2.551752e-05
56	0x36851206	3.965807e-06
57	0x36d13330	6.2346444e-06
58	0x37a05f4e	1.9117866e-05
59	0x3733a3f9	1.0707409e-05
60	0x39cec76e	0.00039439969
61	0x39e66dfa	0.00043950957
62	0x39d42cbc	0.0004046912
63	0x39eab6c7	0.00044768138
64	0x391173ec	0.00013871462
65	0x39c0f65f	0.00036804655
66	0x39ba7760	0.00035565626
67	0x38f7f57a	0.000118236014
68	0xb8ab32d0	-8.16338e-05
69	0x39885630	0.00026004156
70	0x3940fe3e	0.0001840526
71	0x38db35c6	0.0001045275
72	0x3984c649	0.00025324736
73	0x3944fe8d	0.00018786844
74	0x39787ee5	0.00023698395
75	0x393aa225	0.00017798746
76	0x39a9363b	0.00032274597
77	0x3929a614	0.00016178965
78	0x39082912	0.0001298527
79	0x39b128f4	0.00033790583
80	0x38f14484	0.000115045375
81	0x39f8d654	0.00047461933
82	0x39ceec51	0.0003946745
83	0x39adb133	0.00033129155
84	0x3a3bcbf4	0.0007163875
85	0x3a33f3b6	0.0006864624
86	0x3a43c7e8	0.0007468448
87	0x3a3faa29	0.00073114276
88	0x3a0dc475	0.00054079975
89	0x3a35659e	0.0006919744
90	0x3a430880	0.0007439926
91	0x3a0f2f88	0.00054621
92	0x3a04b1ea	0.00050619117
93	0x3a920032	0.0011138974
94	0x3a810674	0.0009843842
95	0x3a43613d	0.00074531493
96	0x39b7e0bb	0.00035071917
97	0x3a050bec	0.0005075324
98	0x39b6a706	0.00034838187
99	0x39f91fd0	0.00047516683
100	0xb82b0850	-4.077732e-05
101	0x393d7554	0.00018068153
102	0x379db4d0	1.8800056e-05
103	0x3a2b197e	0.0006526931
104	0x399cbf4a	0.0002989716
105	0x3920291d	0.00015274105
106	0x389858b0	7.264444e-05
107	0x39743435	0.00023289102
108	0x3a0b504a	0.0005314393
109	0x3a43c9f6	0.0007468754
110	0x3a168427	0.0005741738
111	0x3a4607cf	0.0007554264
112	0x391f894e	0.00015214572
113	0x3a059454	0.000509565
114	0x3a026266	0.0004973769
115	0x399377b4	0.0002812721
116	0x3a2c7587	0.0006578792
117	0x3a58a720	0.00082646497
118	0x3a8033ec	0.0009781099
119	0x3a15d39f	0.0005715433
120	0x392af066	0.00016302019
121	0x392d4b7e	0.00016526689
122	0x3927ead2	0.00016013838
123	0x39281223	0.00016028485
124	0x391be107	0.00014865781
125	0x38e0fccd	0.0001072824
126	0x38b6397b	8.689143e-05
127	0x39537a77	0.0002016815
128	0xb7ff9df1	-3.0471916e-05
129	0x39db367e	0.00041811535
130	0x39a94f87	0.00032293444
131	0x396e9c9f	0.00022755795
132	0xb89956e6	-7.3117946e-05
133	0x38e97e56	0.00011133838
134	0xb878c95c	-5.9315338e-05
135	0x38e3ac1c	0.00010856261
136	0x39af4748	0.0003343171
137	0xb8d982de	-0.00010371742
138	0xb8ddd176	-0.00010577116
139	0x39178212	0.00014448937
140	0x39b0f39e	0.00033750845
141	0x3a5a5df9	0.0008330043
142	0x3a173293	0.0005767729
143	0x39ee0fce	0.00045406673
144	0x38d0d08e	9.957059e-05
145	0x38cccb78	9.765377e-05
146	0x38c8d329	9.576075e-05
147	0x38bd7da1	9.0356225e-05
148	0xb81844cd	-3.63037e-05
149	0x38acac1a	8.2336555e-05
150	0x37b6ded4	2.1799853e-05
151	0x382aa4eb	4.068475e-05
152	0x37f7a760	2.9522635e-05
153	0xb83715fd	-4.3651078e-05
154	0x383917b7	4.4129523e-05
155	0x38296e53	4.0395487e-05
156	0x3a920e66	0.0011143207
157	0x3a989c7d	0.0011643317
158	0x3a9378ed	0.0011251249
159	0x3a98b3ce	0.0011650266
160	0xb8bc2bd9	-8.972706e-05
161	0x3a9bcac0	0.0011885986
162	0x3aa1bac5	0.0012338987
163	0x3a0fdf0a	0.00054882525
164	0x39a0db82	0.00030681124
165	0x39ba2d35	0.00035510366
166	0x39ec943c	0.0004512387
167	0x39e6c323	0.00044014407
168	0x3a6d9d09	0.00090642326
169	0x3a78df64	0.0009493737
170	0x3a750b15	0.00093476597
171	0x3a828526	0.0009957894
172	0x39eff775	0.00045770002
173	0x3a50e159	0.000796815
174	0x3a40d26e	0.0007355575
175	0x3a357a9a	0.0006922871
176	0xb950e5d9	-0.0001992205
177	0x3a74488e	0.0009318673
178	0x39a5476a	0.0003152446
179	0x3a09a74d	0.0005251065
180	0x3aff74b1	0.0019489733
181	0x3b0cc6bc	0.002148076
182	0x3b025306	0.0019885912
183	0x3b0cc493	0.0021479472
184	0x3a360745	0.0006943832
185	0x3af7d037	0.0018906657
186	0x3af870b8	0.0018954491
187	0x3a7b289d	0.0009580942
188	0x3a8e59c0	0.0010860488
189	0x3abd0a75	0.0014422672
190	0x3af0c479	0.00183691
191	0x3aa0212d	0.0012216918
192	0x3ae4eac6	0.0017464987
193	0x3b0875e7	0.0020822228
194	0x3aee863f	0.0018197967
195	0x3b095ca2	0.0020959754
196	0x39c28b88	0.00037106522
197	0x3ae95b1c	0.0017803642
198	0x3aed0193	0.0018082134
199	0x3a0bfa07	0.0005339686
200	0x3a297eac	0.0006465714
201	0x3a927d42	0.0011176246
202	0x3abe731a	0.0014530153
203	0x3a618c65	0.0008603989
204	0x373c2330	1.1213866e-05
205	0x38d2db8e	0.000100544756
206	0x372175b0	9.623749e-06
207	0x38defe8e	0.000106331994
208	0x39876f98	0.0002583235
209	0x3816074c	3.5769583e-05
210	0x383bd566	4.4783017e-05
211	0x39a5cbfe	0.00031623238
212	0x3a03cf59	0.00050281506
213	0x3a802e0a	0.0009779346
214	0x3a42d504	0.00074322545
215	0x3a1cc904	0.00059808814
216	0x3ac4ceb6	0.0015015218
217	0x3aecb442	0.0018059092
218	0x3acc16c0	0.0015570745
219	0x3aed3b68	0.001809937
220	0x393d06e8	0.00018027017
221	0x3acf4642	0.0015813785
222	0x3acfb46b	0.0015846615
223	0x3987384c	0.0002579115
224	0x38903044	6.875445e-05
225	0x3a2695d3	0.0006354723
226	0x3a247757	0.00062738865
227	0x399b44be	0.0002961512
228	0x390cb19f	0.0001341761
229	0x3911d640	0.00013908092
230	0x390d7536	0.00013490472
231	0x39125ded	0.00013958635
232	0x37f6851e	2.9387473e-05
233	0x39018910	0.00012353458
234	0x38fcece1	0.000120604185
235	0x38e36e62	0.00010844764
236	0x3854355f	5.0594444e-05
237	0x38d16b8f	9.985931e-05
238	0x38c8d306	9.576049e-05
239	0x38c6e4eb	9.484015e-05
240	0x3a98e8ad	0.0011666022
241	0x3aa1d5d9	0.0012347057
242	0x3a9c0d22	0.0011905769
243	0x3aa3288d	0.0012447998
244	0x39ce0de9	0.00039301746
245	0x3a935560	0.0011240654
246	0x3a94f56c	0.0011364645
247	0x3a2cbd95	0.0006589529
248	0x3a17b6ac	0.0005787413
249	0x3a897ada	0.0010488883
250	0x3a82e72c	0.0009987107
251	0x3a4378bc	0.00074566505
252	0x39131a14	0.00014028727
253	0x391f8624	0.00015213393
254	0x396816e8	0.00022133777
255	0x393c1810	0.00017938041

lstm.weight_hh_l0 f4 [512, 128]
0	0xb9ad2fe2	-0.00033032807
1	0xb9a06b84	-0.00030597684
2	0x389258d8	6.978371e-05
3	0xb7da4a70	-2.6022288e-05
4	0x38470e88	4.745883e-05
5	0xb885940e	-6.3695115e-05
6	0xb942cffa	-0.00018578759
7	0xb937fcc4	-0.00017546403
8	0xb9084537	-0.00012995755
9	0xb96e13d1	-0.00022704831
10	0x375b1c50	1.3060009e-05
11	0x394c7434	0.00019498245
12	0x36ae95f6	5.203062e-06
13	0xb8f0845f	-0.00011468748
14	0xb98803e7	-0.0002594285
15	0x3944a04c	0.00018751732
16	0xb97b96c1	-0.00023993386
17	0x3943b0aa	0.00018662462
18	0xb945a7c2	-0.00018849879
19	0xb894467c	-7.070319e-05
20	0x3808a8b8	3.258206e-05
21	0xb9a7cc85	-0.000320051
22	0xb96a8528	-0.00022365584
23	0xb93650a4	-0.00017386914
24	0x38b0f4da	8.437941e-05
25	0x383c60f0	4.4912973e-05
26	0x38c159a2	9.2196526e-05
27	0xb90b04ce	-0.00013257863
28	0xb9384290	-0.00017572404
29	0xb96b84dc	-0.0002246084
30	0xb927bb62	-0.00015996167
31	0xb971cff3	-0.00023061018
32	0x398745cf	0.00025801218
33	0xb94d8beb	-0.00019602447
34	0xb7d27208	-2.508705e-05
35	0xb815dc88	-3.5729754e-05
36	0x380b5270	3.321696e-05
37	0xb991509a	-0.00027716608
38	0x35a7d074	1.2503137e-06
39	0xb7b1a5fa	-2.1177333e-05
40	0x3967f874	0.00022122433
41	0xb908549b	-0.00013001489
42	0x3943f768	0.00018688815
43	0x39578a5c	0.0002055554
44	0xb8af74fc	-8.36644e-05
45	0xb99bea77	-0.00029738594
46	0x38b06110	8.410413e-05
47	0xb9390772	-0.00017645748
48	0x392602fb	0.00015832104
49	0x3939251f	0.00017656804
50	0xb7c4f050	-2.3476925e-05
51	0xb9198237	-0.00014639726
52	0xb9825b7b	-0.0002486369
53	0xb93032b4	-0.00016803556
54	0x3972feed	0.00023173886
55	0xb9516d20	-0.00019972445
56	0x397ea023	0.00024282983
57	0xb8410d4c	-4.602717e-05
58	0xb909f184	-0.0001315531
59	0x3785ac60	1.5935104e-05
60	0xb908737a	-0.00013012989
61	0xb8bbce49	-8.9552785e-05
62	0xb98427ff	-0.000252068
63	0x3818964c	3.63796e-05
64	0xb8ad454e	-8.262192e-05
65	0xb946e54e	-0.00018968174
66	0x38802d7a	6.111986e-05
67	0xb91067d0	-0.00013771583
68	0x383c7da0	4.493969e-05
69	0xb91457ab	-0.00014147039
70	0xb91e17b7	-0.00015076889
71	0x38d8602c	0.00010317596
72	0xb9332fe8	-0.00017088617
73	0x38fe4b76	0.000121257195
74	0xb92faf4e	-0.00016754607
75	0x33147836	3.4568266e-08
76	0x390d072a	0.00013449477
77	0xb846d64a	-4.740645e-05
78	0xb9759718	-0.00023421308
79	0xb9547aba	-0.00020263615
80	0xb8fce6bb	-0.00012059273
81	0xb7e4d90e	-2.7280792e-05
82	0xb878b2dc	-5.9294383e-05
83	0xb959d3e3	-0.00020773667
84	0xb7f2e1a4	-2.895372e-05
85	0x391ca3a2	0.00014938277
86	0x35f044fa	1.7901468e-06
87	0x3914a8a9	0.0001417721
88	0x39c9f418	0.00038519572
89	0x39a50d2f	0.00031481075
90	0xb93b461c	-0.00017859827
91	0x3825aca6	3.9499857e-05
92	0xb84a2708	-4.8196904e-05
93	0x390fa910	0.00013700523
94	0x375a5acc	1.3014953e-05
95	0xb6ef6d80	-7.1355025e-06
96	0xb8978b00	-7.226132e-05
97	0xb92066f1	-0.00015297138
98	0xb993e55f	-0.0002820892
99	0x35bb8f40	1.3974277e-06
100	0xb6a5e1e6	-4.9436812e-06
101	0xb9599a27	-0.00020752159
102	0x394f54e8	0.00019772688
103	0x3881de81	6.192644e-05
104	0x38ba9bba	8.8981775e-05
105	0x392e1765	0.00016602648
106	0xb990b801	-0.00027602914
107	0xb7beec34	-2.2759756e-05
108	0x37405e08	1.1465985e-05
109	0xb93001a8	-0.00016785285
110	0x399661c5	0.00028683073
111	0xb99c3536	-0.00029794284
112	0x391ee4eb	0.00015153333
113	0xb96b96e8	-0.00022467563
114	0x3974bbee	0.00023339663
115	0x386f6947	5.7080088e-05
116	0xb8edb260	-0.000113342656
117	0x381640a6	3.5822995e-05
118	0x3981dec3	0.00024770768
119	0xb9b747fb	-0.0003495811
120	0x3891d0c5	6.953025e-05
121	0x35069a14	5.0143103e-07
122	0x39472498	0.00018991751
123	0x3951c678	0.00020005729
124	0x39141ae5	0.00014124399
125	0x38d12384	9.972512e-05
126	0xb9161586	-0.00014313133
127	0x3912cb69	0.00013999421
128	0xb9c797da	-0.00038069376
129	0xb8162c70	-3.5804173e-05
130	0x38d9c3be	0.00010383826
131	0xb96f4deb	-0.00022821843
132	0xb7031d8e	-7.81509e-06
133	0xb9141d6c	-0.0001412534
134	0xb8668af8	-5.4965698e-05
135	0xb82e07ec	-4.149221e-05
136	0x36d02780	6.2034815e-06
137	0xb9a0c9e4	-0.00030667998
138	0xb926800d	-0.00015878696
139	0x395812c4	0.00020606356
140	0xb71fab2f	-9.516995e-06
141	0x361f3540	2.3723842e-06
142	0x39ad237d	0.00033023572
143	0x388efbb2	6.8179696e-05
144	0xb9010d5c	-0.00012307375
145	0x39891879	0.0002614891
146	0x397246c3	0.00023105279
147	0x389d7396	7.507873e-05
148	0xb9421097	-0.00018507462
149	0xb87f4174	-6.0857696e-05
150	0x3966dfb2	0.00022017842
151	0xb99f690e	-0.00030405115
152	0xb99ff3fd	-0.0003050863
153	0x39c7a817	0.00038081474
154	0x39b490ea	0.00034440245
155	0xb9962909	-0.00028640803
156	0xb81f3ef4	-3.7967184e-05
157	0x391f5456	0.00015194839
158	0x38fef5b9	0.00012157433
159	0xb9a9686e	-0.00032311998
160	0x392b2b08	0.00016323861
161	0xb96d95b5	-0.00022657852
162	0xb96fbed6	-0.00022863908
163	0xb9ae8fd7	-0.00033295035
164	0xb9d36632	-0.00040321198
165	0xb82be540	-4.0983083e-05
166	0xb2ba1430	-2.166243e-08
167	0x378df78a	1.692378e-05
168	0x38b338e4	8.545982e-05
169	0x392ad6fb	0.0001629255
170	0x3980a73e	0.00024538668
171	0x39b69e62	0.0003483175
172	0xb9aaa334	-0.00032546523
173	0x38313b58	4.2255357e-05
174	0xb9abdcb7	-0.00032780107
175	0xb957957f	-0.0002055969
176	0xb7fd02d8	-3.0161274e-05
177	0x395bffa1	0.00020980697
178	0xb958f594	-0.0002069085
179	0xb8fc6e0e	-0.00012036796
180	0xb99b958b	-0.00029675322
181	0xb9c765dc	-0.0003803213
182	0xb8ce8ce3	-9.849088e-05
183	0x393f7872	0.00018260049
184	0x3932f35c	0.00017066061
185	0xb998471f	-0.0002904469
186	0xb97c6bdf	-0.00024072778
187	0x39423ca6	0.00018523875
188	0xb78d3bd8	-1.6836377e-05
189	0xb88d7572	-6.74528e-05
190	0xb9b4126e	-0.00034346007
191	0xb99fe4db	-0.00030497354
192	0x38f56775	0.00011701781
193	0x394665ac	0.00018920627
194	0x3992db5f	0.00028010734
195	0xb953639f	-0.0002015964
196	0x39b7e046	0.00035071577
197	0xb8cef4b1	-9.868423e-05
198	0x394afca6	0.0001935834
199	0x3965619f	0.00021875509
200	0xb88fd47d	-6.8583504e-05
201	0x3971f9b4	0.00023076573
202	0xb8ad8400	-8.27387e-05
203	0x33130269	3.4228297e-08
204	0x391f63f0	0.00015200651
205	0xb8056cf8	-3.1811156e-05
206	0x3998abd5	0.00029119724
207	0xb925de01	-0.00015818329
208	0xb8a36238	-7.79074e-05
209	0x3755f438	1.2752651e-05
210	0xb93d959f	-0.00018080183
211	0xb906b3fe	-0.00012846288
212	0x38bb31ac	8.926107e-05
213	0xb90256f1	-0.00012430154
214	0x37101596	8.588095e-06
215	0x392843ec	0.00016047031
216	0x3a02c2b2	0.00049881183
217	0x38549c58	5.0690345e-05
218	0xb93e66ae	-0.00018158063
219	0xb50e6ec0	-5.3060285e-07
220	0x39665fb9	0.00021970169
221	0x39c0d3f9	0.00036779026
222	0x36e0f599	6.7043115e-06
223	0x395aa170	0.0002085024
224	0x3925e1e4	0.00015819777
225	0xb8f312fe	-0.000115906805
226	0x39ade767	0.0003316954
227	0x39130da4	0.00014024094
228	0xb62a303a	-2.5360046e-06
229	0xb9136e77	-0.00014060164
230	0xb7a89980	-2.009864e-05
231	0x38bb5467	8.932576e-05
232	0xb8b11315	-8.443572e-05
233	0xb95af1df	-0.00020880204
234	0xb9257bd4	-0.00015781756
235	0x38aedf7d	8.3385945e-05
236	0x36927a08	4.3653454e-06
237	0xb9255342	-0.00015766642
238	0x397ec078	0.00024295028
239	0xb95da3c4	-0.0002113721
240	0x39859a86	0.00025482866
241	0xb9984b24	-0.00029047683
242	0x3909cd6b	0.00013141862
243	0xb8878a2b	-6.4630374e-05
244	0xb927eb04	-0.00016013911
245	0x37c2b352	2.3210105e-05
246	0x38b1dfbc	8.4816915e-05
247	0xb98b55d8	-0.00026576105
248	0xb816fe88	-3.5999838e-05
249	0xb5150b14	-5.5522946e-07
250	0x3968a66a	0.00022187238
251	0xb907daeb	-0.00012956157
252	0xb9a0e148	-0.00030685426
253	0x395536ca	0.00020333673
254	0x39075fb0	0.0001291025
255	0x3993b39c	0.00028171844

lstm.bias_ih_l0 f4 [512]
0	0x3ab6c465	0.0013944028
1	0xba20033b	-0.0006103997
2	0x3aa346ba	0.0012456991
3	0x3a8c4c9a	0.0010703981
4	0x3887dc25	6.478307e-05
5	0x39ac238a	0.00032832875
6	0x39ea14aa	0.00044647354
7	0x3a442f3a	0.0007483844
8	0xb9376486	-0.00017489688
9	0x3a077825	0.0005167744
10	0x39985a6a	0.00029059063
11	0xb905a12d	-0.00012743911
12	0x384219fc	4.6277404e-05
13	0x3a656449	0.00087506004
14	0x3a5a30d2	0.0008323315
15	0x3b071483	0.0020611591
16	0x3acbb810	0.0015542526
17	0xb94285c3	-0.00018551112
18	0x3a66abc2	0.00087993976
19	0x390d2db2	0.0001346383
20	0x3aa996ad	0.0012938582
21	0xb794d9b6	-1.7744354e-05
22	0x3a39ebfc	0.00070923544
23	0xb8b6e764	-8.721536e-05
24	0x3b01ceae	0.0019807029
25	0x3b0c58b9	0.0021415188
26	0x3ac66cf1	0.0015138668
27	0x3a8598f8	0.0010192683
28	0x39f59c36	0.00046846428
29	0x39cfe56e	0.00039653055
30	0x39b7bc6a	0.0003504486
31	0x3b0a1bb5	0.0021073644
32	0x3a9684ce	0.0011483671
33	0x3a351938	0.000690836
34	0x39ac57e1	0.0003287187
35	0x3ac85998	0.001528549
36	0x3b27f59b	0.002562857
37	0x3a0df137	0.0005414667
38	0x33e55bc5	1.0680336e-07
39	0x37d42611	2.5290095e-05
40	0x3a9a581c	0.0011775526
41	0x3a26d2ef	0.0006363829
42	0x3ac25581	0.0014826508
43	0xba09e0eb	-0.00052596506
44	0x3ac55944	0.001505651
45	0x3a9d3241	0.0011993126
46	0x3b2c3f93	0.002628301
47	0x3a320d20	0.0006792117
48	0x3a5ef4b1	0.000850509
49	0x397a0004	0.00023841864
50	0x3a5ddf8c	0.0008463792
51	0x3a115dab	0.00055452687
52	0x3a477c40	0.0007609762
53	0x3a050b4e	0.0005075232
54	0x3a3ff7b0	0.000732298
55	0x39f3f1a0	0.00046528596
56	0x3a9c6ac8	0.0011933679
57	0x3a4480c3	0.00074959936
58	0x3a8b2add	0.0010617633
59	0x3a1aa270	0.0005898839
60	0x38eb994c	0.00011234227
61	0x39fff7ce	0.0004882202
62	0x3b034f78	0.002003638
63	0x3b19e65d	0.0023483254
64	0x38cafd2e	9.679269e-05
65	0x3a1398ba	0.0005630363
66	0x3a3f1920	0.00072898157
67	0x3aaa0844	0.0012972434
68	0xba093597	-0.0005234121
69	0x38698968	5.56795e-05
70	0x39d9311d	0.00041426058
71	0x3aa0ec21	0.0012277403
72	0x3a7cce20	0.0009643752
73	0x3a974bca	0.0011542973
74	0x3ab1d64e	0.0013567896
75	0xaff93e46	-4.5337084e-10
76	0x3acef460	0.0015789382
77	0x391161a4	0.00013864652
78	0x3ac0fcec	0.0014723814
79	0x3b0bac81	0.0021312537
80	0x3a615500	0.0008595735
81	0xb6f136b4	-7.188728e-06
82	0x3a9b60a9	0.0011854368
83	0x3ab8730d	0.0014072374
84	0x39ba7c76	0.00035569415
85	0x39ce23e5	0.00039318125
86	0xb56551fc	-8.542845e-07
87	0x3aaa51ca	0.0012994346
88	0x3aa0601d	0.0012235675
89	0x3aa4bfb2	0.0012569337
90	0x3aefac90	0.001828568
91	0xb6c86c74	-5.97309e-06
92	0x3a81fff6	0.0009918201
93	0x3a7b2ff4	0.0009582036
94	0x383b9c60	4.472991e-05
95	0x3a3dcbe0	0.00072401576
96	0x3a8e4d9a	0.0010856867
97	0x3a82a4ba	0.0009967305
98	0x39938bd0	0.00028142193
99	0x3a3e6a7f	0.0007263794
100	0xb537484a	-6.8278007e-07
101	0x3a76447b	0.00093943597
102	0x3a545324	0.0008099547
103	0x3aac1d1c	0.0013131234
104	0x39146c00	0.00014154613
105	0x395b5ed6	0.00020920797
106	0x39d16890	0.00039941492
107	0x393f8128	0.00018263294
108	0x36b3ffc8	5.3643926e-06
109	0x3a59b6f4	0.0008305155
110	0x3a0cbd4b	0.0005368783
111	0x3b11b294	0.0022231685
112	0x3b0c9ce4	0.0021455819
113	0x3a81a019	0.0009889632
114	0x3a82b0e3	0.0009970929
115	0x39025187	0.00012428137
116	0x386f2a2e	5.7021323e-05
117	0x381a9b17	3.68609e-05
118	0x39b89ed1	0.00035213542
119	0xba7bcf94	-0.00096058217
120	0x3911d78c	0.00013908575
121	0xb10dad45	-2.0616693e-09
122	0x3a35bd34	0.00069327955
123	0x39f44d16	0.0004659674
124	0x3aaed393	0.00133382
125	0x3a1a503a	0.00058865885
126	0x3a1ef3fa	0.0006063577
127	0x3acace46	0.0015472851
128	0x3a6a30fb	0.000893369
129	0xbad3ccdc	-0.0016159075
130	0x3a7c5c64	0.00096268044
131	0x39985e9e	0.00029062195
132	0x388391e2	6.2737396e-05
133	0x394abc25	0.0001933431
134	0x39ac1257	0.0003282006
135	0x39fd613e	0.00048328371
136	0xb9f844ff	-0.00047353652
137	0xb7829698	-1.5567333e-05
138	0x393e408c	0.00018143858
139	0xba1814a9	-0.00058014184
140	0x386b29c6	5.606727e-05
141	0x3a56e4b3	0.0008197531
142	0x3a2b095e	0.0006524528
143	0x3ab242a9	0.0013600189
144	0x3a47d880	0.00076235086
145	0xb9d17acb	-0.00039955074
146	0x3a009049	0.00049043127
147	0x38cfd1d7	9.909615e-05
148	0x3a79be55	0.0009526958
149	0xb91fe228	-0.00015247671
150	0x39f8f8e0	0.00047487672
151	0xb9d9a3b5	-0.00041511437
152	0x3abfadc6	0.0014623932
153	0x3aa10dd0	0.0012287442
154	0x3a4ab9ac	0.0007733356
155	0x3a109d9c	0.00055166497
156	0x39b48951	0.00034434584
157	0x386fa47c	5.713523e-05
158	0x3969693c	0.00022259814
159	0x3aadab9a	0.0013249994
160	0x3a56bd34	0.00081916456
161	0x39a9dfa8	0.0003240083
162	0x38d75bb4	0.0001026908
163	0x3a6ed416	0.0009110583
164	0x3ad5dd46	0.0016316555
165	0x37651aa0	1.3655663e-05
166	0x33d7192e	1.0016298e-07
167	0x380a3472	3.2950607e-05
168	0x39847f6e	0.00025271944
169	0x39f65367	0.00046982916
170	0x3a5d5087	0.00084424805
171	0xbaf31c60	-0.0018547885
172	0x3a6a907e	0.00089479226
173	0x39fd6d58	0.00048337388
174	0x3b08bb1e	0.0020863484
175	0x39d50b66	0.00040635018
176	0x3a2f0530	0.0006676493
177	0xb9217773	-0.00015398655
178	0x3a10019a	0.0005493403
179	0x39a33273	0.0003112737
180	0x39b77ace	0.00034995977
181	0xb983490d	-0.00025040694
182	0x3a0092ad	0.0004904669
183	0x3998ef7e	0.00029170135
184	0x39a1090f	0.00030715062
185	0x398b4478	0.0002656316
186	0x3a568174	0.0008182742
187	0x39c61ca2	0.00037786836
188	0x37cdd974	2.4539164e-05
189	0x3980f13e	0.00024593802
190	0x3a973f01	0.0011539162
191	0x3af4e04a	0.0018682566
192	0x37303764	1.0503314e-05
193	0x39d40aad	0.00040443745
194	0x3983fb70	0.00025173603
195	0x3a274d61	0.0006382075
196	0xba951c91	-0.0011376311
197	0xb8473480	-4.749419e-05
198	0x39223b1a	0.00015471541
199	0x3a759170	0.000936768
200	0x3a324bfa	0.00068014825
201	0x3a429eac	0.00074241566
202	0x3a47f68a	0.0007627985
203	0xb01dbedd	-5.73875e-10
204	0x3aa00818	0.0012209443
205	0x38d66285	0.00010222666
206	0x3a84f635	0.0010144176
207	0x3ad510d4	0.0016255626
208	0x3a326588	0.00068052905
209	0xb713b1a6	-8.803245e-06
210	0x3a6041eb	0.00085547444
211	0x3a0156e5	0.0004933908
212	0x396b4ff4	0.00022441131
213	0x398d0044	0.00026893814
214	0x36352abb	2.6995974e-06
215	0x3a7361d8	0.0009284294
216	0x39c44736	0.0003743709
217	0x3a66dd1d	0.0008806752
218	0x3a995382	0.0011697861
219	0x35f89a40	1.8522333e-06
220	0x3a3230fd	0.0006797461
221	0x39980027	0.00028991813
222	0x3821dd20	3.859133e-05
223	0x39cd119b	0.00039113764
224	0x3a4cb7de	0.0007809381
225	0x3a5f2f20	0.0008513797
226	0xb94b4bbd	-0.00019387803
227	0x39f4c282	0.00046684226
228	0xb53fb10e	-7.1410693e-07
229	0x39a570e0	0.0003155535
230	0x3940c301	0.00018383191
231	0x3a7c55e2	0.00096258346
232	0x38bd0697	9.01345e-05
233	0xb8438bd8	-4.6621863e-05
234	0xb9c7871f	-0.0003805691
235	0x38910ec5	6.91689e-05
236	0x36c498cc	5.859043e-06
237	0x3a48a8db	0.0007654556
238	0xb96ff8fe	-0.00022885573
239	0x3aeecb52	0.0018218553
240	0x3ade2ebc	0.0016951184
241	0x39f45478	0.0004660224
242	0x3a2eb38a	0.00066643266
243	0x38e275d5	0.00010798468
244	0xb90ca018	-0.0001341108
245	0x3820406a	3.8206963e-05
246	0xb91d9f34	-0.00015031995
247	0xbab33174	-0.0013671354
248	0x38b3b300	8.5687265e-05
249	0xb101df85	-1.8899027e-09
250	0x3a13ce8c	0.0005638383
251	0x3980d65b	0.0002457377
252	0x3a3c3442	0.0007179418
253	0x39313fd2	0.0001690381
254	0x39b84b2d	0.00035151225
255	0x3a8a6bd8	0.0010560704

lstm.bias_hh_l0 f4 [512]
0	0x3ab6c465	0.0013944028
1	0xba20033a	-0.00061039964
2	0x3aa346ba	0.0012456991
3	0x3a8c4c9a	0.0010703981
4	0x3887dc25	6.478307e-05
5	0x39ac238a	0.00032832875
6	0x39ea14aa	0.00044647354
7	0x3a442f3a	0.0007483844
8	0xb93764bc	-0.00017489766
9	0x3a077825	0.0005167744
10	0x39985a6a	0.00029059063
11	0xb905a12d	-0.00012743911
12	0x38447eb2	4.6848036e-05
13	0x3a656420	0.00087505765
14	0x3a5a30d2	0.0008323315
15	0x3b071483	0.0020611591
16	0x3acbb810	0.0015542526
17	0xb94285c9	-0.0001855112
18	0x3a66abc2	0.00087993976
19	0x390d2db0	0.00013463828
20	0x3aa996ad	0.0012938582
21	0xb794db46	-1.7745082e-05
22	0x3a39ebfc	0.00070923544
23	0xb8b6e764	-8.721536e-05
24	0x3b01ceae	0.0019807029
25	0x3b0c58b9	0.0021415188
26	0x3ac66cf1	0.0015138668
27	0x3a8598f8	0.0010192683
28	0x39f59c36	0.00046846428
29	0x39cfe57f	0.00039653105
30	0x39b7bc6a	0.0003504486
31	0x3b0a1bb5	0.0021073644
32	0x3a967f2e	0.0011481994
33	0x3a351938	0.000690836
34	0x39ac57e1	0.0003287187
35	0x3ac85998	0.001528549
36	0x3b27f59b	0.002562857
37	0x3a0df138	0.00054146675
38	0x33e55bca	1.068034e-07
39	0x37d4260f	2.5290092e-05
40	0x3a9a581d	0.0011775527
41	0x3a26d2ef	0.0006363829
42	0x3ac25581	0.0014826508
43	0xba09e0eb	-0.00052596506
44	0x3ac55944	0.001505651
45	0x3a9d3241	0.0011993126
46	0x3b2c3f93	0.002628301
47	0x3a320d20	0.0006792117
48	0x3a5ef4b1	0.000850509
49	0x397a0004	0.00023841864
50	0x3a5ddf8c	0.0008463792
51	0x3a115dab	0.00055452687
52	0x3a477c40	0.0007609762
53	0x3a050b4e	0.0005075232
54	0x3a3ff7b0	0.000732298
55	0x39f3f1a0	0.00046528596
56	0x3a9c6ac8	0.0011933679
57	0x3a4480c3	0.00074959936
58	0x3a8b2add	0.0010617633
59	0x3a1aa270	0.0005898839
60	0x38eb994b	0.00011234226
61	0x39fff7ce	0.0004882202
62	0x3b034f78	0.002003638
63	0x3b19e65d	0.0023483254
64	0x38cafd2e	9.679269e-05
65	0x3a1398ba	0.0005630363
66	0x3a3f1920	0.00072898157
67	0x3aaa0844	0.0012972434
68	0xba093597	-0.0005234121
69	0x38698968	5.56795e-05
70	0x39d9311b	0.00041426052
71	0x3aa0ec21	0.0012277403
72	0x3a7cce20	0.0009643752
73	0x3a974bca	0.0011542973
74	0x3ab1d64e	0.0013567896
75	0xaff96642	-4.5365495e-10
76	0x3acef460	0.0015789382
77	0x391161a2	0.00013864649
78	0x3ac0fcec	0.0014723814
79	0x3b0bac81	0.0021312537
80	0x3a615500	0.0008595735
81	0xb6f136ae	-7.1887252e-06
82	0x3a9b60a9	0.0011854368
83	0x3ab8730d	0.0014072374
84	0x39ba7c76	0.00035569415
85	0x39ce23e5	0.00039318125
86	0xb56577b0	-8.5483316e-07
87	0x3aaa51ca	0.0012994346
88	0x3aa0601d	0.0012235675
89	0x3aa4bfb2	0.0012569337
90	0x3aefac90	0.001828568
91	0xb6c86c54	-5.9730755e-06
92	0x3a81fff6	0.0009918201
93	0x3a7b2ffc	0.00095820404
94	0x383b9c33	4.4729746e-05
95	0x3a3dcbde	0.00072401564
96	0x3a8e4da3	0.0010856878
97	0x3a82a4ba	0.0009967305
98	0x39938bd0	0.00028142193
99	0x3a3e6a7f	0.0007263794
100	0xb537483b	-6.827792e-07
101	0x3a76447b	0.00093943597
102	0x3a545324	0.0008099547
103	0x3aac1d1c	0.0013131234
104	0x39146c00	0.00014154613
105	0x395b5e46	0.00020920587
106	0x39d16890	0.00039941492
107	0x393f8128	0.00018263294
108	0x36b40020	5.3644326e-06
109	0x3a59b6f4	0.0008305155
110	0x3a0cbd4b	0.0005368783
111	0x3b11b294	0.0022231685
112	0x3b0c9ce4	0.0021455819
113	0x3a81a019	0.0009889632
114	0x3a82b0e3	0.0009970929
115	0x39025187	0.00012428137
116	0x386f2a14	5.702123e-05
117	0x381a9b18	3.6860903e-05
118	0x39b89ece	0.00035213534
119	0xba7bcf94	-0.00096058217
120	0x3911d78b	0.00013908574
121	0xb10dacaa	-2.0616349e-09
122	0x3a35bd34	0.00069327955
123	0x39f44d16	0.0004659674
124	0x3aaed393	0.00133382
125	0x3a1a503a	0.00058865885
126	0x3a1ef3f9	0.00060635764
127	0x3acace46	0.0015472851
128	0x3a6a30fb	0.000893369
129	0xbad3ccdc	-0.0016159075
130	0x3a7c5c64	0.00096268044
131	0x39985ea8	0.00029062224
132	0x388391de	6.273737e-05
133	0x394abc20	0.00019334303
134	0x39ac1200	0.00032819808
135	0x39fd613e	0.00048328371
136	0xb9f84522	-0.00047353754
137	0xb7829698	-1.5567333e-05
138	0x393e408c	0.00018143858
139	0xba1814a9	-0.00058014184
140	0x386b2128	5.6059245e-05
141	0x3a56e4b3	0.0008197531
142	0x3a2b095e	0.0006524528
143	0x3ab242a9	0.0013600189
144	0x3a47d880	0.00076235086
145	0xb9d17acb	-0.00039955074
146	0x3a009061	0.00049043266
147	0x38cfd1d7	9.909615e-05
148	0x3a79be55	0.0009526958
149	0xb91fe278	-0.00015247788
150	0x39f8f8e0	0.00047487672
151	0xb9d9a3b5	-0.00041511437
152	0x3abfadc6	0.0014623932
153	0x3aa10dd0	0.0012287442
154	0x3a4ab9ac	0.0007733356
155	0x3a109d9c	0.00055166497
156	0x39b48951	0.00034434584
157	0x386fa48e	5.7135294e-05
158	0x3969693c	0.00022259814
159	0x3aadab9a	0.0013249994
160	0x3a56bd8d	0.00081916974
161	0x39a9dfa8	0.0003240083
162	0x38d75bb4	0.0001026908
163	0x3a6ed416	0.0009110583
164	0x3ad5dd48	0.0016316557
165	0x37651aa0	1.3655663e-05
166	0x33d718c1	1.00162204e-07
167	0x380a3472	3.2950607e-05
168	0x39847f6e	0.00025271944
169	0x39f65368	0.0004698292
170	0x3a5d5087	0.00084424805
171	0xbaf31c60	-0.0018547885
172	0x3a6a907e	0.00089479226
173	0x39fd6d56	0.00048337382
174	0x3b08bb1e	0.0020863484
175	0x39d50b66	0.00040635018
176	0x3a2f052e	0.0006676492
177	0xb9217773	-0.00015398655
178	0x3a10019a	0.0005493403
179	0x39a33273	0.0003112737
180	0x39b77ace	0.00034995977
181	0xb983490d	-0.00025040694
182	0x3a0092ae	0.00049046695
183	0x3998ef7e	0.00029170135
184	0x39a1090f	0.00030715062
185	0x398b4475	0.0002656315
186	0x3a568174	0.0008182742
187	0x39c61ca2	0.00037786836
188	0x37cdd974	2.4539164e-05
189	0x3980f13d	0.000245938
190	0x3a973f01	0.0011539162
191	0x3af4e04a	0.0018682566
192	0x37303764	1.0503314e-05
193	0x39d40aad	0.00040443745
194	0x3983fb70	0.00025173603
195	0x3a274d61	0.0006382075
196	0xba951c91	-0.0011376311
197	0xb8473482	-4.74942e-05
198	0x39223b1a	0.00015471541
199	0x3a759172	0.00093676813
200	0x3a324bfa	0.00068014825
201	0x3a429eab	0.0007424156
202	0x3a47f68a	0.0007627985
203	0xb01dc596	-5.7397054e-10
204	0x3aa00818	0.0012209443
205	0x38d66284	0.00010222665
206	0x3a84f634	0.0010144175
207	0x3ad510d4	0.0016255626
208	0x3a326588	0.00068052905
209	0xb713b1a4	-8.803243e-06
210	0x3a6041eb	0.00085547444
211	0x3a0156e4	0.0004933907
212	0x396b4ff4	0.00022441131
213	0x398d0046	0.0002689382
214	0x3635352a	2.7002047e-06
215	0x3a7361d6	0.0009284293
216	0x39c44736	0.0003743709
217	0x3a66dd21	0.00088067545
218	0x3a995380	0.0011697859
219	0x35f89b10	1.8522569e-06
220	0x3a323100	0.00067974627
221	0x3998006c	0.00028992014
222	0x38216f9c	3.8489336e-05
223	0x39cd1197	0.00039113752
224	0x3a4cb834	0.0007809431
225	0x3a5f2f20	0.0008513797
226	0xb94b4bbd	-0.00019387803
227	0x39f4c282	0.00046684226
228	0xb53fb184	-7.1411364e-07
229	0x39a570e0	0.0003155535
230	0x3940c302	0.00018383193
231	0x3a7c55e2	0.00096258346
232	0x38bd0697	9.01345e-05
233	0xb8439028	-4.662588e-05
234	0xb9c78721	-0.00038056917
235	0x38910ec5	6.91689e-05
236	0x36c498cc	5.859043e-06
237	0x3a48a8db	0.0007654556
238	0xb96ff8fe	-0.00022885573
239	0x3aeecb52	0.0018218553
240	0x3ade2ebc	0.0016951184
241	0x39f45476	0.00046602235
242	0x3a2eb38a	0.00066643266
243	0x38e275d3	0.00010798466
244	0xb90ca018	-0.0001341108
245	0x38204069	3.820696e-05
246	0xb91d9f34	-0.00015031995
247	0xbab33174	-0.0013671354
248	0x38b3b300	8.5687265e-05
249	0xb101dff8	-1.8899282e-09
250	0x3a13ce8c	0.0005638383
251	0x3980d65b	0.0002457377
252	0x3a3c3442	0.0007179418
253	0x39313fd2	0.0001690381
254	0x39b84b34	0.00035151246
255	0x3a8a6bd8	0.0010560704

lstm.weight_ih_l1 f4 [512, 128]
0	0xa6a7d6df	-1.1646194e-15
1	0xa69fcbbc	-1.1088064e-15
2	0xa687fc05	-9.435817e-16
3	0xa6658083	-7.96245e-16
4	0x26a44100	1.1397404e-15
5	0xa69e5d81	-1.0988797e-15
6	0x26a30f92	1.1314617e-15
7	0xa69baf56	-1.080281e-15
8	0x26a65ac4	1.1543166e-15
9	0x26c2197d	1.3468363e-15
10	0xa61071f8	-5.011449e-16
11	0x268c8c99	9.752561e-16
12	0x24facfd8	1.0877232e-16
13	0xa5b75b68	-3.180738e-16
14	0x2634bd5c	6.2706675e-16
15	0xa68c84b8	-9.750425e-16
16	0x26a7be1a	1.163948e-15
17	0xa6bcc0ea	-1.309741e-15
18	0xa6963631	-1.0423029e-15
19	0x262f1d15	6.0754735e-16
20	0xa69fbcf2	-1.1084055e-15
21	0xa6a1ca76	-1.1226496e-15
22	0x269d5fee	1.0920065e-15
23	0xa674c89d	-8.4926387e-16
24	0xa507c408	-1.1775801e-16
25	0x23e2e200	2.4598684e-17
26	0xa4b9a6b0	-8.051334e-17
27	0xa5e68190	-3.9986435e-16
28	0x256d6dc4	2.0593663e-16
29	0x260fbfbf	4.9872956e-16
30	0x260e3859	4.934251e-16
31	0xa62fb7dc	-6.09645e-16
32	0x245c5ca0	4.7783352e-17
33	0x26bc58a3	1.3069146e-15
34	0xa6845113	-9.181315e-16
35	0xa69134f2	-1.0075747e-15
36	0x26a6feec	1.1587661e-15
37	0xa644fbeb	-6.8342573e-16
38	0xa6a2383f	-1.1256254e-15
39	0x22528800	2.8532305e-18
40	0x25e26cb0	3.92784e-16
41	0xa69a65b6	-1.0713465e-15
42	0xa6470dd8	-6.9060756e-16
43	0x255fe418	1.9419448e-16
44	0xa4f10f20	-1.0454271e-16
45	0xa68532ce	-9.2425e-16
46	0x252a7668	1.4785267e-16
47	0x2684c80e	9.213565e-16
48	0x26723685	8.4034504e-16
49	0x258566a8	2.3141385e-16
50	0xa601c49a	-4.502231e-16
51	0xa6674b71	-8.0246467e-16
52	0xa59551c4	-2.5902786e-16
53	0xa6a36f66	-1.1340592e-15
54	0x25fe9a47	4.416652e-16
55	0xa4b4cd70	-7.841058e-17
56	0x2688bfe5	9.488909e-16
57	0x2637820e	6.3667136e-16
58	0x26b3ff31	1.248979e-15
59	0xa63c76e4	-6.538673e-16
60	0x2408af50	2.9638795e-17
61	0xa683c368	-9.142916e-16
62	0xa6600b02	-7.773053e-16
63	0xa69633fb	-1.042243e-15
64	0xa6883756	-9.451895e-16
65	0xa5e775e8	-4.015201e-16
66	0x2688f51e	9.503335e-16
67	0xa5b2866e	-3.096917e-16
68	0xa69dbebc	-1.0945762e-15
69	0xa5a3f2c0	-2.8440486e-16
70	0xa6908542	-1.0028127e-15
71	0xa4cd4e30	-8.903703e-17
72	0xa66f8ee6	-8.3113446e-16
73	0x25a9d5f0	2.9461796e-16
74	0xa575b710	-2.1312387e-16
75	0xa530f294	-1.5347755e-16
76	0xa52b2798	-1.48453e-16
77	0x25b7ab02	3.186132e-16
78	0x259c2c94	2.7091894e-16
79	0xa5c45054	-3.4055013e-16
80	0xa698393a	-1.056263e-15
81	0xa6a19d23	-1.1214211e-15
82	0xa68e0b24	-9.856249e-16
83	0x26a07375	1.1133525e-15
84	0x269db786	1.0943808e-15
85	0x2651cf4c	7.279238e-16
86	0xa5eb5b20	-4.082775e-16
87	0x253c6af0	1.6342633e-16
88	0xa6735645	-8.442448e-16
89	0x261acf4a	5.371041e-16
90	0xa68738a6	-9.382861e-16
91	0x26238990	5.6738417e-16
92	0xa60b915b	-4.8422306e-16
93	0xa3a8ef60	-1.8315976e-17
94	0x2687d5ae	9.425425e-16
95	0x2697e3d6	1.0539485e-15
96	0x25f79e5e	4.2954984e-16
97	0xa69eea9b	-1.1027042e-15
98	0x2606d909	4.6784727e-16
99	0xa5ccb8d0	-3.5513593e-16
100	0x2653fd08	7.354825e-16
101	0xa68f5505	-9.945663e-16
102	0xa62e88ed	-6.0553946e-16
103	0x258b924e	2.4211796e-16
104	0x257161c0	2.0936537e-16
105	0xa6514984	-7.2611074e-16
106	0x25f1826c	4.1895213e-16
107	0x265c1a80	7.6363747e-16
108	0xa5873150	-2.3452182e-16
109	0x26473bb2	6.9122897e-16
110	0xa68277ba	-9.053014e-16
111	0x26104fc4	5.006814e-16
112	0xa6ae1ec9	-1.208202e-15
113	0x257d0600	2.1946285e-16
114	0x269f0d3a	1.1036426e-15
115	0xa4970c70	-6.550688e-17
116	0xa686d614	-9.356144e-16
117	0x2586cb28	2.3382959e-16
118	0xa6398b4d	-6.4373556e-16
119	0xa6a2f12b	-1.1306377e-15
120	0xa4be3920	-8.249614e-17
121	0x2546f894	1.7257984e-16
122	0xa589b374	-2.3887314e-16
123	0xa6a066ca	-1.1130091e-15
124	0x269bb338	1.0803863e-15
125	0xa6aba3c6	-1.1909899e-15
126	0xa5921a54	-2.5344803e-16
127	0xa6bdd0fb	-1.3171154e-15
128	0xaf0a3584	-1.257004e-10
129	0xb03e1bba	-6.9161e-10
130	0x2e0304f0	2.9790337e-11
131	0xaf8d8cad	-2.5747707e-10
132	0x2e2dfd4c	3.956062e-11
133	0x2fa155d4	2.9346714e-10
134	0xb003172b	-4.7690446e-10
135	0xafdc564f	-4.0079093e-10
136	0xaec1b5de	-8.80893e-11
137	0xae8a4858	-6.288364e-11
138	0xaf81bbb0	-2.3598323e-10
139	0xb00b99b2	-5.078632e-10
140	0xae851244	-6.0513844e-11
141	0xaf669664	-2.0971808e-10
142	0x2d447610	1.1167525e-11
143	0xaf4fe854	-1.890908e-10
144	0xaf3eadb8	-1.7342117e-10
145	0xaf0ffa09	-1.3094605e-10
146	0x30297108	6.164247e-10
147	0xafed3767	-4.3149415e-10
148	0xae4b7550	-4.626105e-11
149	0xaf46ba74	-1.8074237e-10
150	0x2e811548	5.870021e-11
151	0x30c516ee	1.4340154e-09
152	0x2eb9167b	8.416819e-11
153	0xb08b398a	-1.0129935e-09
154	0x30581a60	7.8617823e-10
155	0x2f49be54	1.8348462e-10
156	0x3052c651	7.667938e-10
157	0xae20b6a4	-3.6542006e-11
158	0xaea5fba6	-7.548033e-11
159	0x303a609d	6.78037e-10
160	0x2f716408	2.195436e-10
161	0x2fe29956	4.1218112e-10
162	0x2f4681f8	1.8054169e-10
163	0x2f6024cc	2.0385754e-10
164	0xaf408492	-1.7509397e-10
165	0xb0e08d5c	-1.6338322e-09
166	0x2d2f0a2a	9.949855e-12
167	0x2e23277a	3.709697e-11
168	0xaf9ae582	-2.8175512e-10
169	0x301aaa87	5.626721e-10
170	0xafe1d308	-4.1077208e-10
171	0x2e905fdc	6.56539e-11
172	0x307643dc	8.959071e-10
173	0x3036c3a8	6.648926e-10
174	0xb007454e	-4.92112e-10
175	0xaf8df2ea	-2.5820351e-10
176	0xacd344b0	-6.0046065e-12
177	0x2e389fc0	4.1978643e-11
178	0x2fc15b66	3.5171438e-10
179	0xaf45cbb2	-1.7989413e-10
180	0x2ede9b90	1.01230246e-10
181	0x2d65f880	1.3072321e-11
182	0xad82b220	-1.4858392e-11
183	0x3039986a	6.75192e-10
184	0x30627dcb	8.2397084e-10
185	0x30675a2f	8.416547e-10
186	0xaf9ca256	-2.849158e-10
187	0x2f525a60	1.9131496e-10
188	0xb093186a	-1.0702597e-09
189	0xb098c8b2	-1.1116497e-09
190	0x306c6a1d	8.6007096e-10
191	0x303b6f9e	6.818882e-10
192	0xaed136ac	-9.513931e-11
193	0x2f58f21f	1.9731104e-10
194	0xb0631e72	-8.2625384e-10
195	0x305c9dae	8.025961e-10
196	0x2f4951d0	1.8309909e-10
197	0xafda2c00	-3.9685233e-10
198	0x30264f2f	6.0502975e-10
199	0xae399394	-4.2195206e-11
200	0xb01411ad	-5.3867205e-10
201	0xb09db7e7	-1.1475522e-09
202	0xadd3b520	-2.4068358e-11
203	0xa983a900	-5.8468855e-14
204	0xb0ab4a6e	-1.2463042e-09
205	0x2eb8f548	8.410922e-11
206	0xaf9ff88b	-2.9098532e-10
207	0xafbb94cc	-3.4120828e-10
208	0x306f90b8	8.715335e-10
209	0x2f378e7b	1.6694372e-10
210	0x30706ce8	8.7466256e-10
211	0x2f3ebc64	1.7347329e-10
212	0x2f069142	1.2238835e-10
213	0x2e0dc264	3.2232342e-11
214	0xacc56f18	-5.6114106e-12
215	0x2f8ef363	2.6002586e-10
216	0x30d09030	1.5174972e-09
217	0x30a25cdc	1.1813444e-09
218	0xb01bea41	-5.6721566e-10
219	0x2ee6a1f4	1.0487958e-10
220	0x304193f1	7.042323e-10
221	0xaf84119a	-2.4023167e-10
222	0x2f5d2d8e	2.0116017e-10
223	0x2f7437de	2.2211519e-10
224	0xae8d3b04	-6.422421e-11
225	0x30663a21	8.375612e-10
226	0x30391552	6.7332906e-10
227	0xafc7c522	-3.633796e-10
228	0xae40c2f8	-4.3828913e-11
229	0x2fb942f2	3.3698871e-10
230	0xacd64a00	-6.0904615e-12
231	0x30175e35	5.5067356e-10
232	0xae4aca82	-4.6109346e-11
233	0x2ee3b8c4	1.0355586e-10
234	0x2f9ae1dc	2.817292e-10
235	0x2e9f6eb0	7.250145e-11
236	0x2d68b8a8	1.3228675e-11
237	0xafa82adc	-3.0589475e-10
238	0xafc6346c	-3.6053238e-10
239	0x30995038	1.1155015e-09
240	0xaffd0266	-4.6022136e-10
241	0xaf86d15d	-2.452322e-10
242	0xaf672500	-2.1022473e-10
243	0xaf27f692	-1.5276161e-10
244	0x2f0981a5	1.2506136e-10
245	0x2dcd13f0	2.3314656e-11
246	0x2fe17251	4.1008488e-10
247	0x301f1147	5.7868416e-10
248	0xaf29e57c	-1.545199e-10
249	0x2ab26d24	3.1694883e-13
250	0xb0cf98ea	-1.5104693e-09
251	0x2e9cd020	7.131029e-11
252	0x2fed2600	4.313705e-10
253	0xb045cbf8	-7.195804e-10
254	0x2f597aec	1.9779706e-10
255	0x2fc0d10e	3.507314e-10

lstm.weight_hh_l1 f4 [512, 128]
0	0x2691b6fc	1.0110994e-15
1	0xa5976810	-2.626484e-16
2	0xa68beac5	-9.708697e-16
3	0x2685ce70	9.284684e-16
4	0x268fe675	9.985084e-16
5	0x26684ea0	8.0597726e-16
6	0x25424900	1.6851551e-16
7	0xa6a1820d	-1.120687e-15
8	0x25fbd4a2	4.3685645e-16
9	0xa63b9484	-6.5079934e-16
10	0xa6a24a2d	-1.1261114e-15
11	0x260bf689	4.855943e-16
12	0x2696abe3	1.0454931e-15
13	0x267418ac	8.468794e-16
14	0x25a9f7c8	2.948473e-16
15	0xa6286dfe	-5.8435776e-16
16	0xa600f84c	-4.4745426e-16
17	0x263817b7	6.3869964e-16
18	0xa6683cb6	-8.057345e-16
19	0xa6ab9fa6	-1.1908781e-15
20	0x267a3cca	8.681856e-16
21	0x266ade76	8.148655e-16
22	0xa644cdcb	-6.828006e-16
23	0xa680eb1c	-8.945511e-16
24	0x26332d7b	6.216474e-16
25	0xa618586f	-5.2855444e-16
26	0x268dae79	9.831131e-16
27	0x267a88fe	8.6921833e-16
28	0x26b1773e	1.2314163e-15
29	0x26abd2d7	1.1922657e-15
30	0x2616a0ca	5.2259614e-16
31	0x26a6bd3d	1.1569857e-15
32	0xa677db42	-8.599249e-16
33	0xa69cb662	-1.0874109e-15
34	0x2696fdcb	1.0477132e-15
35	0xa5b7864a	-3.1836437e-16
36	0x26805c0e	8.906736e-16
37	0x269a17ff	1.0692401e-15
38	0x2684a373	9.203643e-16
39	0x262d42e0	6.0112065e-16
40	0xa6994c78	-1.0637235e-15
41	0xa6a40de2	-1.1383549e-15
42	0x2485abc0	5.797051e-17
43	0x25d6db06	3.7271498e-16
44	0x255d6b78	1.9205106e-16
45	0xa6ac60b7	-1.1961112e-15
46	0x25f10d3b	4.18158e-16
47	0xa6a12184	-1.1180704e-15
48	0xa67b6b14	-8.7228236e-16
49	0x2671b280	8.3855584e-16
50	0xa4d5b980	-9.2688274e-17
51	0xa64e00d7	-7.1471745e-16
52	0xa527fc70	-1.457047e-16
53	0x267a6c1b	8.6882684e-16
54	0xa69c3d56	-1.08413e-15
55	0xa65c7e08	-7.6498637e-16
56	0xa64ba40f	-7.0652114e-16
57	0xa61bf66e	-5.41104e-16
58	0x25dfb531	3.8807114e-16
59	0xa6a25f3e	-1.1266824e-15
60	0x268a5bf6	9.6006e-16
61	0xa6935aab	-1.022475e-15
62	0x26b0c734	1.2266447e-15
63	0x26132150	5.1046017e-16
64	0xa65125b7	-7.2562554e-16
65	0x25906e0c	2.505459e-16
66	0x2686e3f8	9.359909e-16
67	0x269715c9	1.0483635e-15
68	0xa6981c2d	-1.0554756e-15
69	0xa5e1086f	-3.9036993e-16
70	0x25d68460	3.7212783e-16
71	0x25db6871	3.8061216e-16
72	0x254dbd8a	1.7845134e-16
73	0x2649fd28	7.0078974e-16
74	0xa6a61f13	-1.1526987e-15
75	0x25cafc2c	3.5212293e-16
76	0xa5d58dc0	-3.7045664e-16
77	0x26487cdd	6.955816e-16
78	0xa67dee56	-8.8100013e-16
79	0xa6991834	-1.0623068e-15
80	0xa68c4f04	-9.735869e-16
81	0x26878b27	9.405224e-16
82	0x26a18590	1.1207821e-15
83	0xa59f653e	-2.7650708e-16
84	0x268028f3	8.892884e-16
85	0x263494d9	6.265177e-16
86	0xa64d0aba	-7.11382e-16
87	0xa5f71b9a	-4.2866373e-16
88	0xa684a629	-9.204378e-16
89	0xa680e126	-8.942811e-16
90	0x261333d0	5.107109e-16
91	0x26034ccc	4.5553834e-16
92	0x26786d58	8.6190473e-16
93	0x26a1e698	1.1234122e-15
94	0xa69e4d3b	-1.0984386e-15
95	0x247d4b20	5.4924263e-17
96	0x2630ca49	6.1336414e-16
97	0xa66fe5b2	-8.3231077e-16
98	0xa69f11de	-1.1037684e-15
99	0x269321fc	1.0209386e-15
100	0xa6a49ba0	-1.1421968e-15
101	0x269cc417	1.0877825e-15
102	0xa629a748	-5.886036e-16
103	0xa64e7512	-7.1629267e-16
104	0xa60d7e4c	-4.9090366e-16
105	0xa63f7273	-6.6421544e-16
106	0x2613456e	5.1094965e-16
107	0x262180e6	5.6032786e-16
108	0x2677c078	8.5956184e-16
109	0x269762a2	1.0504464e-15
110	0xa65ef36c	-7.735162e-16
111	0x266a77ea	8.134757e-16
112	0xa6951b24	-1.0346308e-15
113	0x23b74000	1.9868005e-17
114	0xa67755be	-8.581154e-16
115	0xa6b32230	-1.2429887e-15
116	0xa5e3a898	-3.9492466e-16
117	0x269fc004	1.1084887e-15
118	0x261c4a0d	5.422373e-16
119	0x2656a8c7	7.44749e-16
120	0x25509640	1.8092031e-16
121	0xa6a96498	-1.1753997e-15
122	0x26b2ca5d	1.2406082e-15
123	0xa695281a	-1.0349821e-15
124	0x261cd20c	5.440804e-16
125	0x2665d94a	7.9744817e-16
126	0x25c2850e	3.3743797e-16
127	0x26a6e4c8	1.1580575e-15
128	0x266266c3	7.854877e-16
129	0xae7973ce	-5.67189e-11
130	0x258ef168	2.4796657e-16
131	0xa3abf900	-1.8645313e-17
132	0xaa037170	-1.1674494e-13
133	0xab665388	-8.182834e-13
134	0x259f7412	2.7660756e-16
135	0xaf073008	-1.2295243e-10
136	0x25bd2048	3.2808148e-16
137	0x267788ee	8.5880914e-16
138	0x2ef1eb55	1.10012145e-10
139	0x2f099085	1.2511421e-10
140	0xaf1bb070	-1.4159851e-10
141	0xa526bd48	-1.4462336e-16
142	0x25222e1c	1.4066883e-16
143	0x2acae984	3.6044442e-13
144	0xa58a9bb0	-2.4044682e-16
145	0x250ffa90	1.2488167e-16
146	0xadadab70	-1.9743956e-11
147	0x2efc0fd8	1.1462448e-10
148	0xa645306e	-6.841374e-16
149	0x2f084834	1.239478e-10
150	0xa686b349	-9.346713e-16
151	0x2686f4fd	9.364522e-16
152	0x2ed3a141	9.6238136e-11
153	0x259cb2d0	2.7182854e-16
154	0xa4f4ae50	-1.0611343e-16
155	0x2d6ffffc	1.3642417e-11
156	0x2f237244	1.4865359e-10
157	0xaefdbd9e	-1.1538791e-10
158	0xa6ddd68e	-1.5393111e-15
159	0x2c167c04	2.1385125e-12
160	0x261c6f1b	5.427395e-16
161	0x2f0030ec	1.1658913e-10
162	0x26767aab	8.551464e-16
163	0x2f13c35c	1.3438978e-10
164	0x23606a80	1.21656166e-17
165	0xaef4e434	-1.11363724e-10
166	0xa5c134a0	-3.3515823e-16
167	0xaf0efa00	-1.3003643e-10
168	0xac5f1750	-3.1703147e-12
169	0x259f67d4	2.765246e-16
170	0x2f03ab70	1.1975287e-10
171	0x250b0db0	1.2060966e-16
172	0x2afd7d98	4.5028976e-13
173	0xaec25fde	-8.839128e-11
174	0xa682fa2b	-9.08837e-16
175	0xada432b0	-1.8667151e-11
176	0x2e824b21	5.925061e-11
177	0x2f05ac44	1.215748e-10
178	0xaf074560	-1.2302825e-10
179	0x259622a8	2.6044336e-16
180	0xa61ddb29	-5.4767335e-16
181	0x25e7e0ba	4.0224393e-16
182	0x2a040f92	1.1729357e-13
183	0xad80b086	-1.4630307e-11
184	0x2f0845f4	1.239398e-10
185	0xa78b1c38	-3.8610845e-15
186	0xa626651d	-5.7729853e-16
187	0x2b6d5020	8.431051e-13
188	0x2a8452e1	2.350542e-13
189	0xaeb424f2	-8.192015e-11
190	0xaf0631db	-1.2204941e-10
191	0x24d8fa68	9.409927e-17
192	0x2f077c76	1.2322396e-10
193	0xa68bddfe	-9.705234e-16
194	0xaf765a80	-2.2405722e-10
195	0x260a57f7	4.799758e-16
196	0x2f050435	1.2097774e-10
197	0xa50df7b0	-1.231372e-16
198	0x25220ef4	1.4056326e-16
199	0x2504c3f0	1.1515561e-16
200	0xa605a16e	-4.636242e-16
201	0x255e1680	1.9263054e-16
202	0x2657886f	7.477801e-16
203	0xaeed442e	-1.07896234e-10
204	0xa60a2cdf	-4.793918e-16
205	0x290b4b85	3.0929703e-14
206	0x2ec6dfe5	9.043769e-11
207	0xaf0be828	-1.2724455e-10
208	0x260ca120	4.879062e-16
209	0xa7a1fd87	-4.496135e-15
210	0xa8d12c1b	-2.3222789e-14
211	0x2662b3dc	7.8653256e-16
212	0xa64831bf	-6.945636e-16
213	0xaec3e498	-8.90818e-11
214	0x2f08dce5	1.2447605e-10
215	0xa98fde7f	-6.3890726e-14
216	0x29a5d47c	7.364332e-14
217	0xa578a1e0	-2.1565416e-16
218	0xa61b7aee	-5.394303e-16
219	0x24b6fbb8	7.9356346e-17
220	0x261bae40	5.401258e-16
221	0xa67d7d21	-8.794659e-16
222	0xae918e3e	-6.619104e-11
223	0xab9940ba	-1.0889269e-12
224	0x2640b09b	6.6852727e-16
225	0x2f1b8124	1.4143048e-10
226	0x288c9194	1.5606257e-14
227	0x2b20f781	5.71869e-13
228	0x2eded169	1.013259e-10
229	0x2ee45ebc	1.0385068e-10
230	0xacb166df	-5.0420636e-12
231	0xaf08d6f0	-1.2445489e-10
232	0xaf040ffb	-1.2011007e-10
233	0xa5f966fe	-4.3264405e-16
234	0xa5c0153e	-3.3321085e-16
235	0xaf021ad8	-1.1832968e-10
236	0xa64dd506	-7.1412363e-16
237	0xa613881e	-5.1185343e-16
238	0x26316b00	6.1554223e-16
239	0xaf0af247	-1.2637101e-10
240	0x287e3a32	1.41124515e-14
241	0x2e28ef44	3.8411288e-11
242	0x248d8578	6.137511e-17
243	0x2f0b0bcb	1.2646166e-10
244	0x26d03386	1.4446865e-15
245	0xaec92e32	-9.148628e-11
246	0xa6940d55	-1.0273177e-15
247	0x25bd36ac	3.282332e-16
248	0x25cb143e	3.5228603e-16
249	0x2f111e21	1.3198377e-10
250	0xaf030946	-1.1917675e-10
251	0xaf063130	-1.2204704e-10
252	0x26859a1c	9.2705e-16
253	0x26ebefde	1.6371417e-15
254	0x254e2c30	1.7882623e-16
255	0x2ae36f88	4.040069e-13
