models/EURGBP_model.pth (torch, 860300 bytes, 15 tensors)

lstm.weight_ih_l0 f4 [512, 12]
00000000: 77d8 48be e3ac 5cbe 0cda 15be 20fe 3bbe
00000010: f4b2 abbd d6f0 84be e87c 8bbe e5c0 f5bd
00000020: 2480 143d b911 e2b9 ecc2 22be f674 10be
00000030: 9851 7bbd 48cf d2bd c26e d3bc 90a4 91bd
00000040: 691b db3e d6e2 abbd 5cfe 303c 7d5e 06be
00000050: 8011 1abe eda7 00be 160c 78be e11d 3fbe
00000060: 9b50 1abe e33e 2cbe 63b8 99bd c2b3 02be
00000070: 309b 833e a4a5 e1bc 22d8 22bd c564 cebd
00000080: 2bf1 9d3a df45 383d 5fa1 88bd 26c7 e8bc
00000090: 02a0 9abe ad1a 9abe e878 b1be 9cf0 aebe
000000a0: 093a b1be 36d9 a1be fd80 55be 6ac5 7cbe
000000b0: a302 12be 8223 31be aa32 01be 8e0e 4fbe
000000c0: 8c05 88be ef3f 9dbe 702b a0be dc34 96be
000000d0: 12ff 83be a006 9cbe 405e 77be 8105 1cbe
000000e0: 7e1e 52be 1980 0dbd ccd0 26bd 1be4 a3bd
000000f0: 5169 a1be f3a0 a6be d32e 7ebe a5fb 5ebe
00000100: ce5a cd3d 71cf 4fbe 2459 8cbe 81a2 21bc
00000110: 157e d0bd e634 f6bd 04f5 18be 13d4 fabd
00000120: 01cc 93be f7f6 9fbe f0d5 8dbe 6da5 11be
00000130: 12e3 233e 784c 8abe 0f4a 3abe 98c2 6bbc
00000140: c3f0 143d d629 cbbd 84d5 38bd 8571 7c3d
00000150: 83c4 2cbe 8407 14bb 08f5 1fbe a618 24be
00000160: 0595 89bb 298e f7bd 5aa2 17bc ea91 14bd
00000170: 21f4 df3d c919 cfbd 1349 9c3d 1e3a 5cbe
00000180: a0d4 e5bd d70b 46bd 7e9e d0bd 7614 b6bd
00000190: 2800 be3e 7bc2 42bd 8cf7 16be a0dc 39be
000001a0: c170 883e fc13 833d 3e36 fb3d 1b85 b1be
000001b0: 0a6c 1cbc b3ed 723d 30dc ae3c 1286 c03d
000001c0: 7d5d 4abf 6b8e 763d 37c3 3fbd 462f a83c
000001d0: 365a 38bd bafb aa3d 965a 683d 5536 39be
000001e0: ac11 ce3a c8e9 39bd 1b4d 97bd a050 03bd
000001f0: f17a a4be eb98 853c 8dfb 0ebd b132 89bd
00000200: 5320 e1be 967e d8bd 84cb 663d 9650 59bb
00000210: e50b 89be 1b83 56be 02b5 91be 5946 27be
00000220: 3c26 c03e d2f0 1bbe 1ec3 26be 0654 0abe
00000230: 6390 79bb 6947 2dbe 36d7 04be 1d82 91be
00000240: 450a 2a3d cfcc 433d 8803 6dbd 158d 7b3c
00000250: ba65 e0be 17ec a3bc e1a9 6e3d aa57 0fbd
00000260: 0532 63bd 2cbc 2c3d b48f a7bd df75 82bd
00000270: 2d41 5bbe 6ff2 d4bd c9a7 fbbd d6df fdbd
00000280: fb42 16be 5157 4ebe 257b d1bd d13c a6bd
00000290: 0284 89be 8f07 0fbe b3ba 94bd ebc8 b8bd
000002a0: 0cd1 963d e19f 663e 991d 173e 2328 103e
000002b0: 55c4 843d 9cdd 4b3e c1c3 243e 11fd 903e
000002c0: 47ef bc3e 7ed6 813e 7a54 373e 8f8b 7f3e
000002d0: c02b 84be 616d 80be 61e5 34be a8b1 67be
000002e0: 3354 efbd f3b2 a7be a26e 9fbe 7026 8bbc
000002f0: 2ae6 4fbe fd93 4c3d ca8f bebc 8c07 4b3d
00000300: e76c 153d 5a09 cabd 20db 0fbd fa98 80bd
00000310: 43aa 9fbe 4c71 c4bd dafd 3cbd ec75 12be
00000320: c96d 373b 8af6 b0bc 1bad dd3d fb27 023b
00000330: 756a 493d ec75 1d3e e555 8f3d 535d 4cbc
00000340: 6706 9c3e ed34 383d 3325 44bd 3ade f83e
00000350: 8e13 953e 654a 2bbd 449f 3c3f 92c7 ce3e
00000360: b09a 9a3a 12d0 ac3d 963b 783d b8a0 89bd
00000370: ff4b 553f 7bf6 c33d 1be4 e5bd 1a43 d83e
00000380: 5d36 d63e f092 f83d a05b 0e3f e5de ba3e
00000390: a8c9 87bd 5854 6abc aafa 94bd b455 4f3c
000003a0: 0273 033f d095 b0bd d51e f8bc d67f a9be
000003b0: 3953 d23e dbb4 c13d 99b1 083e 2dcc 99be
000003c0: bff7 9ebe 67a1 73be d14c a3be 9692 3cbe
000003d0: 8975 ccbe add2 adbe 75da 8bbe 7e5a 10be
000003e0: c0b1 1cbe 3912 0bbe f4d8 90bd 7252 f0bd
000003f0: a63c 5c3d c687 de3d a0e5 6e3c 1e3e 18bd
-0.19613825 -0.21550326 -0.1463396 -0.1835866 -0.08383742 -0.25964993 -0.27243733 -0.11999682
0.036255017 -0.00043119284 -0.1589467 -0.14107117 -0.06135711 -0.10293442 -0.02580965 -0.07111466
0.4279435 -0.08392875 0.0108028315 -0.13121982 -0.15045738 -0.12564059 -0.2422336 -0.18663742
-0.15069811 -0.16820864 -0.07505872 -0.12763885 0.25704336 -0.027544804 -0.0397569 -0.10077814
0.0012050023 0.04498851 -0.06671404 -0.028415274 -0.302002 -0.30098477 -0.34662557 -0.34167945
-0.3461459 -0.3161103 -0.20849986 -0.24684682 -0.14258818 -0.17298701 -0.12616983 -0.20220396
-0.26566732 -0.3071284 -0.3128314 -0.29337204 -0.2578054 -0.30473804 -0.24157047 -0.15236475
-0.20519444 -0.03454599 -0.040726468 -0.08002492 -0.31525663 -0.3254467 -0.2482255 -0.21775682
0.10027085 -0.20293976 -0.2741176 -0.009865404 -0.10180298 -0.12021808 -0.14937216 -0.12247481
-0.2886658 -0.31243107 -0.27702284 -0.14223261 0.16004589 -0.27011466 -0.18192314 -0.0143896565
0.03636242 -0.09920089 -0.0451255 0.0616317 -0.16871838 -0.0022587487 -0.15620816 -0.16025028
-0.0041986727 -0.12087662 -0.009255016 -0.036271967 0.10935236 -0.1011234 0.07631125 -0.21506545
-0.112221956 -0.048351135 -0.1018648 -0.08890621 0.37109494 -0.047548752 -0.14742869 -0.18150568
0.26648524 0.06400296 0.12266205 -0.34671864 -0.009547243 0.05930872 0.021345228 0.09400572
-0.790489 0.060194414 -0.04681703 0.020530354 -0.045007907 0.08348794 0.056727014 -0.18087132
0.0015721819 -0.045388967 -0.073877536 -0.032059312 -0.32125047 0.016308269 -0.034907866 -0.06699122
-0.43969974 -0.10571019 0.05634643 -0.0033159605 -0.26766887 -0.2094845 -0.2845841 -0.16335429
0.3752917 -0.15228584 -0.16285369 -0.13508615 -0.0038080446 -0.16921772 -0.12972721 -0.2841958
0.0415137 0.047802743 -0.057864696 0.015353461 -0.4382761 -0.020010037 0.058267478 -0.034995712
-0.055467624 0.042171642 -0.08181706 -0.063701384 -0.21411581 -0.10397803 -0.12287862 -0.12396209
-0.14673989 -0.20150496 -0.10228566 -0.081170686 -0.26858526 -0.13967727 -0.072621725 -0.09022697
0.07364091 0.22521926 0.14757384 0.14077811 0.0648276 0.19908756 0.16090299 0.28318074
0.36901304 0.25358957 0.17903319 0.24955581 -0.2581463 -0.2508345 -0.17665626 -0.22626364
-0.116859816 -0.32753715 -0.31139094 -0.016986102 -0.20302644 0.04994582 -0.023261923 0.049567744
0.03648081 -0.09865065 -0.035121083 -0.06279178 -0.31184587 -0.09591922 -0.04614053 -0.14302796
0.002798902 -0.021601934 0.10824033 0.0019860256 0.04917379 0.15377015 0.06998805 -0.012473422
0.30473635 0.04497235 -0.04788704 0.48607045 0.29116482 -0.041818995 0.7368052 0.40386635
0.0011795368 0.08438124 0.0606037 -0.06720108 0.83319086 0.09568497 -0.11225148 0.42238694
0.4183835 0.12137401 0.5560856 0.3649818 -0.0663026 -0.014302336 -0.07274373 0.012654711
0.51347363 -0.086223245 -0.03028814 -0.33105344 0.4107912 0.094583236 0.13348998 -0.30038586
-0.3104839 -0.23792039 -0.31894544 -0.18415293 -0.39933422 -0.33949795 -0.27315107 -0.1409702
-0.15302181 -0.1358117 -0.070726305 -0.11734475 0.053768776 0.108657405 0.014581114 -0.037168615

lstm.weight_hh_l0 f4 [512, 128]
00000000: d443 083e 714e 253e e926 bebd b973 d5bd
00000010: 1b58 18bb b8b7 aabe 2be4 d0bd 3f35 61be
00000020: 2b15 123d 086b 943e f20f aebc e5ef aa3c
00000030: 40e1 2b3e 5cc0 41be ef45 873e 4d89 39be
00000040: a24d b43d 8801 60be f2ef 08bf abbe 97bd
00000050: 92a8 e73c 8082 0a3e 51ad 913e e69d ba3d
00000060: 8126 693e aac2 c0be 2c4c c03d 330f 82bb
00000070: 789d 6c3c ec02 c73d adf0 debd 504a a0be
00000080: a81c a53d 08bd 03be fc2a 91bd e195 053e
00000090: 9d6e 2c3e d886 cbbd 9225 dbbd dd3b d33d
000000a0: 8964 d03e d275 723e b852 f93d a8ca c0be
000000b0: 707c 203e e791 6b3e a123 1b3e 1ec5 8d3e
000000c0: db61 95be 93ff 653c bd5e 86be 0843 99be
000000d0: c848 5b3e 5287 c6bd 7558 043e 9b5e a83e
000000e0: b7ed a33e 9770 033e 2ddf b23e 3636 1cbe
000000f0: 76b8 e1bd 12be 38be 3414 f63d 0c13 15bc
00000100: 8001 423e 54eb 82be 08a6 a73e 584f 2fbe
00000110: b4ec 66bc 7f14 e6bd 7b9b 303e 9e15 31be
00000120: 2c8f 37be 246e 013e ee3b 5d3e b384 eb3d
00000130: e4a6 ce3e 26a2 88bd b5ff 9cbd 0c37 1a3e
00000140: fdac be3e 05c3 5dbe 580e 933d b9e2 0b3e
00000150: ddca e13c 0dd4 403e 2916 563e 41e1 683d
00000160: 4cb8 c53e 6830 c63e 7e06 9bbe c815 9e3e
00000170: 2f18 d73d 9aa1 e23d da01 39be 0937 8ebe
00000180: 8d53 873d c607 7ebd 8926 76be 8ad9 94bc
00000190: 6635 b63c 6be1 2bbd 5e43 363c 519a 1e3e
000001a0: 66b4 6bbe ae9e eb3b cd1c a1be 791c 8c3c
000001b0: 526a debe 94b1 e8bc 4000 0d3e 2526 ab3d
000001c0: bb08 a43e 4f80 97bd 7131 a73d 1bd5 b1be
000001d0: a0d0 d0bd ad14 a03d b5d0 68be f1de 39be
000001e0: a0bd 9c3e c1eb e7bb cf96 053d 7804 cebe
000001f0: 472e 763d c1e8 4b3e 6747 b33e 3765 cabe
00000200: 1c5e 633d 988b a1be 2842 2d3e 92c0 523e
00000210: e697 0dbe 08c7 033e 04e7 5d3e a475 d73d
00000220: 4f5f d2be 0c8e 8ebe 58a5 2d3e 1e3d 383d
00000230: af98 f8be a474 0d3e 3816 083f 1381 7ebe
00000240: 85a1 9ebe 360b 97bf d54c 67bf 1829 e03e
00000250: 8a5c 443e e780 b3bd 6a4b a33e ea9d 1a3f
00000260: d040 90be f448 49bf c511 b8bc dbd5 e9bc
00000270: 582f 5dbe 0efd 723d 9511 793e 92cb c83e
00000280: 8ba2 e63d a526 5fbe 6b8f 72bd 9f3b 1b3e
00000290: 261b 4ebe 8d71 813d 4f80 94be 96dc d73d
000002a0: 7dda 183e 9214 b63d 87e2 903e f669 05bc
000002b0: fbde e23d a47d f33d 04ed e23e 0172 01be
000002c0: 789b 6abf 4b1b 4dbc 3b8b 04be faff 25bf
000002d0: 267a 21be 86d7 b9bd 2b47 4cbe e593 023f
000002e0: d797 3cbe 9a0b fcbe 9d20 30be 8d39 5aba
000002f0: b1d5 6f3c ac55 40be fa68 113d 8443 a3bc
00000300: 298e bcbd 008c 26bc bca8 5d3b 10d3 17be
00000310: d11c 063d 0993 ff3e a9e6 e43c b395 f0bd
00000320: c3be 1abe dee4 a73e 3fa6 c4bd 011f d6be
00000330: 04e6 9e3e 55cf 1abf 7392 bcbe d3e7 c93e
00000340: 1f3a b23c 2ca1 223e c1e7 67be 18fb 163e
00000350: 0d4f d03e 03f1 86bd 741f 7c3e 40e9 813d
00000360: 15c0 8e3d 0fff a83e 159a 893d 7182 253e
00000370: 3d1c 753e f108 583e dbf9 c2bd 91a6 873e
00000380: 3541 a83e 7853 cc3d 24fd ffbe ecac 433e
00000390: 1599 8a3c f936 0b3f ef1c 8d3e f991 1c3e
000003a0: e8fd a83e 88b3 29be 4a0b b7be ebb3 acbe
000003b0: 281b 6bbf 515e 833d dd7e a6be bb3e f23d
000003c0: 428a 623e bde5 6cbe 6ba0 33be 1ef6 7f3e
000003d0: ae6d 9ebe 1be7 83bd c015 45bf eed3 a53d
000003e0: a914 163d 2924 bdbe 3936 83be 1897 1ebf
000003f0: 58f4 5d3e 8a78 54be 842b 363f 75c9 dd3d
0.13307124 0.16143204 -0.09284765 -0.10422463 -0.0023245874 -0.3334329 -0.101997696 -0.21992968
0.03566472 0.28987908 -0.021247838 0.020866344 0.16785145 -0.18921036 0.26420543 -0.18118782
0.0880387 -0.21875584 -0.5349113 -0.07409414 0.028278623 0.13526344 0.28452542 0.09112148
0.22768594 -0.37648517 0.09389529 -0.003969097 0.01444184 0.09717354 -0.10885749 -0.31306696
0.08062106 -0.12865078 -0.07088277 0.13045456 0.1683907 -0.09937829 -0.10700525 0.103141524
0.40701702 0.23677757 0.121739805 -0.37654614 0.15672469 0.23004876 0.1515031 0.2768945
-0.2917622 0.014037984 -0.26244155 -0.29933953 0.21414483 -0.09693779 0.12924369 0.32884678
0.320173 0.12835918 0.34935895 -0.15255055 -0.11021511 -0.18041256 0.12015572 -0.009098779
0.18945885 -0.25570166 0.3274386 -0.17120111 -0.01409452 -0.11234378 0.17246811 -0.17293403
-0.1792571 0.12639672 0.21604893 0.1149992 0.40361702 -0.06671552 -0.0766596 0.15060061
0.37241355 -0.21656425 0.0718047 0.13660707 0.027562553 0.18830891 0.20906891 0.056855444
0.3861717 0.38708806 -0.3027839 0.30875993 0.105026595 0.11065979 -0.18067113 -0.27776363
0.06607733 -0.062019132 -0.24038137 -0.018170137 0.02224226 -0.041963022 0.01112446 0.15488555
-0.23018035 0.007190547 -0.31467286 0.01710342 -0.4344049 -0.028404988 0.13769627 0.08356885
0.3203791 -0.0739752 0.08163727 -0.347329 -0.10196042 0.078164436 -0.22735865 -0.18151452
0.30613422 -0.0070776646 0.032614525 -0.40237784 0.060102727 0.19913007 0.35015413 -0.39530346
0.05550967 -0.31551814 0.16919768 0.20581272 -0.13827476 0.12868893 0.21670157 0.10520485
-0.4108834 -0.27842748 0.16957605 0.04498016 -0.48553988 0.13814026 0.53158903 -0.24853925
-0.30982605 -1.1800296 -0.9035161 0.43781352 0.19175926 -0.087648205 0.31893474 0.6039721
-0.28174448 -0.7862694 -0.02246941 -0.028544357 -0.21600091 0.059323363 0.24323113 0.39217812
0.11261471 -0.21792085 -0.059218805 0.15159462 -0.20127544 0.06320486 -0.29004142 0.1054012
0.14927097 0.08890642 0.28297827 -0.008142939 0.110776864 0.118891984 0.44321454 -0.12641145
-0.91643476 -0.012518714 -0.12943737 -0.64843714 -0.15769252 -0.09074311 -0.19949023 0.5100692
-0.18417297 -0.492276 -0.17199941 -0.0008324616 0.01463835 -0.18782681 0.035500504 -0.019929655
-0.092068024 -0.010165215 0.0033822497 -0.14826608 0.032742325 0.49916866 0.027942019 -0.11747303
-0.15111832 0.327918 -0.096020214 -0.4182053 0.31034863 -0.60472614 -0.36830482 0.3943468
0.02175623 0.15881795 -0.22647001 0.14744222 0.4068531 -0.06588938 0.24621373 0.06343317
0.069702305 0.33007094 0.06718842 0.1616304 0.23936553 0.21097161 -0.095203124 0.26494268
0.3286225 0.09976858 -0.49997818 0.19108933 0.016918698 0.54380757 0.27561137 0.15290059
0.33006215 -0.16572392 -0.357508 -0.33731017 -0.9183831 0.06414474 -0.32518664 0.11828371
0.22123054 -0.23134513 -0.17541663 0.2499623 -0.30943054 -0.06440564 -0.7698631 0.08097063
0.036640797 -0.3694165 -0.25627306 -0.619493 0.21675241 -0.20749107 0.7116015 0.108294405

lstm.bias_ih_l0 f4 [512]
00000000: 7494 803d b460 353d cd72 baba 58c3 07be
00000010: ccfc f3bd 9f75 ecbd 5ae9 c13c 215e 373d
00000020: f990 c4bc 77c2 043d a8d1 7abd b6f1 76bc
00000030: 1b42 b3bd 7c7d 14bd 5835 473e c2cd 4ebd
00000040: 52da f13c 0599 833e bdfc 1d3e 65de 93bd
00000050: 0bf6 ff3c 9a1c a6bd 0e6c 7f3c 6f9f fe3d
00000060: f0a3 19bd 4a9d 3b3d 5235 7e3c 5939 5fbd
00000070: 98f1 37bc 9a33 19bd e274 c4bc ed76 9d3d
00000080: 1c5c d83c 0466 8a3e 976d 1dbe 69b9 0dbe
00000090: f975 babc 73c3 0d3e be95 83bd ed5d b0bc
000000a0: ffa7 f4bd 00f6 b63a 091a bdbc 77d1 123e
000000b0: 794e e03d 8128 8e3d 31f3 87bd d538 85bc
000000c0: c1ab 9a3e ed21 433d ad9f 263e d33f bcbc
000000d0: 5d3b c13b a313 1d3d 70b7 1dbe 95cb 113e
000000e0: ec9d a0bd 97ee 7c3d 6e9c 1a3d dec1 80bb
000000f0: 7d4b 2fbc 732a 133c 1b81 d6bd 2d3c 64be
00000100: 4301 d7bd 4e05 c0bd ccf9 52bd cf0f 3fbd
00000110: 1b81 80bb 4337 b23d 723a a4bd 98ce dc3b
00000120: 5a2d 723a 218a 20be ea81 863d 7b1d cf3d
00000130: e627 2cbe d9ea 37bd 081e a53e a114 423e
00000140: 9853 0fbe 4244 a0bd 3875 24bd 483b 873c
00000150: 970c 37bd 8ccd 4ebc a4e6 8fbc 570f 51bd
00000160: 625e 313d 2688 d7bd 36c6 8bbd 2dc9 19bd
00000170: 8303 a13c 967b cebc f5e1 ae3a 74a2 0bbe
00000180: 7c04 e83b 439f 10be a0f9 ccbc f0bc 043d
00000190: e216 073e 5d2a 4b3d 8c1a 8fbd cf0b b5bd
000001a0: ef72 453d 8616 3dbd 69c5 ca3d 73a6 11be
000001b0: 50ba 773d ce90 c53c 8037 8fbc e4f3 2ebc
000001c0: f0dc d5bd dd6c edbc 3bab c7bd 6841 a3bd
000001d0: bf84 29bc f00d b4bd 13ce 0f3e 7d66 193c
000001e0: 3be3 ec3d 75a4 d73c 5d35 5e3d 3b1f 933e
000001f0: 111c 7f3d f114 393d 0af7 dd3d ade8 82bd
00000200: 56a7 cebb 4f41 34be 1378 18be cf2b ff3b
00000210: b911 d73d 34c7 26bc bec4 27bd 4779 a4be
00000220: 53ec 8abd 7064 23be 50eb 06be 1121 02be
00000230: 5f92 e63b d50a 04be c1a8 00be 1494 b43d
00000240: 74f9 713e 6f38 c1be 1da2 b53c 0caa d53c
00000250: 1c20 e4b7 1394 4cbe db0f 74be 155a 86be
00000260: 3434 c83c b5f9 cabe d43b 193d 677d 7bbd
00000270: 28bc 813d 20a1 bc3d 432a ac3d 45b0 48bd
00000280: e71e bb3d 2414 7abe d26b ddbd 829c f1bd
00000290: 425b 79be 6807 c2be 282a 953c 2157 48be
000002a0: 0954 84be 5821 03bf 4d94 99bd 2403 e73d
000002b0: a19a 5fbe 9c45 dabe 6518 dbbd c876 423e
000002c0: 6544 b8bd e678 f13d bdb0 46be 4287 85be
000002d0: 5e99 90be 709c 9dbd a59f 1dbe 790a c4bd
000002e0: fd1f 1c3e be27 83be 6ed1 df3d 3da2 143e
000002f0: 66bc 383d 634d 463e d366 55be 0964 7fbd
00000300: edc4 153d 80f2 4dbd e19f 51be 2a46 c0bd
00000310: 7cb1 a0bd 1b8b 98bc dd88 ef3d 8a16 99be
00000320: f5ed aabd 2db2 483c 0706 7c3c e11a 0fbe
00000330: d56d bbbe c2d5 56bd 263c 4dbe ea91 2a3b
00000340: 8241 17be 4c01 68bd bbd6 13be 40f3 15bd
00000350: f746 3dbe 52ce adbd 2b6d a9be 7e6d 853d
00000360: 11f5 10be 2f17 f53b 4058 a73d d1d6 74bc
00000370: eab7 30bd ca2d 1ebe 0029 17bd 7a8b 65be
00000380: aeda f13d 60ac aa3c 80e1 67be 0575 3d3d
00000390: 26b5 793e 5b94 59be 4e42 98bc 5a40 aebe
000003a0: 0107 823c e95c cb3c 703a 89be 7d3c dfbd
000003b0: cd6a c7be 3521 bc3c 8a99 c9bd 2cf9 1d3d
000003c0: 8174 1ebe b524 debd 5dfa 80bd 3d99 0dbe
000003d0: 154d 3bbc 0a09 323e b775 adbe 0f21 47bb
000003e0: fd52 91bd f86a a8be f839 a73c 257c 9dbe
000003f0: 95a0 8d3d 9e02 51be d8ef 00bf b7a9 fa3c
0.06278315 0.044281676 -0.0014224887 -0.13258111 -0.119134516 -0.11545872 0.023670841 0.044767503
-0.02399491 0.03241202 -0.0612351 -0.015072277 -0.08752843 -0.036252484 0.19453943 -0.050489195
0.029523049 0.25702682 0.15428443 -0.07220153 0.031245252 -0.08110924 0.015589727 0.12432753
-0.03750986 0.0458043 0.015515642 -0.05449805 -0.011227034 -0.037402727 -0.023981515 0.07688699
0.026411109 0.27030957 -0.15373836 -0.1384026 -0.022761332 0.13844089 -0.064250454 -0.021529162
-0.11946105 0.0013958812 -0.023083704 0.14337717 0.109524675 0.06941319 -0.06638182 -0.016262451
0.30209163 0.047639776 0.16271849 -0.022979653 0.005896969 0.038348805 -0.15402007 0.14237817
-0.07842621 0.061750975 0.03774684 -0.003929361 -0.01069915 0.008982289 -0.10473844 -0.2228858
-0.104982875 -0.09376012 -0.051507756 -0.046645936 -0.0039216406 0.087019466 -0.0801896 0.006738495
0.00092383253 -0.15677692 0.06567748 0.10113045 -0.16812095 -0.044901703 0.32249475 0.18953182
-0.13996732 -0.07825519 -0.04015085 0.01650776 -0.04468974 -0.012622248 -0.017566033 -0.05104002
0.0433029 -0.10524015 -0.06824915 -0.03754537 0.019654995 -0.025205415 0.0013342487 -0.1363619
0.0070806127 -0.14123254 -0.025021374 0.032406747 0.13192323 0.049600948 -0.06987485 -0.08840143
0.048205312 -0.04616406 0.09900934 -0.14223652 0.060480416 0.0241169 -0.01748252 -0.010678265
-0.10442531 -0.028982574 -0.097494565 -0.079714596 -0.010346591 -0.08791721 0.14043455 0.009362814
0.11566778 0.026323536 0.05425011 0.28734764 0.062282626 0.045185987 0.108381346 -0.06392036
-0.006306569 -0.17603038 -0.14889555 0.007787205 0.10501427 -0.01017933 -0.040959112 -0.32123777
-0.067833565 -0.15956283 -0.13175702 -0.12707926 0.0070364918 -0.12894757 -0.12564375 0.08817306
0.23630315 -0.37738368 0.022172028 0.026082061 -2.719467e-05 -0.19978361 -0.23834173 -0.26240602
0.024438955 -0.39643636 0.037410572 -0.06139889 0.06334716 0.0921042 0.08406498 -0.04899623
0.091367535 -0.24421746 -0.10811581 -0.117974296 -0.24351218 -0.37896276 0.018208578 -0.19564487
-0.25845364 -0.51222754 -0.07498989 0.11279896 -0.2183633 -0.42631233 -0.10698012 0.18990624
-0.0899742 0.11790638 -0.19403358 -0.26079756 -0.2824201 -0.07695854 -0.15392931 -0.0957231
0.15246578 -0.25616258 0.109286174 0.14515014 0.045101546 0.19365458 -0.20840006 -0.06235126
0.036564756 -0.050280094 -0.20471145 -0.09388383 -0.078463525 -0.018621018 0.116960265 -0.29900008
-0.08346168 0.012249512 0.015382296 -0.13975097 -0.36607233 -0.05244995 -0.20042476 0.0026026913
-0.14771083 -0.05664186 -0.14437382 -0.036608934 -0.18484102 -0.08486618 -0.330911 0.065150246
-0.14155985 0.0074795703 0.08171129 -0.014943794 -0.043144144 -0.15447155 -0.036904335 -0.22416487
0.11809288 0.020834148 -0.22644615 0.046254177 0.24385509 -0.21248 -0.018586304 -0.3403347
0.01587248 0.024824576 -0.26802397 -0.10900209 -0.3894867 0.022965053 -0.098437384 0.038567707
-0.1547413 -0.10846845 -0.06297753 -0.13827987 -0.011431952 0.1738626 -0.33878872 -0.0030384695
-0.07095907 -0.3289411 0.020413384 -0.30758777 0.06915394 -0.20411155 -0.5036597 0.030598504

lstm.bias_hh_l0 f4 [512]
00000000: 9795 0dbb a4cb 023d 9ce4 6c3d 74b7 1dbe
00000010: 1ead ddbd c6a4 f1bc 5426 883b cc3d 80bd
00000020: fedb 24bd 9565 4bbc 814e 083c 7aa2 703d
00000030: 8eb5 b13a 5e7d 5bbd bab3 823e 14ef cc3d
00000040: 9671 d73d afbf 963e cda5 443e 1fe5 91bd
00000050: 4194 c2bd 6ebd 4b3d 0081 d53c bc74 c63d
00000060: 026a 613d 91f7 303e 2ff0 203d 34ab 2bbe
00000070: 3f44 fdbc fc77 e2bc c0a8 63bd cd64 8d3c
00000080: ee43 dd3c cad1 c73e 8546 b5bd 9146 77bd
00000090: 237a 033c 383b e43d 4c41 02bd 312a a3bc
000000a0: acbc 28be 79f9 8bbc 9abb 203c f1b0 1e3e
000000b0: f8d3 ed3d 7110 5e3d f01d 483c 5d1c 873d
000000c0: 3443 483e 3493 a1bd eb90 d53d 15b8 c7bd
000000d0: 849c 59bd d901 213d c5e6 f8bd 23cf 043e
000000e0: 01a1 9d3c 6137 f43d 373d e7bc eadc ae3c
000000f0: 8681 10be 3317 253c 72f9 0ebd 653c 60be
00000100: 6957 b6bd 7c20 fdbd 7a23 ffbd c765 153c
00000110: 35e0 45bd 5d2d 2ebd 4afa 75bd 4d4c d3bd
00000120: 8215 ecbd 7f57 30be d6d7 a93c 54db 7e3d
00000130: f2a3 75be d949 0a3d d73b 523e e399 0f3e
00000140: 656e 3ebe 0693 46bd fa4f 2fbd 84f9 053d
00000150: e337 803d 657e aabd 3156 ff3c 11e9 a3bd
00000160: ce62 a8bc cce2 7bbd 1eb5 f4bc 225a 2dbe
00000170: 34dd 24bd 5683 f6bc 9959 a6bb ee04 11be
00000180: 6ac9 c1bd bd27 21be 3b38 04be da1a 773d
00000190: 5064 1d37 0fed 84bd 5155 07bc af3a a3bd
000001a0: 8781 a4bd 414c d8bc ee43 333e db2e 0ebe
000001b0: aca8 043e c520 b0bc 9603 20be 911b b1bd
000001c0: c8ee f6bd 7fbd 37bd 5a12 bc3c bb3d 0fbe
000001d0: e219 f73d 04af cfbd 6cf3 063e 12f9 dfba
000001e0: dd63 14bb 6bec acbb adba 3fbc bda4 9f3e
000001f0: 8dd4 3abd 3cf5 b2bb 0b76 103e 6c2f e3bc
00000200: 8787 8bbd 8f53 37be 6ff1 96bc e627 06bd
00000210: a148 143e 13c7 67bd cacb b6bd c7fc a9be
00000220: 1864 81bc 9270 d7bb 5356 12be eb4b 84bd
00000230: c7ce 7fbd 0939 e6bd d297 27bd d321 4c3e
00000240: f076 823e e078 9abe 63d0 a03c 99c2 663d
00000250: cc0e 303d 6602 74be 1d8d 82be 0095 31be
00000260: 8838 393d b3ac c4be 9080 a6bd 82d1 933d
00000270: 8b65 e1bc d62a db3d 179d 3fbc 8d64 213d
00000280: 41b4 803d 65d0 55be a0dd 7cbe ee3a 13bd
00000290: 1be0 82be a6dd cabe 822e f4bd a1cd 4abe
000002a0: 0db3 afbe 5a85 04bf ba23 08be 0871 b63d
000002b0: 2379 8dbe f0bd 97be 7a49 70be 1cec 5b3e
000002c0: cb00 ccbd e274 28bd 3f3f a7be bc1f a3be
000002d0: 5014 98be aabd 63bd 9ef9 36bd 1332 15be
000002e0: b001 873e 5516 4bbe 400b f53d d626 033e
000002f0: 1870 843d 8da9 5e3e 72b0 79be 21c0 d4bd
00000300: 137a 3c3c f864 0fbd 7e20 97be 5ca5 65be
00000310: 45cc e8bb 7f50 0ebe 7436 003e e65e bdbe
00000320: 328e 7b3d 0a38 be3c c6cc ddbd b434 50bd
00000330: 6f35 adbe 020c 10be 7806 72be c1b3 13be
00000340: f209 24be c243 033a 8b3c 6cbd b0ef 193d
00000350: b123 13be 68ee b9bd 67a2 93be 74a3 8a3d
00000360: a983 11be d54d b9bd 09f9 5e3e 1980 83bd
00000370: 52e7 573d 4e73 38be 39b3 cd3d ae90 44be
00000380: 5044 e13d f6f5 6c3d 00b7 8cbe 1a92 a8bd
00000390: c543 ad3e eda5 b7be 38e4 54bd 706b bbbe
000003a0: b30e 453d 2d56 193b de78 8dbe 2c9e 38bd
000003b0: 5572 90be 637d f73d 34a0 71bc 8cdb 573d
000003c0: bd49 21be 863b 1fbe 5bd5 87bd abb1 82be
000003d0: 67fc 893a 4fdc cb3d d50f a6be 4ad1 b53d
000003e0: 953b 99bd 8a1a c5be d8a8 bdbc 2923 dcbe
000003f0: 8ff1 ef3d e246 27be c81d 19bf 630f 4cbc
-0.0021604055 0.031932488 0.057835206 -0.15402013 -0.10824035 -0.029497515 0.0041549597 -0.06261787
-0.040248863 -0.012414356 0.008319498 0.0587487 0.0013558136 -0.053586356 0.25527745 0.10006538
0.10519712 0.29443118 0.19203873 -0.071237795 -0.095009334 0.0497412 0.026062489 0.09690234
0.055032738 0.17281939 0.039291557 -0.16764528 -0.030916331 -0.027645104 -0.055580854 0.01725998
0.02700993 0.39027244 -0.08851341 -0.06037003 0.008024725 0.111441076 -0.031800553 -0.01991758
-0.16478223 -0.017086731 0.009810353 0.15497185 0.116126955 0.0542149 0.012214169 0.06597207
0.19556886 -0.07889405 0.104280315 -0.09751908 -0.05312778 0.039308403 -0.12153391 0.12969641
0.019241812 0.11924625 -0.028227432 0.021345574 -0.1411191 0.010076332 -0.03490586 -0.21898039
-0.08903391 -0.123597115 -0.124579385 0.009118504 -0.048309524 -0.04252373 -0.060053147 -0.103172876
-0.1152754 -0.17220877 0.020732801 0.062220886 -0.23988321 0.033761833 0.2053064 0.14023547
-0.185968 -0.048480056 -0.04280088 0.03270866 0.062606595 -0.08324889 0.031169029 -0.08003438
-0.020554926 -0.061495587 -0.02987152 -0.16928914 -0.04025002 -0.030091923 -0.005076599 -0.14162037
-0.09462245 -0.15737815 -0.12912075 0.060328342 9.381285e-06 -0.06490528 -0.008260087 -0.079701774
-0.08032518 -0.026403548 0.17506382 -0.13885061 0.12954968 -0.0215 -0.15626368 -0.08647836
-0.12057263 -0.044858452 0.02295797 -0.13988392 0.12065484 -0.101408035 0.13178796 -0.0017087779
-0.002264253 -0.0052772067 -0.011702222 0.31180373 -0.04561286 -0.005461363 0.1410753 -0.027732573
-0.06812959 -0.17902969 -0.018425671 -0.032752894 0.1448083 -0.056586336 -0.089255884 -0.33200666
-0.015794799 -0.0065746987 -0.14290743 -0.06459793 -0.062453058 -0.11241347 -0.04091627 0.19934778
0.25481367 -0.30170345 0.019630617 0.056337927 0.04298286 -0.2382904 -0.25498286 -0.17341995
0.045219928 -0.3841301 -0.0812999 0.07217695 -0.02751424 0.1070153 -0.011695168 0.039402533
0.06284381 -0.20880277 -0.24693918 -0.03594487 -0.25561604 -0.3962223 -0.11922933 -0.19805004
-0.34316292 -0.5176598 -0.13294879 0.08908278 -0.27631482 -0.29637098 -0.23465529 0.21476787
-0.09961089 -0.041127093 -0.3266544 -0.3186015 -0.29702997 -0.0556008 -0.044671647 -0.14569883
0.26368475 -0.19832738 0.119650364 0.12807783 0.06466693 0.21744366 -0.24383715 -0.10388208
0.011503714 -0.0350084 -0.29516977 -0.22426361 -0.007104429 -0.13897894 0.12520772 -0.36986464
0.061414905 0.02322008 -0.10830073 -0.05083151 -0.3382983 -0.1406708 -0.2363528 -0.1442404
-0.16019419 0.000500735 -0.057674926 0.0375821 -0.14369084 -0.090786755 -0.2883484 0.067694575
-0.1421038 -0.090480484 0.21774687 -0.06420917 0.05271084 -0.18012735 0.1004395 -0.19195816
0.10999358 0.057851754 -0.27483368 -0.08230992 0.33840767 -0.3586878 -0.05197546 -0.36605406
0.04810972 0.0023397312 -0.27631277 -0.04507272 -0.28212228 0.120844625 -0.014747668 0.05269961
-0.15750785 -0.1555005 -0.06632491 -0.25526175 0.0010527492 0.0995413 -0.32433954 0.08877809
-0.074820675 -0.3849681 -0.0231518 -0.42995575 0.117159955 -0.16335633 -0.5981107 -0.01245484

lstm.weight_ih_l1 f4 [512, 128]
00000000: e840 203d cd82 1abe 4b61 533e ec41 f73c
00000010: 28d2 ecbd c392 3cbd 1ae4 11be 8766 fa3d
00000020: b55d 973d 01ab d03d 6717 b83e 9f2c 7ebe
00000030: fb2f 243e 6c57 ce3c 2018 9e3d dda7 a5bd
00000040: b6ef f53c 54f0 fdbd e3b3 393d 6f0a f7bd
00000050: 6605 933d b114 d93e 688f 2b3e f6e7 05be
00000060: 5f24 9d3d b7f3 e5bd 345b 70bd d8d0 56bc
00000070: 7fbb 32be e7b5 343e 8835 14be 4893 bdbc
00000080: 65c6 653e 2fe1 1ebe 3d55 9d3d 00b0 a23d
00000090: 24d9 943e 1deb 08be 81af 82ba e805 653e
000000a0: 2a5d 1d3e 36d0 643e 5c0b 35bd ea3e 86be
000000b0: 5f58 d3bd 0201 0abd 0fc7 a1bd deab bd3d
000000c0: a08c 1ebc daa1 033e 37d9 dcbe 4197 d1bd
000000d0: 4b67 833e 6022 c5b9 f5f7 30ba 1168 78bc
000000e0: a822 80ba d246 bebd 839e 0d3e a7f9 28be
000000f0: e7ce 72bc 2aee 93bd ec75 0b3d 4698 6a3d
00000100: f48b a0bd c22d d33d 20af e93d 5ef8 90be
00000110: e679 f6bd d2fa e23d 2e79 253d 9d29 41be
00000120: 9b1c dc3b 3ef3 8db9 463f 293b 1c22 0c3e
00000130: e82e 413e 0f23 98bc bc84 aabd 4c64 e43c
00000140: 63fa 663e 6060 593d 8840 ddbb 2161 743d
00000150: c590 86be d79e 6dbd 4cd1 c43e 8ab3 2abe
00000160: a19f 6ebe b504 9c3e 9cd3 f7bd dba4 023b
00000170: ca7e ac3d 997a 15be 16a7 45be 441b bb3d
00000180: 6ded fe3d 590a d63c 2652 c2bd c772 133e
00000190: bc2d d6bd fdfe f5bd 4f6c b1bc 4ced d43d
000001a0: c273 633e f6eb 7c3d ae95 85be f473 11bb
000001b0: ea41 8dbc 0638 0a3e 3031 a33e 0abc 7d3e
000001c0: 67fe d43d 542e a53d f407 0d3e 52a5 87be
000001d0: 3942 a93d 5d40 7bbd 9111 8bbe f823 5fbd
000001e0: 6883 e83e 2542 4bbd 507c 473e 3353 383e
000001f0: 77bb 7f3a 8868 27bd 3509 0d3e 00fc 1abe
00000200: 84bc d03c fc3a 2a3e 8bfe 79bd 34e4 753d
00000210: 2dd9 26be a426 0d3e c183 4e3e 2894 1f3e
00000220: c7b9 8e3d 02b2 053e eb84 853c 9a30 ebbd
00000230: e0e5 aa3b 65b7 613d d15f c9bd 3f51 f6bd
00000240: c91e 65be 70b1 00bc 7f8d 05bd 8099 66bd
00000250: c545 d03e b4e2 8cba e36b 2f3e 3f2f 253d
00000260: aa81 113c fa32 813d 3ec7 34be e31e 763b
00000270: e7ab f43e 289d 77bd d175 30be e9b5 42be
00000280: adf4 063e f2a2 b0be d19b 16be 5afa 98be
00000290: 300e 8d3d 4764 84be c582 2c3d fdfc 58be
000002a0: 4cb2 da3d 71c1 503e 4e73 46be 134d 1fbe
000002b0: 8c42 3c3e d4d6 4f3d 0b40 64be 2d9a 2dbd
000002c0: dd13 cb3d 0306 94be eaf3 f93d 0877 21bd
000002d0: e960 cdbd ded1 103c be18 14be 3af9 10be
000002e0: df78 95be fe94 8abe 4595 363c d03a c73d
000002f0: c8b1 283e 1463 e7bc ab8d 0c3e a140 403e
00000300: f708 f83d 34ae 0cbe 00c0 0a3e 6739 283e
00000310: 8a48 8ebe d2c7 e43a e6a6 c63d d8e6 5d3e
00000320: c2c3 043e b14a f9bd aea5 3ebe 6122 db3e
00000330: 2f1e b9bd 8dc1 873e 5557 17bd 5036 1e3e
00000340: 3f95 96bc 7235 2a3e 1420 5fbe ebd8 d1bd
00000350: c4fd 0ebe 0441 753e 2494 c33d df90 aebe
00000360: b0af 5e3e b173 1d3e 2c77 803b 85e9 d8bd
00000370: 2866 19be ccdf 74bb edfc 163b 0a34 79be
00000380: 2428 39be c3f7 ee3c 7784 bbbd 5545 90be
00000390: 2d3f 8fbe b0dd a13c 1313 0fbc 34e3 85bc
000003a0: af85 37be 3ba6 c0be a98e 41be 4e7d 113e
000003b0: bde8 18be 4f8c 643e e35b a3bd e3f7 65be
000003c0: 471c 69bd 6630 13bd 7e37 3a3d fd56 4dbd
000003d0: 8e03 bc3c f787 0abf a367 e5bd 5bfb 923e
000003e0: db49 d53d 1ae5 0fbd ed58 b53b 8e39 143e
000003f0: 4cfe 1fbc 8746 3f3e 01a5 bdbc b720 003e
0.0391244 -0.15088959 0.20642583 0.030182801 -0.115635216 -0.0460384 -0.1424717 0.12226587
0.0739092 0.101888664 0.35955355 -0.24821709 0.16033928 0.02518817 0.07719445 -0.08088658
0.03002153 -0.123993546 0.04533757 -0.12062537 0.07178764 0.423986 0.16753924 -0.13076767
0.07672953 -0.112281255 -0.058680728 -0.013111316 -0.17454337 0.17647515 -0.14473546 -0.023141518
0.22438963 -0.15515588 0.076822735 0.079437256 0.29071915 -0.13370939 -0.0009970517 0.22365534
0.1536757 0.22345051 -0.044200286 -0.26219875 -0.1031959 -0.033692367 -0.078992955 0.09261297
-0.009677082 0.1285471 -0.43134472 -0.102339275 0.25664744 -0.0003760038 -0.00067508157 -0.01516153
-0.0009775953 -0.09290852 0.13829999 -0.16501485 -0.014819837 -0.072231606 0.034048006 0.057274126
-0.07839194 0.10311462 0.114103556 -0.2831449 -0.12034969 0.110829964 0.04039877 -0.1886353
0.006717277 -0.00027074845 0.0025825067 0.13684887 0.1886555 -0.018571405 -0.08326098 0.027879857
0.22556452 0.053070426 -0.0067520775 0.05966294 -0.26282325 -0.05801281 0.3844093 -0.16670051
-0.23303081 0.3047234 -0.12100908 0.0019934687 0.084226206 -0.14597549 -0.1930202 0.0913606
0.12447629 0.026127981 -0.09488325 0.14399253 -0.10457942 -0.12011526 -0.02165809 0.10396823
0.22212127 0.061748467 -0.2609076 -0.0022194358 -0.017243344 0.13497934 0.31873465 0.24778762
0.10400086 0.08065477 0.13772565 -0.26493317 0.08264584 -0.06134068 -0.2716184 -0.05447766
0.45412755 -0.049623627 0.19481015 0.18000488 0.00097554125 -0.040871173 0.13773043 -0.15135193
0.025480516 0.16624063 -0.061033767 0.060032085 -0.16293783 0.13784271 0.20167448 0.15583861
0.06969028 0.13056186 0.016298732 -0.114838794 0.0052153915 0.05510654 -0.09832729 -0.12027215
-0.22375025 -0.007854804 -0.032605644 -0.056298733 0.4067823 -0.0010748715 0.17131 0.04032826
0.008881012 0.06308551 -0.1765413 0.003755503 0.477874 -0.06045261 -0.17232443 -0.19014706
0.13179274 -0.34499317 -0.14707877 -0.29878503 0.06887472 -0.25857756 0.0421169 -0.21190257
0.10678539 0.20386292 -0.19379923 -0.15556745 0.1838476 0.050741985 -0.22290055 -0.04238336
0.09915898 -0.28910837 0.12204726 -0.039420158 -0.1002825 0.008839099 -0.14462563 -0.14157572
-0.2919378 -0.27066797 0.011143987 0.097280145 0.16474068 -0.028245486 0.13725917 0.18774654
0.12111085 -0.13738328 0.13549805 0.16428147 -0.27789718 0.0017454571 0.09699802 0.21670091
0.129653 -0.121724494 -0.1861789 0.42799667 -0.0903896 0.26514855 -0.03694852 0.15450406
-0.018381713 0.1662195 -0.2178958 -0.10246452 -0.13963991 0.23950583 0.0954974 -0.34094903
0.21746707 0.15376164 0.0039204564 -0.10591415 -0.14980376 -0.0037364839 0.002303894 -0.24336258
-0.18081719 0.029170876 -0.09156125 -0.28177896 -0.27977887 0.01975903 -0.008732575 -0.01634369
-0.1792209 -0.37626824 -0.18902077 0.14207956 -0.14932533 0.22319148 -0.079765104 -0.22457843
-0.056911733 -0.03593483 0.045463078 -0.050131787 0.022950914 -0.54113716 -0.11201408 0.28707394
0.104144774 -0.035130598 0.0055342824 0.1447508 -0.009765219 0.18679248 -0.023149969 0.1251248

lstm.weight_hh_l1 f4 [512, 128]
00000000: 2439 1d3e e878 913e 6553 d2bd 5112 36be
00000010: 7d90 53be f6fc 1ebe 235c ce3d c858 88bd
00000020: 0caf 8ebe 00b3 183d dc32 8f3e 53ff fabd
00000030: 190f 573d 7686 913e d077 533e e156 923e
00000040: 8a14 99be e57e 36bd 737c 863e ecc7 58be
00000050: 14d4 873e 9c2e a7be c0b2 3c3e 0b19 a4be
00000060: fd2b 77be 4bc5 9bbd 172b ddbd 913e 883e
00000070: a744 813e 46f9 aebd 3f2a e93d 32dc e6bc
00000080: 1df4 183e 980e 60be da2d 913e 7ff2 073d
00000090: e876 cbbd dd6a 953d bfb3 f6bd 6148 5cbe
000000a0: b89c 8c3e 836c 583d ddc9 f23d 66cb 4f3e
000000b0: adb8 0dbe cefb d73e 54fd f7be 1128 203d
000000c0: 62af 59be f55b 6cbe e30b adbd 2af7 f53d
000000d0: 0d67 c4bc 6e7f d03d 79a7 c13c 4717 bbbd
000000e0: fd92 683e 17ed ab3e 256d a13d 76f4 3cbe
000000f0: 924e a03d 76e2 a4be e49c c73e 0a1d b93d
00000100: e598 263e 12e8 7cbe ea5c dabe 5bb6 2a3d
00000110: 3c93 7bbd c060 893d b891 533d 3036 353d
00000120: 7bf1 17be eb37 993e 7ec3 e0bc 7044 803c
00000130: 29bd 993e d7c9 f8bd edd9 e6bb 40f4 183e
00000140: bd1b 963c 9012 4b3e 61f9 983e 18c0 8fbe
00000150: a41a 4f3e ac74 4b3e 23f9 013e 3a86 0f3e
00000160: ff97 98be 292d 1f3e 497b 483e 2172 8e3c
00000170: 1ba3 94bd c0e6 c33d afb1 a63e 9d78 febd
00000180: 7f51 703e 13a9 65be 327c 27be 5da0 97be
00000190: 57ad 6c3e a3d5 6a3e 2b03 f3bc e2ff adbe
000001a0: 69ae 78be ad3b 2bbe fb5a 91be 41a3 553e
000001b0: cd64 473e 299c 1cbe 313d e3bc f157 5ebe
000001c0: 06d9 a63c 53f7 08be 92db f3be e30e 863d
000001d0: e575 c93d 5bce 44be f22c 98bd 4331 6f3b
000001e0: f24e 953e 73a3 053e 3472 933e d013 e4bd
000001f0: c68c 253e faad 00bd 1c36 d03d 7b2a 323d
00000200: 2a25 47be b75c a5bd cda2 803e 5fbe 853d
00000210: d133 803e 3914 9e3d f091 893e 6c18 26be
00000220: a088 d53c e356 3c3d e86f f3bb 2587 983e
00000230: a7b6 463e 77ed 5c3e da62 dabd 60dc f7bd
00000240: 65ed b63d 942d 35be ee67 c9bd 7ad6 05be
00000250: a4dc 1dbe 48ae ca3d 06d3 74be 5fa8 6f3d
00000260: fc83 d23c 036e ecbd 3b88 a5bd 636f 3abe
00000270: 3eff 5bbd cea6 223e 740c df3d 0cc6 a5bd
00000280: 568d 2ebe dbff 593e 9690 923b 3cea babe
00000290: f802 873e 5cdd 65be c97f 4abe 854a 16be
000002a0: 9ea5 813d 673e acbc 1894 bebd e6ae 18be
000002b0: 1de4 e8bb 1905 f33d 4092 e83c a24b 9b3d
000002c0: 41d7 19bd 41f2 983e c071 993e 1011 bebe
000002d0: fca1 2cbe eb11 f33c 3f04 7d3e ec2a e93b
000002e0: dbd6 713e a891 aebd 9c71 7d3e 6c3c 983d
000002f0: a719 e2bd f0a0 8a3d 49c5 eebd dcb8 b7bd
00000300: cd51 8dbc 0165 213e 1ef6 71bd 27f3 0d3d
00000310: 1e53 a33e fb0c 983e e72a 30be 21ce 9ebe
00000320: 4e80 f13d 9a88 6cbd 9bdc 563e 69a8 843e
00000330: f68d 56be 7676 6f3e 91dc 713d 9728 26be
00000340: abaa 0bbf fd33 433d 6694 5d3d 76d7 a0bd
00000350: f69a 7dbd 627d 9ebb 04dd 3c3c af53 8cbb
00000360: 3df8 bb3d 054e f8bd 04ac 803b b793 a73e
00000370: bb8c d73c 6345 84be ad43 4fbd 4715 c73e
00000380: 3111 09be 4055 2a3e bdaf cfbd 434c f13d
00000390: 7f51 c23e 03ce d7bd bec9 b5bd d817 ed3d
000003a0: ad07 82be eb69 f838 5b83 3c3e 59b8 cfbd
000003b0: 7f2b 31bd dc02 2e3e a5fe d73d 88ed 62be
000003c0: 6eac 8dbe c971 c5bd fbfc 403e 1a4c d1bd
000003d0: d197 1f3d b79f e1bd e1bb 8a3e 5b55 3abd
000003e0: e6cf febd 650e 913e c200 903c e9c5 48bd
000003f0: 25fa eebb ca21 783d 8ee2 24be 1a92 ccbe
0.15353829 0.28412557 -0.102698125 -0.17780425 -0.20660587 -0.15526184 0.100761674 -0.06657559
-0.27867925 0.037280083 0.2796849 -0.122557305 0.052504633 0.28422898 0.20651174 0.28581908
-0.29898483 -0.04455461 0.26266822 -0.21170014 0.2652899 -0.32652748 0.18427563 -0.32050356
-0.24137874 -0.0760599 -0.10799234 0.26610234 0.2524769 -0.08543639 0.11385011 -0.02818117
0.14936872 -0.21880567 0.28355294 0.033190247 -0.09934789 0.07295773 -0.120460026 -0.21511985
0.27463317 0.05283786 0.118549086 0.20292434 -0.1383998 0.421843 -0.48435462 0.03910071
-0.2125831 -0.23081954 -0.08449533 0.120100334 -0.02397492 0.10180555 0.023639427 -0.09135299
0.22712322 0.33579323 0.07882146 -0.1845263 0.07827486 -0.32204026 0.38986886 0.09038742
0.16269262 -0.24697903 -0.42649013 0.041677814 -0.06141971 0.06707907 0.05165264 0.04424113
-0.14838211 0.29925475 -0.027436968 0.015657634 0.3002713 -0.12147873 -0.0070450217 0.14936924
0.018323774 0.198313 0.2987776 -0.28076243 0.20225006 0.19868726 0.12692694 0.14016047
-0.29803464 0.15544571 0.1957828 0.017388405 -0.072576724 0.095654964 0.32557437 -0.12425349
0.23468588 -0.22427778 -0.1635597 -0.29614535 0.23112999 0.22933058 -0.029664597 -0.33984286
-0.24285282 -0.16721983 -0.28389725 0.20863058 0.19472046 -0.15293945 -0.02773914 -0.21713234
0.020367157 -0.13375597 -0.47628456 0.06545808 0.0983694 -0.19219343 -0.07430448 0.0036497868
0.29161793 0.13050632 0.28798068 -0.111365914 0.16166982 -0.031415917 0.101665705 0.043497544
-0.1944777 -0.080743246 0.25124207 0.06530451 0.25039533 0.07718701 0.26869154 -0.16220254
0.026066124 0.0459813 -0.0074291117 0.29790607 0.19405614 0.2157496 -0.10663386 -0.1210258
0.08931998 -0.17693168 -0.09834276 -0.13070098 -0.15416199 0.09896523 -0.23908624 0.05851018
0.0256977 -0.115444206 -0.080826245 -0.18206553 -0.053710215 0.15883943 0.10891047 -0.08094415
-0.17046103 0.21289007 0.0044728024 -0.36506832 0.26369452 -0.22447723 -0.19775309 -0.14676864
0.06330417 -0.02102585 -0.093055904 -0.14910468 -0.0071072713 0.11866207 0.02839005 0.07582785
-0.037558798 0.29872325 0.29969597 -0.37122393 -0.16858667 0.02967163 0.24708651 0.0071157124
0.23617117 -0.085238755 0.2475037 0.074333996 -0.11040049 0.06768978 -0.11658723 -0.08970806
-0.01725092 0.15761186 -0.059072606 0.034655716 0.3189935 0.29697403 -0.17203866 -0.3101664
0.1179205 -0.05774746 0.20982592 0.25909737 -0.20952591 0.23385033 0.05904824 -0.16226421
-0.54557294 0.047657 0.054096602 -0.07853596 -0.06191536 -0.004836724 0.011527304 -0.004282437
0.09178207 -0.12124256 0.003926756 0.32729885 0.026312223 -0.25834188 -0.05060165 0.3888342
-0.13385464 0.16634083 -0.10140941 0.11782124 0.37952802 -0.105373405 -0.0887637 0.115768135
-0.2539648 0.0001184529 0.18409483 -0.101425834 -0.04325437 0.16993278 0.105466165 -0.22160923
-0.27670616 -0.096408434 0.18846504 -0.10219593 0.038963143 -0.11016791 0.27096465 -0.045491558
-0.12441997 0.28331295 0.017578486 -0.049016867 -0.007293003 0.0605791 -0.16102049 -0.39955217

lstm.bias_ih_l1 f4 [512]
00000000: 67bb 22be 8265 0cbf 609f cbbe 426a 71be
00000010: 5e8f bfbe 3832 b6be 7279 45be 8d8f 59be
00000020: 8006 8fbe 27a7 32bd d4f5 0abf 664f a6be
00000030: 26bf 82bb 6cae 49bd 34d1 c0be ef98 cfbe
00000040: 8c16 26bf 63c4 a0be 70f8 e2be e3d0 953e
00000050: 13b6 bdbe 9f83 23bf 7ef3 94be 72ad 0cbf
00000060: a4cb bdbe 113c a3be 50e3 22be c279 02bf
00000070: 52f9 ebbe dca8 6bbe 8efd 8ebe 0476 81be
00000080: 2f7f 183e fbc7 08bf c3bb e6be f054 bbbd
00000090: 339a 18be 1930 3ebd 27d1 bcbe ea0d 26be
000000a0: 32da c13d c645 25bc 5a60 e0be 8d3d 8cbe
000000b0: 900d 50bb e20f 68be 15d4 11bf dfc3 2bbf
000000c0: 04a5 a7bd 7edb 88be c276 15bd b18b 893d
000000d0: 2747 db3c add4 1abf 160c 7bbe f6bc 77be
000000e0: 0f20 9abe c66b 01bf 4b9b c4bd 4819 04bf
000000f0: e3b2 f1be c457 afbe dd3c 37bf 9ea3 fbbe
00000100: fdf8 02bf 6454 9cbe 2dfe fcbe 0469 eb3a
00000110: 0b1b 30be 2955 17be e4d0 73be c557 c43c
00000120: 99ee 91bb 3ae7 bcbe b4c3 81be 9ada 2dbd
00000130: 7e2a b5bd ed2f 41be 02f5 91be 8c4c a4be
00000140: 8f76 0c3e dc82 3ebf 0838 84be d581 0dbe
00000150: 6cc4 24bf fe4c 83bd 52af 143d 7681 f0bd
00000160: 6239 d7be 24ba d0be c343 4e3e aab6 053d
00000170: bfda 54be 6768 ac3d 7c00 eabe 6dcf 39be
00000180: 5512 54be 82fb a2be 51c7 05bf 6a63 29be
00000190: 0804 a5be 08c7 fdbe e88d c5be 9161 81be
000001a0: 1c25 a13d 006f 23be 5ea1 f5be 5253 10bf
000001b0: 1a61 27bf de18 5fbe b83b d2be f952 d3bd
000001c0: 578f c6be 3317 24be 4fa6 ebbe 4b54 713e
000001d0: 15ea cabe 1f6d 4bbd 663e 07bf e3b1 88be
000001e0: 3887 08bf ba04 96be c92c 29bf b245 8dbe
000001f0: 5221 05bf f90d 183d eb2a 7dbe 56c6 813d
00000200: 7401 203d b703 bfbe 3b71 df3d e4a3 7a3a
00000210: 5923 7fbe b964 b6be 4cfd f5bd 4067 47be
00000220: bd22 01bf 16c7 30be 7417 02bf 1186 30be
00000230: 8a99 473e b657 943d c92d a9be 40cc 31be
00000240: 3384 cdbe 743d 0bbe fb30 d8be 5941 a33e
00000250: 7218 a6be c2c8 e2be 268a 8cbe 5b92 cebe
00000260: e599 c2be 1b32 d2be 2688 94bd efe6 88be
00000270: 8347 a3be 5bad b9be 9698 b9bd 0c8a 6fbe
00000280: e07d 213e 1b36 afbe 3986 75be ede4 313d
00000290: 5bcf 3cbd deb1 7e3d 3d90 bbbe b50d 973d
000002a0: d56c b5be d42e afbd 3f79 89be ba14 90bd
000002b0: 08cc 9b3d 9d7e c63d 4305 afbe 440a 05bf
000002c0: af32 ebbd 42f8 74be bc3e 69bd 8b37 6a3d
000002d0: a687 223e 7cb9 1cbf b689 983d 15b8 a2be
000002e0: 6ccd c1bd c716 98be 5418 f1bd ccd3 90be
000002f0: 172a 56be 8953 b6be 3e9d 0dbf 3078 e6be
00000300: a790 c3be 5172 d6be 1ecd 60be b6bf 98bd
00000310: 18f7 84be 4432 09be 997e 89bd fe49 183e
00000320: 7fca fe3b ecf0 cfbe f386 ffbe 9bc5 b83d
00000330: 8f66 18be ad3d 23be 1ec9 32be 892d e1be
00000340: b38f 4f3d b4e3 e4be 06e0 bbbe 65db 17be
00000350: fad4 e9be 055c 8dbe c766 da3d 56c1 90be
00000360: 5e26 98be 0fac ccbe 7208 883e e996 053e
00000370: f4df 513b 2e8b 813e d472 dbbe 1a9d f3bc
00000380: 22c3 4bbe ea72 c5bd 93cd f2be a0bd 87be
00000390: 9e55 7dbd 30ac c8be 1442 08bd e63c 41be
000003a0: bf89 5b3e 9cda 8bbe 9f7b e6be 34a3 d1be
000003b0: 52f7 b4be 6d2f b9be 57ca 03be 7f51 663d
000003c0: 4d5f 05bf 1b09 86bd 4d6a c4be d879 013e
000003d0: 606d 6bbe c3b2 a3bd 4165 08bf 27c4 70be
000003e0: d914 10bf 9e69 0c3e 78cc 2cbf 1cd6 1f3b
000003f0: df43 f1be 0594 6bbd e1f6 ccbb 1347 3fbe
-0.15891801 -0.5484239 -0.3977003 -0.2357569 -0.37414068 -0.3558519 -0.19284609 -0.21246167
-0.27934647 -0.04361644 -0.54281354 -0.3248245 -0.003990072 -0.049238607 -0.3765961 -0.40546367
-0.64878154 -0.3139983 -0.44330168 0.2926093 -0.37052974 -0.6387271 -0.2909202 -0.54952157
-0.37069428 -0.31881765 -0.15907025 -0.5096704 -0.46088654 -0.23013633 -0.27927822 -0.2528535
0.14892267 -0.53430146 -0.45065126 -0.0914706 -0.14902572 -0.04643259 -0.3687832 -0.16216245
0.094654456 -0.010087436 -0.4382351 -0.2739071 -0.0031746365 -0.22662309 -0.56964236 -0.6709575
-0.08185771 -0.2672996 -0.03649021 0.06716097 0.026767327 -0.6048077 -0.24516329 -0.24193177
-0.30102584 -0.50555074 -0.09599932 -0.51601076 -0.47206792 -0.34246647 -0.71577245 -0.49148268
-0.51161176 -0.30533135 -0.4941267 0.0017960374 -0.17197816 -0.1477858 -0.23810154 0.023967633
-0.004453492 -0.36895162 -0.25344622 -0.042444803 -0.08845995 -0.18865938 -0.2850724 -0.3208965
0.13717102 -0.74418426 -0.25823998 -0.13819058 -0.64362216 -0.064111695 0.03630001 -0.11743443
-0.42035967 -0.40767014 0.20143037 0.032644905 -0.2078657 0.08418351 -0.45703495 -0.18145533
-0.20710118 -0.3183251 -0.5225726 -0.1654183 -0.32229638 -0.4956591 -0.38584828 -0.2526975
0.07868406 -0.15960312 -0.47974676 -0.56377137 -0.6538254 -0.2178683 -0.41061187 -0.1031856
-0.38781235 -0.16024475 -0.4602532 0.23567311 -0.39631715 -0.049664613 -0.5282959 -0.26698217
-0.5333133 -0.2930048 -0.6608396 -0.27592236 -0.5200397 0.0371227 -0.24723403 0.06336658
0.039063886 -0.37307522 0.10910269 0.0009561165 -0.24915828 -0.3562372 -0.12011203 -0.1947298
-0.5044363 -0.17263445 -0.50817037 -0.17238642 0.19492164 0.07243292 -0.33042744 -0.17363071
-0.40139922 -0.13597661 -0.4222487 0.31885794 -0.32440525 -0.4429379 -0.2744915 -0.40346035
-0.38008037 -0.41053852 -0.07252531 -0.26738688 -0.31890497 -0.36265072 -0.090623066 -0.23392504
0.15770674 -0.34220967 -0.23976983 0.04343121 -0.046096187 0.062181346 -0.36633483 0.07375661
-0.35434595 -0.08553854 -0.26850316 -0.07035203 0.07607275 0.09692118 -0.34183702 -0.5196879
-0.114842765 -0.23922828 -0.056944594 0.057181876 0.15872058 -0.61220527 0.07448141 -0.31781068
-0.09463009 -0.29704878 -0.11772218 -0.28286588 -0.20914494 -0.35610607 -0.5531806 -0.4501357
-0.38196298 -0.41884091 -0.21953246 -0.07458441 -0.25969768 -0.13398081 -0.067136 0.14871976
0.0077756043 -0.40613496 -0.49907646 0.09022065 -0.14882873 -0.15941496 -0.17459533 -0.43980053
0.05067415 -0.44704974 -0.36694354 -0.14829786 -0.456703 -0.27609268 0.106641345 -0.28272504
-0.29716772 -0.3997502 0.26568943 0.13045849 0.0032024356 0.25301498 -0.42861044 -0.029737998
-0.19898656 -0.09641059 -0.47422466 -0.2651186 -0.06184923 -0.3919387 -0.033266142 -0.18870887
0.21439265 -0.27315223 -0.4501619 -0.40944827 -0.3534494 -0.36168995 -0.12870155 0.056230064
-0.5209854 -0.065447055 -0.3836235 0.12644136 -0.22990942 -0.079930805 -0.532795 -0.23512326
-0.5628181 0.13712165 -0.67499495 0.0024389094 -0.47122094 -0.05751421 -0.006255016 -0.18679456

lstm.bias_hh_l1 f4 [512]
00000000: b976 4cbe 4aa4 08bf 56d3 91be cd6e 21be
00000010: ee6b ddbe 8cb9 6dbe 9d21 a0bd fb7a acbe
00000020: 0c3f 60be ab41 10be 98a7 13bf f061 6fbe
00000030: 9c3d 04be bc27 22bd a089 c6be 559f 9ebe
00000040: 08b0 0dbf c388 afbe 1255 ffbe 1b4e 903e
00000050: 0d6f d3be 5941 14bf 0e8b a6be 2ca1 13bf
00000060: 8283 bcbe 722a 83be c78b fbbd 286f 16bf
00000070: b089 debe e362 7ebe cb31 80be ffcc 64be
00000080: b320 b23d 5246 08bf 55f9 f1be f84c 34be
00000090: db1f 0fbe d4ce ebbd 3b46 aebe 3844 e5bd
000000a0: e0a1 093e ba7d d1bd ee7a aebe 2e34 0bbe
000000b0: 75d6 11bd eac2 22be 0dea 0fbf 5f42 40bf
000000c0: 5c1e 8dbd 8e53 bfbe 7cfa 0ebe c2a3 073e
000000d0: f9a9 463d 873d 0dbf 9a8c abbe 6dac 01be
000000e0: ff28 cfbe 310b dabe 75ae 70be 0e7c d5be
000000f0: a93e f0be a801 9cbe 9858 30bf f2a5 e8be
00000100: 5e17 e3be b6e1 95be fce3 f9be 550b 18bc
00000110: 2980 63be bf37 68be 4a18 65be 5393 aabd
00000120: abef e33c 20f5 cfbe 58f0 6abe 543e d1bc
00000130: 182f 04bd 0400 7bbe 760f 94be 789a 99be
00000140: 6ce7 d83d 2eac 35bf f3f2 51be f386 07be
00000150: 6c10 3abf 549c 99bd 9b26 853d 09ba 02bb
00000160: b247 ebbe 64ae cbbe 07c2 4b3e 5278 153d
00000170: a32d 22be 5949 6ebb 62fd bbbe 417b 46bd
00000180: 13da 33be d0c2 82be 59a3 08bf de2f 47be
00000190: be50 d1be 99b7 e2be 064f dfbe bfba 03be
000001a0: 7253 a8bb 28f0 a9bd bd08 d2be f6a6 12bf
000001b0: 4093 18bf 39a1 f5bd 5e61 f4be 06d2 733a
000001c0: 487b 0cbf 2a98 13bd 39c1 0cbf 1609 023e
000001d0: 4dfd 8ebe fac1 10be db46 09bf 35fa 85be
000001e0: 45b1 1bbf 4691 bdbe 7d68 3bbf a349 75be
000001f0: b620 d3be 7eeb ecbb d6dc 1fbe 6556 8bbd
00000200: 5e40 60bd 1d9f d5be e529 723e 7e0c e2bc
00000210: 5b26 a6be ef4b 96be 1d3b 1cbe e520 3ebd
00000220: 57f1 06bf 2644 29be f16e dbbe 0b34 26be
00000230: e24e 543e 1c99 fc3d 0e9f 37be 406a 2cbe
00000240: 47b0 e7be 5334 82bd c3ae b8be fd6e 443e
00000250: d44a dabe 585b dabe 66ce 8dbe cdeb 00bf
00000260: 8fdf c2be 4fad c5be ad1f 573d 1896 22be
00000270: 67e4 b9be 5799 f5be 0c42 24be 89e4 41be
00000280: 3783 c83d 5900 e7be c324 40be 6987 1f3c
00000290: 2461 a6bd 6d4c cf3d f2f2 70be 074e 123c
000002a0: 713f 99be 380a 38be 3bc5 86be 5247 93bd
000002b0: b94e 9e3c 2256 073e 3c51 84be 6e4f 0dbf
000002c0: 04cb 19bd 138d d2bd ac2a b53b d4b2 093e
000002d0: 6c92 0d3e 1064 2dbf 6e19 38bd 2910 a5be
000002e0: d50d 33be 43ca d5be 99a0 90be 06e3 99be
000002f0: 88f9 f6bd cdad e1be e302 e3be 6037 e9be
00000300: fced bebe 0d7d a0be e1df b3be dddb 73bd
00000310: fea1 15be 02e7 37be 651d ffbd caf2 293e
00000320: 5d0c d5bd b41d d2be 6443 debe 895f c33d
00000330: 87e0 03be 3b14 96be d884 dfbd f7f8 d9be
00000340: 7a46 c53d dcf4 dfbe bc34 a0be ed85 0fbe
00000350: 1026 bdbe 0769 8dbe b8ea 013e cb43 3bbe
00000360: 5e06 82be 831c d6be 689f 963e 7f7a 883d
00000370: 5002 f5bc 9199 4a3e 4604 e5be d318 353d
00000380: 6c1b 3ebe 81f6 283c d907 0abf 4db3 58be
00000390: 09f6 61bd 408d d3be 2d7a c3bd bebb 88be
000003a0: caaa 873e 02de 1abe 8bcb b6be 4490 f7be
000003b0: ea25 9fbe 5948 cfbe c28d 2ebe 9857 b03c
000003c0: cfbe 11bf 8954 03bd ad4c bbbe 88ca 643d
000003d0: b501 85be 8114 0b3c 5d9b ffbe c608 97be
000003e0: f9bf 0cbf 4dbf ca3d 8c4c 20bf 003a 0cbe
000003f0: 09fd dbbe 6cf2 1b3d 2af4 403d 562d cbbd
-0.19967164 -0.53375685 -0.2848155 -0.15764923 -0.43246406 -0.23215312 -0.07818911 -0.33687577
-0.2189905 -0.1408755 -0.576776 -0.23377204 -0.12914127 -0.039588675 -0.38776875 -0.30980936
-0.5534673 -0.34284028 -0.4986959 0.2818459 -0.41295663 -0.5791221 -0.32527965 -0.57667804
-0.36819082 -0.2561832 -0.1228252 -0.5876336 -0.43464422 -0.2484241 -0.2503799 -0.22343825
0.08697643 -0.532323 -0.47260538 -0.17607486 -0.13976996 -0.11514059 -0.34037957 -0.11194652
0.13440657 -0.102290586 -0.34078163 -0.13594124 -0.035604913 -0.15894666 -0.5621651 -0.75101274
-0.06890556 -0.37368435 -0.1396274 0.13246062 0.048501942 -0.5517201 -0.33505708 -0.12663431
-0.40460965 -0.42586663 -0.2350405 -0.4169621 -0.46922806 -0.30470014 -0.68885183 -0.45439106
-0.44353765 -0.29273766 -0.4880675 -0.0092800455 -0.22216858 -0.22677515 -0.22372547 -0.08328881
0.027824244 -0.40616703 -0.22943246 -0.025542416 -0.032271475 -0.24511725 -0.28918046 -0.30000663
0.10591015 -0.7096585 -0.20502834 -0.13235073 -0.7268131 -0.0750052 0.06501504 -0.0019947311
-0.45953137 -0.39781487 0.19898234 0.0364917 -0.15837722 -0.0036359637 -0.36716753 -0.048457388
-0.17563657 -0.25539255 -0.5337425 -0.19451854 -0.40881914 -0.442807 -0.43614978 -0.12864207
-0.0051369006 -0.08297759 -0.41022292 -0.5728601 -0.59599686 -0.119936414 -0.47730535 0.000930101
-0.5487561 -0.036033787 -0.54982334 0.12698779 -0.27927628 -0.14136496 -0.5362374 -0.26167455
-0.60817367 -0.37024897 -0.7320631 -0.23953871 -0.41235894 -0.0072302213 -0.15611586 -0.06803588
-0.054748885 -0.41722956 0.23648794 -0.027593847 -0.32451138 -0.29354808 -0.15256925 -0.04641809
-0.52712005 -0.16529903 -0.4285808 -0.1623079 0.20733216 0.12333891 -0.17931768 -0.16837406
-0.45251676 -0.06357636 -0.36070833 0.19182964 -0.42635214 -0.42647815 -0.27696532 -0.50359803
-0.38061187 -0.38608786 0.052520443 -0.15877569 -0.3630707 -0.47968552 -0.1604082 -0.18934835
0.09790652 -0.45117453 -0.18764023 0.009736874 -0.08123997 0.10121999 -0.23530176 0.008929736
-0.29931214 -0.17972648 -0.2632235 -0.07191338 0.019324647 0.13216451 -0.25843227 -0.55199325
-0.037547126 -0.10280814 0.0055287685 0.13447124 0.13825387 -0.6773081 -0.044946127 -0.32238892
-0.17485745 -0.41755876 -0.28247526 -0.30056018 -0.12059313 -0.44077912 -0.4433814 -0.4555006
-0.37290943 -0.31345406 -0.35131744 -0.05953585 -0.14612576 -0.17959216 -0.124567784 0.16596523
-0.10402749 -0.41038287 -0.4341079 0.09539706 -0.12878619 -0.2931231 -0.1091401 -0.42572758
0.09632583 -0.437415 -0.31290233 -0.14015932 -0.36943102 -0.27619192 0.12687194 -0.1828758
-0.25395483 -0.41818628 0.29418492 0.06663989 -0.02990833 0.19785143 -0.44729823 0.044213127
-0.18565148 0.010312677 -0.53918225 -0.21162148 -0.055166278 -0.41318703 -0.095447876 -0.26705736
0.2649749 -0.15123752 -0.35702166 -0.48352253 -0.31083614 -0.40484884 -0.17046264 0.021526143
-0.56931776 -0.03206304 -0.36581936 0.05585721 -0.25977865 0.008488775 -0.4992322 -0.2949888
-0.5498043 0.09899769 -0.626168 -0.13694 -0.42966488 0.03807299 0.047107853 -0.099207565
