models/EURJPY_model.pth (torch, 843660 bytes, 15 tensors)

lstm.weight_ih_l0 f4 [512, 12]
00000000: 0bee 013a 4342 ff39 7b9d 063a 56dd 033a
00000010: 145d 77b8 a6f2 043a f9af 043a 2e93 c339
00000020: cef0 beb8 0d8c 6f39 43fd 4339 376b 1739
00000030: 8ae9 a039 6642 a239 0cec ad39 645c a839
00000040: 8cd0 cfb8 c49f ad39 c0f4 b539 a0f5 b338
00000050: 039f ceb8 088e 1238 980c 0638 4044 fb36
00000060: ad02 6b3a a3bf 6a3a a0c5 633a 73ca 613a
00000070: 6012 663a 8fd9 663a 69de 683a a00b 8239
00000080: ba5d 663a 769f 6139 5626 4a3a fb3c 453a
00000090: 1306 8a3a a125 843a 9a6c 963a 8666 903a
000000a0: 987c 68ba 87d3 933a 3d3e 9c3a b4dc 353a
000000b0: 2648 54ba 8ee5 59ba 80b4 b2b8 3e30 35b9
000000c0: 31f2 2cb9 486e dcb8 cfc4 2fb9 7ee7 29b9
000000d0: e80b 9338 a82a 09b9 0e7f beb8 01df 14ba
000000e0: 66bc 8139 5e0b 6b39 9862 c7b8 150a 4cb9
000000f0: 7ab1 423a ebc3 3b3a fe80 513a c691 453a
00000100: 847b 85ba c37d 503a 7296 583a 6fcc 013a
00000110: f80a 85ba 3a46 a539 9032 ae37 6014 e436
00000120: 2158 a13a 5a96 a23a a3ef ab3a 6fd4 a83a
00000130: 991a 91ba 4df9 aa3a 8112 b03a 39b8 493a
00000140: 8851 c2ba 083a d039 966b b639 0bea 3d39
00000150: 16c8 8eb9 3a19 42b9 5c7a 83b9 e64f 89b9
00000160: c447 b6b9 0679 4cb9 f8d2 6ab8 ffa8 45ba
00000170: 50a0 8339 88cf 3a3a 8aed e0b9 00de 3eba
00000180: bc5b 203a ff47 1d3a dea5 273a cb50 233a
00000190: d60e 09b9 6494 273a bf95 3a3a 0a98 5a38
000001a0: c005 41b8 d0c8 ea39 47db 9539 2976 b538
000001b0: e9d3 fc38 782b 0639 149a d838 bc64 c438
000001c0: a615 1d39 a633 f638 3393 1d39 3465 bcb9
000001d0: 202b bb39 1935 4638 a031 5339 97bd 4e39
000001e0: d8f2 e439 bb1a de39 528e e839 469a e239
000001f0: f92d c038 ac29 f139 8d2f f439 0aff 7338
00000200: e4c5 3238 043f 09b9 502b 7138 7e7a 8139
00000210: 34f3 a63a 5939 a63a 34e7 af3a a456 ae3a
00000220: dcc3 10ba 7dd0 ac3a 39cd b03a 5cef 5c3a
00000230: 2f51 94ba 3b89 f639 6483 313a 8490 203a
00000240: 05e2 cd39 2d9d cd39 eab8 e639 03b7 dd39
00000250: 608d ceb9 2e12 ee39 9a35 fd39 64b3 a939
00000260: 4233 e7b9 e00b 4537 f840 ecb7 3e56 2bb9
00000270: fed9 3939 9025 4239 b7f4 4439 eabd 4439
00000280: ac3e 0738 9c40 4639 6e1f 5339 968e af38
00000290: acbd 88b7 e124 d738 45e8 df38 3c5c 4238
000002a0: 19ff c439 a2e3 dc39 84be cd39 2ce3 ca39
000002b0: 5328 9db9 80e2 db39 7665 043a d26a a1b9
000002c0: d655 22b9 6523 bd39 682f 1439 c43d 01b9
000002d0: 440c 2538 d47e 1e38 caf0 4537 5772 e537
000002e0: 2701 223a 7053 ea36 3dec eeb7 93e0 b438
000002f0: 8404 073a 8678 1339 f6dd a139 e1c0 c539
00000300: fc64 5739 375d 2639 01a5 8339 0561 6739
00000310: 2648 0bba 3ffb 8339 93e8 8739 fcde 2db8
00000320: c051 91b9 4870 0f39 8e36 b2b9 aa4b e3b9
00000330: 7acc cc39 b18a c739 9f36 d239 ccc3 d139
00000340: 326b a439 70e0 ca39 3508 c239 8e06 aa39
00000350: 283b 8539 0e4e a539 ef44 c139 6e2f a139
00000360: 13eb 0fb9 a19d 12b9 ebf8 0cb9 ac53 18b9
00000370: 12af dfb8 adc3 05b9 8ff7 edb8 5076 0fb9
00000380: 7c77 8e39 bac2 1b39 001b 51b6 797b 07b9
00000390: 1279 203a 8da9 1f3a 8d6b 263a b2f9 233a
000003a0: aaea 26b8 4784 233a e064 243a 4e69 d639
000003b0: a039 c1b8 1c50 b639 bce8 bb39 4afd 8a39
000003c0: f526 8b39 21e0 8139 ea5f 8f39 159e 8a39
000003d0: a54d 4a39 0ca9 8b39 e6cd 8b39 b223 8139
000003e0: 74bf 9739 e164 5739 3036 b039 d43a 9339
000003f0: 9dcb 423a 6c24 3f3a e828 4e3a c704 473a
0.00049564306 0.0004868676 0.0005135161 0.0005030235 -5.8976075e-05 0.0005071558 0.00050616224 0.00037302956
-9.1047594e-05 0.00022844989 0.00018690997 0.00014440423 0.00030691578 0.00030948519 0.00033173 0.00032112293
-9.909374e-05 0.00033116166 0.00034705363 8.581136e-05 -9.852464e-05 3.494139e-05 3.195982e-05 7.4883283e-06
0.00089649373 0.00089549477 0.0008688811 0.0008613236 0.0008776542 0.00088062225 0.00088832394 0.00024804194
0.000878777 0.00021517076 0.0007711401 0.00075240404 0.0010530375 0.0010082015 0.0011476458 0.0011016882
-0.00088686636 0.001127825 0.0011920404 0.00069374894 -0.0008097909 -0.00083120994 -8.521322e-05 -0.00017279477
-0.00016493422 -0.00010510959 -0.00016762617 -0.00016203334 7.011724e-05 -0.00013081229 -9.083572e-05 -0.0005678982
0.00024745165 0.00022415581 -9.507424e-05 -0.00019458712 0.0007426959 0.0007162678 0.00079919386 0.00075366755
-0.0010183905 0.000795331 0.0008262164 0.00049514225 -0.0010150364 0.00031523575 2.0765961e-05 6.7973015e-06
0.001230959 0.0012404427 0.0013117682 0.0012880693 -0.0011070549 0.0013044268 0.0013433249 0.0007694993
-0.0014825324 0.00039716088 0.00034793903 0.00018111632 -0.00027233426 -0.0001851068 -0.00025077432 -0.00026190205
-0.00034767215 -0.00019500041 -5.5986427e-05 -0.0007540136 0.0002510571 0.00071262615 -0.0004290159 -0.00072810054
0.0006117185 0.0005999803 0.00063952606 0.00062299956 -0.00013070865 0.00063926564 0.0007117651 5.2116848e-05
-4.602014e-05 0.00044781575 0.0002858287 8.6527616e-05 0.00012055768 0.00012795429 0.00010328382 9.3647715e-05
0.00014980751 0.00011739814 0.00015027523 -0.00035933557 0.0003569955 4.725633e-05 0.00020141015 0.00019716319
0.00043668482 0.00042363055 0.00044356525 0.00043221022 9.1638365e-05 0.0004599815 0.00046574735 5.817324e-05
4.2622807e-05 -0.00013088813 5.7499215e-05 0.0002469606 0.0012737275 0.0012681886 0.0013420344 0.0013300967
-0.00055223494 0.0013184693 0.0013488895 0.00084280013 -0.0011315699 0.0004702302 0.0006771593 0.000612505
0.00039269045 0.00039217752 0.0004400679 0.0004228876 -0.00039396714 0.00045408442 0.00048295857 0.00032367848
-0.00044097943 1.174488e-05 -2.8163646e-05 -0.00016339959 0.00017724183 0.00018515275 0.0001878318 0.00018762765
3.2244876e-05 0.0001890682 0.00020134237 8.371209e-05 -1.6300786e-05 0.00010258868 0.00010676732 4.6339104e-05
0.00037574096 0.0004213127 0.00039242592 0.000386977 -0.00029975417 0.0004193969 0.0005050519 -0.000307879
-0.000154815 0.0003607526 0.0001413204 -0.00012325408 3.935049e-05 3.7788253e-05 1.1798178e-05 2.7352171e-05
0.0006179981 6.983457e-06 -2.8481818e-05 8.624899e-05 0.0005150514 0.00014063911 0.00030873687 0.00037718474
0.00020541617 0.00015865719 0.00025109205 0.0002206602 -0.000531318 0.0002517346 0.00025922488 -4.1454085e-05
-0.00027717464 0.00013679371 -0.00033991452 -0.00043353188 0.0003906226 0.0003805957 0.00040095017 0.00040009466
0.00031360384 0.0003869566 0.00037008678 0.0003242981 0.00025411812 0.00031529408 0.00036863188 0.0003074365
-0.00013725115 -0.00013982366 -0.0001344417 -0.0001452702 -0.00010666078 -0.00012756763 -0.00011347152 -0.00013681618
0.00027173373 0.00014854493 -3.1159143e-06 -0.000129206 0.00061215565 0.00060906337 0.0006348424 0.0006255164
-3.9796032e-05 0.00062376674 0.0006271135 0.0004089572 -9.213691e-05 0.0003477343 0.0003584082 0.00026510126
0.0002654117 0.00024771786 0.00027346547 0.0002643919 0.00019293146 0.00026638096 0.00026665552 0.00024631392
0.00028943608 0.00020541578 0.0003360971 0.00028081855 0.00074308534 0.0007291499 0.0007864372 0.00075919594

lstm.weight_hh_l0 f4 [512, 128]
00000000: 30ab dfb5 28aa 9235 5ca8 6f36 bc2c ed36
00000010: 3838 68b6 8242 0237 d690 3db7 2ccf c2b6
00000020: 27cb 7537 38f6 7535 7340 6a36 12d4 4cb7
00000030: 78ff d736 d84e f0b5 80a8 f636 808b c835
00000040: 40f5 b034 6ae2 8ab6 3ec9 95b6 6c37 f735
00000050: 40dc 1935 e83b 9036 e223 6c37 00e7 a5b4
00000060: a4f2 9b37 20da 9f34 80c8 a636 00cc 00b7
00000070: ce2e f835 fe42 ccb6 8a2b 00b7 e6f1 d936
00000080: 0e25 1bb6 806d 2134 2c64 a5b6 3eaa bfb6
00000090: eeb2 b8b5 70be be36 5857 d4b6 e886 e036
000000a0: 1a30 9b36 687a 01b5 f074 2a36 13ba 1c37
000000b0: 0603 8636 1096 56b6 2c10 2d37 a694 72b6
000000c0: d58d ca36 60db cd36 7f92 5bb7 b057 52b5
000000d0: e06a 8c35 cd18 b9b6 e0c5 b8b5 069a a9b6
000000e0: 0069 15b5 7a45 0337 20b1 1736 84b8 9d36
000000f0: 8098 c035 0c03 7fb6 d8ce 7236 23ff c936
00000100: 04f6 5037 8031 a4b6 94aa 2936 4ee9 6336
00000110: 9498 97b7 b07f 88b6 08d1 64b6 eb01 9837
00000120: d852 5836 84ae 64b6 802c 7fb6 7fdb bdb6
00000130: 5a38 02b7 7833 c7b5 94fc 1036 8bb1 3737
00000140: 486e f0b5 3a3c 8c35 c0fb acb6 4d2a 24b7
00000150: bba2 feb6 6f03 7ab6 f821 5e36 4830 4036
00000160: 1025 3fb6 2052 6ab6 ead2 0a37 2078 d6b6
00000170: 40ea 32b5 88dc 9436 68ba bab6 58b7 6c37
00000180: 3508 dfb6 56e7 77b6 b095 c1b5 362c e636
00000190: ad43 40b6 2403 c136 074b 3e36 3aef 59b6
000001a0: c1b6 15b7 3403 96b6 3d75 c436 5489 aab6
000001b0: 1817 04b7 8e71 b6b6 84b2 9db6 2cbc fb36
000001c0: 6443 15b6 4390 9ab6 2cd7 3db7 e70a fab5
000001d0: 5aee a8b5 204f 6735 c62c 4836 547e 8236
000001e0: d8ff ec36 f999 3736 707c 0536 74d1 3536
000001f0: 3a5b 1337 500d ceb4 ff61 b6b6 b04e fbb6
00000200: 28ca 19b7 8586 ccb7 61f8 8a37 68b2 3437
00000210: 00c9 37b6 403b ee36 e042 33b8 d6f1 84b7
00000220: 0c61 1d37 309b 06b6 54f6 77b6 130d f2b7
00000230: 0ca6 7837 e860 17b7 e66b 4637 58d3 3437
00000240: 3110 3437 bc46 06b7 560d d6b6 3d53 1437
00000250: 7c19 14b7 e3b3 ae37 38b3 ac36 9817 2037
00000260: 6c87 9a37 fec1 bfb6 d034 c236 f841 9fb7
00000270: 7874 40b7 8846 1cb7 42fb 8eb7 8d44 5b37
00000280: b093 0fb7 8448 8f36 629e b7b6 ce6d e2b6
00000290: 0463 53b6 ecc9 8c36 3550 d437 dedf 9a37
000002a0: 4eb8 9437 4ec9 cb35 5c11 91b6 3396 8836
000002b0: 65a3 0837 5d50 4bb7 5071 1337 ba91 5d37
000002c0: ecda ad36 6ede 3437 0876 a4b7 8a20 6cb7
000002d0: 5e61 9fb7 f0ba 4bb7 8ece 7737 b057 e236
000002e0: 669c fab5 d205 3037 b883 f536 8c33 5737
000002f0: d21b 7137 8048 39b5 9c88 aa36 1a6e b936
00000300: 1c95 d037 a425 35b7 e0ef 5e37 abd3 c036
00000310: 445d eab7 cc81 e3b7 f10e 0db7 7524 a637
00000320: b21b 5337 6d2a 65b7 61c3 82b7 bc80 86b7
00000330: 78d0 93b7 ae89 06b7 82da c036 47a8 c337
00000340: 4646 b136 a01c de34 8818 aeb7 a45c 82b7
00000350: 5010 3137 7805 1d37 664e 40b7 3229 4fb6
00000360: 3d2b 6a37 e05d bdb3 101a 8536 e212 a9b7
00000370: 7690 f337 64ce 7837 bef4 c8b6 4765 7b37
00000380: c8a4 46b5 6722 13b7 1887 1db6 1897 1537
00000390: 8eb9 cdb6 5a43 b737 569a 1036 9a40 43b7
000003a0: c651 e7b7 a84b 1c36 fd42 8ab7 100c acb4
000003b0: d0c2 33b7 028d 36b7 da50 53b7 34d8 4037
000003c0: 85d1 4eb7 4bd0 b236 0055 f733 7e9d 6cb6
000003d0: 90ff fb36 5a43 16b7 d07b 3635 9ef0 0d37
000003e0: e49f f636 25e2 2037 186e a235 0c94 ec36
000003f0: 3494 0c38 ec6d 7eb6 9c3f b4b6 c8ee abb7
-1.6664617e-06 1.092737e-06 3.5711773e-06 7.068358e-06 -3.4603418e-06 7.764089e-06 -1.1299e-05 -5.8057685e-06
1.4650438e-05 9.162791e-07 3.4906232e-06 -1.2208724e-05 6.43724e-06 -1.790434e-06 7.3509873e-06 1.4941761e-06
3.2960997e-07 -4.1390786e-06 -4.4639737e-06 1.8419064e-06 5.731745e-07 4.2985084e-06 1.4075051e-05 -3.090172e-07
1.8590428e-05 2.9774765e-07 4.970527e-06 -7.676892e-06 1.8491062e-06 -6.0874727e-06 -7.639532e-06 6.4952646e-06
-2.3118369e-06 1.503413e-07 -4.9290447e-06 -5.7120624e-06 -1.3761144e-06 5.684611e-06 -6.3282605e-06 6.6914254e-06
4.6249597e-06 -4.823437e-07 2.540004e-06 9.341648e-06 3.993863e-06 -3.1975833e-06 1.0315369e-05 -3.6147335e-06
6.0365805e-06 6.1350147e-06 -1.3087526e-05 -7.83587e-07 1.0461918e-06 -5.516317e-06 -1.3766658e-06 -5.054523e-06
-5.565962e-07 7.824385e-06 2.2603854e-06 4.700445e-06 1.4349498e-06 -3.7999735e-06 3.618121e-06 6.0199686e-06
1.2455046e-05 -4.8933434e-06 2.5282252e-06 3.3961437e-06 -1.8071652e-05 -4.0679806e-06 -3.409632e-06 1.8120705e-05
3.223473e-06 -3.407623e-06 -3.8023863e-06 -5.6581916e-06 -7.761724e-06 -1.4841635e-06 2.1604692e-06 1.0948987e-05
-1.791349e-06 1.0448341e-06 -5.155307e-06 -9.785011e-06 -7.588734e-06 -3.7254902e-06 3.310035e-06 2.8638333e-06
-2.848279e-06 -3.491652e-06 8.274548e-06 -6.3916814e-06 -6.6651046e-07 4.436417e-06 -5.5649325e-06 1.4109384e-05
-6.6468733e-06 -3.6940523e-06 -1.4423185e-06 6.859681e-06 -2.8649622e-06 5.752214e-06 2.8355878e-06 -3.2474768e-06
-8.923643e-06 -4.4707213e-06 5.8549035e-06 -5.082382e-06 -7.87319e-06 -5.437242e-06 -4.6997466e-06 7.502289e-06
-2.2241957e-06 -4.606352e-06 -1.13153765e-05 -1.8629624e-06 -1.2586345e-06 8.616935e-07 2.9828384e-06 3.8890084e-06
7.063132e-06 2.735875e-06 1.9890977e-06 2.709302e-06 8.783123e-06 -3.8380176e-07 -5.435431e-06 -7.4895433e-06
-9.166579e-06 -2.4381336e-05 1.6566542e-05 1.07703745e-05 -2.7386122e-06 7.0998503e-06 -4.2739208e-05 -1.584824e-05
9.380525e-06 -2.0057887e-06 -3.694925e-06 -2.8854736e-05 1.4820613e-05 -9.022864e-06 1.1826842e-05 1.0778043e-05
1.0732606e-05 -8.0034915e-06 -6.3792495e-06 8.840868e-06 -8.827421e-06 2.0826183e-05 5.1468633e-06 9.5422365e-06
1.8421291e-05 -5.7148272e-06 5.7877987e-06 -1.8984996e-05 -1.1471209e-05 -9.314746e-06 -1.704472e-05 1.3069378e-05
-8.55785e-06 4.270174e-06 -5.472263e-06 -6.748108e-06 -3.1499085e-06 4.195832e-06 2.5309719e-05 1.8462477e-05
1.7728798e-05 1.5183266e-06 -4.3233576e-06 4.0706013e-06 8.144275e-06 -1.2118454e-05 8.788265e-06 1.3206556e-05
5.1812876e-06 1.07806245e-05 -1.9605286e-05 -1.4074272e-05 -1.8999617e-05 -1.2143268e-05 1.47704395e-05 6.745533e-06
-1.8671969e-06 1.0491773e-05 7.316903e-06 1.2827e-05 1.4371197e-05 -6.902337e-07 5.0822982e-06 5.526247e-06
2.4864967e-05 -1.0797205e-05 1.3288081e-05 5.7466873e-06 -2.7938404e-05 -2.712095e-05 -8.407734e-06 1.9805719e-05
1.2583028e-05 -1.3659342e-05 -1.5588188e-05 -1.6033991e-05 -1.7620841e-05 -8.019078e-06 5.7474836e-06 2.3324172e-05
5.283192e-06 4.137155e-07 -2.075384e-05 -1.5540347e-05 1.055382e-05 9.3592025e-06 -1.1462345e-05 -3.0869382e-06
1.3957554e-05 -8.818074e-08 3.966743e-06 -2.0155163e-05 2.9035127e-05 1.4830006e-05 -5.988956e-06 1.4984346e-05
-7.4000536e-07 -8.769893e-06 -2.3473458e-06 8.916271e-06 -6.1310775e-06 2.1846663e-05 2.1547507e-06 -1.1637947e-05
-2.7575425e-05 2.328985e-06 -1.6482076e-05 -3.2046273e-07 -1.071459e-05 -1.0880876e-05 -1.2595405e-05 1.14944305e-05
-1.2327339e-05 5.329062e-06 1.1517295e-07 -3.5258413e-06 7.5101343e-06 -8.956378e-06 6.7980454e-07 8.460278e-06
7.349985e-06 9.5893965e-06 1.2101982e-06 7.050583e-06 3.3516626e-05 -3.7912932e-06 -5.371823e-06 -2.049598e-05

lstm.bias_ih_l0 f4 [512]
00000000: fddd df39 77ac 6539 0846 373a b475 863a
00000010: 884d 3eba 673b 053a 8c2d 1f3a 7e3f a2ba
00000020: a7a6 0e3a 3f4b 19b8 92d6 9f39 6839 903a
00000030: cc7d 4339 bf73 c138 1b01 20b9 99c4 4439
00000040: 0d6c e339 80ff ef39 a206 10b9 ef80 f139
00000050: 4240 e839 35be 043a d21c 883a bee4 52b8
00000060: f4cd 61ba 196f 4cb9 3856 5039 3554 a4ba
00000070: 9e88 0cb7 2e4c 1cb9 0273 afb9 362b 373a
00000080: 6a0b bf38 7b58 3239 7bd4 803a 0112 8c39
00000090: 3214 30b8 e2f3 0bba 70f3 2c39 ebaf 103a
000000a0: 8c2a 44b8 acb1 143a ec0c 7d3a c928 583a
000000b0: 1b4b 3639 54f2 4439 0435 2d3a a405 8e3a
000000c0: 5557 993a 6c33 27b9 ac24 073a cbaf 1739
000000d0: 56c6 5a39 6c19 0839 49e0 1bb9 f5f5 1c39
000000e0: 9451 5039 a28d 293a 58bf d138 c8dc 5f3a
000000f0: 2149 853a 09f7 bf39 e201 3739 60a3 8f39
00000100: e02a 93ba 0d79 cf3a 1663 1c39 7c52 023a
00000110: 80b8 fe36 9950 9139 7a19 1ab9 ae24 623a
00000120: f9b9 a038 6216 1e3a 8bd8 6d3a e69e 0b39
00000130: d016 8839 c5d7 c438 86ec 873a e254 dd39
00000140: 1de6 d539 55be 9e39 caa4 d939 2cc0 2d3a
00000150: 6b55 863a caac 39ba 46db 47b9 99d6 863a
00000160: 0ca9 e638 ac98 10b7 f494 2739 5a1d c0ba
00000170: 0ae4 f239 c228 c3b8 9841 3637 77f3 2e3a
00000180: dcef fbb8 7e50 b938 b8a3 24b8 9d9c 953a
00000190: 035a 54ba 04d7 a63a a273 ac39 9872 a339
000001a0: 25d1 163a bcdb 8fb8 5fd5 2439 8a15 4139
000001b0: 57cd 64bb 8099 6cb8 9c4a 5fb8 00f0 e735
000001c0: 98f6 8139 14e1 b039 1dee 123a 9223 4c39
000001d0: c0f6 4b3a 3401 3f3a d550 0939 5a28 6bb9
000001e0: c614 8f39 abb5 e838 5e96 2b39 af97 03b9
000001f0: 9618 5d3a a493 2739 7517 0e39 a3de 0c3a
00000200: 294e a839 0871 0839 104e 493a 5760 5f3a
00000210: 3ad7 47ba 94da ba39 2894 d939 9ad0 a8ba
00000220: 566e f839 504d 7eb7 d7d3 7b39 19f3 5d3a
00000230: 90b2 6338 08e5 5338 1acc 6ab9 6c0a 2939
00000240: d12e b739 6c38 c739 fc55 56b9 31a9 c139
00000250: d67a ca39 aff3 d939 9a10 573a 08ae 0ab9
00000260: 9657 8eba 1135 8fb9 8ae1 1239 e806 b5ba
00000270: 81b5 8eb6 60a9 4fb9 64f4 efb9 23b0 1c3a
00000280: 4e9a 5338 6c26 cc38 28b6 6c3a 08db 2339
00000290: 10cb 75b8 2e94 20ba 66f1 0539 cafb ce39
000002a0: 5af4 41b9 44b0 e839 060a 563a 6be7 3c3a
000002b0: 9999 8a38 306a d638 0834 153a b7cb 5b3a
000002c0: d274 953a 30c9 adb9 2a40 bb39 50ee f938
000002d0: 755f 2c39 c065 2135 e6a8 89b9 9c98 48b8
000002e0: 8417 0e39 6194 213a 687c 8138 9f2b 313a
000002f0: 2a40 603a 9fe5 9b39 145f da38 e0d0 0d39
00000300: cc9b a1ba c3ae be3a 662f 2139 2edf cb39
00000310: 0e5d 88b9 667d 2939 9ff2 43b9 2268 5a3a
00000320: c08c b5b7 5265 ee39 580c 3e3a 5124 f938
00000330: a8b5 2239 dc5e 9538 301d 7e3a 555e 9739
00000340: 85c8 9339 4671 5a39 b7cd a539 c61d ed39
00000350: 4d68 893a a408 4fba b6b7 98b9 f84f 663a
00000360: bc3c 3438 0096 9ab7 71b8 9138 bf5f e3ba
00000370: 3b78 aa39 1f32 61b9 f4b8 d7b7 2503 0d3a
00000380: 164f 10b9 2764 3e38 5e93 37b9 21f0 803a
00000390: 89d0 53ba d902 793a 4ac1 8339 ae13 8239
000003a0: 4be0 d939 c2ea d9b8 7c69 ef38 6aac 3d38
000003b0: 2084 63bb 6551 06b9 be04 01b9 4cb5 4db9
000003c0: 4486 f238 41c2 9239 ab25 d739 8886 d338
000003d0: f251 3f3a 7040 123a 058e e838 5b93 8db9
000003e0: 1a01 8639 5497 0c38 43ca b238 14fb f4b8
000003f0: ee22 173a 50c9 a9b6 089f 64b7 d0b5 c639
0.0004269927 0.0002190339 0.00069913315 0.0010258467 -0.0007259478 0.0005082399 0.00060721557 -0.0012378541
0.0005441703 -3.654812e-05 0.0003048671 0.0011003437 0.00018643512 9.2245165e-05 -0.00015259201 0.00018765255
0.00043377318 0.00045775995 -0.00013735381 0.00046063165 0.00044298364 0.00050637434 0.0010384566 -5.0280934e-05
-0.0008613758 -0.00019496343 0.00019868545 -0.0012537303 -8.376459e-06 -0.00014905698 -0.0003346429 0.0006987335
9.109716e-05 0.00017008364 0.0009828949 0.00026716295 -4.198048e-05 -0.00053387706 0.00016493886 0.0005519378
-4.6769666e-05 0.0005672227 0.00096531096 0.00082458236 0.00017384852 0.00018782291 0.0006607326 0.0010835421
0.0011699001 -0.00015945517 0.0005155306 0.0001446597 0.00020863986 0.00012979441 -0.00014865505 0.00014968945
0.00019866816 0.00064679433 0.00010001537 0.0008539674 0.0010168889 0.00036614414 0.00017452941 0.0002739681
-0.0011227988 0.0015828923 0.00014914232 0.00049713976 7.5912685e-06 0.00027716605 -0.00014696075 0.00086266815
7.664035e-05 0.0006030557 0.00090731 0.00013315267 0.00025956938 9.3861985e-05 0.0010370172 0.00042215647
0.00040797974 0.00030277917 0.00041512243 0.0006628062 0.0010248845 -0.00070829375 -0.00019059805 0.0010287344
0.00010998742 -8.6186155e-06 0.0001598185 -0.0014657185 0.0004632774 -9.305916e-05 1.0863318e-05 0.00066738523
-0.0001201329 8.83648e-05 -3.9253122e-05 0.0011414472 -0.0008100571 0.0012728875 0.0003289255 0.00031175162
0.0005753211 -6.8597e-05 0.00015719746 0.00018413938 -0.003491243 -5.6409743e-05 -5.323683e-05 1.728069e-06
0.00024788524 0.00033737032 0.00056049397 0.00019468207 0.0007780604 0.0007286251 0.0001309545 -0.00022426379
0.00027290563 0.000110964604 0.00016363847 -0.0001254964 0.00084341445 0.00015981362 0.00013550914 0.00053737516
0.0003210169 0.00013012078 0.0007679174 0.00085211307 -0.0007623319 0.00035639538 0.0004149985 -0.0012879551
0.00047384453 -1.51575805e-05 0.00024016142 0.00084667053 5.4287317e-05 5.0519622e-05 -0.00022392013 0.00016120978
0.0003493936 0.00037998275 -0.00020440662 0.00036937886 0.00038619962 0.00041571024 0.0008204073 -0.00013225537
-0.0010859843 -0.00027314623 0.00014007665 -0.0013811262 -4.2530596e-06 -0.00019804155 -0.00045767718 0.0005977174
5.0450028e-05 9.734635e-05 0.0009029829 0.00015626487 -5.860167e-05 -0.0006125596 0.00012773796 0.0003947898
-0.00018496942 0.00044381816 0.0008164946 0.0007206115 6.6089626e-05 0.00010224094 0.0005691652 0.0008384543
0.0011402613 -0.00033147028 0.00035715225 0.000119176344 0.00016438759 6.012524e-07 -0.00026256515 -4.7825844e-05
0.00013550936 0.0006163773 6.174372e-05 0.0006758514 0.0008554483 0.00029734985 0.0001041276 0.0001352462
-0.0012329756 0.0014547933 0.00015371814 0.0003888546 -0.00026009273 0.0001616381 -0.00018687033 0.0008331557
-2.1642423e-05 0.00045470387 0.0007249764 0.0001188001 0.00015517196 7.1225426e-05 0.00096936803 0.00028871247
0.00028187424 0.00020832298 0.00031624522 0.00045226346 0.0010483355 -0.0007897711 -0.00029128575 0.000878572
4.2971908e-05 -1.842808e-05 6.948494e-05 -0.001734726 0.00032514505 -0.00021476344 -2.5716123e-05 0.0005379192
-0.00013762372 4.5392804e-05 -0.00017507139 0.0009837189 -0.00080800854 0.00094990205 0.0002513028 0.00024810195
0.00041556577 -0.000103910934 0.00011416056 4.5221685e-05 -0.0034716204 -0.00012809558 -0.00012304165 -0.00019617862
0.00011564468 0.0002799202 0.0004103606 0.000100863224 0.00072982826 0.000557906 0.00011089075 -0.00027003404
0.00025559292 3.3519536e-05 8.5253756e-05 -0.000116815936 0.0005765398 -5.0600283e-06 -1.3626886e-05 0.00037900964

lstm.bias_hh_l0 f4 [512]
00000000: fddd df39 77ac 6539 0846 373a b475 863a
00000010: 884d 3eba 673b 053a 8c2d 1f3a 7e3f a2ba
00000020: a7a6 0e3a 3f4b 19b8 92d6 9f39 6839 903a
00000030: cc7d 4339 bf73 c138 1b01 20b9 99c4 4439
00000040: 0d6c e339 80ff ef39 a206 10b9 ef80 f139
00000050: 4240 e839 35be 043a d21c 883a bee4 52b8
00000060: f4cd 61ba 196f 4cb9 3856 5039 3554 a4ba
00000070: 9e88 0cb7 2e4c 1cb9 0273 afb9 362b 373a
00000080: 6a0b bf38 7b58 3239 7bd4 803a 0112 8c39
00000090: 3214 30b8 e2f3 0bba 70f3 2c39 ebaf 103a
000000a0: 8c2a 44b8 acb1 143a ec0c 7d3a c928 583a
000000b0: 1b4b 3639 54f2 4439 0435 2d3a a405 8e3a
000000c0: 5557 993a 6c33 27b9 ac24 073a cbaf 1739
000000d0: 56c6 5a39 6c19 0839 49e0 1bb9 f5f5 1c39
000000e0: 9451 5039 a28d 293a 58bf d138 c8dc 5f3a
000000f0: 2149 853a 09f7 bf39 e201 3739 60a3 8f39
00000100: e02a 93ba 0d79 cf3a 1663 1c39 7c52 023a
00000110: 80b8 fe36 9950 9139 7a19 1ab9 ae24 623a
00000120: f9b9 a038 6216 1e3a 8bd8 6d3a e69e 0b39
00000130: d016 8839 c5d7 c438 86ec 873a e254 dd39
00000140: 1de6 d539 55be 9e39 caa4 d939 2cc0 2d3a
00000150: 6b55 863a caac 39ba 46db 47b9 99d6 863a
00000160: 0ca9 e638 ac98 10b7 f494 2739 5a1d c0ba
00000170: 0ae4 f239 c228 c3b8 9841 3637 77f3 2e3a
00000180: dcef fbb8 7e50 b938 b8a3 24b8 9d9c 953a
00000190: 035a 54ba 04d7 a63a a273 ac39 9872 a339
000001a0: 25d1 163a bcdb 8fb8 5fd5 2439 8a15 4139
000001b0: 57cd 64bb 8099 6cb8 9c4a 5fb8 00f0 e735
000001c0: 98f6 8139 14e1 b039 1dee 123a 9223 4c39
000001d0: c0f6 4b3a 3401 3f3a d550 0939 5a28 6bb9
000001e0: c614 8f39 abb5 e838 5e96 2b39 af97 03b9
000001f0: 9618 5d3a a493 2739 7517 0e39 a3de 0c3a
00000200: 294e a839 0871 0839 104e 493a 5760 5f3a
00000210: 3ad7 47ba 94da ba39 2894 d939 9ad0 a8ba
00000220: 566e f839 504d 7eb7 d7d3 7b39 19f3 5d3a
00000230: 90b2 6338 08e5 5338 1acc 6ab9 6c0a 2939
00000240: d12e b739 6c38 c739 fc55 56b9 31a9 c139
00000250: d67a ca39 aff3 d939 9a10 573a 08ae 0ab9
00000260: 9657 8eba 1135 8fb9 8ae1 1239 e806 b5ba
00000270: 81b5 8eb6 60a9 4fb9 64f4 efb9 23b0 1c3a
00000280: 4e9a 5338 6c26 cc38 28b6 6c3a 08db 2339
00000290: 10cb 75b8 2e94 20ba 66f1 0539 cafb ce39
000002a0: 5af4 41b9 44b0 e839 060a 563a 6be7 3c3a
000002b0: 9999 8a38 306a d638 0834 153a b7cb 5b3a
000002c0: d274 953a 30c9 adb9 2a40 bb39 50ee f938
000002d0: 755f 2c39 c065 2135 e6a8 89b9 9c98 48b8
000002e0: 8417 0e39 6194 213a 687c 8138 9f2b 313a
000002f0: 2a40 603a 9fe5 9b39 145f da38 e0d0 0d39
00000300: cc9b a1ba c3ae be3a 662f 2139 2edf cb39
00000310: 0e5d 88b9 667d 2939 9ff2 43b9 2268 5a3a
00000320: c08c b5b7 5265 ee39 580c 3e3a 5124 f938
00000330: a8b5 2239 dc5e 9538 301d 7e3a 555e 9739
00000340: 85c8 9339 4671 5a39 b7cd a539 c61d ed39
00000350: 4d68 893a a408 4fba b6b7 98b9 f84f 663a
00000360: bc3c 3438 0096 9ab7 71b8 9138 bf5f e3ba
00000370: 3b78 aa39 1f32 61b9 f4b8 d7b7 2503 0d3a
00000380: 164f 10b9 2764 3e38 5e93 37b9 21f0 803a
00000390: 89d0 53ba d902 793a 4ac1 8339 ae13 8239
000003a0: 4be0 d939 c2ea d9b8 7c69 ef38 6aac 3d38
000003b0: 2084 63bb 6551 06b9 be04 01b9 4cb5 4db9
000003c0: 4486 f238 41c2 9239 ab25 d739 8886 d338
000003d0: f251 3f3a 7040 123a 058e e838 5b93 8db9
000003e0: 1a01 8639 5497 0c38 43ca b238 14fb f4b8
000003f0: ee22 173a 50c9 a9b6 089f 64b7 d0b5 c639
0.0004269927 0.0002190339 0.00069913315 0.0010258467 -0.0007259478 0.0005082399 0.00060721557 -0.0012378541
0.0005441703 -3.654812e-05 0.0003048671 0.0011003437 0.00018643512 9.2245165e-05 -0.00015259201 0.00018765255
0.00043377318 0.00045775995 -0.00013735381 0.00046063165 0.00044298364 0.00050637434 0.0010384566 -5.0280934e-05
-0.0008613758 -0.00019496343 0.00019868545 -0.0012537303 -8.376459e-06 -0.00014905698 -0.0003346429 0.0006987335
9.109716e-05 0.00017008364 0.0009828949 0.00026716295 -4.198048e-05 -0.00053387706 0.00016493886 0.0005519378
-4.6769666e-05 0.0005672227 0.00096531096 0.00082458236 0.00017384852 0.00018782291 0.0006607326 0.0010835421
0.0011699001 -0.00015945517 0.0005155306 0.0001446597 0.00020863986 0.00012979441 -0.00014865505 0.00014968945
0.00019866816 0.00064679433 0.00010001537 0.0008539674 0.0010168889 0.00036614414 0.00017452941 0.0002739681
-0.0011227988 0.0015828923 0.00014914232 0.00049713976 7.5912685e-06 0.00027716605 -0.00014696075 0.00086266815
7.664035e-05 0.0006030557 0.00090731 0.00013315267 0.00025956938 9.3861985e-05 0.0010370172 0.00042215647
0.00040797974 0.00030277917 0.00041512243 0.0006628062 0.0010248845 -0.00070829375 -0.00019059805 0.0010287344
0.00010998742 -8.6186155e-06 0.0001598185 -0.0014657185 0.0004632774 -9.305916e-05 1.0863318e-05 0.00066738523
-0.0001201329 8.83648e-05 -3.9253122e-05 0.0011414472 -0.0008100571 0.0012728875 0.0003289255 0.00031175162
0.0005753211 -6.8597e-05 0.00015719746 0.00018413938 -0.003491243 -5.6409743e-05 -5.323683e-05 1.728069e-06
0.00024788524 0.00033737032 0.00056049397 0.00019468207 0.0007780604 0.0007286251 0.0001309545 -0.00022426379
0.00027290563 0.000110964604 0.00016363847 -0.0001254964 0.00084341445 0.00015981362 0.00013550914 0.00053737516
0.0003210169 0.00013012078 0.0007679174 0.00085211307 -0.0007623319 0.00035639538 0.0004149985 -0.0012879551
0.00047384453 -1.51575805e-05 0.00024016142 0.00084667053 5.4287317e-05 5.0519622e-05 -0.00022392013 0.00016120978
0.0003493936 0.00037998275 -0.00020440662 0.00036937886 0.00038619962 0.00041571024 0.0008204073 -0.00013225537
-0.0010859843 -0.00027314623 0.00014007665 -0.0013811262 -4.2530596e-06 -0.00019804155 -0.00045767718 0.0005977174
5.0450028e-05 9.734635e-05 0.0009029829 0.00015626487 -5.860167e-05 -0.0006125596 0.00012773796 0.0003947898
-0.00018496942 0.00044381816 0.0008164946 0.0007206115 6.6089626e-05 0.00010224094 0.0005691652 0.0008384543
0.0011402613 -0.00033147028 0.00035715225 0.000119176344 0.00016438759 6.012524e-07 -0.00026256515 -4.7825844e-05
0.00013550936 0.0006163773 6.174372e-05 0.0006758514 0.0008554483 0.00029734985 0.0001041276 0.0001352462
-0.0012329756 0.0014547933 0.00015371814 0.0003888546 -0.00026009273 0.0001616381 -0.00018687033 0.0008331557
-2.1642423e-05 0.00045470387 0.0007249764 0.0001188001 0.00015517196 7.1225426e-05 0.00096936803 0.00028871247
0.00028187424 0.00020832298 0.00031624522 0.00045226346 0.0010483355 -0.0007897711 -0.00029128575 0.000878572
4.2971908e-05 -1.842808e-05 6.948494e-05 -0.001734726 0.00032514505 -0.00021476344 -2.5716123e-05 0.0005379192
-0.00013762372 4.5392804e-05 -0.00017507139 0.0009837189 -0.00080800854 0.00094990205 0.0002513028 0.00024810195
0.00041556577 -0.000103910934 0.00011416056 4.5221685e-05 -0.0034716204 -0.00012809558 -0.00012304165 -0.00019617862
0.00011564468 0.0002799202 0.0004103606 0.000100863224 0.00072982826 0.000557906 0.00011089075 -0.00027003404
0.00025559292 3.3519536e-05 8.5253756e-05 -0.000116815936 0.0005765398 -5.0600283e-06 -1.3626886e-05 0.00037900964

lstm.weight_ih_l1 f4 [512, 128]
00000000: f880 c9a4 a473 7325 a89c 19ad 14ee 77ac
00000010: 3700 67a5 e017 5a26 c88b 5325 e2ef e3a6
00000020: d53a 1026 f6ea 1c25 3a77 e1a5 95ee 8f27
00000030: e6e8 2c26 54e3 0126 d33c af25 8803 aaa4
00000040: b44c 83a6 90b4 6425 4e30 2fa6 8499 b9a5
00000050: 24ed 8b2f 3799 2126 155e efad d409 2c26
00000060: a0a4 7625 4430 cb25 1063 ed25 4cf0 f725
00000070: ac4d 32a5 6074 1ca3 d44a 5d27 b277 97a5
00000080: 006e 92a1 0097 c8a5 387b 2326 20f4 57a6
00000090: e759 3fa6 0087 e22c 7033 f525 44cd 6a2f
000000a0: 80a6 0d24 987b 2ea6 df5b 65ae f010 93a4
000000b0: ab5b 36a5 5a5e b025 7934 8aa4 6a4e dd2f
000000c0: 062f 98a4 516e 9825 a85d 1526 3412 8625
000000d0: 90c7 78a4 2813 dca6 b2ee 77ac 3c47 c5a6
000000e0: 679a 7ba5 ae4d 4426 7833 7725 4b8a cd25
000000f0: a83e f8a5 869f d9a5 b61a 9525 bb94 21a6
00000100: 8ca5 3fa5 987d daa4 e2df 9325 7885 06a6
00000110: c09a c725 6001 a7a3 8806 75a6 64ee 8a26
00000120: da19 68ae 2ed0 cda6 7e8a 20a6 4fae 49a5
00000130: f4c9 29a5 ae91 9b25 a7a5 4a28 1480 3da5
00000140: c798 c2a6 803c d2a2 d6ae 0ba6 8c44 e3a6
00000150: 3dce 8126 aea9 de25 90cb 53a6 3eb8 8c26
00000160: 48a4 2723 e035 f7a5 c06b 4124 0ac0 9524
00000170: 7034 2aa7 c09a 91a6 5abf 0426 56a0 79a6
00000180: 2513 dda5 723e 8aa5 6f0d 0ca6 e84b cc27
00000190: c097 24a6 3c28 a525 28e8 94ad 80dc 7225
000001a0: f20a c7a5 8c3f 02a5 7efb eda6 7616 ae25
000001b0: e3a4 9126 35d3 5a25 6494 aa26 ccca a9a5
000001c0: 7408 b725 4c03 53a4 80f1 8925 c24c 1026
000001d0: ad5b f326 f856 6da4 0224 28a5 022c 13a6
000001e0: 5290 2f2b fff2 e225 0e6b eaa5 7db9 e924
000001f0: ac06 d7a5 3fb8 0225 f8e2 38a5 5223 3aa6
00000200: 80be 18a7 a856 8ea7 c6c1 1828 13e1 1128
00000210: 65b7 ffa7 843d b6a7 343b c226 d023 0328
00000220: 10b2 30a6 028c bc27 05d9 1928 00c1 dda7
00000230: be7b 0a28 a023 2c26 1080 fe2c b460 4627
00000240: aa97 29a8 d57a 35a8 53aa 732c 1651 2fa8
00000250: d040 21ac de5c d628 88cc 93a7 f0f0 a526
00000260: d888 4ea6 45fb 15a8 2020 0aad df12 1c28
00000270: 4e3c 8527 bfcd b12e 6c6f 522f 6f8e eb27
00000280: d765 cd26 ed5f 30b0 f0ea 7f27 f918 d02c
00000290: 4052 a325 3c0e 0d28 d87f aeb0 980a 9fa7
000002a0: dc46 e726 186c 1b28 a0c2 f627 c064 22a5
000002b0: 79d1 4128 7250 54ad e07f f426 70ce 1327
000002c0: a26c 0028 10da 2427 ee9e 4428 42ce 93a7
000002d0: 0a0d 97a7 0069 2628 5d87 75a8 7e92 b12c
000002e0: 6a1a bb2d 98d2 10a7 bca3 1ba8 0066 1e25
000002f0: d830 b926 18e1 3a26 8685 2028 b84e aea6
00000300: da0c 7828 bbf9 5caf 60a6 f52b 287d 84a6
00000310: 20d7 e727 f627 4027 9698 9227 0024 32ad
00000320: dc84 09a8 c6c3 9627 5bfb 8aae 3803 2027
00000330: 10d3 7526 b8a2 84a7 cb22 a427 1ca6 43a7
00000340: f7b2 f227 b4d1 7dab cee2 562d 041d a1a7
00000350: 17a0 f626 355c 7328 185f b226 a048 3c2a
00000360: 5c89 a9a7 e04e 88a7 fe0d 08a8 80e3 2425
00000370: dd23 0428 ca91 3faf 4486 d9a7 56ce 1228
00000380: 5d3b 7a2d 2a62 6b2c e683 f227 ddc0 1d29
00000390: cc87 b02c 0c19 1a28 aa98 b2aa b191 aa28
000003a0: 327c 2d28 a2f6 e328 ec6e 0a28 b02a aa27
000003b0: 3a00 a8a7 045f 35a8 3822 bda7 ca4a 5028
000003c0: 3c10 7ba8 980a 3ea8 3edc c4a7 76c2 d6a7
000003d0: 6cb7 9927 50be 9fa5 c914 0628 68ea 2128
000003e0: 10e5 dea5 a6f5 2ba8 5d33 1428 3204 502d
000003f0: a7e0 9c2c fba0 432d 44f4 a2a7 e9ed 9228
-8.7388336e-17 2.1116071e-16 -8.731828e-12 -3.523297e-12 -2.0036129e-16 7.56663e-16 1.8348692e-16 -1.581631e-15
5.003977e-16 1.3610451e-16 -3.911207e-16 3.9949144e-15 5.9990124e-16 4.5063953e-16 3.0398877e-16 -7.373173e-17
-9.110741e-16 1.9837025e-16 -6.0780787e-16 -3.219641e-16 2.545245e-10 5.606574e-16 -2.7212935e-11 5.9687807e-16
2.1392876e-16 3.5247593e-16 4.1180074e-16 4.3010501e-16 -1.5465355e-16 -8.48142e-18 3.0710475e-15 -2.6275433e-16
-9.922462e-19 -3.479679e-16 5.671898e-16 -7.492396e-16 -6.6388277e-16 6.4382943e-12 4.253558e-16 2.1355101e-10
3.0715532e-17 -6.053588e-16 -5.215017e-11 -6.377978e-17 -1.5817042e-16 3.0595068e-16 -5.993685e-17 4.0255382e-10
-6.599915e-17 2.644255e-16 5.182169e-16 2.325763e-16 -5.3945464e-17 -1.5270759e-15 -3.5233314e-12 -1.3688929e-15
-2.1823093e-16 6.8106436e-16 2.1441273e-16 3.5655542e-16 -4.30636e-16 -3.7751597e-16 2.586548e-16 -5.6059663e-16
-1.6622699e-16 -9.4755194e-17 2.5652144e-16 -4.6671473e-16 3.462586e-16 -1.8106759e-17 -8.50103e-16 9.64029e-16
-5.2773654e-11 -1.428116e-15 -5.5698843e-16 -1.7493029e-16 -1.4726838e-16 2.698693e-16 1.1249173e-14 -1.6436531e-16
-1.3502865e-15 -5.698467e-18 -4.846226e-16 -1.5769869e-15 9.007074e-16 3.862584e-16 -7.348121e-16 9.76439e-16
9.087876e-18 -4.2884177e-16 4.1941472e-17 6.4943776e-17 -2.3620666e-15 -1.0103341e-15 4.605603e-16 -8.6606525e-16
-3.8350362e-16 -2.3981499e-16 -4.8590463e-16 5.670367e-15 -5.710459e-16 2.86502e-16 -1.692875e-11 2.1064862e-16
-3.4528414e-16 -1.1297233e-16 -1.6513346e-15 3.0199409e-16 1.0106089e-15 1.8980046e-16 1.1836341e-15 -2.9454247e-16
3.1751168e-16 -4.5756124e-17 2.3929358e-16 5.006406e-16 1.6886361e-15 -5.146485e-17 -1.4583877e-16 -5.106051e-16
6.2372774e-13 3.936941e-16 -4.0665072e-16 1.0136187e-16 -3.7301076e-16 1.1338128e-16 -1.6036356e-16 -6.457958e-16
-2.1197508e-15 -3.950687e-15 8.479713e-15 8.097922e-15 -7.0975555e-15 -5.0581843e-15 1.3477501e-15 7.279726e-15
-6.1303586e-16 5.233228e-15 8.540265e-15 -6.1549073e-15 7.687371e-15 5.972277e-16 7.233332e-12 2.7530443e-15
-9.4142715e-15 -1.0074153e-14 3.4626926e-12 -9.732034e-15 -2.2915454e-12 2.3799047e-14 -4.102245e-15 1.1514481e-15
-7.1656065e-16 -8.325647e-15 -7.851525e-12 8.663832e-15 3.69803e-15 8.085576e-11 1.9138974e-10 6.538003e-15
1.4252336e-15 -6.4164746e-10 3.5515719e-15 5.914488e-12 2.8331727e-16 7.830159e-15 -1.2696502e-09 -4.414285e-15
1.6048051e-15 8.6276675e-15 6.848973e-15 -1.4085396e-16 1.0759074e-14 -1.2068667e-11 1.6965562e-15 2.0512258e-15
7.128983e-15 2.2877784e-15 1.0914648e-14 -4.102432e-15 -4.1925056e-15 9.237619e-15 -1.3629584e-14 5.0469065e-12
2.1271169e-11 -2.0098178e-15 -8.639733e-15 1.3738874e-16 1.2850193e-15 6.483677e-16 8.9107375e-15 -1.2095012e-15
1.3769552e-14 -2.0097606e-10 1.7454475e-12 -9.193264e-16 6.434862e-15 2.6667015e-15 4.0688574e-15 -1.0126122e-11
-7.633837e-15 4.184562e-15 -6.320163e-11 2.2206205e-15 8.5287493e-16 -3.681378e-15 4.5556867e-15 -2.7151734e-15
6.7362527e-15 -9.017468e-13 1.2214852e-11 -4.4717936e-15 1.7113071e-15 1.3509204e-14 1.2377006e-15 1.6722951e-13
-4.705585e-15 -3.78331e-15 -7.552551e-15 1.4301813e-16 7.3352486e-15 -1.7423143e-10 -6.037517e-15 8.14937e-15
1.4224036e-11 3.345e-12 6.7311498e-15 3.5028285e-14 5.0172973e-12 8.5541485e-15 -3.1725084e-13 1.8936975e-14
9.63036e-15 2.5309023e-14 7.684591e-15 4.723076e-15 -4.6629613e-15 -1.0068122e-14 -5.249514e-15 1.1562537e-14
-1.3936819e-14 -1.0549416e-14 -5.4639715e-15 -5.9607767e-15 4.2664897e-15 -2.7711064e-16 7.443001e-15 8.988124e-15
-3.866608e-16 -9.545673e-15 8.226788e-15 1.1824363e-11 4.458728e-12 1.11202115e-11 -4.5228866e-15 1.6312433e-14

lstm.weight_hh_l1 f4 [512, 128]
00000000: dd64 c421 bc06 36a1 f474 d59e 6a54 f8a0
00000010: 503f 071e b61a 442f e264 81a0 c257 3ba1
00000020: 2083 c026 529c 581f 4189 32a1 1214 8f20
00000030: f202 8b22 ce5e 8520 2a2f 4322 8067 571e
00000040: dde9 71a0 0582 bd2c f873 1f2c e5dd 999d
00000050: 0854 12ad b0e7 ddae bc40 a69f f834 b91e
00000060: bca8 05af 707d 8420 fcc4 3821 8626 cd20
00000070: 0cad 9120 142a 52ac c303 69af 12d8 14a8
00000080: 4832 692c f250 891f fb87 422f eb19 0221
00000090: 18c0 eb2a 3b79 75a0 fe51 45a0 6856 b81f
000000a0: 00e6 9f28 683f 641f bfc3 3320 4a34 14ae
000000b0: 36fe d29d d859 579f c453 1620 382f a81f
000000c0: d97f 1ba0 40b7 b428 40fd 9628 d435 eb9f
000000d0: c396 90a0 f0a5 1fa1 c199 8fac 4ed6 629f
000000e0: aa09 44a4 75cb bc2b 3e09 73a2 e0ea 281d
000000f0: d0b2 282d 0c4b 4021 9c23 a71f 4893 aaae
00000100: 448e c8a0 3014 8a9f b0bf 789f dccc d31f
00000110: 349b f620 1816 9b1f 09f1 8f2d 80b3 aa1d
00000120: f410 25a1 2041 2ca5 8457 d8ad c009 701f
00000130: dc33 ce2d 8e9e 0020 a0b4 581f 3840 0da0
00000140: 24f9 95a1 20f5 75ac 242b dc21 e802 c6aa
00000150: 29f9 519e 7fe4 4e20 8727 16a1 24af f0ad
00000160: c0ba a01e 365a 7c1f 1905 f520 cf41 992b
00000170: e0eb 611d ef40 e7ae c0ac d19f 0bbc f1af
00000180: 2a82 ce20 64e7 061f 6014 479a 3f21 611d
00000190: d7ed 692f 6c4e 6c21 f425 472f 88d1 6420
000001a0: 13db a19e b72f 83a0 c09e 6d29 905a e09f
000001b0: 7b0b 95a1 3baf c3a0 ca74 5b1f a698 f720
000001c0: ef79 851e a005 411d 1c02 222c 8b39 bd20
000001d0: e8b8 aca0 0e93 191f a82d 541a e8db d19e
000001e0: 26f4 1720 fcff 959f aec6 151f 966b 98a1
000001f0: 56bd ae21 0c9c 461e abae d89f e307 261f
00000200: 8044 ed1e 0b3c 0022 65ba 262e fed8 aa1f
00000210: ea6e 5220 2458 ae9f 784d dda1 1c3e 9fa0
00000220: 8ef1 73ac b0fe c5ae 5515 3b23 d804 672c
00000230: cc78 48ac 4543 5ea2 1c15 ed9f 9c41 09a3
00000240: 34b8 86a2 240b 85a1 d680 6f1e 51f1 dcae
00000250: 6409 0bad f66f b6a1 376b 5821 fc1a f81d
00000260: 27f7 12ae 507d b02f 85cf b221 cc56 379f
00000270: 01a3 e922 d4fe 37a1 625a bf21 05e5 cbaf
00000280: 9186 7e1f 01fe 9fa1 b565 dc21 a852 9430
00000290: 3073 3f9e 02db 032e 1552 baa1 7477 97a0
000002a0: 9c2a a7a2 3c6d 4a1f 2007 9da9 0ce4 faa1
000002b0: da49 02ae 9169 9c2d d845 8e2f 685b 84a2
000002c0: 256d 0b22 bec7 8c23 7f97 d5ab 3045 95a0
000002d0: 7c3e 5a25 f266 8721 36bb 1021 1515 989e
000002e0: 90bb 6aac 97d8 9222 681a d1a2 3f0f 8a22
000002f0: 101e ee1f 9e4e a322 0051 69a0 400d f9ae
00000300: c20a 8fad 222d 242d 4c0b 4822 f8b4 872c
00000310: bc68 9e22 23f4 3b2e ab5f 62ad 9f40 6320
00000320: 0517 44a1 58b6 23a8 c0a9 6220 9ee7 70a1
00000330: 1025 bb20 789b ee20 26d9 0f22 bc26 9f2e
00000340: 577b e3a2 166b 9ca3 68b9 26a1 26e4 a9a3
00000350: b43b 092d e054 d82d 4a05 d822 d8f3 7422
00000360: 93c5 43a1 1018 d6ad 3a4d 832d 006e f19c
00000370: f08d 7c9f 0ecc 6222 07cf b0a0 a50f 1121
00000380: 59bd 26a2 1265 5caf 77c8 a11d f0dc 379f
00000390: 29b7 ada1 cecc c922 dae3 86a2 c604 a621
000003a0: 9eb8 0620 a828 af21 e44c 3b23 b4d9 25ac
000003b0: 8039 b99e 196e 1ea1 2e51 aaa0 2525 4aae
000003c0: 6a2c e9a0 833b 69a0 9661 b61e a6a3 3523
000003d0: 86b9 8b20 924d 9230 940d 891b 9db2 bbad
000003e0: 201c 429f 80ba e520 aa2e 6422 386e 25af
000003f0: 70df f19f 78b6 53a1 302d 97a1 eac5 94ac
1.3308175e-18 -6.167291e-19 -2.2600623e-20 -4.2068695e-19 7.159933e-21 1.7835586e-10 -2.1920209e-19 -6.347421e-19
1.3358218e-15 4.5869084e-20 -6.04904e-19 2.4238424e-19 3.7679144e-18 2.2593813e-19 2.6452396e-18 1.14034085e-20
-2.0490873e-19 5.386138e-12 2.2659635e-12 -4.0728196e-21 -8.317798e-12 -1.00910724e-10 -7.041083e-20 1.9609544e-20
-1.2156226e-10 2.2444677e-19 6.260233e-19 3.4753844e-19 2.4678468e-19 -2.9866153e-12 -2.1192563e-10 -8.262503e-15
3.3139203e-12 5.815567e-20 1.7692507e-10 4.4080015e-19 4.1877678e-13 -2.0792419e-19 -1.6713678e-19 7.806998e-20
1.7752293e-14 4.8333326e-20 1.5226657e-19 -3.3697746e-11 -5.5849385e-21 -4.5602338e-20 1.273321e-19 7.1228884e-20
-1.3171312e-19 2.0063486e-14 1.6763175e-14 -9.961542e-20 -2.4494315e-19 -5.409091e-19 -4.0813746e-12 -4.803463e-20
-4.250891e-17 1.3414674e-12 -3.2937534e-18 2.2356042e-21 9.589399e-12 6.5151454e-19 7.078616e-20 -7.7568674e-11
-3.3975461e-19 -5.847867e-20 -5.2674603e-20 8.970089e-20 4.1776726e-19 6.5681604e-20 1.6364259e-11 4.5184224e-21
-5.592661e-19 -1.4940687e-16 -2.4595222e-11 5.0830042e-20 2.3442519e-11 1.0894483e-19 4.588919e-20 -1.1964413e-19
-1.016258e-18 -3.4952666e-12 1.4919199e-18 -3.5173882e-13 -1.1115893e-20 1.7524482e-19 -5.087429e-19 -2.7362619e-11
1.7017897e-20 5.3437696e-20 4.1507988e-19 1.0889569e-12 2.9900447e-21 -1.0516198e-10 -8.8800734e-20 -4.3971257e-10
3.4983893e-19 2.8567006e-20 -4.1168694e-23 2.979569e-21 2.1275724e-10 8.00637e-19 1.8112428e-10 1.9381679e-19
-1.7137145e-20 -2.2223838e-19 5.2762265e-14 -9.501751e-20 -1.0099672e-18 -3.3150243e-19 4.647166e-20 4.1944442e-19
1.4132353e-20 2.5546245e-21 2.3022756e-12 3.2055924e-19 -2.9260294e-19 3.252065e-20 4.3877453e-23 -2.2219687e-20
1.287098e-19 -6.3527445e-20 3.171632e-20 -1.0328398e-18 1.1840815e-18 1.05143025e-20 -9.176852e-20 3.515839e-20
2.5121682e-20 1.7379021e-18 3.790958e-11 7.2356784e-20 1.782439e-19 -7.383768e-20 -1.4996048e-18 -2.6976748e-19
-3.4666467e-12 -9.0037644e-11 1.01418075e-17 3.2829763e-12 -2.8488765e-12 -3.0122222e-18 -1.0040833e-19 -7.440678e-18
-3.6515805e-18 -9.015379e-19 1.2679197e-20 -1.0047308e-10 -7.90332e-12 -1.2362436e-18 7.3325544e-19 6.5672955e-21
-3.3416072e-11 3.2103253e-10 1.2116679e-18 -3.8823554e-20 6.3327364e-18 -6.2340074e-19 1.2966588e-18 -3.7088213e-10
5.3897903e-20 -1.0841493e-18 1.4934701e-18 1.079191e-09 -1.0135276e-20 2.998047e-11 -1.2625577e-18 -2.5659442e-19
-4.5310555e-18 4.286552e-20 -6.9734366e-14 -1.7001022e-18 -2.962417e-11 1.7782028e-11 2.5879276e-10 -3.587545e-18
1.8895793e-18 1.5263425e-17 -1.5176609e-12 -2.5287366e-19 1.8929656e-16 9.175205e-19 4.903687e-19 -1.6102345e-20
-3.3357518e-12 3.9802703e-18 -5.6677522e-18 3.7421117e-18 1.00846655e-19 4.4264478e-18 -1.9762668e-19 -1.1325563e-10
-1.6261995e-11 9.332342e-12 2.7111035e-18 3.8570223e-12 4.2936878e-18 4.2735714e-11 -1.2867855e-11 1.9249029e-19
-6.643785e-19 -9.087857e-15 1.919911e-19 -8.1621706e-19 3.1703558e-19 4.042165e-19 1.9495071e-18 7.2373635e-11
-6.1659064e-18 -1.6958907e-17 -5.648837e-19 -1.8419641e-17 7.800805e-12 2.4594049e-11 5.8552517e-18 3.3197256e-18
-6.6330057e-19 -2.433967e-11 1.4927271e-11 -1.5976477e-21 -5.3480484e-20 3.0736737e-18 -2.995256e-19 4.9148616e-19
-2.2597435e-18 -2.0044791e-10 4.282362e-21 -3.8934513e-20 -1.1771418e-18 5.4698005e-18 -3.656202e-18 1.1249861e-18
1.1411326e-19 1.1869223e-18 1.01535725e-17 -2.356876e-12 -1.9611418e-20 -5.3678195e-19 -2.885284e-19 -4.5962473e-11
-3.9501126e-19 -1.9755558e-19 1.931036e-20 9.8466836e-18 2.3670285e-19 1.0644945e-09 2.2673523e-22 -2.1338759e-11
-4.1104362e-20 3.8917524e-19 3.0924466e-18 -1.504582e-10 -1.02437116e-19 -7.1731076e-19 -1.0244119e-18 -4.228386e-12

lstm.bias_ih_l1 f4 [512]
00000000: b9c4 aaa9 09c3 182d 03c0 bc27 65d2 5ca9
00000010: fe3e 4ba7 4bfd 13ab 98db 832c d017 43ac
00000020: 203c 8aa9 0c2e aaa6 d8e1 0529 2439 ada8
00000030: d78e 45ad 0842 262e b9cd 0e27 18b6 1baf
00000040: 1914 27ab 170e 872e 43e3 1927 00c5 f7a5
00000050: ff80 2b2c db36 eb2a 3844 1eac 60b8 7827
00000060: e628 d92b d547 ba2d 2d30 52af ce8f c72e
00000070: 778c 442b 78a9 96ad f0e4 e928 dc05 3ea8
00000080: aeb1 922c 1653 73a8 6a07 a32a bd30 7d31
00000090: 9062 21a6 de3b 19a6 4216 d5ab 373f 66ac
000000a0: b821 e327 306d 26a6 c4a5 fcab 426a cb28
000000b0: 78a7 3a26 f060 1eb1 2a8d 91af ba3f 93ac
000000c0: 7546 762d 80a4 09a8 2c2b a8ac 7a3b 302c
000000d0: 205e 92a9 4062 f326 f0a3 05a7 1cb7 14a7
000000e0: a8fc 25aa 2ab0 d1a9 fb3b b529 72b9 6ea6
000000f0: 249c da31 b605 8626 c034 98ac d73f 11a7
00000100: 4e2f bfa8 be17 da2f 7755 e3af 2ac0 9329
00000110: e05b daac f0c3 a42b d07e 7d27 11ce e62d
00000120: 07cb f82e 4e66 c33c 49fe a7ab 40a6 58a8
00000130: 48e9 b327 44fa 30a7 c536 bd28 c01e f22a
00000140: b1a5 38ab 10b6 8a2b 0ef2 be29 2015 282b
00000150: a0ab 8d27 18c9 852a a095 b4aa c8c7 8729
00000160: 38cb b72b 56f6 8124 e4ca 0328 8430 93ab
00000170: 3cde 612b 482f 6a2a 32cb 3228 d950 d527
00000180: 0248 bfa8 158e 1f26 fcc6 d529 5c5b 87a4
00000190: 649d 3225 ca65 46ad 3d41 672a 0039 4e23
000001a0: fbfa 22a5 43e8 132a 088d 75b0 2008 63ad
000001b0: c01a 38ae a021 bf26 2930 1229 1866 4d27
000001c0: 0910 a526 65a4 18ad 8645 f5a3 0815 e82a
000001d0: c0c9 1d27 2c5a f427 acee 6a1e c40a 5e24
000001e0: 4cf7 c2a8 7fd0 812b 86aa 63aa 1025 b9a5
000001f0: 2c7a 99ab fe69 bc29 d279 37b0 4449 f7a6
00000200: 7fdc ed26 6c1e 9eaa 0e94 b527 f94b 50a8
00000210: c53b 71a7 9488 1228 53b7 d1aa 2040 9a2d
00000220: 3f5e 6929 4034 bba6 92e0 d7a8 0e7c db29
00000230: 9061 0b2c 65a7 06ad 8b5f 2aa7 60b1 ef2d
00000240: 36f2 ab2a 6647 bdae 0811 86a6 e834 79a9
00000250: e036 3aae 0440 d52a 6653 8dac 2466 9327
00000260: e01e b02b 0e71 3129 1c9a d7a9 26a1 a327
00000270: 0071 0aad 0364 d42d 9298 df2a 982b 312f
00000280: 094e 7bac c703 2ead 6edd ae2a 664b 26b2
00000290: 7fc7 e3a7 b459 3d2c 4458 842b 6277 82ad
000002a0: 1a0f 352d 5c14 3ea5 aec7 a12a 5cb9 4628
000002b0: f59b 73a6 7ee5 beb0 5fdb 30ac ba1e abaa
000002c0: bcc4 e72e b8fb 66aa bd4e 3daf e085 11ac
000002d0: 9f4f 06a9 7897 74a7 dc03 82a8 b3e2 dd2a
000002e0: 3817 91aa 7280 49aa f0ee 622b d4ae 1926
000002f0: 7033 e1b0 fd94 8da6 725b 34ae a8b1 862c
00000300: eeba 8229 4c85 17ae dc39 3eaf d65b 5a2a
00000310: e0b2 beab db1d a82b ccbe a02f 224d a0aa
00000320: 9e73 77ae 3a9d a53c 88a5 0b2d c978 a228
00000330: 7072 f0a7 e8a4 7926 cceb 77ad c24f 112b
00000340: 9351 5cab 2a2d 12af a8fd 4328 ecc7 f8ac
00000350: d29f 0627 ad96 1728 d5c0 d829 58e7 95aa
00000360: 8c20 462d 9803 9ba4 3432 65a7 045c c1ab
00000370: fef2 82ab 27e8 83aa 40b0 1a2c a231 e8a6
00000380: 6f5e a029 d17f c225 a5ec 9caf 9c09 dba5
00000390: 0cd3 cfa4 808a fb29 0913 3f2a 3ce0 9d2d
000003a0: 8016 46a3 1c28 2fae c6a3 81ab ded6 f6a9
000003b0: 5a41 a629 77ea cf2e 8a7e fd28 1ccd 8928
000003c0: 9c4d ad26 a57c e926 0df1 95ab 1e1b 59a9
000003d0: c8de 07a8 50f9 0c28 0e8a 0b1f f4a8 52ad
000003e0: aad1 2ea8 6872 49ab c685 e92a 8790 4c27
000003f0: e850 82ab 26be 79ac 6606 c8b0 5e6b 88ae
-7.5836425e-14 8.683506e-12 5.238866e-15 -4.90323e-14 -2.8206057e-15 -5.2576406e-13 3.7476237e-12 -2.7724385e-12
-6.138861e-14 -1.1808601e-15 2.972782e-14 -1.9231639e-14 -1.122987e-11 3.7802678e-11 1.9817981e-15 -1.416186e-10
-5.935821e-13 6.141592e-11 2.1356214e-15 -4.2981162e-16 2.4372169e-12 4.178245e-13 -2.249102e-12 3.4516864e-15
1.5430129e-12 2.1177652e-11 -1.9116504e-10 9.075017e-11 6.982812e-13 -1.7128285e-11 2.5967482e-14 -1.0548389e-14
4.169296e-12 -1.3507226e-14 2.895976e-13 3.684405e-09 -5.5991673e-16 -5.3163674e-16 -1.5140738e-12 -3.2720057e-12
6.3041715e-15 -5.7740796e-16 -1.7951686e-12 2.258361e-14 6.4758676e-16 -2.3047129e-09 -2.647565e-10 -4.1850664e-12
1.3999126e-11 -7.640698e-15 -4.7796402e-12 2.504412e-12 -6.5000305e-14 1.6888143e-15 -1.8546328e-15 -2.063839e-15
-1.4742602e-13 -9.312024e-14 8.0484197e-14 -8.2824163e-16 6.362386e-09 9.299666e-16 -4.3259563e-12 -2.01574e-15
-2.1225775e-14 3.967084e-10 -4.1351786e-10 6.5614465e-14 -6.206133e-12 1.1707284e-12 3.5179548e-15 2.6239485e-11
1.1313799e-10 0.023852494 -1.1936642e-12 -1.2026458e-14 4.9935404e-15 -2.4560576e-15 2.1006968e-14 4.3009173e-13
-6.5599875e-13 9.856022e-13 8.479685e-14 5.9714907e-13 3.9321438e-15 2.3765083e-13 -3.2078246e-13 6.029861e-14
1.3059337e-12 5.636214e-17 7.315956e-15 -1.0458444e-12 8.024447e-13 2.0799779e-13 9.925046e-15 5.920703e-15
-2.1236488e-14 5.5356764e-16 9.4936185e-14 -5.8701686e-17 1.5492365e-16 -1.1277599e-11 2.0539556e-13 1.1179353e-17
-1.4136296e-16 1.3136805e-13 -8.93309e-10 -1.290526e-11 -4.1860515e-11 1.3262401e-15 3.2460285e-14 2.850481e-15
1.1453521e-15 -8.676703e-12 -2.6592398e-17 4.1226072e-13 2.1897496e-15 6.782137e-15 1.2437213e-20 4.8147695e-17
-2.1645575e-14 9.223871e-13 -2.0220812e-13 -3.21175e-16 -1.0905213e-12 8.367264e-14 -6.674813e-10 -1.7158927e-15
1.6504944e-15 -2.8087547e-13 5.0398113e-15 -1.1562793e-14 -3.347787e-15 8.134244e-15 -3.7253065e-13 1.753625e-11
5.181814e-14 -1.2989894e-15 -2.3967187e-14 9.747074e-14 1.9807246e-12 -7.654187e-12 -2.3644033e-15 2.7249925e-11
3.054377e-13 -8.607408e-11 -9.302734e-16 -5.5334995e-14 -4.2340242e-11 3.788082e-13 -4.01672e-12 4.0911437e-15
1.2514122e-12 3.9399954e-14 -9.574652e-14 4.5416306e-15 -7.869483e-12 2.4146024e-11 3.9718624e-13 1.6113544e-10
-3.5712564e-12 -9.891594e-12 3.1062257e-13 -9.679615e-09 -6.322145e-15 2.690831e-12 9.403663e-13 -1.4832306e-11
1.0292012e-11 -1.6486771e-16 2.87379e-13 1.1031401e-14 -8.451892e-16 -1.3889545e-09 -2.513288e-12 -3.0397023e-13
1.0539611e-10 -2.0515436e-13 -1.7217423e-10 -2.0680055e-12 -2.9823037e-14 -3.3943914e-15 -1.4434573e-14 3.941479e-13
-2.5773285e-13 -1.789695e-13 8.062292e-13 5.3319475e-16 -1.6385524e-09 -9.824224e-16 -4.100848e-11 3.828233e-12
5.805587e-14 -3.4451816e-11 -1.7300955e-10 1.9394152e-13 -1.354996e-12 1.1945405e-12 2.92394e-10 -2.847523e-13
-5.6263987e-11 0.020216573 7.9379905e-12 1.8037995e-14 -6.6737455e-15 8.661272e-16 -1.4092682e-11 5.1625035e-13
-7.827291e-13 -1.3294668e-10 1.0879677e-14 -7.0707797e-12 1.8682874e-15 8.4148564e-15 9.625778e-14 -2.6628244e-13
1.1262224e-11 -6.722662e-17 -3.180735e-15 -1.3739014e-12 -9.304499e-13 -2.3431363e-13 2.1982555e-12 -1.6111687e-15
7.121809e-14 3.3740247e-16 -2.854438e-10 -3.7996956e-16 -9.012947e-17 1.1170665e-13 1.6970812e-13 1.7948414e-11
-1.0738366e-17 -3.9826017e-11 -9.211458e-13 -1.0961868e-13 7.3832176e-14 9.4549195e-11 2.814352e-14 1.5299007e-14
1.2025323e-15 1.6201408e-15 -1.0653992e-12 -4.82072e-14 -7.542313e-15 7.825622e-15 2.954859e-20 -1.1974633e-11
-9.704404e-15 -7.1568316e-13 4.1481938e-13 2.8389036e-15 -9.259512e-13 -3.5490582e-12 -1.4553734e-09 -6.203636e-11
