models/EURJPY_model.pth (torch, 860300 bytes, 15 tensors)

lstm.weight_ih_l0 f4 [512, 12]
0	0xbe8bf90e	-0.2733845
1	0xbe955faa	-0.29174548
2	0xbe34a167	-0.17639695
3	0xbe2d26df	-0.1690936
4	0xbdbf88f5	-0.09352294
5	0xbe2f1462	-0.17097619
6	0xbe91272d	-0.283502
7	0x3dd8ad43	0.10579922
8	0xbe8c1b56	-0.27364606
9	0xbe15dc48	-0.14634812
10	0x3ab83b4f	0.0014055761
11	0xbdd45cdb	-0.10369273
12	0x3d91d57d	0.07120798
13	0x3cea5f5f	0.02860993
14	0x3c91a836	0.017780405
15	0xbd89e0c1	-0.067323215
16	0x3d83d471	0.06437004
17	0x3d494e9b	0.04914723
18	0x3d9f234f	0.077704065
19	0x3eaa0c2b	0.33212408
20	0x3dc82523	0.09772708
21	0xbde53a9b	-0.11192819
22	0xbd8350a0	-0.064118624
23	0x3e26cd8c	0.16289347
24	0xbdd68806	-0.10475163
25	0xbe54b7a4	-0.20773178
26	0xbd6467e0	-0.055763125
27	0xbe1bd160	-0.15216589
28	0xbed475d0	-0.41496134
29	0xbe33389f	-0.17502068
30	0xbdd85d65	-0.105646886
31	0xbc86adb3	-0.016440248
32	0xbe07cffe	-0.13262936
33	0xbe7e1bca	-0.24815288
34	0xbd94a605	-0.07258228
35	0xbde475f8	-0.11155313
36	0xbe8fe818	-0.2810676
37	0xbe13ceb1	-0.14434315
38	0xbe8c5d0e	-0.27414745
39	0xbe7c38df	-0.2463107
40	0xbd80df8e	-0.0629264
41	0xbe935a85	-0.28779998
42	0xbe31de62	-0.17369989
43	0xbe031148	-0.12799561
44	0xbe0f1c7c	-0.1397571
45	0x3c69eb08	0.014277227
46	0x3ac459e7	0.0014980406
47	0xbbf4b2bb	-0.0074675954
48	0xbe647509	-0.2231027
49	0xbe36c03b	-0.17846768
50	0xbe1460b3	-0.14490013
51	0xbe97ec89	-0.2967265
52	0xbde6f19f	-0.11276554
53	0xbe077560	-0.13228369
54	0xbe066804	-0.13125616
55	0xbcbbfa70	-0.022946566
56	0xbe1b59ee	-0.15171024
57	0xbd0338ca	-0.03203658
58	0xbd5f2f78	-0.05448863
59	0xbd3ae0b4	-0.04562445
60	0xbbae2ecb	-0.0053156368
61	0xbd124be2	-0.0357169
62	0x3d0bdbfe	0.034145348
63	0x3ce1cd70	0.02756378
64	0xbe2203f9	-0.15821828
65	0x3d0feb37	0.035136428
66	0x3c85b0e9	0.016319709
67	0x3e2b93cf	0.16755603
68	0xbe374869	-0.17898716
69	0xbda9e0a3	-0.08294799
70	0xbe2a3f15	-0.16625626
71	0xbaab375d	-0.0013062764
72	0xbce09053	-0.02741257
73	0xbddffe89	-0.109372206
74	0xbd4a7b7c	-0.04943417
75	0x3b0585cb	0.0020373936
76	0x3eaa837f	0.3330345
77	0x3ce481e7	0.027893974
78	0xbc252e7b	-0.010081883
79	0xbe9911f4	-0.2989651
80	0x3eb52c13	0.35385188
81	0xbe3c8532	-0.18410185
82	0xbe047cb8	-0.12938201
83	0x3c23a601	0.009988309
84	0xbd9d175e	-0.076704726
85	0xbe4d3185	-0.20038421
86	0xbe2e1545	-0.17000301
87	0xbdb7081e	-0.08937095
88	0xbe31384c	-0.17306632
89	0xbe2ba3f6	-0.16761765
90	0xbdbb3632	-0.09141196
91	0x3c898a61	0.016789617
92	0xbeba3d22	-0.36374766
93	0xbd4dab20	-0.050212026
94	0xbb8fb8a2	-0.0043860236
95	0x3ce23389	0.027612465
96	0xbe4e06bf	-0.20119761
97	0xbe0fd43f	-0.14045809
98	0xbe206fe5	-0.15667684
99	0xbe309943	-0.17245965
100	0x3d95f9e7	0.07323056
101	0xbda25ee9	-0.07928259
102	0xbd668be3	-0.05628575
103	0xbe121e18	-0.14269292
104	0x3e6fda3a	0.2342309
105	0x3bf7d194	0.0075628255
106	0xbcdc0915	-0.0268598
107	0xbd9f6892	-0.07783617
108	0xbdfce2ce	-0.12347947
109	0xbe0147ad	-0.12624998
110	0xbe275099	-0.1633934
111	0xbd87650d	-0.06611071
112	0xbe172ec5	-0.14763935
113	0xbd76078b	-0.060065787
114	0xbd8beef3	-0.06832685
115	0x3e4fbf76	0.2028788
116	0xbe2fa40d	-0.17152424
117	0xbdcdc352	-0.1004702
118	0xbd96e1c1	-0.07367278
119	0xbd8cedef	-0.0688132
120	0xbd98495f	-0.074358694
121	0xbe26dc5e	-0.16295001
122	0xbd8861da	-0.06659289
123	0xbd1723b7	-0.036899295
124	0xbdac23e9	-0.08405287
125	0xbcbf6092	-0.023361478
126	0xbe145b28	-0.14487898
127	0x3e04f2fb	0.12983315
128	0xbcac012e	-0.020996656
129	0xbd857196	-0.065158054
130	0xbdc5d5ad	-0.09659896
131	0x3ddbe4dc	0.10737011
132	0xbe847b08	-0.25875115
133	0xbe008d5a	-0.12553921
134	0xbe68cec1	-0.2273512
135	0xbe1dbccd	-0.15404053
136	0xbd7a45dd	-0.061101783
137	0xbe61d031	-0.22052075
138	0xbe3e6e16	-0.18596682
139	0x3c063dde	0.008193461
140	0x3cce4d23	0.025183266
141	0xbdfd13de	-0.12357305
142	0xbdd0fd91	-0.10204614
143	0xbdb6020c	-0.08887109
144	0xbdce0663	-0.10059812
145	0xbd6533e1	-0.05595768
146	0xbbca785d	-0.006178899
147	0xbd9132c6	-0.070897624
148	0x3d070dd5	0.032972176
149	0xbc88861e	-0.016665515
150	0x3c545268	0.0129591
151	0x3cc733f7	0.024316771
152	0xbdcc79c6	-0.09984164
153	0x3c41b136	0.011822036
154	0xbdec87d5	-0.115493454
155	0x3cf07a7f	0.029355286
156	0xbe4adefb	-0.19811623
157	0xbe8bbd4a	-0.27292854
158	0xbe200fcd	-0.15631028
159	0xbe99111f	-0.29895875
160	0xbd2cfe7a	-0.042234875
161	0xbe878005	-0.2646486
162	0xbe5a5d3c	-0.21324629
163	0xbd85641a	-0.065132335
164	0xbcaff4b0	-0.02147898
165	0xbdcdb1ab	-0.10043653
166	0xbe61ee10	-0.2206347
167	0xbe14772e	-0.14498588
168	0xbc030b58	-0.00799831
169	0x3d27e7c1	0.040992502
170	0x3c75625a	0.014977062
171	0xbd6a5694	-0.057211474
172	0xbe6de276	-0.23230919
173	0x3aebecbf	0.0017999633
174	0x3dc632a0	0.09677625
175	0x3ec0f3e4	0.37686074
176	0xbf239df2	-0.6391288
177	0xbd9a6d66	-0.07540397
178	0xbad2afe4	-0.0016074148
179	0xbce70341	-0.028199794
180	0xbe64f793	-0.22360067
181	0xbe345fff	-0.17614745
182	0xbd8bd2b9	-0.068273015
183	0xbd9c6614	-0.07636657
184	0xbeb3d7e5	-0.35125652
185	0xbde3e3d3	-0.111274384
186	0xbd361532	-0.044453807
187	0x3dd5cd94	0.104396015
188	0x3e22827e	0.15870091
189	0x3dda3495	0.106545605
190	0xbe973183	-0.29529962
191	0x3d8e3b45	0.069448985
192	0x3c75e6cb	0.015008639
193	0xbd453300	-0.04814434
194	0xbde8fd80	-0.11376476
195	0xbe0c3fe7	-0.13696252
196	0xbc5773f2	-0.013150202
197	0xbcb55426	-0.022134852
198	0x3cef5bdc	0.029218607
199	0x3bdb1b2d	0.006686589
200	0x3daa0209	0.083011694
201	0x3cb912d4	0.022591986
202	0xbda4849b	-0.08033105
203	0x3de2ca98	0.11073798
204	0x3db64a7f	0.08900928
205	0xbce4bc16	-0.027921718
206	0x3dd5a7bb	0.10432383
207	0x3de3968b	0.11112698
208	0xbe759ec5	-0.23986347
209	0x3de9907e	0.11404513
210	0x3dfeeb57	0.12447231
211	0x3e9ad7ab	0.30242667
212	0xbd95857f	-0.07300853
213	0xbe0ed175	-0.13947089
214	0x3daaaf1b	0.0833418
215	0xbde5bf33	-0.11218109
216	0xbddf4ae5	-0.10902957
217	0xbe111f79	-0.14172162
218	0xbe130293	-0.1435645
219	0xbe8160a3	-0.2526904
220	0xbe99bff4	-0.3002926
221	0xbe577b3b	-0.21043102
222	0xbe305042	-0.17218116
223	0x3e0e2d16	0.13884386
224	0xbec00bf7	-0.37509128
225	0xbe67809e	-0.22607657
226	0xbdcb7ffe	-0.09936522
227	0xbd413a4d	-0.04717474
228	0xbe161550	-0.14656568
229	0xbe7ca05a	-0.24670544
230	0xbdda8c8d	-0.10671339
231	0xbded3d19	-0.11583919
232	0xbe5b7edc	-0.21435112
233	0xbe186071	-0.1488054
234	0xbdbd256b	-0.092356525
235	0xbde697a0	-0.11259389
236	0x3d979598	0.074015796
237	0xbe181804	-0.14852911
238	0xbe4b02d6	-0.198253
239	0xbe6a4910	-0.22879434
240	0x3d688c98	0.056774706
241	0xbd8f70c5	-0.07003931
242	0x3b296947	0.0025850104
243	0x3cd40f74	0.025886275
244	0xbdc48820	-0.09596276
245	0x3db600f6	0.08886902
246	0xbd2d3c9c	-0.04229413
247	0x3e410aea	0.1885182
248	0xbe91b9c4	-0.2846204
249	0x3d91c53f	0.071177
250	0xbda1ea75	-0.07906047
251	0x3b90747a	0.0044084163
252	0xbdedf1a1	-0.11618353
253	0xbe06bb03	-0.13157277
254	0xbe66c173	-0.22534733
255	0xbe135a8a	-0.14390007

lstm.weight_hh_l0 f4 [512, 128]
0	0x3dc670f0	0.0968951
1	0xbdde6bd5	-0.10860411
2	0x3d9a3a42	0.07530643
3	0xbd4c07e8	-0.049812227
4	0x3dde9797	0.10868757
5	0x3b835629	0.004008074
6	0xbe71e28c	-0.23621577
7	0xbe04733d	-0.12934585
8	0xbe5f9305	-0.21833427
9	0x3debfcba	0.11522813
10	0x3e8167a2	0.25274378
11	0xbcb5184c	-0.022106312
12	0x3dd799f1	0.10527409
13	0x3d07ef4a	0.03318719
14	0x3c0f4b88	0.008746035
15	0x3db6a13f	0.08917474
16	0xbd782a76	-0.06058737
17	0xbe05aef4	-0.1305502
18	0xbe14fccf	-0.14549564
19	0x3c58441c	0.013199832
20	0x3d699776	0.05702921
21	0x3d1921ac	0.037385628
22	0xbe4a68c3	-0.19766526
23	0x3d396008	0.0452576
24	0xbcae5083	-0.021278625
25	0xbded02b3	-0.115727805
26	0xbda7488c	-0.08168134
27	0xbe4c5e94	-0.19957954
28	0x3e1b1cbc	0.1514768
29	0xbe1962e1	-0.14979126
30	0xbcd04d87	-0.025427593
31	0xbd5cb964	-0.05388774
32	0x3d9c4695	0.0763065
33	0x3d0c5295	0.034258444
34	0x3df77298	0.12082404
35	0xbd048944	-0.03235747
36	0x3e670087	0.22558795
37	0xbda06809	-0.07832343
38	0xbe951838	-0.2912004
39	0x3e062b60	0.13102484
40	0xbb1ff6aa	-0.0024408498
41	0xba803d70	-0.0009783935
42	0xbdb2600a	-0.08709724
43	0x3e75bcd6	0.23997816
44	0x3d7cdc4d	0.061733533
45	0xbead963a	-0.33903676
46	0xbcc803ab	-0.024415812
47	0x3e5a3dad	0.2131259
48	0xbe11d468	-0.14241183
49	0x3d0ffd44	0.035153642
50	0x3d3c896c	0.046029493
51	0x3c319b57	0.010840259
52	0xbdeac96d	-0.114642
53	0xbb71d99b	-0.0036903385
54	0xbe13355d	-0.14375825
55	0xbd9ed221	-0.07754923
56	0x3d19557d	0.037435044
57	0x3e2259e4	0.15854603
58	0xbe0edec4	-0.13952166
59	0xbd07d30f	-0.033160266
60	0xbc12e63b	-0.008966024
61	0xbd45da7a	-0.04830406
62	0x3d82cae9	0.06386358
63	0x3e33f1ce	0.1757271
64	0x3e221249	0.15827288
65	0x3dbfa368	0.09357339
66	0x3d4c93c9	0.049945626
67	0x3cef31da	0.029198576
68	0x3d6b0882	0.05738116
69	0xbe04ed28	-0.12981093
70	0xbd6aa937	-0.057290282
71	0x3eaf33ce	0.3421921
72	0xbd970a5b	-0.07375022
73	0x3b11ed70	0.0022266768
74	0xbd4233d4	-0.04741271
75	0xbd6a4902	-0.057198532
76	0xbdc43621	-0.09580637
77	0xbecd7706	-0.4012987
78	0xbe8301f2	-0.25587422
79	0x3e2615dc	0.16219276
80	0xbde91710	-0.11381352
81	0xbe494fa1	-0.19659282
82	0xbd9b4f89	-0.075835295
83	0xbc8fa006	-0.01753236
84	0x3dbb4d81	0.09145642
85	0x3e42ca0f	0.19022392
86	0xbc2f5f09	-0.0107038105
87	0xbd6d6332	-0.05795593
88	0xbd8e7765	-0.069563664
89	0xbd4c2b58	-0.049846023
90	0x3d85d500	0.06534767
91	0xbd624345	-0.055239934
92	0xbe1c4544	-0.15260798
93	0xbd7d0e73	-0.061781358
94	0xbd945ccf	-0.07244264
95	0x3e10340e	0.14082357
96	0xbd7832c6	-0.060595296
97	0x3d9bd551	0.07609046
98	0xbe65a4df	-0.22426175
99	0x3d2a59b8	0.04158947
100	0xbe85be45	-0.26121727
101	0xbe3e72a7	-0.18598424
102	0x3db5732d	0.08859859
103	0xbda5ec89	-0.08101756
104	0xbd045695	-0.032309134
105	0xbe11d81e	-0.14242598
106	0xbc7d7555	-0.015469869
107	0xbe507c04	-0.20359808
108	0xbe18fbab	-0.14939754
109	0x3dc30eec	0.095243305
110	0xbe0ec7f1	-0.13943459
111	0x3e31539d	0.17317052
112	0xbcd9791c	-0.026547007
113	0x3db4f31a	0.088354304
114	0xbcd53f00	-0.026031017
115	0xbda41ca8	-0.08013278
116	0xbcdb4668	-0.02676697
117	0xbde7bce7	-0.11315327
118	0xbde56098	-0.112000644
119	0x3e89739c	0.26846015
120	0xbdc21b4b	-0.09477862
121	0xbdd44917	-0.10365503
122	0x3e26e215	0.16297181
123	0xbd60eddc	-0.05491434
124	0x3bf23244	0.007391246
125	0x3ddbe442	0.10736896
126	0xbe32d7c7	-0.17465125
127	0x3e012371	0.12611176
128	0xbc259232	-0.010105656
129	0xbe8bcf2b	-0.27306494
130	0x3e5e61d5	0.21717007
131	0xba89cf4f	-0.0010514053
132	0xbe085f6a	-0.13317648
133	0x3e78c152	0.24292496
134	0xbd17f86f	-0.03710216
135	0x3e0f2cae	0.13981888
136	0xbdae757d	-0.08518503
137	0x3e9f45ee	0.3110804
138	0x3e372f8b	0.1788923
139	0x3cb55ecc	0.02213993
140	0x3e59dbaf	0.21275209
141	0x3c177c75	0.009245981
142	0xbe576813	-0.21035795
143	0xbe6f9524	-0.23396736
144	0x3d8915d2	0.06693615
145	0xbe96f814	-0.29486144
146	0x3de6abc6	0.11263232
147	0xbc415254	-0.011799414
148	0x3eb941bf	0.36182973
149	0xbe158d2a	-0.14604631
150	0x3d45358d	0.048146773
151	0xbdbfeac8	-0.09370953
152	0x3c838d86	0.016058695
153	0x3e47b02c	0.19500798
154	0x3d96aa90	0.07356751
155	0xbdf4c599	-0.11951751
156	0xbdc222a1	-0.09479261
157	0x3cefb145	0.029259333
158	0xbe276a64	-0.16349179
159	0x3d63fff7	0.05566403
160	0xbe027adc	-0.1274218
161	0x3e471643	0.19442086
162	0xbdfe7d07	-0.12426191
163	0x3e59f191	0.21283557
164	0x3e5c1a0f	0.21494316
165	0xbdf736c8	-0.120709956
166	0x3e29f043	0.16595559
167	0x3e547116	0.20746264
168	0xbde601d7	-0.1123082
169	0xbd83c628	-0.0643428
170	0x3e18183c	0.14852995
171	0xbde4bda7	-0.11168986
172	0xbd4fd6bd	-0.0507419
173	0x3dc6c31c	0.09705183
174	0x3e122efc	0.14275736
175	0x3d88a83d	0.06672714
176	0xbc5a7ac9	-0.013334938
177	0x3cfa657a	0.030565966
178	0xbd1f56ff	-0.038901325
179	0x3db3d35f	0.0878055
180	0xbd080433	-0.03320713
181	0x3c922700	0.017840862
182	0xbe300b21	-0.17191745
183	0xbe543046	-0.2072154
184	0x3d0f13dd	0.034931052
185	0xbe087ed4	-0.13329631
186	0x3bdc055d	0.0067145065
187	0x3e2980f8	0.16553104
188	0x3e2340f2	0.15942743
189	0x39ed4161	0.00045252874
190	0xbe6aea9e	-0.22941062
191	0x3e36a8f3	0.17837887
192	0xbde19706	-0.110151336
193	0x3ca72c6e	0.020406928
194	0xbe7683ee	-0.24073765
195	0x3e3c8774	0.18411046
196	0xbdbf00e5	-0.093263425
197	0xbe8ad0e0	-0.27112484
198	0x3d190631	0.03735942
199	0x3e8cb578	0.274822
200	0x3dd429c8	0.10359532
201	0xbdc780b8	-0.09741348
202	0x3e30b5e4	0.17256886
203	0xbe19e1d8	-0.15027559
204	0xbd44b68c	-0.048025653
205	0xbe30adc8	-0.17253792
206	0x3eb3fb98	0.35152888
207	0x3ec5a132	0.38599545
208	0x3afd36fe	0.0019318757
209	0x3da7543f	0.081703655
210	0xbd1b67f9	-0.037940953
211	0xbd84d9db	-0.06486865
212	0xbba4c350	-0.005028166
213	0xbd30e36c	-0.043185636
214	0x3ea1a4b4	0.3157097
215	0xbe2c270f	-0.16811775
216	0xbdbee7a9	-0.093215294
217	0xbdefa8f9	-0.11702151
218	0xbe0a7198	-0.13519895
219	0x3d164101	0.036683086
220	0x3d1f692e	0.038918667
221	0x3ece15a7	0.40250894
222	0xbdb71684	-0.089398414
223	0xbdd80aca	-0.10548933
224	0x3d8eb26c	0.06967625
225	0x3e0b1fbf	0.13586329
226	0xbd0ae464	-0.033909217
227	0xbcded2be	-0.0272001
228	0x3b4ec514	0.0031550573
229	0xbdfa5cd5	-0.122247376
230	0xbd919b6c	-0.071097225
231	0xbbe8d19b	-0.007105065
232	0x3e11351b	0.14180414
233	0xbe842936	-0.2581269
234	0x3d387c2e	0.045040302
235	0x3de3e462	0.11127545
236	0x3e2d75c0	0.1693945
237	0x3e281389	0.16413702
238	0x3dcd50b1	0.10025156
239	0x3d34420e	0.044008307
240	0xbc0bcc34	-0.008532573
241	0x3b8c8d7b	0.0042893267
242	0x3dfedb77	0.12444203
243	0xbe6065fb	-0.21913902
244	0x3d041fdb	0.032256942
245	0xbe110e5a	-0.14165631
246	0x3e390f69	0.18072285
247	0x3bcfc5c0	0.0063407123
248	0x3d80a579	0.062815614
249	0xbeb13560	-0.34611034
250	0x3e49e011	0.19714381
251	0xbe019945	-0.12656124
252	0x3ed397c7	0.41326734
253	0x3d338305	0.04382612
254	0x3dc1d3f5	0.09464256
255	0x3d3b73e8	0.045764834

lstm.bias_ih_l0 f4 [512]
0	0xbd58a310	-0.052889884
1	0x3dd4b7bd	0.10386608
2	0xbe5de09e	-0.21667716
3	0x3d010046	0.0314944
4	0xbd7c29b9	-0.061563227
5	0xbd6e5907	-0.05819037
6	0x3dc62a40	0.09676027
7	0x3d82f88a	0.06395061
8	0x3ab8c551	0.0014096891
9	0x3d138416	0.03601464
10	0xbe20233f	-0.15638445
11	0x3c92a504	0.017900951
12	0x3d36bef4	0.0446157
13	0xbd4f0d1d	-0.050549615
14	0xbd8684d0	-0.06568301
15	0x3d0e8a72	0.0348
16	0x3e19b85e	0.15011737
17	0x3c7dbe6f	0.015487297
18	0xbe0ed90c	-0.13949984
19	0xbe04c4bd	-0.12965675
20	0x3e1bd42e	0.15217659
21	0xbdd838e3	-0.10557725
22	0x3ddba260	0.1072433
23	0x3ba492fd	0.005022405
24	0x3b7bc3c9	0.0038416258
25	0x3b157b3e	0.0022809054
26	0xbe0e2110	-0.138798
27	0x3ce410a1	0.02783996
28	0x3c44fdbc	0.012023386
29	0xbdaec731	-0.085340865
30	0xbd5862f3	-0.05282874
31	0xbd7d1517	-0.06178769
32	0xbe19729e	-0.14985129
33	0xbe129e0f	-0.14318107
34	0x3c4b92e6	0.01242516
35	0xbd9f697b	-0.07783791
36	0x3a784b88	0.0009471704
37	0xbcb9e48f	-0.022691993
38	0xbd9d3b28	-0.07677299
39	0x3df2828d	0.11841307
40	0xbd9d5717	-0.07682627
41	0xbb8ce75e	-0.004300042
42	0xbc2fb5a1	-0.010724456
43	0xbcc18776	-0.023624163
44	0xbdaa1ad8	-0.08305901
45	0xbcc1d1d7	-0.02365963
46	0xbdcaae08	-0.09896475
47	0xbd911bef	-0.07085406
48	0x3de1be95	0.11022679
49	0xbc69a6dd	-0.014260975
50	0xbe077716	-0.13229021
51	0xbe5cacf2	-0.21550348
52	0xbd85311f	-0.0650351
53	0x3b45acab	0.0030162733
54	0xbdf9d180	-0.12198162
55	0x3c49164e	0.012273384
56	0xbe469fd1	-0.19396903
57	0xbe109bc1	-0.14121915
58	0x3dc2f06b	0.09518512
59	0xbd9bd83b	-0.07609602
60	0x3b791cc5	0.0038011533
61	0x3d2a0b22	0.041514523
62	0xbe48ba21	-0.19602253
63	0xbda1e00e	-0.07904063
64	0x3cc0ab6e	0.023519244
65	0xbce8a45b	-0.028398683
66	0xbe66cb3c	-0.22538465
67	0x3e0c04d3	0.13673715
68	0xbde99c8b	-0.11406811
69	0xbb6c43a6	-0.0036051064
70	0xbe4687b8	-0.1938771
71	0xbaf0f85a	-0.0018384561
72	0x3c51933d	0.012791452
73	0xbcbc7aca	-0.02300777
74	0xbb28fc3a	-0.0025785104
75	0x3ce5a561	0.02803296
76	0x3dae1e2a	0.08501847
77	0xbd900da8	-0.07033855
78	0x3c20ecdb	0.009822096
79	0xbdc70eeb	-0.09719642
80	0xbd9ec9ad	-0.0775331
81	0x3dc51509	0.09623153
82	0xbd37b9bb	-0.04485486
83	0xbdd68e82	-0.104764
84	0x3c7b91a1	0.015354545
85	0x3d555728	0.05208507
86	0x3e1638dd	0.14670129
87	0x3d92275f	0.07136416
88	0xbd6e4763	-0.05817355
89	0xbe67cd7b	-0.22636978
90	0xbd97152e	-0.073770866
91	0xbe220051	-0.15820433
92	0xbddc5b3f	-0.10759591
93	0x3e32f7c5	0.17477329
94	0xbdc2f91b	-0.09520169
95	0x3c09e013	0.00841524
96	0x3d7fefd6	0.062484585
97	0xbb30d9ea	-0.0026985356
98	0xbd12aece	-0.035811238
99	0x3c400219	0.01171925
100	0x3da2baa7	0.07945757
101	0xbd65777f	-0.056022163
102	0xbdb183e2	-0.08667733
103	0xbd5fa0ef	-0.054596838
104	0x3c31f051	0.010860519
105	0x3c650899	0.013979101
106	0xbdbfb4a5	-0.09360627
107	0xbd3fdb5c	-0.046840057
108	0x3d7cb8a8	0.06169954
109	0x3d7b305d	0.06132542
110	0xba95d3e4	-0.0011430946
111	0xbc8cce0b	-0.017188093
112	0xbd35c630	-0.04437846
113	0xbd889766	-0.06669502
114	0x3d33480a	0.043769874
115	0xbd33983b	-0.04384635
116	0xbd7cced1	-0.061720673
117	0x3dd3054f	0.10303747
118	0x3c2dbd0a	0.010604152
119	0xbd829b36	-0.063772604
120	0xbc96c160	-0.018402755
121	0x3ca961f4	0.02067659
122	0xbde41f76	-0.11138813
123	0x3d7b52e7	0.06135836
124	0xbd159102	-0.036515243
125	0xbca71dc9	-0.020399945
126	0xbd3e2af2	-0.046427675
127	0xbda12b12	-0.07869543
128	0xbe001f17	-0.1251186
129	0xbe1f4274	-0.15552694
130	0xbd8cbcea	-0.0687197
131	0x3dbc5af2	0.09197034
132	0x3c77ccf8	0.015124552
133	0xbe20584c	-0.15658683
134	0xbe852456	-0.26004285
135	0x3b4edf43	0.003156618
136	0xbe9b17f4	-0.30291712
137	0xbd664116	-0.056214415
138	0xbee7bc59	-0.45260885
139	0xbb1b4560	-0.0023692474
140	0xbd9c8aae	-0.076436386
141	0x3d560cdb	0.052258354
142	0xbe8dc708	-0.2769091
143	0xbdc60b3b	-0.09670111
144	0xbc0aecb0	-0.008479282
145	0xbe5aad3d	-0.21355148
146	0xbde9a4ba	-0.11408372
147	0xbe3abcd3	-0.18236093
148	0xbe720535	-0.23634799
149	0xbd91f946	-0.07127623
150	0xbdaee0c9	-0.08538968
151	0xbd9e61ac	-0.07733473
152	0x3de459cf	0.11149942
153	0x3b95f3ae	0.004576168
154	0xbdf96ab0	-0.12178552
155	0x3e2e6a83	0.17032818
156	0xbd2da060	-0.042389274
157	0xbcf6985b	-0.030101946
158	0x3e29fb90	0.1659987
159	0x3e021aeb	0.12705581
160	0xbe83c157	-0.25733444
161	0xbe683a63	-0.22678523
162	0xbd85cba1	-0.0653298
163	0xbd18f8b8	-0.03734657
164	0xbe62fd6c	-0.22166985
165	0xbb08d66f	-0.0020879766
166	0xbe773ba3	-0.24143843
167	0xbe289e11	-0.16466548
168	0x3da05c91	0.07830156
169	0x3c9536ab	0.018214544
170	0xbc09515e	-0.008381216
171	0xbe91931e	-0.28432554
172	0x3c4ac7f5	0.012376775
173	0x3daff55d	0.08591721
174	0x3d74004f	0.059570607
175	0xbec93f64	-0.39306176
176	0xbea4f1ee	-0.32215828
177	0xbb690c74	-0.00355604
178	0xbe543c92	-0.2072623
179	0xbe1233b1	-0.14277531
180	0xbdda1fd8	-0.10650605
181	0xbbd60429	-0.0065312576
182	0xbe9fc385	-0.31203857
183	0xbcb0a850	-0.021564633
184	0xbe375be6	-0.1790615
185	0xbd8104fc	-0.06299779
186	0xbe14e704	-0.1454125
187	0xbe1af0bb	-0.15130894
188	0xbe217989	-0.15769018
189	0xbe362573	-0.17787723
190	0xbd0e45db	-0.034734588
191	0xbca616c5	-0.02027453
192	0x3d197d17	0.03747281
193	0xbd70ec21	-0.05881894
194	0xbe3b7d7e	-0.1830959
195	0xbeed94e6	-0.46402663
196	0xbc5826df	-0.013192861
197	0xbea4cf6c	-0.321895
198	0xbe2f2777	-0.17104898
199	0x3dd82246	0.10553412
200	0xbd5405b5	-0.051763255
201	0x3c05fbd8	0.00817772
202	0x3ce79257	0.028268022
203	0x3c99298d	0.01869657
204	0xbeca8453	-0.3955408
205	0x3ddf07b7	0.10890143
206	0xbef6d959	-0.48212698
207	0xbf067752	-0.5252582
208	0x3d824ffd	0.06362913
209	0x3d72ff49	0.05932549
210	0x3b0013e1	0.0019543099
211	0xbeab7e04	-0.3349458
212	0x3d690fbf	0.056899782
213	0xbf189901	-0.59608465
214	0xbd8d106f	-0.068879
215	0xbed4e76e	-0.41582817
216	0xbece82b8	-0.40334105
217	0xbe4f594f	-0.20248912
218	0xbc9221be	-0.017838355
219	0xbcf3ee27	-0.029776646
220	0x3d4ee91f	0.05051529
221	0x3d2fa8da	0.04288564
222	0xbe065dfe	-0.13121793
223	0x3dd36f13	0.1032392
224	0x3e10f302	0.141552
225	0xbd818099	-0.06323356
226	0xbee11022	-0.4395762
227	0x3dcd0f45	0.10012678
228	0xbc640ac8	-0.013918586
229	0xbdc78a4e	-0.097431764
230	0xbb96168f	-0.004580326
231	0x3d6cb083	0.057785522
232	0x3cf704be	0.030153628
233	0xbf0f93e3	-0.5608503
234	0xbdb68586	-0.08912186
235	0x3c605ea9	0.013694444
236	0xbd31a3ec	-0.04336922
237	0xbe4825ff	-0.19545744
238	0xbb8fc4bc	-0.0043874662
239	0xbe03bfd2	-0.12866142
240	0xbd82eb14	-0.06392494
241	0xbcdeca2f	-0.027196018
242	0xbd8de66e	-0.069287166
243	0xbd0e7caf	-0.034786876
244	0x3d3602ec	0.04443638
245	0xbed2e929	-0.41193512
246	0xbded871a	-0.11598034
247	0xbea08e79	-0.31358698
248	0xbe1bdf65	-0.15221937
249	0xbe77ccd5	-0.24199231
250	0xbf10fb84	-0.5663378
251	0x3dc6cf37	0.09707492
252	0xbe511514	-0.20418197
253	0x3d00c06d	0.03143351
254	0xbe2e0a68	-0.16996157
255	0x3dbcaf77	0.09213155

lstm.bias_hh_l0 f4 [512]
0	0xbc666461	-0.014062018
1	0x3dbf88d3	0.09352269
2	0xbe762bd2	-0.24040154
3	0x3bb1ce0f	0.0054261754
4	0xbe1cfbb8	-0.15330398
5	0x3d6662c1	0.056246523
6	0xba9a6575	-0.0011779504
7	0x3d2a976d	0.041648317
8	0x3cfe4f37	0.031043632
9	0xbd355741	-0.044272665
10	0xbe009d66	-0.12560043
11	0xbd44a3ab	-0.04800765
12	0x3dc4ab30	0.09602964
13	0xbcd6d154	-0.026222862
14	0xbdca3342	-0.09873058
15	0x3d41ffbe	0.047363035
16	0x3de9bafa	0.11412616
17	0x3bc27e81	0.0059354906
18	0xbdab8266	-0.08374481
19	0xbd29fede	-0.041502826
20	0x3e0f6e7e	0.14006993
21	0xbd06a1e5	-0.03286924
22	0x3d7e2322	0.062045224
23	0xbcb259f1	-0.021771403
24	0x3d00257a	0.03128574
25	0x3c7efd36	0.0155633
26	0xbceb03c9	-0.028688328
27	0x3da2078b	0.07911595
28	0xbdacace8	-0.08431417
29	0xbe03beab	-0.12865703
30	0x3dbda56d	0.09260068
31	0xbcd90155	-0.026489893
32	0xbcfaa845	-0.030597815
33	0xbe1e35eb	-0.15450256
34	0xbda34a36	-0.07973139
35	0xbe168ce9	-0.1470219
36	0xbd0c959c	-0.034322366
37	0xbd3d8f5a	-0.04627929
38	0x3d79fa47	0.0610297
39	0xbb86335c	-0.004095478
40	0x3d306357	0.043063488
41	0x3c821ee7	0.015883876
42	0x3d236a92	0.039896555
43	0xbd632fa5	-0.05546536
44	0xbdddae24	-0.1082423
45	0xbc3749f4	-0.011187065
46	0xbddfab9c	-0.10921404
47	0xbdf5cc4f	-0.120018594
48	0x3d43de73	0.047819566
49	0xbd38848b	-0.045048278
50	0xbe074e3e	-0.13213441
51	0xbe5a7e32	-0.21337202
52	0xbd5ee0a9	-0.05441347
53	0xbd7005fd	-0.05859946
54	0xbcd62083	-0.02613855
55	0x3c9f9fdd	0.019485408
56	0xbe39361b	-0.18087046
57	0xbd36e442	-0.044651277
58	0x3d083931	0.033257667
59	0xbc9fb902	-0.019497398
60	0xbcbf5ffa	-0.023361195
61	0xbdfc12e5	-0.12308291
62	0xbddd6f67	-0.10812264
63	0xbca4fbab	-0.020139536
64	0xbd997786	-0.074935004
65	0xbdf09dbb	-0.11748835
66	0xbe4d5496	-0.20051798
67	0x3c4dc347	0.012558765
68	0x3cd49160	0.025948226
69	0x3dffd8dd	0.12492535
70	0xbd6819ef	-0.056665357
71	0xbaf7b25a	-0.0018897757
72	0x3ceedd19	0.029158162
73	0xbcc74e80	-0.024329424
74	0x3c99677b	0.018726101
75	0xbb186bce	-0.0023257616
76	0xbd3c1804	-0.04592134
77	0xbd39d8aa	-0.045372643
78	0x3cb94661	0.022616567
79	0xbe675b41	-0.22593404
80	0x3c3fda99	0.011709833
81	0x3db07583	0.086161636
82	0xbde30bd0	-0.110862374
83	0xbe13a975	-0.14420111
84	0xbde0c622	-0.10975291
85	0x3d9f337f	0.07773494
86	0x3d0821e8	0.03323546
87	0x3dd271d1	0.10275615
88	0x3db496fe	0.08817862
89	0xbdfabf0b	-0.1224347
90	0xbdf7a042	-0.120911136
91	0xbe5145bd	-0.2043676
92	0x3b36bf38	0.0027884971
93	0x3e0d7b2d	0.13816519
94	0xbce936d5	-0.028468529
95	0x3ceb8d88	0.02875401
96	0x3d98eceb	0.074670635
97	0xbcbfe151	-0.023422869
98	0x3c72f734	0.014829446
99	0x3d0b907a	0.03407333
100	0x3d65df54	0.056121185
101	0xbcd81e51	-0.026381643
102	0xbd2edea2	-0.042692788
103	0xbdd89cac	-0.10576758
104	0x3bc48cd8	0.005998235
105	0xbe0503a2	-0.12989667
106	0xbd8ecf11	-0.069730885
107	0xbdc8a7fa	-0.09797664
108	0x3ddd377f	0.10801601
109	0x3e04f60f	0.12984489
110	0xbe03af7b	-0.12859909
111	0x3b21354a	0.0024598413
112	0xbb92ea3b	-0.004483489
113	0xbbb6a75d	-0.0055741505
114	0xbdd3d262	-0.10342862
115	0x3cc60a7b	0.02417492
116	0xbd5cbda6	-0.0538918
117	0x3d82712a	0.063692406
118	0xbdf7a802	-0.12092592
119	0x3bbaba13	0.0056984513
120	0x3d11e76a	0.035621084
121	0x3d07ba39	0.03313658
122	0xbe0d8ec7	-0.13823996
123	0x3d0ad82a	0.033897556
124	0xbe0a8a33	-0.13529281
125	0x3d9e46a3	0.07728317
126	0xbd3d1d6c	-0.046170637
127	0x3d18f692	0.037344523
128	0xbdb9cf3f	-0.09072732
129	0xbe551912	-0.20810345
130	0xbe04ec6c	-0.12980813
131	0x3dc6469e	0.09681438
132	0xbd66573b	-0.056235533
133	0xbe640dc6	-0.22270879
134	0xbe8a1bc9	-0.26974323
135	0xbd6cf72f	-0.05785292
136	0xbeaccee8	-0.33751607
137	0xbe12ef28	-0.14349043
138	0xbeb7102f	-0.35754535
139	0x3d8468ce	0.064653024
140	0xbdbbbc4c	-0.09166774
141	0x3de57bbd	0.11205242
142	0xbe10a82b	-0.14126651
143	0xbd170c96	-0.036877237
144	0xbdbb4480	-0.09143925
145	0xbe476567	-0.19472276
146	0xbe3746a4	-0.17898041
147	0xbe45e001	-0.19323732
148	0xbe27a5d5	-0.16371854
149	0x3cc7fc21	0.024412217
150	0xbdb96e9d	-0.09054301
151	0x3d4cefae	0.050033264
152	0xbc952545	-0.018206248
153	0xbba654e4	-0.0050760377
154	0xbdc64172	-0.096804515
155	0x3e8e02c5	0.27736488
156	0xbd0eb04a	-0.03483609
157	0xbdbcd1ac	-0.09219679
158	0x3e59be98	0.21264112
159	0x3cc03622	0.023463313
160	0xbe41f653	-0.18941621
161	0xbeab1a58	-0.33418536
162	0xbdd919f7	-0.106006555
163	0xbdb2e96a	-0.087359264
164	0xbe7277bc	-0.23678488
165	0xbcf98abc	-0.030461662
166	0xbe52b701	-0.20577623
167	0xbcb5f77a	-0.022212733
168	0xbd361f9f	-0.04446375
169	0xbbcbba71	-0.006217294
170	0xbc825409	-0.015909212
171	0xbe7cb4d3	-0.24678354
172	0x3d0a7d0a	0.033810653
173	0x3da45279	0.08023543
174	0x3dc3524a	0.0953718
175	0xbea3717a	-0.31922513
176	0xbea4a1ba	-0.32154638
177	0x3dd8e797	0.10591047
178	0xbdb0f315	-0.08640114
179	0xbdbbec4d	-0.0917593
180	0xbc8b5927	-0.017010285
181	0x3da95ffa	0.08270259
182	0xbe3cbd44	-0.18431574
183	0xbd369551	-0.044575993
184	0xbd0c5800	-0.03426361
185	0xbdc76d44	-0.09737638
186	0xbd94fdf6	-0.07275002
187	0xbe62860f	-0.22121452
188	0xbd88e83f	-0.066849224
189	0xbe0ae183	-0.13562588
190	0xbd270063	-0.040771853
191	0x3cff0918	0.031132266
192	0x3d91410b	0.07092484
193	0x3c253d8c	0.010085475
194	0xbd8f4122	-0.06994845
195	0xbef9bef0	-0.48778486
196	0xbd0b2e19	-0.03397951
197	0xbe9c95d6	-0.30583066
198	0xbc948c9d	-0.018133456
199	0x3ad6ccb2	0.0016387908
200	0xbd7281b9	-0.059205744
201	0xbdfc238d	-0.12311468
202	0xbdd87632	-0.10569419
203	0x3d6b7039	0.05748007
204	0xbec9fe49	-0.39451817
205	0xbb4854cb	-0.0030568119
206	0xbeba5e89	-0.3640025
207	0xbf04bfd0	-0.5185518
208	0x3d03c843	0.032173406
209	0x3e22d584	0.15901762
210	0xbda9f76a	-0.082991436
211	0xbe8d446e	-0.2759127
212	0x3bdd8e7d	0.0067613707
213	0xbf1dc7ab	-0.61632794
214	0xbdce8815	-0.10084549
215	0xbee3f7d4	-0.44525015
216	0xbecdbe3a	-0.40184194
217	0xbe3f2fe3	-0.18670611
218	0xbc1ebafa	-0.009688133
219	0xbd982ffe	-0.07431029
220	0x3cce6acd	0.025197411
221	0xbc627857	-0.013822637
222	0xbe0a0b94	-0.13480979
223	0x3df18a1d	0.11793921
224	0x3cb4cb0b	0.022069475
225	0xbd19ba9e	-0.037531488
226	0xbea78b68	-0.32723546
227	0x3e09f80c	0.13473529
228	0x3dcc7522	0.09983279
229	0x3d873514	0.06601921
230	0x3dfd0e4f	0.12356245
231	0xbc6c5e1d	-0.014426735
232	0xbddb0a87	-0.10695367
233	0xbf0c4968	-0.5479951
234	0xbd380362	-0.0449251
235	0xbce1c19e	-0.027558144
236	0x3cd53739	0.026027309
237	0xbea53644	-0.32267964
238	0xbd2bb142	-0.041917093
239	0xbdd7c96c	-0.10536465
240	0xbb8b0cf7	-0.004243489
241	0xbdcede5c	-0.101010054
242	0xbc9ef359	-0.019403147
243	0x3c4841a1	0.012222678
244	0x3e06ee7b	0.1317691
245	0xbe9f13f5	-0.31069914
246	0xbe2bf3ad	-0.16792174
247	0xbecf157f	-0.40446088
248	0xbda997df	-0.0828092
249	0xbe7095c9	-0.23494639
250	0xbed83126	-0.42224997
251	0x3d6d86af	0.057989772
252	0xbe737edd	-0.23778863
253	0x3d991a72	0.07475747
254	0xbea6c683	-0.32573327
255	0xbd05643a	-0.032566287

lstm.weight_ih_l1 f4 [512, 128]
0	0x3d92123a	0.07132383
1	0xbe942da3	-0.28941068
2	0xbc57e8c8	-0.013178058
3	0x3d9b3580	0.07578564
4	0x3e262bde	0.16227672
5	0x3e2b4c01	0.16728212
6	0xbde00947	-0.109392695
7	0x3e870f6d	0.26378956
8	0xbd5d71b2	-0.054063506
9	0x3e5bf7bb	0.2148122
10	0xbdb14d15	-0.0865728
11	0x3e48d99c	0.19614261
12	0x3e23ecbb	0.16008274
13	0x3e32b8f3	0.17453365
14	0xbdff08ba	-0.12452836
15	0xbd952dae	-0.07284103
16	0x3e5ef7a5	0.21774156
17	0xba985980	-0.0011623353
18	0x3c736abf	0.014856993
19	0xbdb299fc	-0.087207764
20	0x3e711a89	0.23545279
21	0xbdaab507	-0.083353095
22	0x3d645bdf	0.055751678
23	0xbe2b5933	-0.16733246
24	0x3de2f1b5	0.11081258
25	0x3ebaff03	0.36522684
26	0x3e11268f	0.14174865
27	0xbdcac2d4	-0.09900442
28	0xbc0a81eb	-0.008453826
29	0x3e0664ed	0.13124438
30	0x3c3b9bdc	0.011450734
31	0x3e0edf8f	0.13952468
32	0xbd60888b	-0.054817718
33	0x3c9d6646	0.019213807
34	0xbcc0da4e	-0.023541596
35	0x3d99d0ad	0.07510505
36	0xbbeb4757	-0.007180135
37	0xbe814b01	-0.25252536
38	0x3e1f9993	0.15585928
39	0x3db207b8	0.086928785
40	0x3e675da7	0.2259432
41	0x3d6333d4	0.05546935
42	0x3d379863	0.04482306
43	0x3d2f86b3	0.04285307
44	0x3e328579	0.17433728
45	0xbdf582f3	-0.11987867
46	0xbe1d048a	-0.15333763
47	0xbdc01a86	-0.09380059
48	0x3e808877	0.25104114
49	0x3df5bbb1	0.1199869
50	0xbcc4f66e	-0.024043288
51	0xbc02e67f	-0.007989525
52	0x3e5a74ba	0.2133359
53	0xbe15b0c3	-0.1461821
54	0x3e500874	0.20315725
55	0xbe058d67	-0.13042222
56	0x3c81afbb	0.015830865
57	0xbc1c6221	-0.00954488
58	0xbd7ff133	-0.062485885
59	0x3dc2d306	0.09512906
60	0x3e8072aa	0.25087482
61	0x3d534536	0.051579677
62	0xbe4cb081	-0.19989206
63	0x3e44d27a	0.19220915
64	0xbe548203	-0.2075272
65	0xbd3b59da	-0.045739986
66	0x3b0e070f	0.0021671688
67	0xbe27e776	-0.16396889
68	0xbe087d3f	-0.13329028
69	0xbd50263a	-0.050817706
70	0x3daeb98d	0.08531485
71	0x3e206c27	0.15666257
72	0x3dc96e31	0.098354705
73	0xbe00b826	-0.12570247
74	0x3e0489f3	0.12943248
75	0xbdc2608f	-0.09491073
76	0xbda3fcf9	-0.08007235
77	0xbd3b6bef	-0.04575723
78	0x3e03ac18	0.12858617
79	0xbcd7ce2f	-0.026343433
80	0xbe2ca113	-0.1685832
81	0x3e3d60ca	0.18493953
82	0xbd92341c	-0.07138845
83	0xbd932380	-0.071845055
84	0x3e221f66	0.1583229
85	0x3dde4705	0.1085339
86	0x3e05876e	0.13039944
87	0x3e0906ef	0.13381551
88	0xbdc21dc0	-0.094783306
89	0xbe1d82ce	-0.1538193
90	0x3dc1e146	0.094667956
91	0xbddbf675	-0.10740367
92	0xbd8ff07f	-0.07028293
93	0x3e4bbf2d	0.19897147
94	0x3d4e32cc	0.050341412
95	0xbdb1b347	-0.086767726
96	0x3ea5a5d9	0.32353094
97	0x3e0d45ee	0.13796207
98	0x3e0af7b9	0.13571061
99	0xbc49d8fc	-0.0123197995
100	0x3d66df66	0.056365393
101	0xbe9c5e5c	-0.3054074
102	0x3db7e636	0.08979456
103	0x3e0a582e	0.135102
104	0x3e26af59	0.16277827
105	0x3dc27b41	0.09496165
106	0x3e21563d	0.15755554
107	0xbddd7db8	-0.108149946
108	0x3e83e9d0	0.25764322
109	0x3c8548da	0.01627009
110	0xbcf5488b	-0.029941818
111	0xbe87eabe	-0.26546282
112	0x3d91a204	0.0711098
113	0xbe0c73fb	-0.13716118
114	0x3e7ceb25	0.24699076
115	0xbeafa076	-0.3430211
116	0xbcfacb25	-0.030614445
117	0xbda1a278	-0.078923166
118	0xbcb0903a	-0.021553148
119	0xbc772937	-0.01508551
120	0x3db53fc9	0.08850057
121	0xbea2b93e	-0.31781954
122	0x3cc7b1dc	0.024376802
123	0x3da2779f	0.07932972
124	0x3e728e68	0.23687136
125	0x3e870dc2	0.26377684
126	0x3dc0a78f	0.09406959
127	0x3e3d0b14	0.18461257
128	0x3e270446	0.16310224
129	0xbe928abc	-0.2862147
130	0xbe1b44ff	-0.15163039
131	0x3e983c1d	0.29733363
132	0x3e6ad64e	0.22933313
133	0x3e40838d	0.18800183
134	0xbca5a0b7	-0.020218236
135	0x3eb0f902	0.34564978
136	0xbe35b154	-0.17743427
137	0x3e6b1f8c	0.22961253
138	0x3d358cd5	0.04432376
139	0x3e44f987	0.19235812
140	0x3e1f9ee7	0.1558796
141	0x3e0bd1ca	0.13654247
142	0xbe62397b	-0.2209224
143	0xbd456945	-0.048196096
144	0x3e2b7c37	0.16746603
145	0xba2694e6	-0.0006354585
146	0xbe042a1c	-0.12906688
147	0xbd73fee4	-0.059569255
148	0x3df5285f	0.11970591
149	0xbd650a01	-0.055917744
150	0x3d2b9094	0.041885927
151	0xbe93f5b9	-0.2889841
152	0x3e22cfa7	0.15899526
153	0x3eb15d73	0.3464161
154	0x3e15293b	0.1456651
155	0x3e011b4f	0.12608074
156	0x3d9e7937	0.07737964
157	0x3e37e3ec	0.17958039
158	0x3d4ed89f	0.050499555
159	0x3cb9c216	0.022675555
160	0x3e1f8041	0.15576269
161	0xbdb43472	-0.08799066
162	0x3d83208b	0.064026915
163	0xbe0139c3	-0.1261969
164	0x3deb0f37	0.114775114
165	0x3d13a8fd	0.03604983
166	0xbdc917ac	-0.09818968
167	0x3e593d74	0.21214849
168	0x3e8c0dcb	0.27354273
169	0x3dad9d65	0.08477286
170	0xbb164af7	-0.0022932866
171	0x3d22e1bd	0.039766062
172	0x3ea917ca	0.33025962
173	0xbde92e5f	-0.11385798
174	0xbe38751a	-0.1801342
175	0xbd61dacf	-0.055140313
176	0x3e44d264	0.19220883
177	0x3e792471	0.24330308
178	0xbd161429	-0.03664032
179	0xbdf085be	-0.11744259
180	0x3dc1673d	0.09443519
181	0xbae8fe67	-0.0017776013
182	0x3dfe30c1	0.12411643
183	0xbe7a4e79	-0.24443997
184	0x3c0f08c6	0.008730119
185	0xbcc56731	-0.024097057
186	0xbe6d2e81	-0.23162271
187	0xbe14767d	-0.14498325
188	0x3dc2d6d9	0.09513635
189	0xbc7f01fc	-0.015564438
190	0xbe356c69	-0.17717136
191	0x3eb2a5fe	0.34892267
192	0xbd0456ca	-0.03230933
193	0x3e7206a5	0.23635347
194	0x3e095c42	0.134141
195	0xbddae1d7	-0.10687607
196	0xbde26991	-0.110552914
197	0xbd046327	-0.03232112
198	0xbdc6bbc9	-0.09703786
199	0x3e8cabbe	0.2747478
200	0x3da88a8f	0.08229553
201	0xbd99f4f5	-0.07517425
202	0x3e97e761	0.29668716
203	0xbea0205b	-0.31274685
204	0xbdd4374d	-0.1036211
205	0xbe892c07	-0.26791403
206	0xbc9eaf66	-0.019370746
207	0x3b8c2d4b	0.0042778603
208	0xbe15b24d	-0.14618798
209	0x3dafc8fb	0.08583256
210	0x3d373e4e	0.044737153
211	0x3cfe7900	0.031063557
212	0x3e8c15d4	0.27360404
213	0x3e1d2fa3	0.15350203
214	0x3de2c414	0.11072555
215	0x3daa3f0b	0.08312806
216	0xbe04b08f	-0.12957977
217	0xbd6f3051	-0.058395687
218	0x3e1dcaa6	0.15409335
219	0x3d9e131b	0.07718488
220	0xbe7c1b71	-0.24619843
221	0xbdde69d5	-0.108600296
222	0xbe3b20f7	-0.18274294
223	0x3dba2138	0.09088367
224	0x3e9846aa	0.29741412
225	0x3e98528b	0.29750475
226	0x3d71d261	0.059038524
227	0x3d97caa9	0.07411701
228	0xbdf0ddc2	-0.11761047
229	0xbe8d91da	-0.27650338
230	0x3e4c546b	0.19954078
231	0x3e6d1c7a	0.23155394
232	0x3da4dccc	0.08049926
233	0xbd50d74a	-0.050986566
234	0x3d7b67be	0.061378233
235	0xbdce7cb7	-0.10082381
236	0x3ea51e30	0.32249594
237	0x3d30377a	0.043021657
238	0x3b9ef4a5	0.0048509412
239	0xbd203be2	-0.03911961
240	0x3e3c9910	0.18417764
241	0x3d98f198	0.07467955
242	0x3e56f0c8	0.20990288
243	0xbe5933cb	-0.21211164
244	0xbe4d4556	-0.20045981
245	0xbcdef581	-0.027216675
246	0x3df980fd	0.12182806
247	0x3e604a16	0.21903262
248	0x3c4b6838	0.012414984
249	0xbe9658df	-0.29364678
250	0xbd4a3cef	-0.049374517
251	0x3efe53f4	0.49673426
252	0x3e835d72	0.2565723
253	0x3eb86e03	0.36021432
254	0xbc6633c4	-0.014050428
255	0x3e9a70c8	0.3016417

lstm.weight_hh_l1 f4 [512, 128]
0	0xbeacb55f	-0.33732125
1	0x3e2a102c	0.16607732
2	0xbe0e7be1	-0.13914444
3	0xbd89ccae	-0.06728493
4	0xbe0d43f3	-0.13795452
5	0xbe2b6e9e	-0.16741416
6	0xbe313c2a	-0.17308107
7	0x3ea368cc	0.3191589
8	0x3e069506	0.13142785
9	0x3e77c840	0.24197483
10	0x3d348150	0.044068635
11	0xbcb9da97	-0.02268724
12	0xbcbcfd16	-0.0230699
13	0x3e222859	0.15835704
14	0xbdcc0061	-0.0996101
15	0xbe11fbf6	-0.14256272
16	0x3e2d767a	0.16939726
17	0x3c4491cd	0.011997652
18	0x3e43ca12	0.19120052
19	0xbc98329f	-0.018578826
20	0x3b8d1a4f	0.0043061147
21	0x3d53d5a2	0.051717408
22	0x3de1b9b3	0.110217474
23	0x3e668166	0.22510299
24	0x3e49d0f8	0.19708622
25	0xbe2fe2f9	-0.17176427
26	0xbebca051	-0.36841062
27	0xbe32aac3	-0.17447953
28	0x3daab766	0.08335762
29	0x3dcf6680	0.10126972
30	0x3c9cfb91	0.019162925
31	0x3b21daba	0.0024697022
32	0x3ce1b40e	0.027551677
33	0xbe980967	-0.29694673
34	0x3e1bde6b	0.15221564
35	0x3de25f95	0.11053387
36	0xbd0c9268	-0.03431931
37	0x3d8d4631	0.068981536
38	0xbb9e79ab	-0.0048362813
39	0xbe11ba4a	-0.1423122
40	0xbe19c536	-0.15016636
41	0x3e353e28	0.17699492
42	0x3ca8bb75	0.020597199
43	0xbccaf03c	-0.024772756
44	0x3e772751	0.24136092
45	0xbdc807ee	-0.097671375
46	0xbe44043a	-0.19142237
47	0xbd3713fd	-0.044696797
48	0x3dd93feb	0.106078945
49	0x3d02325d	0.03178631
50	0x3de619ff	0.11235427
51	0x3b4eadd3	0.0031536713
52	0x3dd59e08	0.10430533
53	0xbcf8836b	-0.030336102
54	0x3d944efa	0.07241626
55	0xbc267211	-0.0101590315
56	0xbe80f3fe	-0.2518615
57	0xbd4b4406	-0.04962542
58	0x3e37ae18	0.17937505
59	0x3dca870f	0.09889042
60	0xbbbab9b1	-0.0056984057
61	0x3dade83d	0.084915616
62	0xbde68fb5	-0.11257879
63	0x3e09a19a	0.13440552
64	0xbd8f2f8a	-0.06991489
65	0xbe08ba28	-0.13352263
66	0xbec59331	-0.3858886
67	0x3e2e88e9	0.17044415
68	0x3d976558	0.07392377
69	0xbd5c6004	-0.053802505
70	0xbe1befce	-0.15228197
71	0x3cd3767f	0.02581334
72	0xbddd5cbd	-0.10808704
73	0x3e0b4506	0.13600549
74	0x3d8e0e61	0.06936336
75	0x3c8bff64	0.017089553
76	0x3e0d911f	0.1382489
77	0xbc26e2b0	-0.010185882
78	0xbd07ea7b	-0.033182602
79	0x3da8d6db	0.082441054
80	0x3ce08e37	0.027411563
81	0x3de8b0a3	0.11361816
82	0x3e0d5048	0.13800156
83	0xbe1635b8	-0.1466893
84	0xbde354a9	-0.11100132
85	0xbe149fd3	-0.14514093
86	0xbd60959d	-0.054830182
87	0xbe769c21	-0.24082996
88	0x3dbc6245	0.09198431
89	0x3d25a038	0.040436
90	0x3e4ac5c7	0.19802009
91	0x3dcbe7aa	0.09956296
92	0xbd2f523d	-0.042803038
93	0xbe249f03	-0.16076283
94	0x3da890d4	0.08230749
95	0xbe7723d2	-0.24134758
96	0x3e22b8e6	0.15890846
97	0xbe320e7b	-0.17388336
98	0xbdfcf4e9	-0.123514004
99	0xb9a5b336	-0.00031604775
100	0xbe40f359	-0.1884283
101	0xbe1b6d00	-0.15178299
102	0xbd41169d	-0.047140706
103	0x3e37246e	0.1788499
104	0x3c6b67fa	0.014368052
105	0x3cee12e1	0.029061737
106	0x3da73455	0.081642784
107	0x3e212157	0.15735374
108	0x3e92b8d6	0.28656644
109	0x3d181800	0.037132263
110	0x3e0bb5bb	0.13643543
111	0x3ddb6c8c	0.10714063
112	0xbde84cb4	-0.11342755
113	0xbdee75a7	-0.11643534
114	0xbd325e5f	-0.04354703
115	0xbe91c0d2	-0.28467423
116	0xbddbe03a	-0.10736127
117	0xbd45cbd7	-0.0482901
118	0x3e295006	0.16534433
119	0xbe5998a3	-0.21249633
120	0x3e031a7b	0.1280307
121	0x3e9521a3	0.29127225
122	0xbe23258a	-0.15932289
123	0x3ddfa81d	0.10920737
124	0x3dedc466	0.11609726
125	0x3de8845f	0.11353373
126	0xbd8d7af4	-0.06908217
127	0xbdc62595	-0.09675137
128	0xbe746284	-0.23865706
129	0x3a799d57	0.00095220417
130	0xbb0a01f3	-0.002105829
131	0x3e44595e	0.19174716
132	0xbda3b7ea	-0.07994063
133	0xbd67d648	-0.05660084
134	0xbdcf3d0a	-0.10119064
135	0x3ead0a77	0.33797047
136	0x3b64a7d6	0.0034890077
137	0x3ddf337f	0.10898494
138	0x3e529332	0.20563963
139	0x3d4dfc2a	0.05028931
140	0xbd881959	-0.0664546
141	0x3e8d30fb	0.27576432
142	0x3ce2f35c	0.027703933
143	0xbdfdad4e	-0.12386571
144	0xbd40f13a	-0.04710505
145	0xbc0a394f	-0.008436515
146	0x3e2fe66e	0.17177746
147	0xbe12f6dd	-0.14351983
148	0x3e37a382	0.17933467
149	0x3be5d8c3	0.0070143654
150	0x3e9228ed	0.2854685
151	0x3eb12a2d	0.3460249
152	0x3dd3d04c	0.10342464
153	0xbe9595eb	-0.2921594
154	0xbe344c06	-0.17607126
155	0xbda7a642	-0.08186008
156	0x3d3756ae	0.0447604
157	0xbd5820c6	-0.05276563
158	0x3e8063ba	0.25076085
159	0x3e8d1646	0.27556056
160	0xbd7f2b1b	-0.062296968
161	0xbda66963	-0.0812557
162	0x3e5c3d52	0.21507767
163	0x3eb814e6	0.35953444
164	0xbe3cd3eb	-0.18440215
165	0x3e094592	0.13405445
166	0xbc998c7e	-0.01874375
167	0xbdc0103f	-0.09378099
168	0xbe914ab5	-0.2837731
169	0x3dfd94b8	0.123818815
170	0x3df46c46	0.11934714
171	0xbdd312a2	-0.10306288
172	0x3efd6868	0.49493718
173	0xbee3d78b	-0.44500384
174	0xbdc34cba	-0.09536119
175	0xbde1a513	-0.110178135
176	0x3d860518	0.0654394
177	0xbc13013a	-0.00897246
178	0xbd9142dc	-0.070928305
179	0xbea72dde	-0.3265218
180	0x3e210dc8	0.15727913
181	0xbdcf8d72	-0.101344004
182	0x3d5ea5e4	0.054357424
183	0x3ce52174	0.027970053
184	0xbe4de8c7	-0.20108329
185	0xbe0b167f	-0.135828
186	0x3e35dcf4	0.17760068
187	0x3e4b8727	0.19875775
188	0x3dd8a5c6	0.10578494
189	0x3df41dfa	0.1191978
190	0xbb9b6132	-0.004741811
191	0xbd5ae8b3	-0.053444576
192	0xbcbccc3a	-0.023046602
193	0xbdf5e225	-0.12006024
194	0xbe170f31	-0.14751889
195	0x3db5a174	0.08868685
196	0x3d7677e7	0.06017294
197	0xbc9e4cc7	-0.01932372
198	0x3e17444f	0.14772151
199	0x3e174e99	0.14776076
200	0xbc8bc413	-0.017061269
201	0x3c91d6a8	0.017802551
202	0x3e631d23	0.22179084
203	0x3ceb1ca7	0.028700186
204	0x3c77a993	0.015116113
205	0x3d522c51	0.051311795
206	0x3d4736ce	0.04863625
207	0xbdc85079	-0.09780974
208	0x3c30b465	0.010785197
209	0xbdde69f6	-0.10860054
210	0x3d91041b	0.07080861
211	0xbd679156	-0.056535088
212	0xbe4ee987	-0.20206271
213	0xbd0d4242	-0.034487016
214	0x3dc6c859	0.09706182
215	0xbe832cbc	-0.25620067
216	0x3d579e54	0.052641228
217	0xbb316a36	-0.0027071363
218	0x3dc76090	0.09735215
219	0x3daed33b	0.08536383
220	0x3d6e29cb	0.058145326
221	0x3d846a7d	0.064656235
222	0x3d9bfed5	0.07616965
223	0xbde437c9	-0.11143453
224	0xbcda8fb7	-0.026679857
225	0xbd2a8e30	-0.041639507
226	0xbeaa060f	-0.33207747
227	0x3c5338e3	0.012891981
228	0xbe83dca6	-0.2575428
229	0xbe3d49d7	-0.18485199
230	0xbc9f2623	-0.019427365
231	0x3ea4e54a	0.32206184
232	0xbd9d8d47	-0.07692962
233	0x3c8b9c03	0.017042166
234	0x3e10a3a2	0.14124921
235	0x3e4235f0	0.18965888
236	0x3e65c0db	0.2243685
237	0xbcaaeb76	-0.02086423
238	0xbdd248ef	-0.10267817
239	0x3a8057ba	0.000979177
240	0xbd4e091c	-0.050301656
241	0xbdfd9e62	-0.12383725
242	0xbd989bc5	-0.07451586
243	0xbd96ff03	-0.073728584
244	0xbcaaa157	-0.020828886
245	0xbe624116	-0.22095141
246	0x3e5c73b2	0.2152851
247	0xbe3060b4	-0.1722439
248	0x3b0fdc45	0.002195136
249	0x3eefc366	0.46828765
250	0xbd4fd70d	-0.050742198
251	0x3d607a72	0.054804273
252	0x3a8c5fc2	0.001070969
253	0xbca5bb00	-0.02023077
254	0x3e2819e4	0.16416126
255	0xbe45e92d	-0.19327231

lstm.bias_ih_l1 f4 [512]
0	0xbee35baf	-0.44405887
1	0xbf1003ea	-0.5625597
2	0xbf096598	-0.53670645
3	0xbadb74c4	-0.0016743173
4	0xbee8ec82	-0.4549294
5	0xbede8bb3	-0.43465957
6	0xbec95ffd	-0.39331046
7	0xbe4c0ffa	-0.1992797
8	0xbed1a763	-0.40948018
9	0xbeb13d25	-0.34616962
10	0xbe882a5c	-0.26594818
11	0xbeec9157	-0.46204636
12	0xbeaff5bf	-0.34367177
13	0xbe7b69cf	-0.24552082
14	0xbe7ddd4a	-0.24791446
15	0xbf17e5da	-0.593351
16	0xbf0d3567	-0.5515961
17	0xbebb2a3d	-0.36555663
18	0xbeb28197	-0.34864494
19	0xbedf5cf2	-0.436256
20	0xbf17ae0f	-0.5924997
21	0xbe7abcdb	-0.24486105
22	0xbe4438c4	-0.1916228
23	0xbe248321	-0.16065647
24	0xbec8ec1a	-0.3924263
25	0xbeb71b88	-0.35763192
26	0xbe9a89ff	-0.30183408
27	0xbef60872	-0.48053318
28	0xbf0867f4	-0.5328362
29	0xbf19cc14	-0.60077024
30	0x3e6d9804	0.2320252
31	0xbd8a7278	-0.067601144
32	0xbef798bf	-0.48358724
33	0xbecb5aff	-0.39717862
34	0xbeaa57a0	-0.33269978
35	0xbe9f0d20	-0.310647
36	0xbe1ff117	-0.15619312
37	0xbe2aed65	-0.16692121
38	0xbf279e37	-0.6547579
39	0xbe59a30d	-0.21253605
40	0x3cf95364	0.030435272
41	0xbf13c092	-0.57715714
42	0xbcb60685	-0.022219906
43	0xbf1f14e6	-0.62141263
44	0xbf1ef4ff	-0.62092584
45	0xbe264f77	-0.16241251
46	0xbef57f8d	-0.47948876
47	0xbf138a8b	-0.57633275
48	0xbe69bd90	-0.22826219
49	0xbeb7f178	-0.35926414
50	0xbd8f6b57	-0.07002895
51	0xbe2ae07a	-0.16687194
52	0xbef75dd8	-0.48313785
53	0xbe6b1de0	-0.22960615
54	0xbee2d955	-0.44306436
55	0xbed0e26a	-0.4079774
56	0xbf1bcd8d	-0.6086052
57	0xbea4aac6	-0.3216154
58	0xbe790871	-0.24319626
59	0xbdf5c75d	-0.12000916
60	0xbf10890c	-0.56459117
61	0xbed9ed95	-0.42564073
62	0xbecf1abd	-0.40450087
63	0xbe4f3151	-0.20233656
64	0xbec3f73c	-0.38274562
65	0xbe94565a	-0.2897213
66	0xbecbdc8a	-0.39816695
67	0xbed737a4	-0.42034638
68	0xbf173dcb	-0.59078664
69	0xbe9681df	-0.2939596
70	0xbe7701d6	-0.24121794
71	0xbf24fa98	-0.64444876
72	0xbf0991c9	-0.53738075
73	0xbf00bd84	-0.5028918
74	0xbd35abbe	-0.04435324
75	0xbe94331f	-0.28945252
76	0xbeabd8f3	-0.33563957
77	0xbed268f0	-0.41095686
78	0xbf0b45cf	-0.54403394
79	0xbec28c42	-0.37997633
80	0xbe8044b9	-0.2505243
81	0xbedf94ed	-0.4366831
82	0xbeb954c6	-0.3619749
83	0xbee5b635	-0.44865575
84	0x3dcb847d	0.099373795
85	0xbec21f59	-0.3791454
86	0xbf1c60ec	-0.6108539
87	0xbdb26ac9	-0.08711774
88	0xbf14cfa8	-0.5812936
89	0xbdd6aa26	-0.10481672
90	0xbf3f7de5	-0.74801475
91	0xbe6c8044	-0.23095804
92	0xbe46c134	-0.19409639
93	0xbf11019b	-0.56643075
94	0xbe747fbc	-0.23876852
95	0xbf09af5b	-0.53783196
96	0xbee45ac8	-0.4460051
97	0xbf050937	-0.51967186
98	0x3d8b5c7d	0.0680475
99	0xbee3a27e	-0.4445991
100	0xbe77787d	-0.24167056
101	0xbdd810a1	-0.10550047
102	0xbe4b9b80	-0.19883537
103	0xbe94368e	-0.28947872
104	0xbef461f0	-0.4773097
105	0xbea11e91	-0.31468633
106	0xbd086db3	-0.033307742
107	0xbccf2204	-0.025284775
108	0xbedba468	-0.4289887
109	0xbf3b2169	-0.73097855
110	0xbec08928	-0.37604642
111	0xbf363198	-0.71169424
112	0xbe6ee228	-0.2332846
113	0xbf2014ec	-0.62531924
114	0xbe9b1323	-0.30288038
115	0xbe395af2	-0.18101099
116	0xbeb660d4	-0.3562075
117	0xbe85bca2	-0.26120478
118	0xbef451c0	-0.4771862
119	0xbe93c94a	-0.2886451
120	0xbe918858	-0.28424335
121	0xbc85ac20	-0.016317427
122	0xbef28406	-0.4736635
123	0xbf0d7508	-0.552567
124	0xbeb61c1d	-0.35568324
125	0xbea6fe9c	-0.32616127
126	0xbc4b8ede	-0.012424199
127	0x3e82240e	0.25418133
128	0xbed4bdcc	-0.41551054
129	0xbf0b5888	-0.5443196
130	0xbf48d2da	-0.78446734
131	0xbd829585	-0.06376175
132	0xbee3a4f5	-0.4446179
133	0xbe9e2ac4	-0.30892003
134	0xbeaa5036	-0.3326432
135	0x3dc37429	0.0954364
136	0xbe94c736	-0.29058236
137	0xbec33770	-0.38128233
138	0xbe850f0d	-0.25988045
139	0xbeb9da3c	-0.36299312
140	0xbe3ea6d0	-0.18618321
141	0xbab984cd	-0.0014153958
142	0xbe56806b	-0.20947425
143	0xbf068ce0	-0.5255871
144	0xbec2934a	-0.38002998
145	0xbea27455	-0.3172938
146	0xbdb31865	-0.08744887
147	0xbe9656d8	-0.29363132
148	0xbf048adf	-0.517744
149	0xbdcf57ff	-0.10124206
150	0x3dde5068	0.1085518
151	0x3d5b8cc3	0.053601038
152	0xbe882a60	-0.2659483
153	0xbea160df	-0.3151922
154	0xbec2e605	-0.38066116
155	0xbeafa3b2	-0.34304577
156	0xbeb228b7	-0.34796688
157	0xbf009af9	-0.5023647
158	0x3e6ff22e	0.23432228
159	0xbe1c34dd	-0.1525454
160	0xbea8c068	-0.32959294
161	0xbe5ca6dc	-0.21548027
162	0xbdf5a6e5	-0.11994723
163	0xbdedb356	-0.11606471
164	0xbe00cae2	-0.12577394
165	0xbdaedda6	-0.0853837
166	0xbee2f406	-0.443268
167	0xbe0aaecc	-0.13543242
168	0xbe0a32b2	-0.13495901
169	0xbf07f5b0	-0.53109264
170	0xbdfc900f	-0.123321645
171	0xbee73831	-0.45160058
172	0xbe349ac3	-0.17637162
173	0xbe696952	-0.22794083
174	0xbe65b1ca	-0.22431102
175	0xbef28aa9	-0.47371414
176	0xbd3e7184	-0.046494976
177	0xbe9c702a	-0.30554324
178	0xbe4d427b	-0.20044892
179	0xbe66dd61	-0.22545387
180	0xbe7b1293	-0.24518804
181	0xbe456fee	-0.19280979
182	0xbe8c5672	-0.27409703
183	0xbedc0037	-0.42968914
184	0xbee360ee	-0.4440989
185	0xbe71287a	-0.23550597
186	0xbdd00604	-0.101573974
187	0xbd6595b5	-0.056050975
188	0xbebd4385	-0.36965576
189	0xbef53c81	-0.47897723
190	0xbe7760fb	-0.24158089
191	0xbe273d7d	-0.1633205
192	0xbeb042ad	-0.3442587
193	0x3db16dec	0.08663544
194	0xbf0622e1	-0.5239697
195	0xbe784200	-0.24243927
196	0xbf0b19be	-0.54336154
197	0xbe531385	-0.20612915
198	0x3ddb6321	0.10712267
199	0xbf1ac5cb	-0.6045806
200	0xbf11a454	-0.5689137
201	0xbece7080	-0.40320206
202	0xbe25ce0d	-0.16191883
203	0xbe87cab6	-0.26521844
204	0xbe9f0dd9	-0.31065252
205	0xbe99d461	-0.30044845
206	0xbf0d04f1	-0.55085665
207	0xbeaafacc	-0.33394468
208	0xbe90a799	-0.28252867
209	0xbee0b29b	-0.43886265
210	0xbe475da9	-0.19469322
211	0xbeeeaf74	-0.46618235
212	0x3d828d1a	0.06374569
213	0xbe1c8983	-0.15286832
214	0xbf1a2ca8	-0.6022439
215	0x3e758f30	0.23980403
216	0xbebf8183	-0.37403497
217	0xbe2c47bc	-0.1682424
218	0xbf2fdde2	-0.6869794
219	0xbeaa3dd8	-0.33250308
220	0xbe15f005	-0.14642341
221	0xbf201eb9	-0.6254688
222	0xbeb68798	-0.35650325
223	0xbecc6898	-0.3992355
224	0xbe8d063c	-0.2754382
225	0xbec00567	-0.37504122
226	0x3e404fb4	0.18780404
227	0xbf0f1893	-0.5589687
228	0x3cc2afb2	0.023765419
229	0xbdb36f85	-0.08761505
230	0xbd8b1b99	-0.06792373
231	0xbea082ff	-0.31349942
232	0xbf017cd6	-0.5058111
233	0xbd2a0568	-0.041509062
234	0xbda9e476	-0.082955286
235	0x3e7ace82	0.24492839
236	0xbeca5787	-0.39519903
237	0xbf25b528	-0.6472955
238	0xbeb14b72	-0.34627873
239	0xbf39b0b6	-0.72535264
240	0xbe00f8b6	-0.12594876
241	0xbf009253	-0.50223273
242	0xbe364076	-0.17798027
243	0xbd1f8c3a	-0.03895209
244	0xbe913b4b	-0.2836555
245	0xbf06c22a	-0.5264002
246	0xbf1e9351	-0.61943537
247	0xbeaae3e0	-0.3337698
248	0xbe865e78	-0.2624395
249	0xbe44192e	-0.1915023
250	0xbf12da23	-0.573641
251	0xbf08a44f	-0.53375715
252	0xbe712481	-0.23549081
253	0xbee95506	-0.4557268
254	0x3b053ea2	0.0020331522
255	0xbe2bcd6f	-0.16777585
