models/EURUSD_model.pth (torch, 843660 bytes, 15 tensors)

lstm.weight_ih_l0 f4 [512, 12]
00000000: 5123 9932 668d 6a32 015a d932 e381 c232
00000010: 4616 a832 5aea 0633 0d76 5633 d970 adb2
00000020: 0701 5c32 28af 5ab2 0a6c 44b2 980a c8b2
00000030: decf bf39 3b67 b039 608c cf39 0f7e c439
00000040: 5374 95b8 ecc6 cf39 0ed2 e939 4eef 8139
00000050: a8c5 29b9 2063 c5b8 b893 f138 3aeb 1439
00000060: b39e 2c3a a5f5 243a c6ef 3b3a 690f 373a
00000070: 92a4 a8b9 c4da 363a ecdc 483a c098 333a
00000080: 468d b9b9 08a1 7a37 e969 ac39 de8e aa39
00000090: 5fea 8e3a 485a 8b3a 2cb0 9b3a d65b 993a
000000a0: 8682 65ba f9b7 983a 8c66 ac3a 86d4 6f3a
000000b0: d6dc 46ba 0a3a 00b9 8375 053a d710 063a
000000c0: 2836 9d39 1e09 8839 859c c939 04a8 b939
000000d0: f366 20ba cf47 b439 66e0 e639 28a7 ba39
000000e0: cd8a 63ba 14db f7b8 b4c8 7db8 b216 3ab9
000000f0: 0041 0a3a 1471 053a f6a5 163a 1e31 133a
00000100: 9eb9 aab9 c56c 133a 45e2 273a a234 9e39
00000110: 97dc 59b9 2348 eb38 4070 9e39 5d65 5e39
00000120: 0e61 f038 f676 d138 4f93 1539 a018 0a39
00000130: ae10 7cb9 e9fb 0c39 9cf1 3139 dd42 e638
00000140: 04e0 abb9 842c 15b9 9216 3bb8 3003 36b8
00000150: b6d5 4bb0 219c 5caf 5f4a 9eb0 08c7 42b0
00000160: 38af c730 17d0 92b0 60f4 c12e f3fd 0b31
00000170: 5529 5430 c0d3 5eae 08e2 2e30 9442 b92f
00000180: 8cf4 623a 4008 653a 5d24 743a 964b 753a
00000190: b787 4cba 2446 6a3a 9e1d 813a 7ba2 333a
000001a0: 1622 10ba 7075 9f38 f090 293a 23bb 173a
000001b0: 1cf7 1e38 f07c 9c37 5a6c ee38 78a7 c038
000001c0: ab56 4fba f0cf 9038 b4df 1b39 1a33 d139
000001d0: 324b 6dba 9b60 0cba e06b 0ab9 8051 3736
000001e0: 00e4 8139 84d8 7839 9200 a339 13c8 9c39
000001f0: 96f5 ccb9 4a95 9639 80c9 c339 cce0 8b39
00000200: bb3a 7ab9 3a6c d2b8 ae4f 3239 c025 d738
00000210: b274 803a bc11 6e3a e562 8c3a 0d08 853a
00000220: 682d 4bba 5acc 893a 1a0e 9c3a 50c3 8c3a
00000230: 4867 54ba 744a 36b9 a290 e339 6cda 103a
00000240: 1e15 5f3a 95c6 503a 15f3 793a 985d 6e3a
00000250: 839c 21ba a978 703a db36 893a f35e 673a
00000260: e4e8 6eba 08e9 2eb9 8543 b539 ca1f cf39
00000270: 9aff 3b39 d65c 6339 a13b 3939 a543 5839
00000280: 029a 75b9 0954 0739 5005 5038 4414 c339
00000290: d370 bdb9 9a0b 3939 646e 9d39 3616 9439
000002a0: 051b 8039 61ca 7639 1094 9439 f28c 8e39
000002b0: ae6c 92b9 91b6 8d39 57e9 a739 8884 bf39
000002c0: 1521 76b9 bef4 a936 7ac6 0839 52d6 1439
000002d0: fce5 7a39 5a51 6739 d337 8839 8072 7f39
000002e0: a9fd 11b9 6b0b 8939 0567 9f39 3ec6 4d39
000002f0: 45f8 09b9 1ca2 bcb8 d043 aa38 2526 0839
00000300: 614e ac39 7979 9339 1ca6 cf39 8167 bc39
00000310: f702 c9b9 00f4 ca39 89a9 f839 0cbf c739
00000320: cd74 f6b9 77bb cdb9 8eea f1b8 c0b4 50b7
00000330: f31c 033a e15d fd39 3ca6 0f3a 6b87 0c3a
00000340: eaba ebb9 2a05 0b3a 68b0 1e3a 946a b939
00000350: 9705 81b9 30d2 8737 cc94 9339 61dd 8039
00000360: f1eb ef39 8acd e539 1bd7 053a dbb2 013a
00000370: b179 dcb9 dab2 023a 77b3 153a 5679 e039
00000380: f0f3 e1b9 e7de 8fb9 6aac af38 2f8e 1139
00000390: fd65 ec39 876a f239 4e9e 0e3a 58c5 0e3a
000003a0: 14cd 82ba d438 023a 2d6f 1c3a f742 3b3a
000003b0: 4a55 3bba d8e1 82b9 34f5 6d39 daa6 8239
000003c0: 647e 3e3a 73a0 3f3a a923 443a bed6 463a
000003d0: 2ba5 0fba d793 3e3a 62be 4a3a b8ea 1f3a
000003e0: be9c e6b8 aff3 5d39 9383 613a 090b 5e3a
000003f0: 2abd 4433 8273 3d33 db3e 6733 ec76 5833
1.7827604e-08 1.3652743e-08 2.5303054e-08 2.2643638e-08 1.9567903e-08 3.1412448e-08 4.9933124e-08 -2.0191168e-08
1.2805919e-08 -1.2729096e-08 -1.1433267e-08 -2.3287882e-08 0.00036585232 0.0003364625 0.00039586704 0.00037477954
-7.126541e-05 0.00039630325 0.00044597726 0.00024783093 -0.00016190729 -9.4121555e-05 0.0001151929 0.00014202009
0.00065849273 0.00062927074 0.0007169213 0.0006983192 -0.00032166071 0.00069753476 0.00076623145 0.00068510696
-0.00035391207 1.4938654e-05 0.00032885306 0.0003253137 0.0010903588 0.0010631764 0.0011878065 0.0011700343
-0.0008755106 0.0011651508 0.001315312 0.0009148795 -0.00075860077 -0.00012228652 0.0005091058 0.00051142037
0.00029985723 0.00025946734 0.00038454324 0.0003541113 -0.0006118856 0.00034385777 0.00044036208 0.00035601226
-0.0008680046 -0.00011818684 -6.050682e-05 -0.00017746797 0.0005273968 0.00050903973 0.0005746776 0.0005614924
-0.00032563222 0.0005623813 0.0006404261 0.00030175323 -0.00020776909 0.0001121911 0.0003021974 0.0002120933
0.0001146217 9.988055e-05 0.00014264624 0.00013169879 -0.00024038806 0.00013445284 0.00016970042 0.00010979709
-0.00032782566 -0.0001422633 -4.4605295e-05 -4.339515e-05 -7.415467e-10 -2.0064352e-10 -1.1517151e-09 -7.085963e-10
1.4528956e-09 -1.0682041e-09 8.8200336e-11 2.0371516e-09 7.7183887e-10 -5.0665028e-11 6.362204e-10 3.369861e-10
0.0008657656 0.0008736886 0.000931328 0.00093572715 -0.00078022055 0.00089368434 0.0009850746 0.00068525196
-0.0005498243 7.603585e-05 0.0006468436 0.00057880784 3.7900274e-05 1.8654828e-05 0.000113689064 9.186467e-05
-0.0007909338 6.9051865e-05 0.00014865288 0.0003990166 -0.00090520375 -0.00053549715 -0.00013200892 2.7316564e-06
0.0002477467 0.00023731781 0.00031090208 0.00029903706 -0.00039092888 0.00028721459 0.00037343428 0.00026679633
-0.00023863737 -0.00010033739 0.00017005086 0.000102590304 0.0009800403 0.0009081622 0.0010710625 0.0010149494
-0.00077506015 0.0010513172 0.0011906058 0.001073936 -0.00081025483 -0.00017384609 0.00043404574 0.00055257115
0.00085099216 0.00079641613 0.0009534818 0.0009092926 -0.00061649847 0.0009173253 0.0010468619 0.0008826099
-0.0009113683 -0.00016680744 0.00034573316 0.000395058 0.00017928929 0.00021682991 0.00017665188 0.00020624565
-0.00023422393 0.00012905909 4.9596012e-05 0.00037208397 -0.0003613295 0.00017647297 0.0003002762 0.00028245308
0.00024434194 0.0002353578 0.00028339075 0.00027189363 -0.00027928263 0.00027029638 0.00032026574 0.00036529102
-0.00023472712 5.065084e-06 0.00013043909 0.0001419422 0.00023927534 0.00022060183 0.00025981534 0.0002436135
-0.00013922773 0.00026139183 0.000304036 0.00019624174 -0.00013157826 -8.994734e-05 8.118863e-05 0.0001298418
0.00032864793 0.0002812853 0.00039605878 0.0003593527 -0.00038339917 0.00038710237 0.0004742856 0.0003809858
-0.000470078 -0.0003924032 -0.00011535465 -1.243985e-05 0.0005001567 0.00048325866 0.0005479788 0.0005360755
-0.00044961955 0.00053031987 0.0006053508 0.00035365357 -0.00024608962 1.619113e-05 0.00028148887 0.00024579003
0.00045761422 0.00043831422 0.00051056006 0.0004947611 -0.00042052337 0.00049857574 0.0005710641 0.00042815012
-0.00043097092 -0.0002744116 8.376765e-05 0.00013881245 0.00045089415 0.00046237206 0.00054404594 0.00054462766
-0.0009979331 0.00049675745 0.0005967494 0.00071434624 -0.0007146193 -0.000249638 0.00022693427 0.00024919846
0.00072667585 0.00073099806 0.00074821204 0.00075850997 -0.0005479629 0.00072699547 0.0007734058 0.00061003445
-0.0001099645 0.00021166982 0.0008602675 0.00084702723 4.580685e-08 4.4110045e-08 5.3841045e-08 5.0399578e-08

lstm.weight_hh_l0 f4 [512, 128]
00000000: f918 e12e 649a 9db1 2a1d 2032 5501 0e32
00000010: 9aa0 2cb2 ba14 01b2 c84c e030 296e a82c
00000020: 8c0f b2b1 b846 63b2 74ea 4ab2 a622 17b2
00000030: 0000 5d2a 3a8c 00b2 cae1 15b2 e540 a8b1
00000040: 8ed6 0bb2 8fc7 26b2 6c84 2532 eac3 4332
00000050: 7dbb 6db2 6384 b3ae e73a d9b1 3c34 53b2
00000060: a01a 09b2 8ca1 a931 70b8 7730 0c13 2832
00000070: 6869 fbb1 c7fe e0a9 5baf 2ab2 0020 9e2b
00000080: 72f6 2b32 a747 0a31 3eda c2b1 4060 3f32
00000090: f9c0 3432 66ba e131 67ad eab1 3a42 04b2
000000a0: 9c14 9ab1 0320 44b2 7f9e 56b2 b0cc afb1
000000b0: 2c8d a031 53e4 4eb2 8432 de31 27c6 f731
000000c0: 224f f0b1 9cc5 8831 f35b 4e32 10f7 1b31
000000d0: bf40 13b2 498d 1332 6a31 e831 d0f1 b2a8
000000e0: 2967 83b2 a093 0032 3a6f 21b1 f0f7 18ad
000000f0: 38ff 0bb2 04be 08b2 111f e5b1 2683 2ab2
00000100: e3e7 bbb1 05ad 70b2 a4b4 f231 3bcf 80b2
00000110: e786 70b1 2fe1 0932 a5c3 3bb2 4f7f b431
00000120: 9309 0532 ec50 69b2 14af c631 4f55 1f32
00000130: 16e0 66b2 ce46 22b1 402d 522f 8f64 1732
00000140: 34fa c4b1 6c20 9ab1 3a99 4731 8080 0db2
00000150: 553d dfb1 5728 56b2 c625 ecb1 1c7e 3232
00000160: cdff 9931 94de 0a32 7c03 4832 9798 69b2
00000170: dca8 50b2 ae64 d531 2c1e 8131 acb1 40b2
00000180: 671e 3cb1 0114 81b2 124e 43b2 860e d531
00000190: b3f6 fbb1 b12b df24 ae39 e731 1e86 91b1
000001a0: 8277 11b2 bc46 7ba8 f4bb c431 d2f5 d5b1
000001b0: 1efa bb31 c384 1032 18ad 1bb2 e91c 6ab1
000001c0: a01e 26b2 12f3 46b2 6041 d6ab b430 ccb1
000001d0: fe22 17b2 a969 17b2 7da5 28b2 9b0e 74b2
000001e0: a7c8 24ac f8a1 73b2 382a 4232 acec 35b2
000001f0: 1c54 772c d688 33b2 b6d0 34b1 e244 41b2
00000200: 8d2d 59b5 5e37 f0b7 8d26 fc37 11da fb37
00000210: 31ea 0fb7 1208 0ab8 7ab8 da36 b076 73b3
00000220: c235 33b8 1af3 57b7 3781 f9b7 dad1 88b6
00000230: e473 2337 a7a3 7537 3d45 47b7 4a90 beb7
00000240: 1611 86b7 70df 11b8 1fc0 0438 939d 0838
00000250: 4801 1e38 b81e 3eb3 fde6 afb7 b58e 25b8
00000260: b704 4fb8 25df d937 c0a1 2e35 2bc4 3738
00000270: f7be 00b8 3e3c c530 6b75 10b8 f421 56b3
00000280: 2442 1638 e703 3e37 e4b3 f5b7 9b94 0b38
00000290: fd65 0938 3081 8237 dd4f feb7 fc03 07b6
000002a0: ccc3 c4b7 e611 35b8 36b2 01b8 c057 c5b4
000002b0: 2ab7 0738 c894 1eb8 eab5 b137 1890 2738
000002c0: abfc a3b7 e487 8336 20d1 d7b5 1466 a036
000002d0: 3876 e9b7 0482 0836 314c ef37 94c7 ec30
000002e0: 2c19 acb7 8224 aa36 8430 b636 5601 2bb4
000002f0: 1956 03b8 28e9 9ab7 6856 3fb7 f678 a0b7
00000300: 2453 a7b6 5508 abb7 81bb 19b8 0aeb 50b7
00000310: 9185 7a35 9845 d335 032c 26b8 c292 0038
00000320: f806 5637 b2ff ffb7 3286 9d37 9fc3 0f38
00000330: cad0 50b8 28b2 a2b4 7da4 cb36 a03d 8636
00000340: 1077 86b6 d824 2138 009c a636 9c3d f1b7
00000350: c0ef cab4 944e a7b6 1dbc ebb7 d15d 1b38
00000360: c02b 99b5 6eb2 c337 4895 0c36 fd02 22b8
00000370: 8bb8 b3b7 9cb0 f1b6 fa8a a436 fd81 9fb7
00000380: 5224 23b7 6061 2a35 b65f 8bb7 f01a be37
00000390: 409d 05b8 009d a5aa a236 d337 8c5d 86b7
000003a0: d25d c9b7 2a2f 1eb1 ba32 6e37 d13a e7b7
000003b0: 5d79 0238 34cd d537 ee5a a8b7 feff b435
000003c0: 2019 1ab8 96ea eab7 2466 8032 004a bcb5
000003d0: d203 35b7 c2a2 a7b6 b89f 68b7 5875 2cb7
000003e0: ad89 2f33 148f 80b7 fed7 1738 c5fa 19b8
000003f0: 5a46 5d32 c68c 2eb8 e8ae d534 823b 3fb8
1.02362514e-10 -4.5868536e-09 9.319857e-09 8.265791e-09 -1.0048234e-08 -7.513501e-09 1.6319968e-09 4.7870774e-12
-5.1822493e-09 -1.3229219e-08 -1.1811256e-08 -8.797235e-09 1.9628743e-13 -7.482464e-09 -8.72428e-09 -4.896821e-09
-8.139649e-09 -9.707846e-09 9.634373e-09 1.139504e-08 -1.38378455e-08 -8.163494e-11 -6.3222276e-09 -1.2293693e-08
-7.980503e-09 4.936913e-09 9.012018e-10 9.783218e-09 -7.3170447e-09 -9.991795e-14 -9.935174e-09 1.1235457e-12
1.0009545e-08 2.0122373e-09 -5.6709544e-09 1.1139548e-08 1.0521256e-08 6.569553e-09 -6.83001e-09 -7.698469e-09
-4.484333e-09 -1.141598e-08 -1.2492477e-08 -5.1164406e-09 4.6726623e-09 -1.2042693e-08 6.4667933e-09 7.2111734e-09
-6.9939157e-09 3.9805865e-09 1.2011685e-08 2.2695907e-09 -8.571248e-09 8.588651e-09 6.7577064e-09 -1.986684e-14
-1.5297319e-08 7.484147e-09 -2.3491808e-09 -8.695253e-12 -8.148895e-09 -7.959446e-09 -6.668309e-09 -9.925122e-09
-5.4687788e-09 -1.4009179e-08 7.0636634e-09 -1.4995399e-08 -3.500128e-09 8.02565e-09 -1.0929317e-08 5.253163e-09
7.743796e-09 -1.35807845e-08 5.7824625e-09 9.274415e-09 -1.3438713e-08 -2.361435e-09 1.9115465e-10 8.812221e-09
-5.7327956e-09 -4.485676e-09 2.904541e-09 -8.236498e-09 -6.497127e-09 -1.2465612e-08 -6.8727983e-09 1.0389638e-08
4.4819672e-09 8.083266e-09 1.1642324e-08 -1.359708e-08 -1.2145588e-08 6.210562e-09 3.7578243e-09 -1.1216269e-08
-2.7374882e-09 -1.5026673e-08 -1.1368245e-08 6.200767e-09 -7.333108e-09 9.678485e-17 6.7295423e-09 -4.2353028e-09
-8.467284e-09 -1.3948637e-14 5.7257186e-09 -6.2270624e-09 5.4708513e-09 8.41209e-09 -9.061544e-09 -3.4067915e-09
-9.669435e-09 -1.1580385e-08 -1.522376e-12 -5.9427183e-09 -8.797313e-09 -8.813381e-09 -9.816515e-09 -1.420599e-08
-2.3417186e-12 -1.4181289e-08 1.1301886e-08 -1.05894e-08 3.5147501e-12 -1.0450284e-08 -2.6312086e-09 -1.1249741e-08
-8.0905085e-07 -2.8636012e-05 3.0058693e-05 3.0023077e-05 -8.577991e-06 -3.290928e-05 6.518382e-06 -5.6685792e-08
-4.272699e-05 -1.28716e-05 -2.9743283e-05 -4.077546e-06 9.74254e-06 1.4641241e-05 -1.1877445e-05 -2.2716955e-05
-1.5982001e-05 -3.4778786e-05 3.165018e-05 3.257168e-05 3.767133e-05 -4.426576e-08 -2.0969188e-05 -3.9471972e-05
-4.9357037e-05 2.5972326e-05 6.505543e-07 4.3813296e-05 -3.0695428e-05 1.4350758e-09 -3.444163e-05 -4.9856638e-08
3.5824385e-05 1.1325791e-05 -2.9290044e-05 3.3278582e-05 3.275833e-05 1.5557365e-05 -3.0316349e-05 -2.0118887e-06
-2.3456196e-05 -4.3170432e-05 -3.092197e-05 -3.6757956e-07 3.2357093e-05 -3.78087e-05 2.1184755e-05 3.99501e-05
-1.9548772e-05 3.919924e-06 -1.6079612e-06 4.780255e-06 -2.7830814e-05 2.0341258e-06 2.85265e-05 1.7227983e-09
-2.051572e-05 5.070645e-06 5.4296706e-06 -1.5926102e-07 -3.131302e-05 -1.8466802e-05 -1.1404605e-05 -1.9129813e-05
-4.9866667e-06 -2.0388668e-05 -3.665267e-05 -1.245249e-05 9.332662e-07 1.574098e-06 -3.9618473e-05 3.0654257e-05
1.27570165e-05 -3.0517436e-05 1.8778348e-05 3.4276043e-05 -4.9785514e-05 -3.0304477e-07 6.0690204e-06 4.0006853e-06
-4.007372e-06 3.8419705e-05 4.9653463e-06 -2.8758128e-05 -3.7799873e-07 -4.9861355e-06 -2.810178e-05 3.7042253e-05
-1.1412121e-06 2.33289e-05 2.0948519e-06 -3.8626593e-05 -2.1424397e-05 -7.2029197e-06 4.90376e-06 -1.9014808e-05
-9.724014e-06 6.3471634e-07 -1.661466e-05 2.2662309e-05 -3.185612e-05 -2.9418828e-13 2.51786e-05 -1.6017606e-05
-2.4004756e-05 -2.3018836e-09 1.4197716e-05 -2.7564734e-05 3.1107444e-05 2.5487134e-05 -2.0069503e-05 1.3485549e-06
-3.673986e-05 -2.8004211e-05 1.494761e-08 -1.4028628e-06 -1.078933e-05 -4.9959353e-06 -1.3865465e-05 -1.027932e-05
4.0870578e-08 -1.5325415e-05 3.6202364e-05 -3.671159e-05 1.2879889e-08 -4.161594e-05 3.9801603e-07 -4.559337e-05

lstm.bias_ih_l0 f4 [512]
00000000: d472 6533 427d 1f3a 75a7 703a df9f 983a
00000010: 1a57 153a f189 2f3a f2f6 5d39 88cc 292f
00000020: 436f 643a 048b 5838 6467 bb39 370f b53a
00000030: 04bf 973a 0081 82b9 b777 7339 0f6f c639
00000040: 2b99 1b3a a330 3b3a 528b 163a 0e29 9239
00000050: 3e0e 663a dcc8 3b33 1957 b339 a6fa 433a
00000060: 485c b03a d3fa 8b39 ec47 2f39 6418 4d3a
00000070: 3c52 463a 50f6 6029 f16b 4239 916f 92af
00000080: 2b4e 5a3a caa9 9239 0cfc b539 8c81 2c3a
00000090: 52f9 793a 68c4 d239 dd0e 263a 1b0c 1b3a
000000a0: 53b1 df39 9e27 2b3a 5224 9d3a da0c 6538
000000b0: 4ff7 2c3a be6e 4c3a 0ac1 9439 3501 533a
000000c0: 88b9 8539 d7df d839 6338 3e3a 0716 7c39
000000d0: 78db 7838 a005 8939 97e6 0a3a 1b6a 87aa
000000e0: cee6 773a 9074 5439 6ff0 3339 62e7 b4b1
000000f0: 834d 333a 2285 9439 77ef aa39 3f6c 223a
00000100: 5b0c 7439 490a c53a 346d 1839 04bd a839
00000110: c939 73b9 7e9f 3739 bec2 2b3a d592 143a
00000120: b84c b739 4cb6 583a 6472 fa39 9896 983a
00000130: d811 203a 313f aab8 2a58 fcb6 b101 4b3a
00000140: ba82 2439 a2b1 ab39 81b6 cd38 b816 2839
00000150: 27b5 2e39 8609 2939 9836 a239 968c 703a
00000160: a074 ee39 a5bd 223a 700a a839 e5c0 933a
00000170: baf7 383a a795 7239 82dc c839 ef5d 343a
00000180: 0055 f139 4a57 45ba bc14 a039 8555 e939
00000190: f1c6 463a febf 2f9f 3b8a a439 2a98 333a
000001a0: 9ecb 343a 8cb0 59ac 8938 ae38 e8e5 173a
000001b0: d676 1539 eb11 8639 a2f5 cb39 383a 5cb8
000001c0: 126c dc39 ca42 db38 3315 85ae 3086 8f38
000001d0: f90e 4e3a cb1d 063a 5a2b c039 80e8 003a
000001e0: 3f7a a7ae 4b60 a33a cf54 053a 2816 2c3a
000001f0: cd89 01af 2855 1a3a cca3 f8b7 5247 f439
00000200: 422b 6a33 7e54 023a b728 423a 9777 613a
00000210: 2ef2 ba39 1673 f839 a61a 0039 7082 4daf
00000220: 02c5 0d3a ddd4 4bb9 f215 f838 f013 a13a
00000230: 8894 623a 808a 94b9 59be 0339 e161 a639
00000240: ee37 d239 9c48 f639 ee2b cc39 7434 b1b8
00000250: 2971 2e3a 032b cc32 55cf 7d39 d0fa 093a
00000260: f981 853a eedc 3139 58dd 4738 fbde f739
00000270: de0b 153a e0c9 7e27 003b e6b5 e339 98af
00000280: 36da 283a ad4f 7639 8ac8 4c39 c241 c339
00000290: 9019 333a bac1 9039 2052 023a 080c d739
000002a0: e9b1 b039 9ae6 de39 4cd5 733a 5087 90b8
000002b0: e7fc fc39 5c34 f639 f8bd 2f39 80f9 093a
000002c0: 52db 2239 6f0a 9939 4e2c 103a 37b5 0639
000002d0: c129 0ab9 cfd4 a838 a57e c739 13f9 98aa
000002e0: e3db e039 21c3 c738 c0ff e138 ed83 a5b1
000002f0: 87a1 033a d8da 2239 496c 6739 2bb9 ee39
00000300: a098 2f39 56b5 943a fe5e 98b9 9888 5038
00000310: 6d2b 86b9 a4b1 3238 e494 e839 8552 da39
00000320: 950a 7339 f997 0f3a 12b3 c039 632c 7d3a
00000330: fa9f 8f39 1e33 bab8 1a5d 42b7 be8c 0c3a
00000340: bcbd b937 e0b3 9038 35a9 2f38 3002 16b7
00000350: 0ab8 3c38 fc8a 37b8 e537 1539 abf1 343a
00000360: 9376 be39 5f56 ed39 8fb4 2939 aebc 443a
00000370: 76fc fd39 793d 0739 bcc8 0d39 7aa0 dd39
00000380: a284 c039 8a06 81ba a960 e138 0431 b839
00000390: 743b 243a 8553 6a9f 7039 6739 4385 173a
000003a0: de29 0a3a d602 69ac 1556 92b8 ae68 ec39
000003b0: a877 0db7 599b 0939 8002 5d39 99f0 8db8
000003c0: 9a34 6039 fda0 cbb8 6b24 8bae 7a19 0cb8
000003d0: 90e4 043a d670 9939 927a 2a39 dcfb 5039
000003e0: cea1 acae 3036 703a fb61 9239 6f5b ee39
000003f0: cad3 3daf 822a a339 7d6d 28b8 564b e838
5.3422653e-08 0.00060840335 0.00091802265 0.0011644325 0.0005696878 0.0006696275 0.00021168197 1.5443125e-10
0.0008714089 5.162788e-05 0.0003574445 0.0013813738 0.0011577313 -0.00024891645 0.00023218883 0.00037848248
0.00059356046 0.00071407313 0.0005742806 0.00027877878 0.0008775926 4.372201e-08 0.00034206433 0.0007476009
0.0013455236 0.00026699025 0.00016716094 0.0007823764 0.00075653545 4.9951634e-14 0.00018541493 -2.6636518e-10
0.0008327688 0.00027973793 0.000347108 0.0006580583 0.0009535748 0.00040200655 0.0006334612 0.00059145846
0.0004266599 0.0006529036 0.0011988974 5.4609824e-05 0.0006598131 0.00077984843 0.00028372585 0.0008049191
0.00025505968 0.00041365504 0.0007256327 0.00024040799 5.9332204e-05 0.00026134867 0.0005298643 -2.4054443e-13
0.0009456695 0.00020261318 0.00017160339 -5.2649947e-09 0.0006839858 0.0002832795 0.00032603342 0.00061959395
0.00023274256 0.0015032972 0.00014536531 0.00032184285 -0.00023195813 0.00017511655 0.0006552151 0.00056676316
0.0003496164 0.00082669104 0.00047768943 0.001164156 0.00061061746 -8.118002e-05 -7.520449e-06 0.00077440875
0.00015688958 0.00032748008 9.809156e-05 0.00016030192 0.00016661418 0.00016120644 0.00030939723 0.00091762224
0.0004548179 0.0006208069 0.00032051234 0.0011272697 0.0007055957 0.00023134668 0.00038311264 0.0006880452
0.00046030432 -0.00075279607 0.00030533026 0.0004450494 0.0007582745 -3.7216504e-20 0.00031383507 0.00068509823
0.00068967964 -3.0935558e-12 8.307497e-05 0.00057944516 0.00014254017 0.00025571822 0.00038902188 -5.2506308e-05
0.0004204219 0.00010455174 -6.0519055e-11 6.843766e-05 0.00078605075 0.0005116134 0.00036653393 0.00049174577
-7.615996e-11 0.0012464611 0.0005086185 0.0006564581 -1.1781438e-10 0.0005887323 -2.9640178e-05 0.00046592444
5.4521713e-08 0.0004971697 0.00074065797 0.0008600889 0.00035657122 0.00047387992 0.00012216959 -1.8690982e-10
0.00054080796 -0.00019438886 0.00011829649 0.0012289267 0.00086433487 -0.0002833195 0.00012564044 0.00031734913
0.00040095992 0.00046974875 0.00038942642 -8.449788e-05 0.00066544354 2.3768285e-08 0.00024205197 0.0005263509
0.001018583 0.00016962338 4.765144e-05 0.00047277645 0.0005685667 3.5359018e-15 -1.7153507e-06 -2.768977e-10
0.00064412074 0.0002349007 0.00019529663 0.00037242292 0.0006832117 0.00027610158 0.0004971344 0.0004101696
0.0003370189 0.0004251495 0.0009301498 -6.891659e-05 0.00048253612 0.00046959787 0.0001676007 0.00052633137
0.00015531227 0.00029190208 0.0005499766 0.00012846744 -0.0001317626 8.050503e-05 0.00038050595 -2.7173454e-13
0.00042888438 9.525405e-05 0.00010776473 -4.8171303e-09 0.0005021323 0.0001553105 0.00022070216 0.00045532858
0.00016746158 0.0011345546 -0.00029062474 4.9718277e-05 -0.00025590826 4.2603948e-05 0.0004436142 0.00041641682
0.00023178228 0.0005477663 0.00036754512 0.0009657798 0.00027394277 -8.8786925e-05 -1.1584978e-05 0.00053615484
2.214207e-05 6.8999594e-05 4.1880838e-05 -8.941206e-06 4.4994093e-05 -4.376004e-05 0.0001423057 0.00069024664
0.0003632797 0.00045268514 0.00016184359 0.0007504922 0.00048444018 0.00012897504 0.00013521587 0.0004227197
0.00036719913 -0.0009843868 0.000107468404 0.00035131734 0.0006264963 -4.9620513e-20 0.00022051274 0.00057800504
0.0005270521 -3.3112866e-12 -6.9778565e-05 0.0004509142 -8.432115e-06 0.0001312321 0.00021077134 -6.768219e-05
0.000213819 -9.709781e-05 -6.327457e-11 -3.3402328e-05 0.0005069459 0.00029266503 0.00016258124 0.0001993025
-7.850397e-11 0.0009163348 0.0002792029 0.0004546302 -1.7264692e-10 0.00031121454 -4.015629e-05 0.000110766545

lstm.bias_hh_l0 f4 [512]
00000000: d572 6533 427d 1f3a 75a7 703a df9f 983a
00000010: 1a57 153a f189 2f3a f3f6 5d39 c8c2 292f
00000020: 436f 643a 048b 5838 6467 bb39 370f b53a
00000030: 04bf 973a ff80 82b9 b777 7339 0f6f c639
00000040: 2b99 1b3a a330 3b3a 528b 163a 0e29 9239
00000050: 3e0e 663a 82c8 3b33 1957 b339 a6fa 433a
00000060: 485c b03a d3fa 8b39 de47 2f39 6418 4d3a
00000070: 3c52 463a 4b91 6129 f16b 4239 916f 92af
00000080: 2b4e 5a3a caa9 9239 0cfc b539 8c81 2c3a
00000090: 52f9 793a 68c4 d239 dd0e 263a 1b0c 1b3a
000000a0: 53b1 df39 9e27 2b3a 5224 9d3a b20c 6538
000000b0: 4ff7 2c3a be6e 4c3a 0ec1 9439 3501 533a
000000c0: 88b9 8539 d7df d839 6338 3e3a 0716 7c39
000000d0: 78db 7838 a005 8939 97e6 0a3a 1b6a 87aa
000000e0: cee6 773a 9074 5439 6ff0 3339 fbdf b4b1
000000f0: 834d 333a 2285 9439 77ef aa39 3f6c 223a
00000100: 5b0c 7439 490a c53a 346d 1839 04bd a839
00000110: c939 73b9 7e9f 3739 bec2 2b3a d592 143a
00000120: c04c b739 4cb6 583a 6472 fa39 9896 983a
00000130: d811 203a 313f aab8 3658 fcb6 b101 4b3a
00000140: ba82 2439 a2b1 ab39 81b6 cd38 b816 2839
00000150: 27b5 2e39 8609 2939 9a36 a239 968c 703a
00000160: a074 ee39 a5bd 223a 700a a839 e5c0 933a
00000170: baf7 383a a795 7239 82dc c839 ef5d 343a
00000180: 0055 f139 4a57 45ba bc14 a039 8555 e939
00000190: f2c6 463a 8fbf 2f9f 3b8a a439 2a98 333a
000001a0: 9ecb 343a aaaf 59ac 8938 ae38 e8e5 173a
000001b0: d676 1539 eb11 8639 a2f5 cb39 383a 5cb8
000001c0: 126c dc39 ca42 db38 3315 85ae 3086 8f38
000001d0: f90e 4e3a cb1d 063a 5a2b c039 80e8 003a
000001e0: 3f7a a7ae 4b60 a33a cf54 053a 2816 2c3a
000001f0: bc89 01af 2855 1a3a cca3 f8b7 5247 f439
00000200: 422b 6a33 7e54 023a b728 423a 9777 613a
00000210: 2ef2 ba39 1673 f839 a71a 0039 9888 4daf
00000220: 02c5 0d3a ddd4 4bb9 ee15 f838 f013 a13a
00000230: 8894 623a 808a 94b9 59be 0339 e161 a639
00000240: ee37 d239 9c48 f639 ee2b cc39 7434 b1b8
00000250: 2971 2e3a 632d cc32 55cf 7d39 d0fa 093a
00000260: f981 853a eedc 3139 2cde 4738 fbde f739
00000270: de0b 153a c0b2 7e27 003b e6b5 e639 98af
00000280: 36da 283a ad4f 7639 8ac8 4c39 be41 c339
00000290: 9019 333a bac1 9039 2052 023a 080c d739
000002a0: e9b1 b039 9ae6 de39 4cd5 733a 4387 90b8
000002b0: e7fc fc39 5c34 f639 f8bd 2f39 80f9 093a
000002c0: 52db 2239 6f0a 9939 4e2c 103a 37b5 0639
000002d0: c129 0ab9 cfd4 a838 a57e c739 18f9 98aa
000002e0: e3db e039 21c3 c738 a5ff e138 a987 a5b1
000002f0: 87a1 033a d8da 2239 4c6c 6739 2bb9 ee39
00000300: a098 2f39 56b5 943a fe5e 98b9 a888 5038
00000310: 6d2b 86b9 a4b1 3238 e494 e839 8552 da39
00000320: 850a 7339 f997 0f3a 12b3 c039 632c 7d3a
00000330: fa9f 8f39 1e33 bab8 db5c 42b7 be8c 0c3a
00000340: bcbd b937 e0b3 9038 35a9 2f38 3002 16b7
00000350: 0ab8 3c38 fc8a 37b8 e537 1539 abf1 343a
00000360: 9376 be39 5f56 ed39 8fb4 2939 aebc 443a
00000370: 76fc fd39 793d 0739 bcc8 0d39 7aa0 dd39
00000380: a284 c039 8a06 81ba a960 e138 0431 b839
00000390: 743b 243a 8252 6a9f 7039 6739 4385 173a
000003a0: de29 0a3a da02 69ac 1556 92b8 ae68 ec39
000003b0: a877 0db7 599b 0939 8002 5d39 99f0 8db8
000003c0: 9a34 6039 fda0 cbb8 1d24 8bae 7a19 0cb8
000003d0: 90e4 043a db70 9939 8c7a 2a39 dcfb 5039
000003e0: cea1 acae 3036 703a fb61 9239 6f5b ee39
000003f0: c8d3 3daf 822a a339 7d6d 28b8 564b e838
5.3422657e-08 0.00060840335 0.00091802265 0.0011644325 0.0005696878 0.0006696275 0.00021168198 1.543966e-10
0.0008714089 5.162788e-05 0.0003574445 0.0013813738 0.0011577313 -0.00024891642 0.00023218883 0.00037848248
0.00059356046 0.00071407313 0.0005742806 0.00027877878 0.0008775926 4.372169e-08 0.00034206433 0.0007476009
0.0013455236 0.00026699025 0.00016716073 0.0007823764 0.00075653545 5.0086058e-14 0.00018541493 -2.6636518e-10
0.0008327688 0.00027973793 0.000347108 0.0006580583 0.0009535748 0.00040200655 0.0006334612 0.00059145846
0.0004266599 0.0006529036 0.0011988974 5.4609678e-05 0.0006598131 0.00077984843 0.00028372597 0.0008049191
0.00025505968 0.00041365504 0.0007256327 0.00024040799 5.9332204e-05 0.00026134867 0.0005298643 -2.4054443e-13
0.0009456695 0.00020261318 0.00017160339 -5.264153e-09 0.0006839858 0.0002832795 0.00032603342 0.00061959395
0.00023274256 0.0015032972 0.00014536531 0.00032184285 -0.00023195813 0.00017511655 0.0006552151 0.00056676316
0.00034961663 0.00082669104 0.00047768943 0.001164156 0.00061061746 -8.118002e-05 -7.5204543e-06 0.00077440875
0.00015688958 0.00032748008 9.809156e-05 0.00016030192 0.00016661418 0.00016120644 0.0003093973 0.00091762224
0.0004548179 0.0006208069 0.00032051234 0.0011272697 0.0007055957 0.00023134668 0.00038311264 0.0006880452
0.00046030432 -0.00075279607 0.00030533026 0.0004450494 0.0007582746 -3.7216145e-20 0.00031383507 0.00068509823
0.00068967964 -3.0935068e-12 8.307497e-05 0.00057944516 0.00014254017 0.00025571822 0.00038902188 -5.2506308e-05
0.0004204219 0.00010455174 -6.0519055e-11 6.843766e-05 0.00078605075 0.0005116134 0.00036653393 0.00049174577
-7.615996e-11 0.0012464611 0.0005086185 0.0006564581 -1.1781415e-10 0.0005887323 -2.9640178e-05 0.00046592444
5.4521713e-08 0.0004971697 0.00074065797 0.0008600889 0.00035657122 0.00047387992 0.0001221696 -1.8693169e-10
0.00054080796 -0.00019438886 0.00011829646 0.0012289267 0.00086433487 -0.0002833195 0.00012564044 0.00031734913
0.00040095992 0.00046974875 0.00038942642 -8.449788e-05 0.00066544354 2.3769365e-08 0.00024205197 0.0005263509
0.001018583 0.00016962338 4.765221e-05 0.00047277645 0.0005685667 3.5346482e-15 -1.7153507e-06 -2.7689778e-10
0.00064412074 0.0002349007 0.00019529663 0.0003724228 0.0006832117 0.00027610158 0.0004971344 0.0004101696
0.0003370189 0.0004251495 0.0009301498 -6.8916495e-05 0.00048253612 0.00046959787 0.0001676007 0.00052633137
0.00015531227 0.00029190208 0.0005499766 0.00012846744 -0.0001317626 8.050503e-05 0.00038050595 -2.7173467e-13
0.00042888438 9.525405e-05 0.000107764536 -4.817555e-09 0.0005021323 0.0001553105 0.0002207022 0.00045532858
0.00016746158 0.0011345546 -0.00029062474 4.9718336e-05 -0.00025590826 4.2603948e-05 0.0004436142 0.00041641682
0.00023178205 0.0005477663 0.00036754512 0.0009657798 0.00027394277 -8.8786925e-05 -1.1584921e-05 0.00053615484
2.214207e-05 6.8999594e-05 4.1880838e-05 -8.941206e-06 4.4994093e-05 -4.376004e-05 0.0001423057 0.00069024664
0.0003632797 0.00045268514 0.00016184359 0.0007504922 0.00048444018 0.00012897504 0.00013521587 0.0004227197
0.00036719913 -0.0009843868 0.000107468404 0.00035131734 0.0006264963 -4.9619676e-20 0.00022051274 0.00057800504
0.0005270521 -3.3112874e-12 -6.9778565e-05 0.0004509142 -8.432115e-06 0.0001312321 0.00021077134 -6.768219e-05
0.000213819 -9.709781e-05 -6.327403e-11 -3.3402328e-05 0.0005069459 0.00029266518 0.00016258116 0.0001993025
-7.850397e-11 0.0009163348 0.0002792029 0.0004546302 -1.726469e-10 0.00031121454 -4.015629e-05 0.000110766545

lstm.weight_ih_l1 f4 [512, 128]
00000000: ce38 bd94 f8a3 c319 81d0 c899 68a7 6619
00000010: a3d1 ca18 11a9 989a 3065 2d19 b0ee 3a96
00000020: 4054 fe97 d42c 039b 4ce5 b49a 7e16 b699
00000030: b676 121a dac5 9219 a1cd e919 c0bc 1397
00000040: dc40 9b99 c879 5f9a 8429 8119 1e12 7a1a
00000050: 4c27 101a f414 1095 6b75 9b19 2ab6 af1a
00000060: d642 3c9b 70cf 5198 ecc4 1e98 c8ec 0d9a
00000070: b8e9 061b 6a3d 4994 6795 b11a bfec 0613
00000080: e146 029a 64bb 9d9a 99de 9e9a cc73 3719
00000090: 58c4 b719 596d 1f1b b413 fd9a 88ea 311a
000000a0: 3964 bc19 41a2 079b 70b9 a51a d270 ca1a
000000b0: 7aac 779a 8861 9f9a aa55 1f98 88a6 1b9a
000000c0: 04e5 e299 4806 719a e848 1519 bc27 5819
000000d0: 548d da19 0a91 ee1a ac12 c819 3cfa b50f
000000e0: a8a1 319a 11ad b61a 0ba8 dc1a c884 1f18
000000f0: 6e55 a019 1152 249b 6e24 809a 88f6 7a98
00000100: df12 c21a dbcb b299 c4f1 3699 38ce 899a
00000110: 5c0a 241a 6d80 a619 325a 449b 0341 e79a
00000120: 865a fb19 44ae 231b 9024 0d97 722d 2219
00000130: a236 671a 1c33 0a19 6deb 6e99 0872 1f1b
00000140: fc39 a019 c0ee fd98 50ad 1f19 8b16 681a
00000150: b85e 199a 02f1 1d1b 183b fa19 cc49 d219
00000160: d8a9 2118 0403 a49a b0aa 419a fe4a 329a
00000170: 3b16 c999 84b1 e719 30c3 7299 7c8a 081a
00000180: 8c12 db1a 98b3 9699 3c9a f519 58c1 0a1b
00000190: 622d 531b 3224 db8e f886 4099 2ae1 131a
000001a0: a646 9d99 f037 fe92 052e 1799 9c88 ea98
000001b0: 93b6 8e9a a0b0 6d17 eed9 8719 d634 9619
000001c0: df15 4a1a 2494 fd19 100d 5815 26b4 bc99
000001d0: 4000 a119 6dcd 429a 68b7 b418 c46e 049a
000001e0: 20f1 e992 bbfa 419a fa54 8d1a 4447 099a
000001f0: 9526 ba95 1027 479a 32ab 2519 88d3 b019
00000200: 1ed2 1983 8a4e 8003 6c45 fe02 d8b6 7a02
00000210: 2b39 6e83 4038 7e82 72d7 2703 92f0 4a83
00000220: 0cc1 9b02 2e79 1f03 d02d 9202 3474 1a03
00000230: e05a fe00 a6e1 2603 8865 ae81 8854 1882
00000240: 4976 5283 58a9 8583 e848 6d83 57ee 1e83
00000250: 6ee4 7783 6478 2a03 30c0 3203 58c6 cc81
00000260: c87e 0103 f6d0 ed82 f04f a581 d2bf 3d83
00000270: 415c 2d03 c092 f600 fcb5 1602 7ea2 5783
00000280: d42b 4482 6057 7701 b489 bd02 292e 4c83
00000290: 422e 8003 e0b3 d380 0c5e 6082 6c9b a282
000002a0: 7617 1d03 fcf2 2c83 64cf 5983 6046 c202
000002b0: 0c49 4783 9495 9482 ac8a fc02 4e3e 5703
000002c0: a0cc 0901 6824 be01 de33 6203 808b 8601
000002d0: ef24 3c83 10ee 5c02 bc2a 7183 8390 5303
000002e0: f628 4a03 601f 4000 7491 2682 1c38 4703
000002f0: f00b 1302 f44d f402 0c9f f202 4e47 9902
00000300: 757b 1383 3e3f e002 f1ed a582 f419 5a02
00000310: 6a2d 9782 0094 3083 6009 6181 1161 d282
00000320: 4ebc 9b82 52b4 a802 5075 7502 5a38 df02
00000330: 5e0e 2503 a067 0c81 74fe 3483 5c51 9903
00000340: 8661 2603 94d7 3103 4fc1 cf02 ed28 5603
00000350: e5c5 2302 8386 1d83 06cf 4a03 ef40 6e03
00000360: 7fbb 2f03 cb90 2183 68fa 0f82 fa72 fc82
00000370: 1497 6c02 344c c002 2b07 0c83 bed4 4083
00000380: 7a3d 0503 365f b002 cc91 5a03 7810 9701
00000390: 70f4 8783 33cd e902 96a6 9782 0321 ff82
000003a0: ac22 0002 1c8d 0882 8022 1d83 398e 5103
000003b0: 56d0 e502 e0da 1600 da3c 0883 57a3 3d83
000003c0: 9ed1 9902 20bf f881 2838 a982 472e 8682
000003d0: 1e1b e082 be9d 8a03 04ae 6282 d857 3603
000003e0: 6247 7603 54ec d182 b5d8 2183 e48a 1802
000003f0: 6da2 1f03 080f 7183 58df 4402 3379 f402
-1.9106529e-26 2.0228754e-23 -2.076373e-23 1.1924529e-23 5.2427455e-24 -6.313887e-23 8.964325e-24 -1.5100277e-25
-1.6435633e-24 -1.0850551e-22 -7.4816704e-23 -1.8827443e-23 3.0287986e-23 1.5175958e-23 2.4174688e-23 -4.77365e-25
-1.6052821e-23 -4.6213693e-23 1.3355055e-23 5.1713423e-23 2.9810246e-23 -2.9097098e-26 1.6074049e-23 7.2672606e-23
-1.5572591e-22 -2.7117346e-24 -2.0520442e-24 -2.9349387e-23 1.1159739e-22 -1.01600185e-26 7.3446857e-23 1.7029903e-27
-2.6940625e-23 -6.5236424e-23 -6.5706894e-23 9.484263e-24 1.9001059e-23 1.3187504e-22 -1.0467018e-22 3.6792195e-23
1.9479224e-23 -1.1219365e-22 6.854199e-23 8.372751e-23 -5.1217728e-23 -6.591843e-23 -2.0593518e-24 -3.2187772e-23
-2.3460351e-23 -4.9842706e-23 7.717843e-24 1.11749626e-23 2.2597754e-23 9.8668816e-23 2.0687057e-23 1.7944365e-29
-3.6733327e-23 7.555304e-23 9.1261355e-23 2.0617306e-24 1.6578117e-23 -1.3592279e-22 -5.2998415e-23 -3.243621e-24
8.026701e-23 -1.8487105e-23 -9.458004e-24 -5.6995036e-23 3.3922773e-23 1.7215868e-23 -1.6241884e-22 -9.564439e-23
2.5989354e-23 1.3539352e-22 -4.5605706e-25 8.384381e-24 4.7813812e-23 7.144754e-24 -1.23518555e-23 1.3189017e-22
1.6567032e-23 -6.5640043e-24 8.2551075e-24 4.7994686e-23 -3.1716172e-23 1.306461e-22 2.5873262e-23 2.1743297e-23
2.0894511e-24 -6.783368e-23 -4.0049345e-23 -3.6870115e-23 -2.0791892e-23 2.3956538e-23 -1.25505246e-23 2.8236008e-23
9.060624e-23 -1.5582174e-23 2.5394701e-23 1.1477565e-22 1.7468175e-22 -5.4022523e-30 -9.953424e-24 3.0580774e-23
-1.6261954e-23 -1.6043443e-27 -7.8158106e-24 -6.0625523e-24 -5.902479e-23 7.680176e-25 1.4046694e-23 1.5530977e-23
4.1790288e-23 2.621942e-23 4.3631157e-26 -1.9511506e-23 1.6647111e-23 -4.02842e-23 4.6714102e-24 -2.7386436e-23
-1.4763809e-27 -4.0114003e-23 5.845352e-23 -2.8388504e-23 -7.5185673e-26 -4.118379e-23 8.564873e-24 1.828341e-23
-4.520386e-37 7.5411955e-37 3.7361792e-37 1.8419573e-37 -7.000754e-37 -1.8677116e-37 4.932421e-37 -5.9638626e-37
2.2886007e-37 4.686501e-37 2.1479067e-37 4.5389927e-37 2.3358816e-38 4.9042047e-37 -6.4063196e-38 -1.1191456e-37
-6.184924e-37 -7.855917e-37 -6.9731733e-37 -4.6705628e-37 -7.2849e-37 5.009671e-37 5.253012e-37 -7.5222374e-38
3.805523e-37 -3.4943958e-37 -6.072613e-38 -5.5762307e-37 5.0946033e-37 2.2644176e-38 1.1072486e-37 -6.3369353e-37
-1.4412384e-37 4.5429424e-38 2.7850092e-37 -6.00032e-37 7.533784e-37 -1.9441817e-38 -1.6483911e-37 -2.3892968e-37
4.6165085e-37 -5.082519e-37 -6.400864e-37 2.8546131e-37 -5.8564698e-37 -2.18325e-37 3.7107666e-37 6.3254344e-37
2.5309737e-38 6.984722e-38 6.647497e-37 4.9424e-38 -5.529063e-37 1.6231368e-37 -7.087259e-37 6.217322e-37
5.9409486e-37 5.888727e-39 -1.2237497e-37 5.8545254e-37 1.080328e-37 3.589732e-37 3.5649993e-37 2.2522256e-37
-4.334114e-37 3.295014e-37 -2.4381143e-37 1.6023559e-37 -2.2213522e-37 -5.1891647e-37 -4.13327e-38 -3.091244e-37
-2.2883285e-37 2.478888e-37 1.8033424e-37 3.279925e-37 4.8505635e-37 -2.5788286e-38 -5.3189344e-37 9.011211e-37
4.8894967e-37 5.2263097e-37 3.052687e-37 6.293593e-37 1.2032142e-37 -4.6292565e-37 5.9600116e-37 7.0016454e-37
5.1643113e-37 -4.747986e-37 -1.0577844e-37 -3.7094065e-37 1.7381899e-37 2.8255603e-37 -4.115053e-37 -5.6667945e-37
3.915576e-37 2.5915524e-37 6.423181e-37 5.549227e-38 -7.990707e-37 3.4354052e-37 -2.2283072e-37 -3.748783e-37
9.413905e-38 -1.0032198e-37 -4.6177757e-37 6.1582843e-37 3.3768105e-37 2.098898e-39 -4.003666e-37 -5.5729613e-37
2.2601644e-37 -9.1375063e-38 -2.486455e-37 -1.9716092e-37 -3.2929406e-37 8.147127e-37 -1.6653798e-37 5.3585833e-37
7.2374846e-37 -3.0845436e-37 -4.7562415e-37 1.1207056e-37 4.6912356e-37 -7.084079e-37 1.4463902e-37 3.5922143e-37

lstm.weight_hh_l1 f4 [512, 128]
00000000: 525e 800e 17b7 8c83 500d 4d03 d846 1f03
00000010: b0e8 5902 3bea 2d05 baeb 0683 dc69 a493
00000020: 2476 ee82 32f9 3383 7a19 0c1a 4685 6e1a
00000030: 9c3e 2483 60a6 5a01 4dfb 1683 7136 5283
00000040: e68f 6083 0896 6b03 7007 d910 4ddd 3213
00000050: de2f 7f83 2cbf 1582 1e48 e513 581f 2513
00000060: 26b3 0903 0989 4083 c054 1282 2d68 a105
00000070: e13a 1403 f910 2e83 b826 d502 7df1 0283
00000080: 0044 af02 c241 8a03 e2c6 ca10 41f1 f602
00000090: 3c88 bb82 e0a6 7083 1626 ba10 c401 2703
000000a0: ac3f 4502 3465 2683 497f 9f02 e64a 5611
000000b0: 8232 9382 242d 5c84 c8e3 3e03 2902 5a83
000000c0: 485b dd02 213c 0a83 c2b9 fd02 2a11 2d03
000000d0: c227 c102 6c37 1284 6888 6802 b646 3503
000000e0: 4ef0 cd82 c080 6000 38ea ad01 27c1 4683
000000f0: c064 5a83 70ef 9001 6cee 481a 8e08 3808
00000100: fcb3 f982 2ade 419a 27c1 9c0e 3dde bd99
00000110: a52b 9804 1cd3 be82 a8de 4683 bce0 a902
00000120: ea82 1406 1869 8602 382a 7402 8476 6083
00000130: 12eb 2892 04a4 0802 00f6 f590 0c27 0513
00000140: 147b 8884 be72 2c92 0aab 7f93 840b 5203
00000150: dc5d ba0a 2250 0383 0de8 1803 7dd4 3a83
00000160: 7615 2103 80ec a60d 7042 bd86 2422 821a
00000170: 187c 2590 bac7 5b03 52ee 9a92 cc67 c089
00000180: c0ef ac0c 6c7c 6a83 5812 a602 88d8 f113
00000190: a2ae 4982 597d 4486 b0dc 0505 de21 9798
000001a0: c6a3 0685 c01e f001 d4e0 1803 1846 5d03
000001b0: 6017 1e87 c9d5 2883 854d 8583 c037 940d
000001c0: 864f 9b03 f566 b988 58e4 c682 eac2 af12
000001d0: 281d 6c02 7271 3f03 f8dd 2902 8c50 b519
000001e0: 5415 0482 1c3b 0393 d144 8103 e003 4804
000001f0: 4e17 9382 09ce 1b83 fa17 ff02 cc63 ce19
00000200: 662e 8103 406e 3183 3055 5081 f2ba 1e83
00000210: 3e5b 1503 2ac9 0983 7c11 7f03 d82b 9e03
00000220: a011 3a82 6add 6883 f848 0f83 fa02 b782
00000230: e8ac 0082 89e6 1383 3e4f 0182 f904 0d83
00000240: abe8 a183 51a4 4a03 4045 8a80 dc12 6803
00000250: f6e0 0c83 e85d b201 369f 4c83 3322 8703
00000260: 47e4 4d03 460a 0783 4a5b 6383 8a74 0f83
00000270: 2391 a682 9679 8782 88c9 e002 534a 2003
00000280: 18db 4583 28b8 0b03 7799 8a83 6cd6 9483
00000290: 355e 8a02 b412 5682 f58b a003 21fd 1a03
000002a0: e07d d580 e442 f982 e371 b302 d0ad 5681
000002b0: 1ab2 5683 80c2 0403 a6a8 7a83 4250 8003
000002c0: 9b4e 9b83 2081 2200 3cc2 5083 b590 ad03
000002d0: 9080 8c02 9c83 c402 b805 4a03 b28b 7903
000002e0: 26d0 ed02 0a50 3e83 bf17 5483 b676 cb03
000002f0: 9fd3 2f83 f4b8 5403 626d 2883 8c07 5303
00000300: d2d9 3203 8116 6183 2c19 ab82 0a7f 0983
00000310: ee3a 0883 9ba7 5683 1297 0c03 d5ce ee82
00000320: 2eda 8d83 d111 2583 3c4d 5502 10da 4203
00000330: 756f 3883 3898 ce82 ae5a 2203 d01a 5603
00000340: 6816 1603 2bec 5303 b049 1e01 66ab 6882
00000350: 90e5 e001 0239 ab82 6f00 7283 23ed 3e83
00000360: 1682 2683 0f72 3f83 3800 b402 c4c7 d882
00000370: d7cb 7883 e617 9903 a180 6c83 5e8d 8703
00000380: a2ed 2883 acd5 9e01 f43d 8882 3b55 5883
00000390: 188f 4b83 ae39 ba03 c0bf fe80 a597 6c83
000003a0: ce83 0583 fae4 2003 589e 0902 7005 f381
000003b0: 8690 0583 8c99 6402 6ac8 3483 b45c b581
000003c0: 5b94 4903 f068 a981 8a26 9602 0a74 3d03
000003d0: a698 4503 4e78 b202 dabf 9c02 36c9 1e03
000003e0: f829 8a01 9a6d 8583 f877 ab01 86cd 9703
000003f0: 1bbc 0983 a010 d081 a421 1684 cc3c 5683
3.1645263e-30 -8.270496e-37 6.0259367e-37 4.6807225e-37 1.600942e-37 8.177442e-36 -3.964966e-37 -4.1503806e-27
-3.5038766e-37 -5.2889434e-37 2.89719e-23 4.9324904e-23 -4.826714e-37 4.0159645e-38 -4.4369517e-37 -6.177595e-37
-6.599287e-37 6.923252e-37 8.560287e-29 2.2575868e-27 -7.4992714e-37 -1.1001655e-37 5.787884e-27 2.0841382e-27
4.0466334e-37 -5.6581037e-37 -1.0750708e-37 1.5178635e-35 4.356088e-37 -5.115349e-37 3.131976e-37 -3.848078e-37
2.575297e-37 8.126008e-37 7.998138e-29 3.6284924e-37 -2.7555375e-37 -7.0721224e-37 7.3422745e-29 4.9078916e-37
1.4491547e-37 -4.889919e-37 2.3436008e-37 1.6904703e-28 -2.1628699e-37 -2.5881603e-36 5.609746e-37 -6.406692e-37
3.2525424e-37 -4.062358e-37 3.7281629e-37 5.0859834e-37 2.838162e-37 -1.7187666e-36 1.7083815e-37 5.327229e-37
-3.025997e-37 8.862394e-39 6.388625e-38 -5.84087e-37 -6.4180097e-37 5.324082e-38 4.1551626e-23 5.538054e-34
-3.6690568e-37 -4.0090927e-23 3.8642968e-30 -1.9631903e-23 3.577511e-36 -2.8039162e-37 -5.8442567e-37 2.496131e-37
2.7931887e-35 1.9749851e-37 1.7938405e-37 -6.5963733e-37 -5.33012e-28 1.0038772e-37 -9.7014484e-29 1.6806212e-27
-3.2086476e-36 -5.441506e-28 -3.2269854e-27 6.1726673e-37 1.7946454e-32 -3.858943e-37 4.4935167e-37 -5.490441e-37
4.7338284e-37 1.0287475e-30 -7.119152e-35 5.38219e-23 -3.263611e-29 6.458759e-37 -9.777517e-28 -4.631993e-33
2.664509e-31 -6.890925e-37 2.4402037e-37 6.105047e-27 -1.4817265e-37 -3.6955594e-35 6.294164e-36 -3.9066782e-24
-6.33073e-36 8.82062e-38 4.4926875e-37 6.5026527e-37 -1.1893468e-34 -4.9616176e-37 -7.834835e-37 9.134626e-31
9.128339e-37 -1.1158488e-33 -2.9224548e-37 1.1092103e-27 1.7346909e-37 5.6260084e-37 1.2479861e-37 1.8747494e-23
-9.703949e-38 -1.6563668e-27 7.597738e-37 2.3511666e-36 -2.1613085e-37 -4.5786923e-37 3.7482644e-37 2.1340208e-23
7.592591e-37 -5.2142186e-37 -3.8264685e-38 -4.664663e-37 4.3891905e-37 -4.0491607e-37 7.4957836e-37 9.296471e-37
-1.367018e-37 -6.8432843e-37 -4.2107687e-37 -2.6891142e-37 -9.453576e-38 -4.346406e-37 -9.500165e-38 -4.1441884e-37
-9.5161475e-37 5.955109e-37 -1.269814e-38 6.820032e-37 -4.1400545e-37 6.552162e-38 -6.0132977e-37 7.942439e-37
6.0506135e-37 -3.9684728e-37 -6.68141e-37 -4.2157703e-37 -2.4474812e-37 -1.9906254e-37 3.3029515e-37 4.7105094e-37
-5.8144604e-37 4.105983e-37 -8.146145e-37 -8.747887e-37 2.033135e-37 -1.5727604e-37 9.436087e-37 4.554711e-37
-1.9606116e-38 -3.6625655e-37 2.6367054e-37 -3.9430297e-38 -6.30934e-37 3.901459e-37 -7.3661996e-37 7.54159e-37
-9.128128e-37 3.168728e-39 -6.1348676e-37 1.0201249e-36 2.0644942e-37 2.8875152e-37 5.936903e-37 7.3334886e-37
3.4943491e-37 -5.592786e-37 -6.232846e-37 1.1958522e-36 -5.1670807e-37 6.2513516e-37 -4.949633e-37 6.201599e-37
5.2559544e-37 -6.614739e-37 -2.514064e-37 -4.0406515e-37 -4.0034456e-37 -6.308135e-37 4.1315722e-37 -3.5089673e-37
-8.337327e-37 -4.8509594e-37 1.5670934e-37 5.72618e-37 -5.4200687e-37 -3.0356349e-37 4.7711616e-37 6.2919727e-37
4.410676e-37 6.2278435e-37 2.9072885e-38 -1.7093857e-37 8.261401e-38 -2.5158913e-37 -7.1117906e-37 -5.61082e-37
-4.8932347e-37 -5.626079e-37 2.6448748e-37 -3.1853007e-37 -7.3114646e-37 8.998019e-37 -6.9501825e-37 7.967043e-37
-4.964355e-37 5.834664e-38 -2.0018963e-37 -6.3574535e-37 -5.98206e-37 1.094534e-36 -2.3395003e-38 -6.9528246e-37
-3.923649e-37 4.7282626e-37 1.0110613e-37 -8.9271905e-38 -3.925109e-37 1.679486e-37 -5.312731e-37 -6.662192e-38
5.9238895e-37 -6.2231373e-38 2.206264e-37 5.5675314e-37 5.806833e-37 2.62238e-37 2.3032257e-37 4.6663006e-37
5.0753416e-38 -7.842201e-37 6.2987626e-38 8.922168e-37 -4.0476616e-37 -7.643099e-38 -1.7647862e-36 -6.295874e-37

lstm.bias_ih_l1 f4 [512]
00000000: 306d 1b1b d0e0 c602 44bc 0602 401e 7301
00000010: d2df 9402 8aab 028b 90fd 3883 ac83 ed26
00000020: 538c 4f83 8f30 8d83 2f9e 923b 9fca 363c
00000030: 4981 7103 f660 8383 d31d 0e83 92bb 9783
00000040: 5cbf 2782 f49e 0903 14f1 4f24 3665 dda8
00000050: a82e 1783 cc3f ce82 1c0a 81a9 cac0 76aa
00000060: 607c 0683 ee79 7a03 7ead 6a03 3697 a78c
00000070: eb49 4003 f6e3 1503 4c81 2982 5019 6a82
00000080: a16c 4f83 520a 0a82 973b 3925 399f 9c03
00000090: 68cb 2d82 b0c0 d482 ee1a 1523 b012 5b81
000000a0: e494 8b83 db2a 5583 5ea8 c510 1849 0b23
000000b0: 5e5c ef04 0094 fe82 926a 8283 f8a4 2a83
000000c0: dae1 8903 b4ca 2802 b57b 8083 e021 bc02
000000d0: da53 0383 400c 8481 75c2 2903 0cd9 3b83
000000e0: 92aa c903 12fa 1103 7648 0503 4209 5a03
000000f0: 2025 e101 88bb 7603 4bac 823b e141 fc0f
00000100: 4331 f602 95c2 853b c197 3ea0 b567 983b
00000110: 5eea 9a14 6826 0b02 92c8 5103 930f 2083
00000120: 8d5c e40b 3789 c703 88b7 3b02 72f4 cb02
00000130: 95bf 92a5 cc56 8a05 2210 8223 c05c 05a6
00000140: a0a2 6781 9d6a 8728 f9df 232a a807 2c82
00000150: e05b 5c13 234c 0b85 3a84 f902 d468 5c03
00000160: 670d 8283 ed12 b221 409f 160d 7a7d 313c
00000170: f170 e1a5 c88d 2c03 266b 41a4 ead3 6914
00000180: 20f6 891b 681c f581 36ef 0183 1605 ca2d
00000190: ecec 5885 00f0 790a 2006 778c 5ac5 0a36
000001a0: 48a0 918c 2073 3f81 0038 5d80 d0eb b001
000001b0: 646d 8e8e 303c 7c01 0027 1d86 0a66 dc20
000001c0: c266 8702 127c 2612 802b 9e80 4c79 ad25
000001d0: 7888 2803 36da 6183 d871 5102 d525 313a
000001e0: 06ea d202 0067 9227 4d4a b988 6410 968c
000001f0: 38c0 db05 ca26 cc02 4214 3183 1f05 1a3c
00000200: 72c7 031d e919 5383 1634 7d83 f4c0 1a03
00000210: e8a5 4483 2e6a 290b eaee 2603 a035 0b27
00000220: 2bb4 1483 72e0 9603 dc11 743b 1a8c fb3b
00000230: 8488 3883 5210 3003 f0c5 ae02 1e99 7103
00000240: fe02 3783 a76f 2103 79e7 b224 004b 19a6
00000250: 76ca 1483 1c2e 1883 c6b1 f5a8 e081 5aaa
00000260: 6cbf 2c83 3ef1 8182 b942 c982 38ba 3a8c
00000270: b429 5703 adbc 7003 fec1 4503 083a 0082
00000280: 208e 9a01 3104 3103 20bb 0aa5 7cdf fc02
00000290: 000b a482 909f ea02 fdbf 3123 472a 1e83
000002a0: 202d 8580 3b7e 9f02 4c8d a810 2e6e 0624
000002b0: 247e a804 0950 3283 deb9 b902 e682 3282
000002c0: 8088 0c00 2bad 6a03 40b6 5c80 a06a 7802
000002d0: a614 ba02 5458 6302 0868 5482 1c56 7283
000002e0: 9c8a ed82 3a3f 0403 1060 0d03 e079 db02
000002f0: feb0 2203 fbaa 8503 6902 5c3b 707a 7410
00000300: f0f4 2703 a6b8 603b 9f12 d31f 83a1 7c3b
00000310: f0d9 0192 36c9 5d03 7e9c db02 6056 ba02
00000320: a98a 6e8c 9af4 8d03 9e21 3f03 b663 4583
00000330: af67 5726 505d a985 cd46 9623 db2b f2a6
00000340: 68d6 8f01 5a17 4f28 2da5 1a2a 2079 6001
00000350: 2cbf c914 8cb2 b004 3369 4803 f8ab 3b03
00000360: cc57 3f02 fa07 a521 008b 690c 9fdb f63b
00000370: 1ed6 0726 707b c982 53eb bea4 c07a a513
00000380: 389e b81a 4225 ee82 67ea 1703 d384 b82d
00000390: de51 4906 8541 f70c 1cee 198d b586 fc35
000003a0: a03b 050a 1611 f983 674c 3e83 4643 2383
000003b0: f1ed 5e0f 7ac8 0583 5036 a905 449e 2721
000003c0: 6eb7 2e03 a2d9 5612 b879 9a01 6c1d f325
000003d0: 82e1 ae02 b087 5583 ae8d 2083 f11c 1f3a
000003e0: 068f 3b83 9402 eaa7 620e 2d89 006a 1208
000003f0: 106a d105 b4c1 5203 ac0b ba83 040f e03b
1.285658e-22 2.9222521e-37 9.898795e-38 4.4653754e-38 2.1875112e-37 -2.516614e-32 -5.4363816e-37 1.6480868e-15
-6.0992917e-37 -8.298384e-37 0.0044744234 0.011156707 7.0971947e-37 -7.721749e-37 -4.1764286e-37 -8.918046e-37
-1.232414e-37 4.044315e-37 4.509017e-17 -2.4579822e-14 -4.442847e-37 -3.0305597e-37 -5.7305045e-14 -2.1916076e-13
-3.9521836e-37 7.3608365e-37 6.896558e-37 -2.582143e-31 5.6508583e-37 4.404885e-37 -1.2453265e-37 -1.7198869e-37
-6.0956533e-37 -1.01416e-37 1.6066382e-16 9.205412e-37 -1.2768407e-37 -3.1261197e-37 8.083009e-18 -4.0237355e-38
-8.203869e-37 -6.264427e-37 7.796221e-29 7.550683e-18 5.6273456e-36 -3.7406893e-37 -7.665181e-37 -5.0147885e-37
8.103989e-37 1.2400864e-37 -7.551566e-37 2.764356e-37 -3.8593697e-37 -4.850672e-38 4.988786e-37 -5.520352e-37
1.1852879e-36 4.2898737e-37 3.916837e-37 6.407507e-37 8.270522e-38 7.250818e-37 0.003987824 2.4874494e-29
3.6174726e-37 0.004082034 -1.6143837e-19 0.0046510347 1.5642468e-26 1.0223129e-37 6.1649823e-37 -4.7037652e-37
8.796166e-32 1.1727672e-36 1.3791261e-37 2.9968474e-37 -2.5456784e-16 1.3009342e-35 1.410146e-17 -4.6269344e-16
-4.2544677e-38 1.5034247e-14 1.4555014e-13 -1.2638762e-37 2.7813202e-27 -6.549733e-36 3.6663156e-37 6.4772526e-37
-7.64379e-37 1.2066759e-18 4.641401e-31 0.010833139 -3.910781e-16 5.0709014e-37 -4.1940962e-17 1.18052865e-26
2.2823803e-22 -9.003955e-38 -3.8184294e-37 2.2967e-11 -1.0199787e-35 1.2034053e-32 -1.9030031e-31 2.0678476e-06
-2.2437253e-31 -3.5163758e-38 -8.56079e-39 6.4990564e-38 -3.5111042e-30 4.6328272e-38 -2.955707e-35 3.7336973e-19
1.9895447e-37 5.2533293e-28 -1.4525613e-38 3.009291e-16 4.952742e-37 -6.637205e-37 1.5387567e-37 0.00067576516
3.099105e-37 4.0634813e-15 -1.11517505e-33 -2.3121024e-31 2.0665271e-35 2.999737e-37 -5.203888e-37 0.009400635
1.7440816e-21 -6.203707e-37 -7.440981e-37 4.547803e-37 -5.7789674e-37 3.2628097e-32 4.9057275e-37 1.9319195e-15
-4.3700114e-37 8.867738e-37 0.003724209 0.0076766135 -5.4229452e-37 5.1740486e-37 2.5680613e-37 7.0999305e-37
-5.37823e-37 4.744182e-37 7.7587325e-17 -5.318418e-16 -4.3725705e-37 -4.4721716e-37 -2.7277561e-14 -1.9407349e-13
-5.0766e-37 -1.9093313e-37 -2.9572592e-37 -1.4384957e-31 6.3230694e-37 7.074625e-37 5.811579e-37 -9.420609e-38
5.6774605e-38 5.2020437e-37 -1.2032992e-16 3.7156346e-37 -2.4103948e-37 3.4474794e-37 9.635844e-18 -4.648056e-37
-1.2230309e-38 2.3435403e-37 6.648202e-29 2.9149944e-17 3.9612452e-36 -5.2401374e-37 2.728999e-37 -1.3114941e-37
1.150993e-39 6.8965207e-37 -8.514245e-39 1.8250762e-37 2.7342095e-37 1.6702675e-37 -1.5605156e-37 -7.1216257e-37
-3.4903578e-37 3.8863894e-37 4.154645e-37 3.224911e-37 4.78107e-37 7.856293e-37 0.0033570773 4.8214838e-29
4.9358064e-37 0.0034289747 8.939278e-20 0.0038548417 -4.097385e-28 6.517704e-37 3.226898e-37 2.737982e-37
-1.837658e-31 8.343393e-37 5.6168446e-37 -5.800756e-37 7.4733627e-16 -1.5926961e-35 1.6293018e-17 -1.680401e-15
5.283756e-38 1.1495872e-14 1.3735255e-13 4.1229205e-38 2.0371217e-26 4.154137e-36 5.889548e-37 5.515177e-37
1.405766e-37 1.1182946e-18 1.7991496e-31 0.007533505 4.7127717e-16 -2.9605145e-37 -8.279802e-17 4.1772897e-27
7.635623e-23 -3.4992342e-37 4.4643992e-37 2.0977364e-11 3.7864045e-35 3.809581e-31 -4.743338e-31 1.8814668e-06
6.414931e-33 -1.4638827e-36 -5.5923687e-37 -4.797862e-37 1.0991271e-29 -3.9315323e-37 1.5912635e-35 5.6791264e-19
5.134457e-37 6.7794747e-28 5.6745323e-38 4.2173718e-16 2.5696437e-37 -6.2750836e-37 -4.7182414e-37 0.0006069681
-5.5118544e-37 -6.4950842e-15 -2.083088e-33 4.405988e-34 1.9693227e-35 6.1935814e-37 -1.0934777e-36 0.0068377275
