models/EURUSD_model.pth (torch, 860300 bytes, 15 tensors)

lstm.weight_ih_l0 f4 [512, 12]
000000 f7 b3 b8 be 27 aa 7f be 9e 6d 95 be 81 d0 ab be
       -0.36074802 -0.24967252 -0.29185194 -0.33557513
000010 75 9a 4e 3c 2e 1b 89 be 28 e7 a3 be 77 fd 0c 3d
       0.012610068 -0.2677855 -0.32012296 0.03442141
000020 d6 c5 cb bd b9 71 19 be db d3 8c be da f8 39 bd
       -0.099498436 -0.14984788 -0.27505383 -0.04540334
000030 a2 f3 5b be db c5 5a be 41 de 97 be e1 b8 90 be
       -0.21479657 -0.21364538 -0.29661754 -0.2826605
000040 8b eb e2 3c bf 6a 86 be 72 0a 6b be d8 2e 93 bd
       0.027700206 -0.26253316 -0.22953203 -0.07186669
000050 7c 4d d8 bc af 5c 41 bd 5c dd 83 3d 9f 29 3a bd
       -0.026404135 -0.04720753 0.06438705 -0.04544985
000060 97 14 15 be 70 79 11 be 8a 97 9a be 31 be 9c be
       -0.14558636 -0.14206481 -0.3019374 -0.30613855
000070 ca f4 24 3f 01 39 73 be 68 51 f2 bd 34 00 0d be
       0.6443602 -0.23752214 -0.11831933 -0.13769609
000080 fd 58 36 3e f2 aa 72 be 34 81 44 be 6b 93 d1 be
       0.17807384 -0.23698023 -0.19189912 -0.40932783
000090 ae a3 a5 bd bf 7a 0f be af 4d 0b be 12 d0 92 3d
       -0.0808786 -0.14011668 -0.13603853 0.071685925
0000a0 49 4d f4 3e 9d f9 11 be b8 c5 5c 3c fc 8a 25 3e
       0.47715214 -0.14255376 0.013474874 0.161663
0000b0 08 24 86 3e cd 5a b2 3e 50 6d 81 3e 76 c6 1e bd
       0.26199365 0.348349 0.2527871 -0.038763486
0000c0 6b f3 a3 3d 9d 7d 28 3e a0 18 0d 3d 40 61 40 3e
       0.08005413 0.16454168 0.034447312 0.18787098
0000d0 c5 3a 71 3f 1a 3b 10 3e d1 60 3e 3e 29 cd 33 bc
       0.942303 0.14085045 0.1859162 -0.010974207
0000e0 6c 7a 71 3f 87 23 62 3e f9 e9 3f 3e 39 6e 7a 3e
       0.94327426 0.22083865 0.18741597 0.24456109
0000f0 54 00 9b be bc 74 91 be 34 f9 96 be 3a cd 3d be
       -0.30273688 -0.28409374 -0.29487002 -0.18535319
000100 e4 fb 32 bd 20 71 6e be 84 cd 6a be f6 51 75 3d
       -0.043697253 -0.23285341 -0.2292996 0.059892617
000110 13 39 25 3c 0c 33 10 be c3 7b 31 be 76 25 9c bd
       0.010084408 -0.14081973 -0.17332368 -0.076243326
000120 6a fd a8 bc cb 74 dd 3b b1 0a e1 3d 8f 30 66 3d
       -0.02062865 0.0067583076 0.10988367 0.056198653
000130 31 ed 04 3e 93 1e c9 3d c4 9e 20 3e 3a e4 25 be
       0.12981106 0.09820285 0.15685564 -0.16200343
000140 16 4b 80 bc 0f ec 13 3e d4 9c 12 3e 8c 40 a1 bd
       -0.015660804 0.14445518 0.14317638 -0.078736395
000150 4a 7b a6 3b d4 35 c0 3c ff e7 61 3d e6 c5 0a 3e
       0.005080615 0.023463167 0.05515289 0.13552055
000160 20 02 3b be bc cc ff 3d a4 f2 e1 3d 32 f1 36 3e
       -0.1826253 0.12490222 0.11032608 0.17865446
000170 a1 49 08 be 50 1d f5 3d 15 a0 be bd 9d 07 9c bc
       -0.13309337 0.119684815 -0.09307877 -0.019046599
000180 7e bf f9 bc 82 7f 98 bd 17 70 67 bd bf bf 2a bd
       -0.030486818 -0.07446195 -0.05650338 -0.04168677
000190 10 97 ee 3d 1e 65 78 bd 26 09 25 bc 60 93 8d 3d
       0.11649907 -0.060643308 -0.010072982 0.06912875
0001a0 87 27 33 3e 93 61 d0 3d 4b 2e e4 3d 83 4b a7 be
       0.17495547 0.10174861 0.11141642 -0.32674798
0001b0 a9 a6 a8 3c 80 94 a3 bd 20 8c e7 ba e5 b1 7d bc
       0.020587282 -0.079873085 -0.0017665662 -0.015484308
0001c0 70 34 8b bd 16 b2 67 bd ab 0b 2b bb 59 5d 0f 3e
       -0.06797111 -0.05656632 -0.0026099484 0.14000453
0001d0 53 91 56 be 5e c6 21 be 2b 1e 8f bc ce d7 c2 3c
       -0.20953874 -0.15798327 -0.01747044 0.023784544
0001e0 27 0a 60 be 62 a5 83 be e2 ff 43 be a1 5a 4c be
       -0.21878873 -0.25712115 -0.1914058 -0.19956447
0001f0 40 dd 30 bd 23 18 71 be e1 40 3c be ff 3f 03 be
       -0.04317975 -0.23544364 -0.18384124 -0.12817381
000200 fe 1d 8d bd fe 34 29 be ce e1 23 be 02 2b f0 bd
       -0.06890486 -0.16524121 -0.16004106 -0.11726953
000210 c8 fa 28 be c3 07 6e be 37 cf 3b be 48 45 94 be
       -0.16501915 -0.23245148 -0.18340765 -0.28959107
000220 f8 19 b4 3c 21 20 66 be 56 60 a3 be c4 4a 6d be
       0.02198504 -0.22473194 -0.31909436 -0.23173052
000230 25 ac 5d be 37 82 47 be 25 ff 32 bd 0a b8 05 be
       -0.21647699 -0.19483267 -0.043700356 -0.13058487
000240 6a 57 31 3c a5 e5 e7 3d 39 47 0b 3b ae f9 cd 3d
       0.010824064 0.11323098 0.0021252169 0.10057388
000250 d7 e6 13 3f c0 29 34 3d a2 b6 15 bc 82 8e 29 3e
       0.5777411 0.04398513 -0.009137781 0.16558269
000260 b1 a1 10 bd 25 31 f6 bd 6e 30 c7 3d a8 0a 28 3e
       -0.03531045 -0.12021092 0.09726034 0.16410315
000270 06 0b 7c 3d 78 64 df 3c 9c 8d 54 3c f5 b9 a5 bc
       0.06153395 0.027269587 0.012973215 -0.020230273
000280 49 99 88 be 7a 62 ea 3c 0f e5 e5 3d 90 86 a0 be
       -0.26679447 0.02861141 0.1122533 -0.31352663
000290 e0 ea e8 3b 89 72 23 3f ec 36 af 3e 6f 35 ad bd
       0.0071080774 0.6384664 0.3422159 -0.08457457
0002a0 b6 58 0c be 07 ab bf bd 40 4b 49 be c0 0f 62 be
       -0.13705716 -0.09358793 -0.19657612 -0.2207632
0002b0 3a 68 1b 3d 70 b6 c5 bd 9a 31 2f be 9e 9a d1 be
       0.037941195 -0.09653938 -0.17108765 -0.40938276
0002c0 79 ad 28 be 8c c6 13 be 65 a4 d4 3b 9e 37 af be
       -0.16472425 -0.14431208 0.006489324 -0.3422212
0002d0 bd 82 aa 3d 0f 93 56 3d 76 01 ef 3c a1 cf 9f 3c
       0.083257176 0.05238634 0.029175501 0.019508185
0002e0 da 3b 34 3f 4b 11 90 3d 66 4d 90 bd 41 a9 0d 3e
       0.70403826 0.07034548 -0.070460126 0.13834096
0002f0 6c d1 0d bd 6e db a6 bd 36 0c cf 3e 1f ac e7 bd
       -0.03462355 -0.08147322 0.40439004 -0.11312126
000300 97 2e 89 bc 54 45 59 3d 13 04 87 3d 74 8d 21 bd
       -0.016745849 0.053044632 0.06592574 -0.03944154
000310 97 93 04 3f 1c 57 91 bd a0 d7 97 3d c9 e8 50 3e
       0.51787704 -0.07096693 0.07414174 0.204013
000320 af e1 9f 3e 5c 78 be 3d 34 3c ac 3d 46 b3 14 3e
       0.3122687 0.093003005 0.0840992 0.14521512
000330 d6 db 52 be 50 b9 d8 bc d5 05 40 bd ea ed 23 be
       -0.20591673 -0.026455551 -0.04688056 -0.16008726
000340 6b b7 30 bf a0 14 85 bd 66 bc 03 be af 04 3f 3e
       -0.69029874 -0.064980745 -0.12864837 0.1865413
000350 00 d0 a1 bc 32 71 ce ba b1 79 0d 3e 4a 30 d3 3c
       -0.019752502 -0.0015750288 0.13815953 0.025779862
000360 31 5b 99 be c9 49 86 be 40 46 8b be 2b b6 8f be
       -0.29952386 -0.2622817 -0.27202034 -0.2806867
000370 1a 10 0b 3e de 5d 99 be ff e6 b4 be 0d cf a4 3d
       0.13580361 -0.29954427 -0.35332486 0.08047304
000380 78 22 3e 3d 56 e8 01 be c2 ef c6 bd 48 4d c6 3d
       0.04641959 -0.12686285 -0.09713699 0.09682709
000390 3c 47 23 3c da 10 c4 3d d0 5f 6a 3d 1c 7e 43 bd
       0.009965714 0.09573527 0.05722028 -0.04772769
0003a0 f9 bd 9a bc ab 43 18 3d 7d 54 19 3c 7a d3 83 3e
       -0.018889414 0.03717391 0.0093585225 0.2574728
0003b0 ea 71 a9 be 7a d7 db bd b7 36 b9 3d 5c af 10 be
       -0.33094722 -0.10734458 0.09043639 -0.14129394
0003c0 76 fd 7f be 2a ee 7b be ca 81 92 be 46 8e 9c be
       -0.24999031 -0.24602571 -0.28614646 -0.30577296
0003d0 a4 2b cc 3c 82 b8 b5 be 88 ac 84 be a0 da d7 3d
       0.024923153 -0.3549233 -0.2591288 0.10539746
0003e0 de 13 39 bd b9 97 d1 3c e3 85 1d bd de 50 4b bd
       -0.045184962 0.025585042 -0.038457762 -0.049637668
0003f0 fe e4 c3 bd aa 52 67 3d 60 aa 99 3c 10 c9 15 3d
       -0.09565161 0.05647532 0.018757999 0.0365687

lstm.weight_hh_l0 f4 [512, 128]
000000 7f 83 80 3e de 27 b2 3d 1e d6 ec 3c a3 a5 14 be
       0.25100324 0.0869901 0.028910693 -0.1451631
000010 9c 5e a8 be a7 06 cd bc 75 0b 41 be e8 33 d7 3d
       -0.3288468 -0.025027586 -0.18852027 0.10507947
000020 0b b9 6b 3e 62 89 7b be aa 86 92 3c f8 45 29 3b
       0.23019807 -0.24564126 0.017886478 0.0025829058
000030 87 12 ec 3e ed 2a 7d be ba 98 5e 3d 5a ee aa be
       0.46107885 -0.24723406 0.05434487 -0.33384973
000040 9b 66 05 3f c4 73 e4 bd d3 ad 12 3e 18 38 69 3d
       0.5210969 -0.11154893 0.14324121 0.05693826
000050 f1 14 9a 3b 6e c3 12 3d 23 4f 82 be 70 cb 80 be
       0.0047022034 0.035830908 -0.25451002 -0.2515521
000060 bc 18 29 3f 55 12 bd 3e 18 f5 81 3d 54 db 84 3d
       0.66053367 0.3692805 0.06345576 0.06487146
000070 1d 1c 2c 3e 7b a1 11 3d 14 84 b5 be d3 14 28 be
       0.168076 0.03555439 -0.3545233 -0.16414194
000080 88 dc 3e 3e 37 cb 3b be 8a de 60 be 0f 72 a9 3d
       0.18638813 -0.18339239 -0.21959892 0.08273708
000090 88 79 ce be ea ec bc 3d 29 e6 88 be 66 12 41 3d
       -0.40327096 0.09224875 -0.26738098 0.047136687
0000a0 45 39 87 bc ce a7 d0 bd f4 9c fc be 00 8e 05 be
       -0.0165068 -0.10188256 -0.49338496 -0.1304245
0000b0 a2 95 a1 3e aa bc 78 3e 03 d5 8b be a7 59 46 bc
       0.31559473 0.2429072 -0.27310953 -0.012106336
0000c0 d6 2f 4e 3d 83 31 8b 3e f3 0c bd bd bb 2e a6 be
       0.05033859 0.27186212 -0.092309855 -0.32457528
0000d0 e0 54 d1 be b8 bf b0 3e 8d 2d 03 be 7e 26 3c 3e
       -0.40885067 0.3452127 -0.12810345 0.18374059
0000e0 a4 de 4c 3e 04 ef a8 bd d1 c5 fa bd e4 ad f0 3b
       0.20006806 -0.082487136 -0.12244762 0.007344948
0000f0 0d 23 12 3e 06 9a 81 bd 46 0a 10 3e 16 03 a4 3d
       0.14271183 -0.06328206 0.14066419 0.08008401
000100 55 95 63 be b4 e5 31 3d 5c 54 80 be 3c f9 34 3e
       -0.22224934 0.043431953 -0.2506436 0.176732
000110 e8 9b 86 bc 34 ff 50 bd 1f f5 05 be 86 81 cc bd
       -0.016431764 -0.05102463 -0.13081788 -0.09985642
000120 0d b5 2f 3e a3 e9 42 3e a4 d5 45 3e 70 62 97 3b
       0.17158909 0.19034438 0.19319779 0.004619889
000130 5f 14 73 be b0 6b ab be 11 59 af be 6b fc 5b be
       -0.2373824 -0.33480597 -0.3424764 -0.21483009
000140 71 5b 35 3e 5c 5c 5f be 6a 75 9b 3c f2 d4 82 3e
       0.17710663 -0.21812576 0.018976886 0.2555309
000150 41 f8 1d 3d 84 46 bd be 1e b9 8b 3e 7e 82 58 3e
       0.03856683 -0.36967862 0.2728967 0.21143529
000160 72 db 70 3e 3a 58 16 be d1 0b f1 bc 99 20 a6 bd
       0.23521212 -0.14682093 -0.02942458 -0.08111686
000170 4d d7 42 be 19 40 a6 3e 32 8c d3 3e 59 62 86 be
       -0.19027443 0.32470778 0.41317898 -0.26246908
000180 26 83 fe bc db c9 8f 3d 1a cc ea bd 0b fd bd bd
       -0.031068396 0.07020923 -0.114647105 -0.0927678
000190 ed 86 4d 3e b7 3c cf 3e da f4 99 3e a7 89 8c bd
       0.20071001 0.4047601 0.3006962 -0.068621926
0001a0 2d a6 94 be 61 0f 60 be 52 17 94 be 6b ea 08 bc
       -0.29033032 -0.21880867 -0.28924042 -0.008356671
0001b0 f4 c0 1f 3e 58 28 b4 bd dd d1 20 3d 5b da eb bd
       0.1560095 -0.087967575 0.03926264 -0.115162574
0001c0 41 02 2d 3e 43 cc c3 bd c6 b7 c8 3d 50 82 5f be
       0.16895391 -0.09560444 0.09800677 -0.21827054
0001d0 fd 98 b9 3c 2a 3a c4 3d 6b 84 c0 3e 3a f6 de 3e
       0.022655958 0.095814064 0.37601027 0.4354723
0001e0 6c 3e 9f 3d 6f 51 2f bd 0a a7 99 be b6 ca bd 3e
       0.07775578 -0.04280227 -0.30010253 0.3706872
0001f0 4b 54 5f 3e 4c 86 01 3e ad b3 a6 3e 03 33 69 be
       0.21809499 0.12648886 0.32558957 -0.22773366
000200 fe c4 bf 3e f9 aa 64 bd 7a 3b 83 bd 1e 74 ab bd
       0.3745498 -0.055827115 -0.06407829 -0.08371757
000210 e6 41 b7 be 65 f4 de bd af f0 42 bf c8 cd a5 3b
       -0.35792464 -0.10886458 -0.76148504 0.0050599314
000220 6b bf ac 3c 55 eb 94 be a7 f4 96 bc bc a0 52 bc
       0.021087369 -0.29085794 -0.018427206 -0.012855705
000230 3f 76 70 3e 14 94 ec 3d d8 1b 40 3d 3f 92 13 be
       0.23482607 0.11551681 0.046901554 -0.14411257
000240 8d d6 18 3f 4e b1 d2 3d cf 1e 70 3d 27 1a 44 bd
       0.5970238 0.102877244 0.05862313 -0.047876503
000250 c0 a5 38 3e b8 8a 7b bc 42 b9 30 bc 26 ad 80 be
       0.18031979 -0.015352897 -0.010786356 -0.25132102
000260 5f 36 bd 3d 00 92 58 bd f4 34 c2 3c ec 5c af bd
       0.09238886 -0.05287361 0.02370689 -0.08562645
000270 27 21 0e 3e cf 8c af bd e1 02 7d be 0e a2 4c bb
       0.13879834 -0.08571779 -0.2470813 -0.0031224522
000280 d8 7f 76 3d 34 28 e8 3d 5d 8d 5b be d8 3d 08 3e
       0.060180515 0.11335793 -0.21440645 0.13304842
000290 47 76 da bd de 47 36 bd 68 f1 95 3d 8d d1 92 be
       -0.10667091 -0.04450213 0.07321435 -0.286755
0002a0 87 cb b8 bd cb af be be c7 d6 89 be 1c fc e0 bd
       -0.09023195 -0.37243494 -0.26921675 -0.10985586
0002b0 04 f2 db 3d 5c 46 71 3e d2 99 2e bd f8 16 83 be
       0.1073952 0.23561996 -0.042627163 -0.2560346
0002c0 24 ec 1f 3e 41 5f ec 3e ff 66 9f be 35 48 54 be
       0.15617424 0.46166423 -0.31133267 -0.2073067
0002d0 5c a5 66 be 90 4e 84 3e b2 42 21 be c0 19 ad 3e
       -0.22524017 0.25841188 -0.15748098 0.33808708
0002e0 7e 27 ce bd 71 e8 97 be 1d 65 e1 bd 03 b7 88 be
       -0.10066126 -0.29669526 -0.11005614 -0.26702127
0002f0 72 d7 fd bc 39 d3 24 be d4 c2 2e 3d ef f9 5b bd
       -0.030986521 -0.160962 0.04266627 -0.053705152
000300 ed 02 1d 3d 22 38 22 bd 59 fe 55 3e 4a 6b f7 3d
       0.03833287 -0.039604314 0.20897807 0.12081011
000310 b2 0a 28 be 95 c0 5c bc f2 a9 00 bd 28 b5 a3 be
       -0.1641033 -0.0134736495 -0.031412072 -0.3197415
000320 8d 16 10 3e 99 64 9c 3e 5f f4 23 3e 69 68 84 bd
       0.14071102 0.305455 0.16011189 -0.06465227
000330 58 f4 dd be d5 96 22 bf c6 86 1e bf e7 2e 07 3e
       -0.43350482 -0.635114 -0.619244 0.13201486
000340 09 38 98 3e 63 5e 88 bd 60 72 31 be 05 5a f7 3e
       0.2973025 -0.06658628 -0.17328787 0.48310867
000350 fd 2b 31 be 37 6b d2 3d 2b 32 f5 3e 5e 49 fe 3e
       -0.17301936 0.10274356 0.47889838 0.4966535
000360 48 41 f8 bd 54 af 03 3f 92 5a 0f bc 41 8b c0 bd
       -0.121218264 0.51439404 -0.008749621 -0.094015606
000370 eb 0d a0 3d 10 40 e6 3e 47 9d 86 3e d6 d4 2d be
       0.07815155 0.4497075 0.26291868 -0.16975722
000380 a2 ac 3a be 01 2a 9e 3e 5f 52 cf 3d c0 27 8f be
       -0.18229917 0.3089142 0.10123133 -0.27960014
000390 3b 26 ed 3e e8 f9 0d 3f b2 ac b1 bd c7 5c c1 bc
       0.4631823 0.5545945 -0.08675517 -0.02360381
0003a0 f6 69 30 be 63 d0 25 be 72 3f ae be 22 bc 1f be
       -0.17227921 -0.16192774 -0.3403278 -0.1559911
0003b0 b6 01 aa 3e 91 20 2c be b8 a0 67 3e d2 4b ca bd
       0.3320443 -0.16809298 0.22619903 -0.09877743
0003c0 7c 70 a4 bd 58 d8 9f 3e f3 57 c1 3e 72 f7 33 be
       -0.08029267 0.31219745 0.37762412 -0.17574862
0003d0 d6 49 f6 be da e4 15 be da d2 e0 3e e4 b6 2d 3f
       -0.48103207 -0.14638081 0.43910867 0.67857194
0003e0 4e f8 2d bd c2 1f 01 3e c3 b5 98 be 20 83 62 bd
       -0.04247313 0.12609771 -0.29826173 -0.05530083
0003f0 2c 6e ba 3e fc 2c f5 3d ed 21 2d 3e a5 7c 52 be
       0.3641218 0.11971471 0.16907473 -0.2055536

lstm.bias_ih_l0 f4 [512]
000000 28 41 e6 bd 9a 51 1f bd 63 96 29 3d 1b fb 81 bd
       -0.11242896 -0.03889618 0.041403186 -0.06346723
000010 26 ad 6a 3d a6 f2 10 bd 84 d1 28 bd fc 35 fa 3d
       0.057294033 -0.035387658 -0.041215435 0.12217328
000020 31 ad 20 bd d4 09 a6 3c e3 05 e1 bd c7 ba 09 be
       -0.03922767 0.020268358 -0.10987451 -0.13450156
000030 09 67 d2 bd 5b ed 49 3e 31 ac 1d 3d c5 29 21 3c
       -0.10273559 0.1971945 0.038494293 0.009836619
000040 1b b7 01 be 02 55 e4 bc f5 2f f5 bd 78 ad 03 be
       -0.12667505 -0.027872566 -0.11972038 -0.12859142
000050 01 54 16 bd 1c 8f 12 bd 77 55 89 bd 51 fa ac bd
       -0.036701206 -0.03578101 -0.06705754 -0.084461816
000060 97 e3 a0 3c 07 8c 68 3e ed 46 96 bd c4 82 a6 bc
       0.019639773 0.22709666 -0.07337747 -0.020326026
000070 94 e9 04 be 83 b7 a3 3c 35 1e 44 bd ee 81 b4 3d
       -0.12979728 0.019984966 -0.04788037 0.088138446
000080 b7 b5 be bd d1 ce 6d 3d 71 9e 9a 3d e6 e0 ca bd
       -0.09312003 0.058058564 0.075497515 -0.09906177
000090 8b 12 bb bc 47 05 53 bd fe 0b ac 3d bc 67 0a 3e
       -0.02283599 -0.051518705 0.08400725 0.13516134
0000a0 94 c8 0b bd 63 38 dc bd 50 e4 9f bd eb 48 9f 3d
       -0.034126833 -0.107529424 -0.07807219 0.0777758
0000b0 00 b0 46 3e 4d ab 96 bd 81 d2 e4 bc 15 94 13 be
       0.19403076 -0.07356892 -0.027932407 -0.14411958
0000c0 d8 a6 0a be a5 49 15 3b d6 f5 ae 3a bc b7 02 3d
       -0.13540208 0.0022779491 0.0013348411 0.031913504
0000d0 af 4a 07 3b 0e 1c 3b bd 8b 6f e4 bd ba 9f 1d bb
       0.002064388 -0.045681052 -0.11154088 -0.0024051503
0000e0 cf 0c 4b bd bd 79 c9 ba 82 e3 01 3d 3e 17 1d bd
       -0.049572762 -0.0015371364 0.03171111 -0.038352244
0000f0 a8 77 aa bd 55 21 33 be 19 d4 9a 3d 86 c8 c6 bd
       -0.08323604 -0.17493184 0.07559986 -0.097062156
000100 77 32 db bc 41 bf 24 be 8c 69 1f bc 88 eb 1e be
       -0.026757462 -0.16088583 -0.009729754 -0.15519536
000110 52 53 c8 3c 68 7c 9b bd 75 2e ef 3d 0a 6b 2d bd
       0.024453793 -0.07592088 0.11678783 -0.04233841
000120 ba 2e 23 3c 86 9d 96 3d 44 e2 2c be 4c 44 f5 bb
       0.009959871 0.07354264 -0.16883188 -0.0074849483
000130 d5 17 14 be 29 8f 02 be 55 20 d9 bd 98 63 20 3a
       -0.14462216 -0.12749924 -0.1060187 0.0006118356
000140 29 30 b6 bc 7c f2 1c be 09 2f e4 3d 72 e9 04 be
       -0.022239761 -0.15326875 0.11141784 -0.12979677
000150 d9 14 4c bd 5a ad f4 bc 14 d3 7f bd b3 9f 46 be
       -0.04982457 -0.029867817 -0.06245716 -0.19396858
000160 15 ed b8 3a df e4 de 3d ac 94 46 3d 93 df 0b be
       0.0014108742 0.108834974 0.04848163 -0.13659506
000170 2d ad 81 3d 3f 3c db bd 84 3b 53 bd 91 fc 22 3d
       0.06331859 -0.107048504 -0.05157043 0.039791647
000180 d3 23 cd bd 1a 85 09 be b9 a5 c4 3c db 3f ff bd
       -0.100165986 -0.1342968 0.024004804 -0.12463351
000190 c1 22 df bd b5 ec 2e bd 25 5c 03 3d a6 73 e1 3c
       -0.10895301 -0.04270621 0.032070298 0.027520966
0001a0 9f 26 3e 3d bd 2c a9 3d 5f c9 9f bd 76 6e 9c 3c
       0.04642355 0.08260486 -0.0780208 0.01909564
0001b0 bd b5 bd bd 9a 63 f6 bd 29 1d 50 be 1d ba 12 bc
       -0.092631795 -0.12030716 -0.20323624 -0.008955506
0001c0 6a 79 ab 3b 21 19 d5 3d 0d 50 d2 bd d5 50 54 bd
       0.0052329795 0.104051836 -0.10269175 -0.0518349
0001d0 c6 36 13 bc 7a 66 41 3c d4 80 a3 bc 96 c1 94 3c
       -0.008985227 0.0118042175 -0.019958891 0.018158715
0001e0 83 09 6a bd b0 94 83 3e 54 8f 8d bd 36 32 1c bd
       -0.057137977 0.25699377 -0.06912103 -0.038133822
0001f0 6f 08 00 be 89 be 50 bb 54 2b 3b 3c fa 3c 84 bd
       -0.12503217 -0.003185185 0.011423904 -0.06456943
000200 ce 32 0a bd 96 38 cb 3d 87 7f 25 be c3 0e e7 be
       -0.033739857 0.09922902 -0.16161929 -0.4512845
000210 b5 73 c9 be 1a 60 d5 bd e9 ff 83 be 3a 18 03 bf
       -0.3934609 -0.104187205 -0.2578118 -0.5120884
000220 1d 5e c3 be 19 16 6e be b0 86 9b 3c 0f e1 05 3e
       -0.3815774 -0.23250617 0.018985122 0.13074134
000230 14 de 6e bd da de f2 be ce 0b 83 be ea 8e 42 be
       -0.05831726 -0.47435647 -0.25594944 -0.1899983
000240 90 e7 cb bd fb 0c 0c bf d4 a8 c3 bd 56 37 50 be
       -0.099562764 -0.54707307 -0.09553686 -0.20333609
000250 1a a8 1e be 77 09 30 bf 1f 7c 65 3d 80 b7 b3 be
       -0.15493813 -0.6876444 0.056026574 -0.35100937
000260 2b ac 14 bf 95 2d 25 bf 47 53 92 be bb 32 8d bd
       -0.5807521 -0.6452268 -0.2857916 -0.06894442
000270 0a 9e 9a bd 03 91 29 be 9c b7 ce 3d 4d 3d ad be
       -0.07549675 -0.16559224 0.100936145 -0.3383583
000280 39 a0 1a bf bc fe 74 be 17 04 3b bb 9b 65 9c be
       -0.6040073 -0.23925298 -0.0028536373 -0.3054627
000290 4a 8e b3 bc ea 7d b1 be 46 5e 98 be c8 11 05 bf
       -0.021918435 -0.34666377 -0.29759425 -0.5198026
0002a0 e0 42 d2 bc fb 8e 1c be 20 4b ed be 24 99 9e 3d
       -0.025666654 -0.15288918 -0.46346378 0.07744053
0002b0 f9 23 92 be 6b cc 8e 3d 97 b2 25 bf 07 55 3b bf
       -0.2854307 0.069725834 -0.6472563 -0.73176616
0002c0 55 06 55 be 3d 40 86 3d ec 79 7b be 59 f9 ec be
       -0.20803197 0.06555221 -0.24558228 -0.46283987
0002d0 1d 84 33 bd 9d 9e 52 be c5 60 42 be cd 3c c4 bd
       -0.043827165 -0.20568319 -0.18982227 -0.09581909
0002e0 d9 01 47 be c7 f8 7d be a5 73 b4 be c5 81 02 bf
       -0.19434299 -0.24801932 -0.3524448 -0.5097926
0002f0 26 7a 38 bf 6c 2d 43 be 4d 88 72 bf ce 60 33 be
       -0.72061384 -0.19060296 -0.9473923 -0.17517397
000300 31 f2 31 be e8 cb d8 bd 74 31 be be 59 14 0f 3c
       -0.17377545 -0.10585767 -0.37147105 0.008732879
000310 93 c1 35 be 76 7a 25 3c de e2 a3 be ee ff 64 be
       -0.17749624 0.010099998 -0.32009023 -0.22363254
000320 d9 39 5d 3d 1e be b1 be f9 c9 1a be b5 60 77 be
       0.054010246 -0.3471536 -0.15116109 -0.24157985
000330 62 90 b4 bd 1d 3c 61 bd 89 64 55 bd 2b a6 a4 3d
       -0.08816601 -0.05498897 -0.05209783 0.080395065
000340 1a fd 4e 3d 2c 53 a8 3d 04 08 32 bf 77 2f 03 3b
       0.050534345 0.08218989 -0.6954348 0.0020017305
000350 70 ec 62 bd 84 8d 94 bd 0c e6 ba bd 79 ba 1e be
       -0.055401266 -0.072535545 -0.09125909 -0.15500821
000360 0a 4c 03 bf 61 db df be 2a 42 b5 bc d8 14 37 bd
       -0.512879 -0.4372206 -0.022126276 -0.044697613
000370 07 d2 b7 bd 68 68 01 3d f8 e7 e8 3d 3d bd 07 bd
       -0.089756064 0.03159371 0.113723695 -0.033139456
000380 1b 2f 6d bd 8c 9f 12 bd 62 36 97 be c4 0e ea bd
       -0.05790625 -0.035796687 -0.29533678 -0.114285976
000390 cf e8 8f be ae c4 be 3b 0c 1a ac be f3 a0 99 3c
       -0.28107306 0.005821786 -0.33613622 0.018753504
0003a0 5e e9 0d bd 9e 60 a5 be 32 dd 2f bf d9 49 b6 be
       -0.034646384 -0.32300276 -0.6869689 -0.35603216
0003b0 e4 cb 76 be c8 43 36 bd bb 52 8a be 3c 0b 4e 3d
       -0.24101216 -0.044498235 -0.27016243 0.050303683
0003c0 7f b1 09 3d 09 fa eb be d7 2b 95 3c d8 f9 6b 3d
       0.03361654 -0.460892 0.018209381 0.057611316
0003d0 71 55 17 bf 03 19 c8 be 62 6d 36 3d 28 f0 6a bd
       -0.5911475 -0.39081582 0.04453791 -0.057357937
0003e0 64 8e 67 be 3e 44 a7 be 4a 02 d5 bd 51 ac 30 be
       -0.22612911 -0.32669252 -0.10400827 -0.17253233
0003f0 75 e2 7d be ed 33 89 bd 71 52 4e be 9c b7 a0 be
       -0.24793418 -0.06699357 -0.20148636 -0.31390083

lstm.bias_hh_l0 f4 [512]
000000 98 d2 53 bd bc 04 2f 3d 57 fd 64 3d 4c ff c1 bc
       -0.05171451 0.042729124 0.055905666 -0.023681305
000010 6a a7 3d 3d 69 db e2 bd 49 68 ac bd 80 cb bd 3d
       0.046302237 -0.110770054 -0.08418328 0.0926733
000020 7d e8 6b 3d 5c fc 79 bd 67 80 aa 3c a1 8b 0c be
       0.057594765 -0.061031684 0.02081318 -0.13725139
000030 f7 36 89 3c cd a0 61 3e 19 51 ee bd 27 f7 1e 3c
       0.016749842 0.22033997 -0.11636562 0.00970248
000040 e5 ba 06 bc ab 50 f8 bd 8c b8 2c bd f4 2d 07 be
       -0.00822327 -0.12124761 -0.042168185 -0.13201123
000050 ea 95 dc bd b2 6b 70 bc cd 8a e0 bd c6 a4 84 3d
       -0.10770781 -0.014674114 -0.10963974 0.064767405
000060 31 77 21 3d 9c 00 cb 3d b3 3b 94 bd 87 03 49 bd
       0.03942031 0.099122256 -0.07237949 -0.04907563
000070 08 83 52 bc 79 02 db 3d a0 f8 19 3b 7d 0e 2d bd
       -0.012848623 0.10693831 0.002349414 -0.042250145
000080 3d 95 a1 bd c2 a1 84 3c ec 5b a7 bb d9 2e a5 ba
       -0.07889793 0.016190413 -0.0051073935 -0.0012602463
000090 d1 a1 30 bd 18 f5 ec bd 88 34 b1 ba 4e 20 29 3e
       -0.04312307 -0.115701854 -0.0013519684 0.1651623
0000a0 5e 0a 40 bd 85 4b 3b 3d d4 a3 90 bb 7d 3c 0f 3d
       -0.046884887 0.045726318 -0.004414061 0.034969795
0000b0 00 93 e1 3d 22 b4 10 3c 40 0c dd bd fb 75 07 be
       0.11014366 0.0088320095 -0.10793352 -0.132286
0000c0 e4 2f 0d be 5e 20 98 bd b7 03 ec 3c 7f 12 a4 3d
       -0.137878 -0.074280486 0.028810365 0.0801134
0000d0 b0 b7 1e 3d bb 4a b8 bd 49 93 07 be 74 e9 8b bd
       0.038749397 -0.08998629 -0.13239779 -0.06831637
0000e0 e1 0b 1d bd cc cd 28 bb de dd 32 3d f6 b0 64 bd
       -0.038341407 -0.002575743 0.04366862 -0.055832826
0000f0 9e 08 89 3c 20 6e eb bd c2 ea 11 3e d8 03 60 39
       0.016727742 -0.11495614 0.14249709 0.00021363737
000100 19 99 05 be 8e 80 8e bd cb b3 2c bd 7c e0 db bd
       -0.13046683 -0.069581136 -0.04216365 -0.10736176
000110 4d 45 d3 3d 30 33 91 bd 51 d1 ff bc a8 dd 8d 3c
       0.103159525 -0.07089841 -0.03122774 0.017317608
000120 cc d6 6b bd 16 9e c6 3c aa 10 1f be 02 83 c5 bd
       -0.057577893 0.024245303 -0.155337 -0.096441284
000130 99 98 be bc 8e 80 9f bd 9b 1e 0d be d7 66 64 bd
       -0.023266124 -0.07788192 -0.13781206 -0.05576214
000140 55 9e c1 bc 51 ee 8a bc 35 f1 b9 3d df 29 5d be
       -0.023635069 -0.016959341 0.0907921 -0.21598004
000150 b4 a0 fa bc ed 11 4b 3d dc c6 9f bd c6 46 11 be
       -0.030594207 0.049577642 -0.07801601 -0.14187154
000160 4c 2e 6a bd 7a e6 2f 3e 43 1e fc bb 3b e9 e3 bb
       -0.05717306 0.17177764 -0.007694037 -0.0069552935
000170 97 87 be bd 41 04 27 bd a9 a3 d7 3d 65 a0 fd 3c
       -0.093032055 -0.04077554 0.105292626 0.030960271
000180 5e b9 6b 3d cd 8c 81 bd 4b d9 b5 bd cc c9 fa bd
       0.057549827 -0.06325684 -0.08879336 -0.12245521
000190 db 20 19 be 40 6b c8 3c d1 62 75 bb e0 9c fe 3b
       -0.1495394 0.024465203 -0.0037442932 0.007770166
0001a0 8d c1 12 3d 47 08 44 3d 5e 65 c8 3c 88 86 9b 3d
       0.035829116 0.047859456 0.024462398 0.07594019
0001b0 96 34 1d bd 0e 9d 2f bc 76 51 d0 bd ff 32 99 bd
       -0.038380228 -0.010718597 -0.101717874 -0.0748043
0001c0 2e 2a ee bd b3 55 46 3d bd 56 cc 3b 5d 3d 3e bd
       -0.11629139 0.048421573 0.006235926 -0.04644524
0001d0 e8 b8 6d bd a3 7b 93 3c 12 d1 2a bd 7d 99 66 3d
       -0.05803767 0.01800329 -0.04170329 0.05629872
0001e0 43 dd 3d bc 92 bd bf 3d 98 f2 4d bd d2 d1 4e 3d
       -0.011588397 0.093623295 -0.050280184 0.05049307
0001f0 ba 77 e5 bd f3 5e 30 bd c3 4b f5 3c e2 ae 88 bd
       -0.11204477 -0.0430593 0.029943353 -0.06673981
000200 b2 a3 1a bd d2 41 be 3d 35 3e 92 bd db 43 cb be
       -0.03775377 0.09289898 -0.07140771 -0.39700207
000210 7f 78 8b be 38 a3 e6 bd c2 65 9c be 88 45 f2 be
       -0.2724037 -0.112616 -0.30546385 -0.47318673
000220 d1 66 9b be 27 df 26 be 04 94 3e bd ce 45 2c 3e
       -0.3035188 -0.16296063 -0.046527877 0.16823503
000230 89 9f c1 3d 88 e8 d2 be 6a a1 9e be f0 ea 1a be
       0.09454257 -0.41193032 -0.30982524 -0.15128684
000240 c8 90 27 be c6 2f e2 be 51 bc 9a bc 6e c9 05 be
       -0.16363823 -0.44177073 -0.018888624 -0.1306512
000250 a1 94 3e bb d9 87 53 bf bd c4 2c 3d 32 91 9e be
       -0.002908029 -0.8262916 0.04217981 -0.3097015
000260 07 31 18 bf 1b c0 43 bf 0f 82 62 be ce 81 43 39
       -0.5944981 -0.76465005 -0.22119926 0.00018645005
000270 36 3b 68 bd 21 7a 52 be d5 23 aa 3c fd 6b 9e be
       -0.056697093 -0.20554401 0.02076904 -0.30941764
000280 ef 18 33 bf 99 53 91 be c6 4f 1e bd cd 9a dc be
       -0.6995992 -0.28384092 -0.038650297 -0.43086854
000290 32 a9 03 3e 02 fd 90 be 8e 7a b9 be 29 50 e7 be
       0.12857512 -0.2831803 -0.36226314 -0.45178345
0002a0 28 a4 c3 bc dd a7 08 be d0 88 d1 be 2d 76 d1 3b
       -0.023881987 -0.13345285 -0.40924692 0.0063922615
0002b0 b1 26 bb be 16 58 65 bd 5b 36 07 bf b5 5d 1e bf
       -0.36552957 -0.05599221 -0.52817315 -0.61861736
0002c0 d5 0b 0f be 6a d7 ea bc c2 61 11 be 47 07 ce be
       -0.13969357 -0.02866717 -0.14197448 -0.40239927
0002d0 df e4 a2 3c 8b 40 39 be c9 ea e0 bd 9d 62 be bd
       0.019884525 -0.18091027 -0.10982282 -0.09296153
0002e0 f3 9c 3d be 97 cf 64 be 95 37 b0 be 71 cd 23 bf
       -0.18516903 -0.22344814 -0.34417406 -0.63985354
0002f0 54 6f 2b bf e2 f0 61 be 2d f3 70 bf f2 52 ef bd
       -0.6696675 -0.22064546 -0.94121057 -0.116857424
000300 6b 3c 3e be 8a 6a 16 be fc 09 cf be 10 e5 9e bc
       -0.18577735 -0.14689079 -0.40437305 -0.019396335
000310 75 ff 92 be 73 45 29 bd 02 19 99 be 2a b9 43 be
       -0.28710523 -0.041325998 -0.29901892 -0.19113603
000320 e9 d5 23 3d 0c 7c a6 be 8b ee d7 bd dd 1e 63 be
       0.039998922 -0.32516515 -0.10543545 -0.22179742
000330 28 48 76 be 20 2c f5 bd bf 44 33 be 97 46 8c 3d
       -0.24050963 -0.11971307 -0.17506693 0.068494014
000340 ec 73 42 bd db 7f a3 bc 14 72 47 bf e9 5f 92 bd
       -0.047473833 -0.019958427 -0.77908444 -0.071472
000350 80 55 71 bd 5a c7 84 3d d0 30 1a be c3 b5 83 bc
       -0.05891943 0.06483336 -0.15057683 -0.016077882
000360 fc 8b 26 bf f1 7c df be 40 5a ea 3d 76 c9 30 3b
       -0.6505735 -0.4365001 0.11442995 0.0026975549
000370 4f 05 25 be 13 83 9f 3c b9 95 40 3e f6 a4 12 bd
       -0.16115306 0.01947168 0.18807115 -0.03580185
000380 58 47 4a be 88 68 3b be 4b a6 22 be 72 94 5c 3c
       -0.19753778 -0.18301594 -0.15883748 0.0134631265
000390 08 d3 2f be 92 72 de 3c 90 19 f9 be 4b 83 93 3c
       -0.17170346 0.02715424 -0.48652315 0.018006941
0003a0 46 c3 07 bd 90 03 a4 be e0 7f 29 bf 2b 79 86 be
       -0.03314521 -0.32033968 -0.66210747 -0.2626432
0003b0 fe 11 50 be f1 d2 14 be e8 fe 36 be ea cc 2b 3d
       -0.20319363 -0.14533593 -0.17870677 0.04194347
0003c0 53 8d 91 bd d5 7a ab be 27 5d cb bd 8b 24 89 3d
       -0.071070336 -0.3349215 -0.09929877 0.06696423
0003d0 dc b4 02 bf b5 07 fa be e7 ae 43 3c ef 98 21 be
       -0.5105722 -0.48834005 0.011943555 -0.15780996
0003e0 7a 50 51 be 97 4f 7b be 22 51 21 be 1b 67 6d be
       -0.20440856 -0.2454208 -0.15753606 -0.23183863
0003f0 29 62 82 be 1d ef 91 bd c2 00 90 be 4c f6 da be
       -0.25465515 -0.07125685 -0.28125578 -0.42766035

lstm.weight_ih_l1 f4 [512, 128]
000000 b1 4a 61 3c 0d cb 01 bd ac be 1f 3e 05 2d 2d 3c
       0.013750718 -0.031687785 0.1560008 0.0105698155
000010 04 a0 28 bd 97 1a fe 3a b9 ee d0 3d 43 16 d6 ba
       -0.041168228 0.0019386587 0.10201783 -0.0016333539
000020 78 de 00 3e d3 7f e3 bc 02 e5 7b bd 71 a3 0d 3d
       0.12584865 -0.027770912 -0.061497696 0.034579698
000030 66 cf 4a 3d 18 17 93 bd 9d 83 f9 3d 38 f2 f7 bd
       0.049514197 -0.07182139 0.12183306 -0.121067464
000040 c9 fc 19 bd 21 4d c7 3d 30 3c ac bd 73 14 b1 3d
       -0.03759459 0.09731508 -0.08409917 0.086464785
000050 fd 7c d6 bd fd f6 e1 bd 55 07 02 be 0d 35 44 be
       -0.104730584 -0.110334374 -0.1269811 -0.19160862
000060 6f 8d cd bd fe f7 25 3d c2 cc bd bd d0 0a 80 3d
       -0.10036742 0.040519707 -0.0926757 0.06252062
000070 d2 56 f3 bd a9 37 ad bd b2 07 fb 3d 00 1b 24 bc
       -0.11881794 -0.08457882 0.12257327 -0.010016203
000080 91 fd a9 3c 1b 2b 0c 3c 52 e8 0c 3e ce 40 40 be
       0.020750793 0.008555199 0.13760498 -0.18774721
000090 41 9f b8 bd e3 23 e9 bd 13 63 a2 bd 65 ed 21 3e
       -0.0901475 -0.11383798 -0.07929053 0.15813215
0000a0 5d 98 4a be 51 eb 4a 3c 7c 76 50 bd 25 3f 25 be
       -0.19784684 0.012385205 -0.050894246 -0.16137369
0000b0 11 16 82 3d 4f 21 e3 3c 27 11 01 3e b1 4c 8c 3d
       0.06351865 0.027725844 0.126042 0.06850565
0000c0 12 19 5f bb a0 79 8e 3c 63 f6 7c 3e 2a be 0c 3e
       -0.0034042043 0.01739198 0.24703364 0.13744417
0000d0 57 01 26 3d cb f9 a6 bd 12 1d fa 3d b3 e6 f8 bc
       0.04052862 -0.08153113 0.12212576 -0.030383443
0000e0 7b 41 f0 bc e5 cb 3c 3d 1b cc 0a bd 70 92 74 3d
       -0.029328099 0.046092886 -0.033886056 0.059709966
0000f0 c0 a6 6c 3c 33 0a 32 bd 49 db 76 bc 89 3d e0 bc
       0.014444053 -0.043466758 -0.01506693 -0.027373092
000100 9b 60 af bd a0 17 03 bd c0 b4 1e bd 7e 29 61 bd
       -0.08563348 -0.032004952 -0.038746595 -0.05497121
000110 46 60 a1 bd 38 a9 99 3d 79 e2 31 3e 74 bb cc 3d
       -0.07879691 0.07502979 0.17371549 0.09996691
000120 f5 02 42 be 9f a0 91 ba 16 b5 5b bd 15 dd c4 3c
       -0.1894644 -0.0011110491 -0.053639494 0.024031201
000130 3b cc 30 3d f8 cc e9 bc 37 62 13 be 1a a2 6f be
       0.04316352 -0.02854012 -0.14392935 -0.2340168
000140 90 32 2e bd 29 03 5c 3e 7a f2 7c bd 43 0a f8 bd
       -0.04252869 0.2148558 -0.06175468 -0.12111332
000150 c5 b4 a3 bc fb a8 a8 bd 55 8b 0c be c0 23 f0 bd
       -0.019983659 -0.082353555 -0.13725026 -0.11725569
000160 5b 41 16 be 5e 54 50 bd 82 14 d4 bd ba 7b 16 3b
       -0.14673369 -0.05086171 -0.10355474 0.002296193
000170 43 53 71 3d 1f b0 7c bd 01 b8 d7 bc 35 b0 09 3d
       0.058917295 -0.0616914 -0.026332857 0.03361531
000180 33 29 8b 3d 2d bc ab 3d 2c 61 a3 3d c3 37 c7 3c
       0.067949675 0.08385501 0.079775184 0.024318581
000190 5d 90 38 3d 86 23 bb bd dc c2 19 3e f0 88 cd 3d
       0.04505955 -0.09137635 0.15015739 0.100358844
0001a0 75 cb 87 be 2b bc 10 3e 20 6f e9 bd 7c 47 73 3e
       -0.26522413 0.1413428 -0.113981485 0.23757738
0001b0 94 d0 2a be a6 cb 58 3b af 4b b1 bd 0d 66 3e be
       -0.16681129 0.0033080368 -0.086570136 -0.18593617
0001c0 29 91 34 be d2 6d 18 be cd 22 e7 3b 96 cd d1 bc
       -0.17633499 -0.14885643 0.007053709 -0.025610726
0001d0 f9 93 c0 bb bb df 81 bd 7f 78 42 3c 9a bf b9 bd
       -0.0058770147 -0.06341501 0.011869549 -0.09069748
0001e0 df 89 93 3d bb fe 91 3c f0 d0 b0 bd 3b 60 ff 3c
       0.07204031 0.01782166 -0.08633602 0.031173816
0001f0 d4 fd 43 be a7 b4 a0 bd 11 e3 e0 bd a0 45 17 3e
       -0.19139796 -0.07846957 -0.109808095 0.14772654
000200 78 38 bb 3d 7a 53 b7 bd c4 78 56 3e da 3f 34 3e
       0.0914163 -0.08951469 0.20944506 0.17602482
000210 86 c2 6b 3e 57 c8 6d be 19 36 37 3e ec a2 ae be
       0.23023424 -0.23220955 0.1789173 -0.34108675
000220 da 7e a5 bd 96 b8 06 3e 04 98 1b be d6 4c 41 3d
       -0.08080836 0.13156351 -0.15194708 0.047192417
000230 ea 21 98 3d da 38 6f 3e 4e c3 f2 3c e5 96 76 3e
       0.074283436 0.23361531 0.029634144 0.24080999
000240 65 f5 77 be 59 5a 8a 3e 28 34 35 be ee 71 c9 3d
       -0.24214704 0.27022055 -0.17695677 0.098361835
000250 d3 cb a7 bd 04 28 c8 be a1 10 72 3c 53 01 3a be
       -0.08193173 -0.3909303 0.014774472 -0.18164568
000260 cf f4 e0 be d9 c0 e1 3d fc 7e 6d be 8e 51 a8 bd
       -0.43936774 0.11023111 -0.23192972 -0.0821868
000270 4c 59 8a bc 9c 22 3b 3e b9 87 80 3c 18 f9 7e 3e
       -0.016888283 0.18274921 0.015689718 0.24899709
000280 86 36 dd bd 02 f5 e7 3e c7 dd 73 3d 4b f1 b7 bd
       -0.10801415 0.45304114 0.059537675 -0.0898157
000290 b1 f0 25 be 66 1c b6 3d dc cf 84 3e 87 77 14 3d
       -0.16205098 0.08892135 0.25939834 0.036246803
0002a0 c8 76 bb bd 7e 8e e7 3c 9f d5 65 bd a9 d3 d8 bd
       -0.09153515 0.028266188 -0.056111928 -0.10587246
0002b0 67 97 83 bd ae f3 3c 3e e6 4c e3 3e b2 a3 03 3e
       -0.06425362 0.18452331 0.44394606 0.12855414
0002c0 a8 38 4a 3e 8a 68 99 bd 8e 23 2a 3e f4 4f 18 3e
       0.19748175 -0.07490642 0.16615126 0.1487425
0002d0 99 73 17 be cf 58 ed bd b6 5c 0d 3d 0b 1a 78 3d
       -0.14790191 -0.115892045 0.034512244 0.06057171
0002e0 42 09 4a bd b6 ba ef 3d 01 ea 41 3e 76 b2 02 3e
       -0.049325235 0.11705534 0.18936922 0.1276339
0002f0 3b 89 f8 be 99 0e ad bd 95 3c 9d be 19 7e 39 be
       -0.485422 -0.0845005 -0.30710283 -0.18114509
000300 db bd 11 3e 79 2e 5f be 6c 60 21 3d d1 97 2d 3e
       0.1423258 -0.21795072 0.039398596 0.16952445
000310 a9 5a 57 be 22 11 5d 3e d7 c0 d3 3e 5c dd 9d be
       -0.21030678 0.21588567 0.41358063 -0.30832946
000320 61 c6 ec bd 7b 88 a8 be e0 ed 0d be 06 bc 50 3e
       -0.11561275 -0.32916626 -0.13860273 0.20384225
000330 d6 ae 6a 3d 44 09 71 3e 7a 02 34 bd 2c ed b9 bd
       0.057295643 0.23538691 -0.043947674 -0.0907844
000340 1b 41 39 be a5 21 36 3e 59 06 c5 3e cb 87 95 bd
       -0.18091242 0.17786272 0.38481405 -0.07301291
000350 a5 19 26 be 38 0d cc 3d f9 e8 94 3d 5c 04 06 be
       -0.1622072 0.09963459 0.072709985 -0.130876
000360 ea 40 47 be 39 24 2b 3e 36 e2 a4 be 62 f6 8b bd
       -0.19458356 0.16713037 -0.32203835 -0.06834103
000370 79 c9 3c 3e 7a ea 32 3b 42 16 a4 3d 73 d1 16 3e
       0.1843623 0.0027300403 0.08012058 0.14728336
000380 82 c0 37 3e 12 7d 8f bc f7 96 c7 3d 43 f1 8d 3d
       0.1794453 -0.017515693 0.09745591 0.06930783
000390 68 3b 4b bc 4a 1c 0c 3e 7e 9c 65 bd 3e 7e c8 bc
       -0.0124043 0.13682666 -0.056057446 -0.02447426
0003a0 2a 01 1a be a8 d3 e4 be 29 d9 cc 3e ca 6c d4 3e
       -0.15039507 -0.4469273 0.4000943 0.4148925
0003b0 c7 d9 b2 be e0 20 1e 3e 7b b4 84 3d 7f e7 9b bd
       -0.34931776 0.15442228 0.064797364 -0.07612514
0003c0 07 f0 53 3d 78 57 34 3d 4b 19 76 bd e2 66 07 3e
       0.05174258 0.04402873 -0.060082715 0.1322284
0003d0 8d 3c 98 3e 06 29 e2 bd e7 2e 17 3e 17 b8 1f be
       0.29733697 -0.11042981 0.14763986 -0.15597568
0003e0 a5 46 67 3c bb 05 db 3e a8 32 e7 bd 54 15 73 be
       0.014115964 0.4277781 -0.11288959 -0.23738605
0003f0 c1 0e 45 be 5f 70 ed bd e1 81 27 be d8 85 4b 3e
       -0.1924391 -0.11593699 -0.16358139 0.19875276

lstm.weight_hh_l1 f4 [512, 128]
000000 59 36 24 be a0 09 b5 3d 08 ba 91 3e 1d 7e d2 bb
       -0.16036357 0.088397264 0.28462243 -0.0064237253
000010 b9 9a 99 3c 5e 0d 01 3e 07 6b ef 3d d4 00 fe 3d
       0.018750535 0.12602755 0.11690336 0.12402502
000020 45 45 7b 3d 15 13 05 3e be 9c ad 3c 04 0e 81 be
       0.061345357 0.1299556 0.021192905 -0.25206006
000030 86 4e bf bc b9 ab 95 3d 56 6f b1 bd 7e 1e 6e 3d
       -0.023352873 0.07308144 -0.08663814 0.05813455
000040 e0 ff 90 3d 07 10 e1 3d 36 0f 38 3e 87 98 97 be
       0.07080054 0.10989385 0.17974553 -0.29608557
000050 31 1f 84 3e b2 e2 a7 bd 73 53 4c 3d 8f a1 78 bd
       0.25805047 -0.081975356 0.04988427 -0.06070095
000060 25 11 ed 3d b2 e0 c8 bd cc 8b 95 3d 67 a7 b3 3d
       0.11575536 -0.09808482 0.07302055 0.08772164
000070 5b b5 8e 3d 6d 40 7c bd 9c 4d 6c 3d 08 21 57 be
       0.069681846 -0.06158488 0.0576912 -0.21008694
000080 fa 33 19 be fd 88 af bc 18 3f a9 3c bc 92 29 bd
       -0.14961234 -0.021427626 0.020659968 -0.041399702
000090 4e b8 08 be bb 5f 57 bd af 65 41 bd 7f ce 72 bd
       -0.13351557 -0.05258153 -0.047216114 -0.05927896
0000a0 be 34 b4 3c 51 50 75 3d 74 79 3e be 18 e1 2b 3e
       0.021997806 0.05989105 -0.18601018 0.16785085
0000b0 53 3b 65 be 1b 65 6c 3d f5 0d f0 bb e4 f4 8a 3d
       -0.22385912 0.05771361 -0.0073258826 0.067849904
0000c0 ca d9 6a be 02 26 28 bd d8 48 22 3e ce 68 f4 bc
       -0.22934642 -0.041051872 0.158481 -0.029835131
0000d0 36 27 4e 3d c5 e1 fe 3c 0c 66 22 bd 20 ba da 3d
       0.050330363 0.031113515 -0.0396481 0.10680032
0000e0 3e 7c 5a be 90 66 b2 bd 4d 84 df bc a9 4b 48 3e
       -0.21336457 -0.087109685 -0.027284766 0.19560112
0000f0 10 99 03 be cf ad de 3d f9 76 05 be a1 66 af 3d
       -0.12851357 0.10872995 -0.13033666 0.08564497
000100 4e b9 0c 3c 79 fb 3b bb 5e b5 9d 3d e4 5a 99 3e
       0.008589102 -0.0028683825 0.07700609 0.29952157
000110 a9 68 dd 3d bf ec 2d be 5a e7 80 be 35 00 38 bd
       0.10810978 -0.16984843 -0.25176507 -0.044922072
000120 44 7e 0a ba 6a 83 be bd a7 d2 14 be ab a0 6a 3c
       -0.0005283097 -0.09302409 -0.14533482 0.014320533
000130 6d c8 21 3e a8 38 68 3e 53 2c 97 bd 68 08 b2 bd
       0.15799113 0.22677863 -0.07381501 -0.086930096
000140 78 cc 30 3e 35 2e 18 3e 9e 70 d9 3d 6b 2a 56 3e
       0.17265499 0.14861377 0.10617183 0.20914619
000150 d0 d1 5a bc 7d 16 34 be 37 b8 4d bd be a2 28 3e
       -0.013355687 -0.17586704 -0.05022451 0.16468331
000160 3d c1 9a be b1 de 16 3e 4a f9 0c be d4 ad ff 3d
       -0.30225554 0.14733388 -0.13766971 0.12484327
000170 8b 92 13 bd 9a 6a 20 3e 49 3f 1f be e8 69 7c be
       -0.036028426 0.15665665 -0.15551485 -0.24649775
000180 59 73 5d be 91 2f f0 3d 4d 9e c0 bc 2d 16 b4 bd
       -0.21626033 0.117278226 -0.023512984 -0.08793292
000190 06 34 94 3c 3c 8b 50 bd 9f 75 a5 bd 38 2f 1e 3e
       0.018091213 -0.050914034 -0.08079075 0.154477
0001a0 da 26 19 bd 0e e4 42 be da 36 5e bd a8 4a 19 be
       -0.037390567 -0.19032308 -0.05425153 -0.14969885
0001b0 c4 56 ee 3d 7d 19 92 3d 5f d5 49 3d ef 90 5e bb
       0.11637643 0.07133768 0.049275752 -0.00339609
0001c0 3a d8 cd bd 99 16 af bd 50 de 90 3e 00 26 d1 bd
       -0.100510076 -0.08549232 0.2829461 -0.10212326
0001d0 a1 c6 a6 bd 7e 28 9c 3c 80 b0 19 bc 0d 11 f3 3d
       -0.08143354 0.019062277 -0.00938046 0.118684866
0001e0 84 f3 7a 3e 5e 49 f3 3d 36 37 13 3e 2b 81 6b 3d
       0.24506956 0.11879228 0.1437653 0.05749623
0001f0 4a 90 2a be dc 42 ba bd f6 47 c7 3d 9d 95 2b be
       -0.16656604 -0.09094784 0.09730522 -0.16756292
000200 f5 86 2a 3d 4c 7c 9e be 1f 3c 0c 3e 29 a3 3a 3e
       0.04163261 -0.30954206 0.1369481 0.18226303
000210 27 17 64 3e 44 af 37 3e 32 7e 07 bc 2c 3a 4a 3e
       0.22274457 0.17937952 -0.008269833 0.19748753
000220 d1 32 7f 3e 4c c0 48 be 6c 91 7b bd 34 68 97 be
       0.24921729 -0.19604605 -0.061417982 -0.29571688
000230 d3 d6 70 3e 8a 90 09 be 3f 2c 4d 3e 04 4f ea bd
       0.23519449 -0.13434044 0.2003641 -0.11440852
000240 da 14 75 3e 78 9e c4 3d b8 7a 86 3e 74 3d 22 bd
       0.23933735 0.09600538 0.26265502 -0.039609388
000250 a5 b8 60 3d cb 12 80 bd d8 bc 22 3e 49 ee 3e be
       0.05486359 -0.062535845 0.1589235 -0.18645586
000260 a5 37 c8 3c 45 e6 8c be d9 c5 77 3e 27 01 6a bd
       0.024440596 -0.27519432 0.24196567 -0.057130005
000270 2f 5e d5 bd f4 2b 2e 3d 66 ec 56 3e 00 2a 34 be
       -0.10418355 0.042522386 0.20988616 -0.17594147
000280 f7 72 9b bd 3e e2 e3 bd 2a f8 4c 3e 1d 83 af 3d
       -0.07590287 -0.11127137 0.20016542 0.0856993
000290 7f b7 50 be 73 83 55 be 3b 1a 05 3e 47 82 a8 bc
       -0.20382498 -0.20850925 0.12998287 -0.020569934
0002a0 cf 9c 8c bd 98 82 9b bd e5 e0 2e be f9 55 23 3e
       -0.06865846 -0.07593268 -0.17077978 0.15950765
0002b0 21 71 7f be 97 d4 64 3e 3e 3a bd bd e6 06 20 3e
       -0.24945499 0.22346722 -0.092396244 0.15627632
0002c0 9b 6d 9b 3d 80 d3 49 3e b9 9b 61 3e cb 1d 95 bc
       0.07589265 0.19709587 0.2203206 -0.018202683
0002d0 c3 58 8a 3e 49 b2 e5 3d 5c e8 4b bd 30 aa 43 bd
       0.27020845 0.11215646 -0.049782142 -0.047769725
0002e0 31 10 6f 3e fa b0 c3 bc 95 14 bb 3d 9c 66 a4 3e
       0.2334602 -0.0238881 0.09134785 0.32109535
0002f0 e2 06 12 be 49 1e 4c 3e d5 a6 e1 bc fa 5a 41 3e
       -0.14260438 0.19933428 -0.027545372 0.18882361
000300 79 da 9b ba 8c 23 a6 bc aa dd 67 bd 58 7e 8b 3e
       -0.0011890671 -0.020280622 -0.05660788 0.2724483
000310 a0 a2 b5 3d 21 e4 e4 bb df 0f 52 be c9 57 02 3e
       0.08868909 -0.006985203 -0.20513867 0.127288
000320 24 4d 05 3e 77 72 2d 3d 53 a3 9d bd d4 44 5d 3d
       0.13017708 0.04234549 -0.07697167 0.054020718
000330 4e ff 83 3e fb 41 94 be 76 3c 97 3d 7b 14 3e 3c
       0.2578072 -0.2895659 0.07384579 0.011601563
000340 3c 1a 12 3e 3d 42 c6 3d d6 d6 34 3e a0 f3 32 3e
       0.1426782 0.09680603 0.17660078 0.17475748
000350 64 e9 ca bd b5 54 8b be 2f 0d 8e 3e 69 a4 84 3e
       -0.09907797 -0.27213064 0.27744433 0.25906685
000360 5a de 63 be 8e 3b aa 3e 8f 78 5e 3d f5 c9 1f 3e
       -0.22252789 0.33248562 0.054314192 0.15604384
000370 af 2d 03 bd d5 2b 61 be 9c 83 bd bd dc 95 04 bd
       -0.03202599 -0.21989377 -0.09253618 -0.03236948
000380 92 00 9f be e5 60 05 be 5b f7 c3 3d ae e3 53 be
       -0.31055123 -0.13025244 0.09568664 -0.20692322
000390 d6 d8 8a 3e b3 95 2a be 0a ac ae bd 5d 5d 3b 3e
       0.27118558 -0.16658668 -0.085289076 0.18297334
0003a0 0b c5 50 bd 0c 18 bf be e4 02 92 3e 75 02 1d be
       -0.050969165 -0.37323034 0.2851783 -0.15332969
0003b0 80 39 f8 3d 2b d1 1c bb 52 fb 5a 3e 34 71 58 3e
       0.12120342 -0.0023928385 0.21384934 0.21136934
0003c0 f0 84 3b 39 8b f4 8e bd 21 f3 49 3e 36 31 1c be
       0.00017883233 -0.069802366 0.19721653 -0.15253147
0003d0 8e 2e 95 3a f2 f2 83 be 67 51 da bd 09 b1 71 3e
       0.0011381672 -0.2577129 -0.106600575 0.2360269
0003e0 50 e6 a1 3e 5b a9 19 3e a9 d4 0b 3c b3 70 48 3e
       0.31621027 0.1500601 0.008534589 0.19574241
0003f0 36 a9 79 be 8e 76 6d be ad 6d e9 3c 89 af 34 be
       -0.24380955 -0.23189756 0.02849468 -0.17645086

lstm.bias_ih_l1 f4 [512]
000000 4a 86 a6 be 2f 00 96 3d 5a 43 1a 3e 89 db 65 bc
       -0.3252433 0.07324254 0.15064755 -0.014029392
000010 1c fa df bd 9c 9d 20 bd ca 23 ae be 08 e5 1b 3e
       -0.109363765 -0.039212808 -0.3401168 0.15224087
000020 31 c8 3f bc 97 68 b6 3d 1d f7 32 be 69 18 03 3d
       -0.011705444 0.08906668 -0.17477079 0.0320057
000030 6e 2e 34 be 99 93 37 3c 6f 4a e0 3d aa 63 66 3e
       -0.17595837 0.011204624 0.10951697 0.22498956
000040 e8 2e 60 bd 74 95 b7 be 59 5b 2f 3e 9e b9 45 3e
       -0.054732233 -0.3585621 0.1712469 0.19309089
000050 57 fa 09 3e c4 9f 3e be dc 22 82 3d 65 a8 19 be
       0.13474403 -0.18615633 0.06354305 -0.15005644
000060 cb 0b 8a be 3c 8e 15 3e c9 53 9c bc 78 9b 7d 3d
       -0.26962122 0.1460504 -0.01908292 0.061915845
000070 97 7a d2 3c c1 d8 b9 bd d3 5f 9c be e2 34 9e bd
       0.025693221 -0.09074546 -0.30541858 -0.0772493
000080 7b 87 d8 3d ff eb 85 be 85 47 87 be d9 1d 6d be
       0.10572716 -0.26156613 -0.26421753 -0.23155917
000090 fa d3 1c be 2d aa 5e be 6a 20 b7 bd bc fb 96 be
       -0.15315238 -0.21744604 -0.08941729 -0.29488933
0000a0 9d 7f 1a be 10 fc e8 bd 8d 6b 0c bb 44 14 02 3e
       -0.15087743 -0.11376202 -0.002142641 0.12703043
0000b0 c7 05 83 bc 33 81 53 be f0 5b 39 be 70 25 85 3d
       -0.015993966 -0.20654754 -0.18101478 0.06501281
0000c0 02 75 86 3e b9 a6 e0 bd 54 0e d8 bc e3 f2 19 be
       0.26261145 -0.109693 -0.02637402 -0.1503406
0000d0 81 f0 f6 bd 34 c4 41 be 73 1e bb bd 3a fc d9 3c
       -0.12057591 -0.18922502 -0.09136667 0.026609529
0000e0 b8 fc 49 bd 82 a1 4a 3e 7c bf ef bd 54 f2 aa bb
       -0.049313277 0.19788173 -0.117064446 -0.005216876
0000f0 e6 fc 81 be 1f 35 bd 3d 73 7a 73 bc 28 c4 b7 be
       -0.2538826 0.09238648 -0.014860737 -0.35891843
000100 40 73 52 be 39 7c 0b be dc 22 52 be b9 99 13 3e
       -0.20551777 -0.13621606 -0.2052111 0.1441411
000110 70 eb 85 be e9 f8 52 be ba 05 53 3e e7 5f 83 be
       -0.26156187 -0.20602764 0.20607653 -0.25659105
000120 9a 12 63 be 0b d4 d6 bd 47 c3 39 be eb 57 83 3d
       -0.22175065 -0.10489663 -0.18140899 0.064132534
000130 05 ba 0a be c2 a6 05 3e 46 93 18 be f0 d9 a6 be
       -0.13547523 0.13051894 -0.1489993 -0.32588148
000140 41 4c 1f bd 71 fe 31 3e 67 07 4f bd b1 be 44 be
       -0.03889108 0.17382218 -0.05054417 -0.19213368
000150 a0 20 a9 be 9c bf 63 bd e3 58 ab bd f0 8a 52 3d
       -0.33032703 -0.055602655 -0.08366563 0.051402032
000160 3b c0 cd 3d ef e3 9a 3d 04 94 6d bd 11 7a 03 be
       0.10046431 0.07563006 -0.058002487 -0.12839533
000170 9f 48 0e be 54 56 20 be 84 f4 39 bd 68 87 b2 3d
       -0.1389489 -0.15657932 -0.045399204 0.08717233
000180 25 e8 b9 bd b1 3a ca bd 42 c6 0a bc 31 ae 62 bd
       -0.09077481 -0.09874476 -0.00847012 -0.055341903
000190 16 43 b5 bd e0 b9 af bc 86 5f 08 be e2 f0 9d bd
       -0.08850686 -0.021450937 -0.1331769 -0.077119604
0001a0 0c 3c f1 bd b2 4e cf bb a6 eb 8c 3d 6a cd 0a bd
       -0.11779031 -0.00632652 0.06880884 -0.033887304
0001b0 97 c4 8c bd ee 70 5b be 61 5c 04 bd 7d 43 28 be
       -0.06873434 -0.21429798 -0.032314662 -0.16431995
0001c0 34 54 a1 be 8f 84 75 bc bb 36 f2 bd e8 b7 f2 bd
       -0.31509554 -0.014985218 -0.11826845 -0.118514836
0001d0 46 4f 63 be 6e 5b 0b be dc 01 bc bd 7e f8 e7 be
       -0.22198209 -0.13609096 -0.09180042 -0.45306772
0001e0 38 61 3b 3c c8 03 5c be 27 43 1c bd 76 1a f8 bd
       0.011436753 -0.21485817 -0.03814998 -0.12114422
0001f0 90 94 5e 3d f1 d6 c4 bd 3d 2a ad be 9b f5 8c be
       0.0543409 -0.09611309 -0.33821288 -0.27531132
000200 ef c0 ae be 29 2b 52 be 50 59 08 bc a9 28 98 be
       -0.34131572 -0.20524277 -0.008322075 -0.2971852
000210 36 59 59 bd 73 8c 95 bc d5 4e 42 be ec ab 36 3e
       -0.053063594 -0.018255448 -0.18975385 0.1783902
000220 de db 97 be 7d db d5 bd 8c 6b 94 be 09 88 31 3e
       -0.29659933 -0.10442255 -0.28988302 0.1733705
000230 92 9b 0a be 58 36 b9 bd e4 6e 34 be 87 72 89 be
       -0.13535908 -0.090435684 -0.17620426 -0.2684519
000240 7e 1f 29 3d 4f 8b d0 be ce b6 26 3e b0 2b af be
       0.0412898 -0.40731284 0.16280672 -0.34213018
000250 d7 c9 5b 3d 41 72 02 bf 4c d1 92 3d 91 26 c8 be
       0.053659286 -0.5095559 0.071688265 -0.39091924
000260 72 d3 88 be f1 e0 6d bd c0 e1 bc 3d ba b3 4f bd
       -0.2672382 -0.05807585 0.09222746 -0.05070851
000270 99 10 8c 3d 15 a8 6d bc f5 f9 ee be 9f 11 f4 bc
       0.06839103 -0.014505406 -0.46675077 -0.029793559
000280 e4 5a ee bc 3e 24 a9 be bc 36 21 3d f1 4c 4a be
       -0.029096074 -0.33035463 0.03935884 -0.19755913
000290 5e 1e bb bd 21 63 f3 bd 10 9e ff bc ea b2 05 bf
       -0.091366515 -0.11884142 -0.0312033 -0.52226126
0002a0 b6 c3 d6 be 55 a7 27 bd be 81 9c 3d f1 b6 7d bd
       -0.4194619 -0.040931065 0.07641934 -0.061942045
0002b0 f0 59 1c 3e 2c 72 0a be 20 4c 01 bf 63 d7 7f 3d
       0.15268683 -0.13520116 -0.5050678 0.06246127
0002c0 f6 9a 16 be 59 92 b9 bd f4 2d 03 be a9 ea c1 be
       -0.1470755 -0.09061117 -0.12810498 -0.37874344
0002d0 f2 0e 0a bc 91 e0 1e 3d 88 43 d5 bd 41 40 1b be
       -0.008426415 0.038788382 -0.10413271 -0.1516123
0002e0 96 3b 48 bd 09 a4 53 be 62 6e 33 be 55 ca ca 3d
       -0.04888495 -0.20668043 -0.17522576 0.09901873
0002f0 f3 9b b8 be 30 5e 10 3e 66 1e 4b be 16 2f 74 be
       -0.3605648 0.1409843 -0.19835815 -0.23846087
000300 78 11 71 be 94 2c 9d be 1d 16 da be 4e b4 8e be
       -0.2354182 -0.30698073 -0.42594996 -0.27871937
000310 8c 5f 4a be 59 9c 3d be f4 d0 3b 3e ff de 36 be
       -0.1976301 -0.18516673 0.18341428 -0.17858504
000320 46 bb d5 be dc 63 9a be c3 7d 9f be 64 a5 4d bd
       -0.4174444 -0.30154312 -0.31150636 -0.050206557
000330 f2 88 db 3d bb 3e 8c bd cf 05 36 be c9 89 a9 be
       0.107194796 -0.068479024 -0.17775653 -0.33112934
000340 85 62 d2 be 87 e2 a7 3d 47 81 cc be 24 39 82 be
       -0.4109079 0.081975035 -0.3994238 -0.2543422
000350 3b 5f c6 be 18 24 01 bd 4b 2d b9 be d9 1b 91 3d
       -0.3874453 -0.031528562 -0.36167368 0.0708539
000360 2d db 85 3e 21 de 18 3e 24 0e 96 be 25 53 9c bd
       0.2614378 0.14928485 -0.29307663 -0.07633046
000370 18 d6 dc bd bd 38 0c be b0 53 3c bc d9 e4 62 be
       -0.10783023 -0.13693519 -0.011494562 -0.22157611
000380 9b 9b 88 3d 12 e0 95 be 7d 25 65 be 2b f3 0e bd
       0.066703044 -0.29272515 -0.22377582 -0.03489987
000390 b6 af 43 be 13 d0 95 bc 06 b3 48 be fc 93 d0 be
       -0.19109997 -0.018287694 -0.19599542 -0.40737903
0003a0 f2 15 f2 bd 74 78 6c 3c 4f 9d 14 be f6 51 e3 be
       -0.11820592 0.014433015 -0.14513133 -0.4439847
0003b0 6d 14 5d 3c af bb 6b be a5 ef 43 bd d3 b5 8f be
       0.013493639 -0.23020814 -0.047835965 -0.28068408
0003c0 b5 1d 6d be 95 d2 b0 be c0 cb 4d bd 99 5b 4f be
       -0.23155864 -0.3453566 -0.05024314 -0.20249785
0003d0 a5 37 65 be 35 38 d8 be 1b d7 60 be 59 8d c0 be
       -0.22384508 -0.42230383 -0.21957056 -0.3760784
0003e0 7d 44 96 be ac af 4f be d6 f9 07 3e f0 1a a4 be
       -0.29349127 -0.20281857 0.13278899 -0.32051802
0003f0 47 c2 4a 3e ad b2 c2 3d 2c 44 b6 be 87 b0 6e be
       0.19800673 0.09506736 -0.35598886 -0.23309527
