models/GBPJPY_model.pth (torch, 860300 bytes, 15 tensors)

lstm.weight_ih_l0 f4 [512, 12]
0	0xbd2bb226	-0.041917942
1	0xbc839b7d	-0.016065354
2	0x3c259e22	0.010108503
3	0x3c957e05	0.018248567
4	0xbd9383c8	-0.0720287
5	0xbd6477a8	-0.055778176
6	0xbe07361a	-0.13204232
7	0x3de60cea	0.11232932
8	0xbdaa543d	-0.083168484
9	0xbd1e5284	-0.03865291
10	0x3d577898	0.05260524
11	0x3db612e4	0.08890322
12	0xbd212416	-0.039341055
13	0x3d6818b6	0.05666419
14	0x3cf49971	0.029858323
15	0xbcdfb1fe	-0.027306553
16	0xbd663ecd	-0.056212235
17	0x3d857436	0.06516306
18	0x3d57f504	0.0527239
19	0xbd234afb	-0.03986643
20	0xbd163d23	-0.0366794
21	0xbb82ab69	-0.003987719
22	0x3cf012ae	0.029305782
23	0x3bcfba10	0.006339319
24	0x3c6b859b	0.014375116
25	0xbadc12af	-0.0016790236
26	0xbcba4d15	-0.022741834
27	0x3c947e37	0.01812659
28	0x3dfc8f84	0.12332061
29	0xbdc2a7da	-0.095046714
30	0xbdb40ae4	-0.0879114
31	0xbcc9748a	-0.024591703
32	0x3d95e6ef	0.07319438
33	0xbdcf9ce7	-0.101373486
34	0xbdc2f207	-0.09518819
35	0xbd0cb906	-0.03435614
36	0xbda24bb5	-0.07924596
37	0xbd1e9906	-0.038720153
38	0x3d456750	0.04819423
39	0x3d90fd17	0.07079523
40	0x3ca43a0e	0.020047214
41	0xbd042c51	-0.032268826
42	0xbcf06eea	-0.029349763
43	0x3df9a841	0.12190295
44	0x3c4f1bf2	0.01264094
45	0x3d494491	0.049137656
46	0x3d49d4ef	0.049275335
47	0x3d92da98	0.071706
48	0x3cb3e564	0.021959968
49	0xbcbffb31	-0.023435207
50	0x3db4458a	0.08802326
51	0x3e03e747	0.12881194
52	0x3d1ff635	0.03905316
53	0xbcf90bf9	-0.030401217
54	0x3dfbefc7	0.12301593
55	0xba6b4768	-0.0008975179
56	0x3d570c70	0.052502096
57	0x3d960b7e	0.07326411
58	0x3d31245d	0.04324757
59	0x3d95c2a7	0.073125176
60	0xbd8f3d71	-0.06994141
61	0x3cbc3bde	0.022977766
62	0x3cfc107c	0.03076958
63	0xbd2c2f12	-0.042037077
64	0x3b975de6	0.004619348
65	0x3d35b684	0.044363514
66	0xbd154118	-0.03643903
67	0x3c07b5b4	0.0082830675
68	0xbd368804	-0.04456331
69	0x3d943997	0.07237547
70	0x3d44688b	0.047951262
71	0x3d10445f	0.035221454
72	0xbd5a6100	-0.053315163
73	0x3c2bb4ad	0.010480088
74	0xbdbc3d02	-0.09191324
75	0x3ba1a91f	0.004933491
76	0xbacefb67	-0.0015791476
77	0xbd8724c7	-0.065988116
78	0xbd21300c	-0.03935246
79	0x3d146c74	0.03623624
80	0xbd617ff2	-0.05505366
81	0x3d549d74	0.05190797
82	0xbd84ce39	-0.06484646
83	0xbbc135e9	-0.005896319
84	0x3ddc448f	0.10755264
85	0xbc1eecc7	-0.009700007
86	0x3cfb2c8a	0.030660886
87	0x3e24c781	0.1609173
88	0x3cb38fb5	0.02191911
89	0x3dbb60c6	0.091493174
90	0x3e1ebe7d	0.15502353
91	0xbd2c35f9	-0.04204366
92	0x3d55ff7b	0.0522456
93	0x3d858d9c	0.065211505
94	0x3dfbba5b	0.12291404
95	0x3dd7b48c	0.105324835
96	0x3cbb5870	0.022869319
97	0x3bc6a96c	0.006062677
98	0xbd85768b	-0.06516751
99	0xbd482e7e	-0.048872463
100	0x3d8fc0df	0.07019209
101	0xbd818a91	-0.063252576
102	0x3d7ddc9f	0.06197798
103	0xbdaeb4be	-0.085305676
104	0x3c920dab	0.017828783
105	0x3d6b76ac	0.05748622
106	0x3c3a26e3	0.01136181
107	0x3d8efea0	0.069821596
108	0xbd5c1595	-0.05373152
109	0x3c9bd265	0.019021222
110	0xbcfa749e	-0.030573186
111	0xbc53418c	-0.012894046
112	0xbcc9a20c	-0.024613403
113	0xbd101bb9	-0.03518269
114	0xbd27285f	-0.040809985
115	0x3dc08ffa	0.09402461
116	0x3d3794f3	0.044819783
117	0x3d931f72	0.07183732
118	0xbcc9af21	-0.02461964
119	0xbabea797	-0.0014545795
120	0xbd82b68a	-0.06382473
121	0xbd9c953a	-0.0764565
122	0xbd99f965	-0.07518271
123	0xbd04cddb	-0.03242288
124	0xbd16cd9f	-0.03681719
125	0xbd39d9ac	-0.045373604
126	0xbe02dff5	-0.12780745
127	0xbca3c1ce	-0.019989874
128	0xbd8ca9ad	-0.068683006
129	0xbb34fd87	-0.0027616934
130	0x3d632d98	0.055463403
131	0x3cf86d8c	0.030325674
132	0xbe034935	-0.12820895
133	0x3c153429	0.009106674
134	0xbd46ca04	-0.0485325
135	0xbd141e26	-0.036161564
136	0x3ce0b33c	0.027429216
137	0xbcc7c4a6	-0.024385761
138	0xbd8577cf	-0.06516992
139	0xbd46cae2	-0.048533328
140	0xbd3aba8a	-0.045588054
141	0xbd885b85	-0.06658081
142	0xbc0af3c5	-0.008480971
143	0xbdacf15b	-0.084444724
144	0xbd27f07d	-0.041000832
145	0xbdbf8d66	-0.093531415
146	0x3d7afafa	0.061274506
147	0xbdac0a1d	-0.084003665
148	0xbc1773e9	-0.009243944
149	0xbdd5b085	-0.10434059
150	0xbd10151a	-0.035176374
151	0xbcf5db8b	-0.030011913
152	0x3cdc8de5	0.02692313
153	0x3d55c00e	0.05218511
154	0x3d7c1fef	0.06155389
155	0xbd69751c	-0.05699645
156	0x3b860af9	0.0040906635
157	0x3deb2c7e	0.114830956
158	0x3bddf95a	0.00677411
159	0x39db7a14	0.0004186189
160	0x3e0b36da	0.13595143
161	0xbbc6b8c3	-0.006064506
162	0x3e1684b0	0.14699054
163	0x3e1cb130	0.15301967
164	0x3d88361b	0.06650945
165	0x3e1b6030	0.15173411
166	0x3dd745f3	0.10511389
167	0x3d1213c6	0.03566339
168	0xbd016245	-0.031587858
169	0xbdc9cb30	-0.09853208
170	0xbd45e08e	-0.048309855
171	0xbd1937fe	-0.037406914
172	0xbdbf8d5a	-0.093531325
173	0xbdc50ca4	-0.09621552
174	0xbe28d114	-0.16486007
175	0xbd0c614a	-0.03427247
176	0x3d3b4ddf	0.04572856
177	0xbcf7a05b	-0.03022783
178	0xbda6541d	-0.08121512
179	0xbe0f0d16	-0.13969836
180	0xbdd2fe96	-0.10302465
181	0xbbfc16e9	-0.007693161
182	0xbdad06c2	-0.084485546
183	0xbc3f185d	-0.0116635235
184	0xbd661aef	-0.05617803
185	0xbdab0cbb	-0.083520375
186	0x3d3873eb	0.045032423
187	0x3d294b55	0.041331608
188	0xbe129ce5	-0.14317663
189	0x3d98fd9f	0.074702494
190	0x3d5713e0	0.05250919
191	0xbdcd6b63	-0.10030248
192	0xbd362eab	-0.0444781
193	0xbdf8ef4b	-0.121550165
194	0xbca04770	-0.019565314
195	0xbd583511	-0.052784983
196	0xbd5d4b65	-0.05402698
197	0xbd68f25f	-0.056871768
198	0xbe050585	-0.12990387
199	0xbceeeed3	-0.029166615
200	0x3dd3c992	0.10341181
201	0x3d868fd1	0.065703996
202	0x3d057014	0.03257759
203	0x3cedef52	0.02904478
204	0xbd861e50	-0.065487504
205	0xbe094246	-0.13404188
206	0xbe20b1f5	-0.15692885
207	0xbe23af6b	-0.15984885
208	0x3d984cad	0.074365
209	0xbd2448e3	-0.040108573
210	0xbe200571	-0.15627076
211	0xbdd50b2f	-0.10402524
212	0x3dcc40af	0.09973275
213	0xbc750126	-0.014953887
214	0x3c143f80	0.009048343
215	0xbde2cee7	-0.1107462
216	0xbd4e14c0	-0.050312757
217	0xbda8a7f5	-0.0823516
218	0xbdcd1763	-0.10014226
219	0x3d30a10d	0.04312234
220	0xbdccc509	-0.09998519
221	0xbde64714	-0.11244026
222	0xbd8bdddb	-0.06829425
223	0x3d62f20e	0.055406623
224	0xbe085acb	-0.13315885
225	0x3d8ee7b7	0.0697779
226	0x3b42ed6f	0.0029743572
227	0x3da7555f	0.0817058
228	0xbc8a8967	-0.016911222
229	0xbd225c32	-0.039638706
230	0xbe08ae5d	-0.13347764
231	0xbe12dd49	-0.14342226
232	0xb9bdc808	-0.00036197924
233	0xbd4fe724	-0.050757542
234	0xbdc206e4	-0.094739705
235	0xbc56f001	-0.013118745
236	0xbc97a1c4	-0.018509753
237	0xbd3be7c7	-0.045875337
238	0x3ce8d673	0.02842257
239	0x3cb23750	0.02175489
240	0xbe0d1cce	-0.1378052
241	0xbe26eeba	-0.16302004
242	0x3b8aa3bd	0.004230945
243	0xbdb7271b	-0.08943006
244	0x3c940df8	0.018073067
245	0xbe0ecb17	-0.1394466
246	0xbd4875ae	-0.048940353
247	0x3da96cd6	0.08272712
248	0x3d1449c0	0.036203146
249	0xbca9e67a	-0.020739783
250	0xbc0a0476	-0.008423915
251	0x3d8f7762	0.07005192
252	0x3d1ac352	0.03778393
253	0x3dbaeda6	0.09127359
254	0xbd29a286	-0.04141476
255	0x3d6671d6	0.056260906

lstm.weight_hh_l0 f4 [512, 128]
0	0x3ba36f33	0.004987621
1	0x3d547c47	0.051876333
2	0xbdf0daa0	-0.117604494
3	0xbd803c07	-0.06261449
4	0xbde81f81	-0.11334134
5	0xbd0ab7a6	-0.033866547
6	0x3d414f26	0.047194622
7	0xbbf25525	-0.007395404
8	0x3dad8103	0.08471873
9	0x3d57b690	0.05266434
10	0x3c88ee18	0.016715094
11	0x3dc377bc	0.09544322
12	0x3d87663b	0.06611296
13	0x3ddc183b	0.10746809
14	0xbddc6c1e	-0.10762809
15	0xbe1e0e42	-0.15435126
16	0x3d329cc8	0.04360655
17	0x3d0fdbc1	0.035121683
18	0x3e0a5c8d	0.13511868
19	0xbd2cfb1e	-0.04223167
20	0xbdb5fb9b	-0.088858806
21	0x3dec0576	0.11524479
22	0x3cb9aa90	0.022664338
23	0x3df65933	0.12028732
24	0xbbf0ddda	-0.0073506655
25	0xbda9c6cc	-0.082898706
26	0xbc9896cb	-0.018626591
27	0xbd67aa7e	-0.05655908
28	0xbdd23568	-0.10264093
29	0xbd0d568d	-0.03450637
30	0x3e0a13e5	0.13484152
31	0xbd044693	-0.032293867
32	0x3d14b7ab	0.036307972
33	0xbde8dfee	-0.11370836
34	0x3dce09c7	0.10060459
35	0xbd848ed8	-0.06472558
36	0xbcd93474	-0.02651427
37	0xbcac59ab	-0.02103885
38	0x3d997cfb	0.07494541
39	0x3dc48c6a	0.09597094
40	0x3d020e2d	0.0317518
41	0x3d9531c8	0.07284886
42	0xbd78c04b	-0.06073026
43	0xbda6ae00	-0.081386566
44	0xbd537871	-0.051628534
45	0x3dd41f5b	0.10357543
46	0x3c66e5fa	0.014092917
47	0xbdea6d37	-0.11446612
48	0xbb94985a	-0.0045347633
49	0x3d48c2b1	0.049013797
50	0x3c238a5d	0.009981719
51	0xbdde19c7	-0.108447604
52	0x3e06318c	0.13104838
53	0xbd1f972b	-0.038962524
54	0xbc71fae1	-0.014769287
55	0xbda85303	-0.08218958
56	0x3ddc6843	0.10762074
57	0xbd1da9ab	-0.038491886
58	0xbd2335ef	-0.039846357
59	0xbdfc6cdf	-0.12325453
60	0xbdac2b47	-0.08406692
61	0xbdc5c1e7	-0.096561246
62	0xbd4943cd	-0.049136925
63	0xbcd163aa	-0.025560219
64	0xbd3228f8	-0.043496102
65	0xbc66d185	-0.014088039
66	0x3b520b68	0.0032050256
67	0x3da239fb	0.07921215
68	0x3deb0d8e	0.11477195
69	0x3d08409b	0.033264738
70	0xbd6c60c2	-0.057709463
71	0x3c017d69	0.007903435
72	0x3dddf66a	0.108380154
73	0xbcaf3231	-0.021386238
74	0xbd494433	-0.049137305
75	0x3dabac75	0.08382503
76	0xbdaca83e	-0.08430527
77	0x3b04ec55	0.0020282466
78	0xbd49e8a9	-0.049294148
79	0xbd89ccd3	-0.0672852
80	0x3d657c42	0.056026705
81	0x3cadff75	0.021239975
82	0xbcc94aaf	-0.024571745
83	0x3b3bc80b	0.002865317
84	0x3db77981	0.08958722
85	0x3df115f9	0.11771769
86	0x3e1021a9	0.1407534
87	0xbd9284f6	-0.071542665
88	0xbe31cf7b	-0.17364304
89	0x3dfb3723	0.12266376
90	0x3c571ef9	0.013129943
91	0x3cb33423	0.021875447
92	0xbd5f410d	-0.054505397
93	0x3df8e1ea	0.12152465
94	0x3df87126	0.12130956
95	0x3def1cc1	0.11675406
96	0x3d44ceb4	0.04804869
97	0x3c888f62	0.016669933
98	0x3e1df819	0.15426673
99	0xbe218634	-0.1577385
100	0xbb0ebdfa	-0.0021780715
101	0x3d1adcc3	0.03780819
102	0xbdce88b1	-0.100846656
103	0x3c38f3d7	0.011288605
104	0xbcf2cb6f	-0.02963802
105	0xbd4cfc27	-0.05004516
106	0xbdf4a380	-0.11945248
107	0x3cf476e7	0.029841853
108	0x3d797d8b	0.060910743
109	0xbdaa306d	-0.08310018
110	0x3d218212	0.039430685
111	0xbb314b0f	-0.0027052795
112	0xbc04c2f9	-0.008103126
113	0xbcdcf083	-0.026970154
114	0x3c827ed8	0.015929624
115	0x3d1dfa61	0.038568858
116	0x3ce9d273	0.028542733
117	0xbb2f9c2c	-0.0026795967
118	0xbdc739bf	-0.09727811
119	0x3d1a1cdf	0.03762519
120	0x3da68b7a	0.08132072
121	0xbd0f1032	-0.034927554
122	0xbe10cd75	-0.14140876
123	0xbcc1c25d	-0.02365225
124	0xbdf5034d	-0.1196352
125	0x3e05aebe	0.1305494
126	0x3da6a7b3	0.08137455
127	0xbc810adb	-0.015752247
128	0x3de00fae	0.10940491
129	0x3d5ead34	0.054364398
130	0x3df2af38	0.118498266
131	0x3db07dcd	0.086177446
132	0xbd006864	-0.031349555
133	0xbd1f4893	-0.03888757
134	0x3cd11285	0.025521526
135	0xbd9e2db8	-0.07723564
136	0x3d2524bf	0.040318247
137	0x3d9d0722	0.07667376
138	0xbc07003e	-0.008239804
139	0xbda82915	-0.08210961
140	0x3d160fd2	0.03663618
141	0x3c145db1	0.009055541
142	0xbd8cc42e	-0.06873356
143	0x3ad09e2c	0.001591628
144	0x3d218833	0.03943653
145	0x3d0dfb86	0.0346637
146	0x3da42187	0.08014207
147	0xbda41dca	-0.08013494
148	0xbd8ffa16	-0.07030122
149	0x3d61d16e	0.05513137
150	0xbd9eab68	-0.07747537
151	0xbb6d150c	-0.0036175875
152	0x3d8f84e8	0.07007772
153	0xbc8fb0d3	-0.017540371
154	0xbd7c3756	-0.06157621
155	0xbd487782	-0.048942097
156	0xbd13eb0b	-0.036112826
157	0xbdca0713	-0.098646306
158	0xbddedd0e	-0.108820066
159	0xbd5392f5	-0.05165382
160	0xbd0b1b0d	-0.033961345
161	0x3e2514c0	0.16121197
162	0xbdde9206	-0.108676955
163	0xbd84ca1d	-0.064838625
164	0xbcdd8750	-0.027042061
165	0x3d720f81	0.059096817
166	0xbd199fa2	-0.037505753
167	0x3c07f329	0.00829772
168	0x3da5afb6	0.08090155
169	0xbda96639	-0.082714505
170	0x3e0f4704	0.13991934
171	0x3ddb2367	0.10700112
172	0xb86e031c	-5.6746518e-05
173	0xbdd531f4	-0.104099184
174	0xbd92632e	-0.07147823
175	0x3b449baf	0.0030000021
176	0x3dc0b516	0.094095394
177	0xbd626955	-0.055276234
178	0xbcf00703	-0.029300218
179	0xbd4fedd5	-0.050763924
180	0xbd87b431	-0.06626166
181	0xbdaa1ce2	-0.0830629
182	0x3d824efa	0.0636272
183	0x3d9d72d1	0.07687915
184	0x3cbe7f87	0.02325417
185	0xbd9a8faf	-0.07546937
186	0x3c325747	0.010885066
187	0x3c0072a2	0.007839831
188	0x3ca764f6	0.020433884
189	0xbb4d73a4	-0.0031349445
190	0xbe05c03a	-0.1306161
191	0xbd476b69	-0.04868642
192	0xbda42a9b	-0.08015939
193	0x3db03ebd	0.086057164
194	0xbb51a117	-0.0031986886
195	0xbd85c6b3	-0.065320395
196	0x3d2950f2	0.04133696
197	0xbd055559	-0.032552097
198	0xbd7b8b9f	-0.06141245
199	0xbd2cf5e6	-0.042226695
200	0xbabc4c89	-0.0014366071
201	0xbd9a3b41	-0.07530833
202	0x3dce96d1	0.1008736
203	0x3d348770	0.044074476
204	0x3df0049b	0.117196284
205	0xbd6bbe79	-0.057554696
206	0xbcd9846a	-0.026552398
207	0xbce491cb	-0.02790155
208	0xbdea4d3a	-0.11440511
209	0x3d71bcd0	0.059017956
210	0xbd89829a	-0.067143634
211	0xbd6f706b	-0.05845682
212	0xbda8aa89	-0.08235652
213	0x3d292cc7	0.04130247
214	0x3d160d5d	0.036633838
215	0xbd3f0832	-0.046638675
216	0x3d30ee21	0.043195847
217	0x3b3ecb2a	0.0029112794
218	0x3d5052a1	0.05086005
219	0x3d81ac00	0.063316345
220	0x3b8771f0	0.0041334555
221	0x3dcd5165	0.100252904
222	0xbd92a412	-0.071602
223	0xbdaa8048	-0.08325249
224	0x3d3c640f	0.04599386
225	0xbdbc4b79	-0.09194083
226	0x3db1f91c	0.08690092
227	0x3ba6c4e8	0.005089391
228	0xbcb2c868	-0.021824077
229	0x3c890c61	0.016729536
230	0xbd02fb24	-0.031977788
231	0xbdb03832	-0.086044684
232	0xbd7af528	-0.061268955
233	0x3d590a2d	0.05298822
234	0xbce5e0a6	-0.028061222
235	0x3b2d5477	0.002644805
236	0xbd019911	-0.031640116
237	0x3d9e7ccc	0.07738647
238	0x3d639038	0.05555746
239	0x3c213569	0.009839394
240	0xbdc35684	-0.09537986
241	0xbd15113b	-0.036393385
242	0xbd72e377	-0.05929896
243	0xbc814faf	-0.015785066
244	0xbccdb746	-0.025111806
245	0xbc97cc2e	-0.018529978
246	0x3ca57af7	0.020200236
247	0x3ca57276	0.02019618
248	0xbd7abaeb	-0.061213415
249	0x3d781980	0.060571194
250	0x3c9139fc	0.017727844
251	0xbbb147e1	-0.00541018
252	0xbd6a99e2	-0.05727566
253	0xbd9db0b5	-0.0769972
254	0xbd9c0a4f	-0.07619154
255	0x3c398355	0.011322816

lstm.bias_ih_l0 f4 [512]
0	0xbc48a736	-0.012246897
1	0xbcaa52ed	-0.020791495
2	0xbda56f6e	-0.08077894
3	0xbd8f2e7c	-0.06991288
4	0x3d5d8935	0.05408593
5	0x3c597e38	0.013274722
6	0x3d19b89d	0.037529577
7	0x3d4b5685	0.04964306
8	0xbd229c5d	-0.0396999
9	0xbd573425	-0.052539963
10	0xbd12cc3a	-0.035839297
11	0x3ce740ae	0.028229084
12	0x3ce15cd2	0.02751008
13	0x3e4967cc	0.19668502
14	0xbd193099	-0.037399862
15	0xbd5888fe	-0.05286502
16	0xbd4cf45d	-0.05003773
17	0x3d5ea9b4	0.05436106
18	0xbcc44cbf	-0.023962377
19	0xbdae2a89	-0.08504207
20	0x3d3475dc	0.044057712
21	0x3d419293	0.047258925
22	0xbdb16fe9	-0.08663923
23	0x3db822f7	0.08991044
24	0xbda28f91	-0.07937539
25	0xbd39a494	-0.04532297
26	0xbd63e652	-0.055639572
27	0xbd457460	-0.048206687
28	0xbde9856b	-0.114024006
29	0x3d6b8824	0.05750288
30	0x3cf6b034	0.030113317
31	0x3b203464	0.002444529
32	0xbccf3443	-0.025293475
33	0xbc8daced	-0.017294372
34	0x3da003ec	0.07813248
35	0xbd8e52c7	-0.06949382
36	0xbc5c2887	-0.013437397
37	0xbdc1991f	-0.09453034
38	0xbd25c05f	-0.040466662
39	0xbd58bb2d	-0.05291288
40	0xbe05b761	-0.13058235
41	0x3d22b327	0.039721634
42	0xbce13e9c	-0.027495675
43	0xbaf5a60b	-0.0018741501
44	0xba2c5e09	-0.00065752916
45	0xbdf47516	-0.11936395
46	0x3dc46a39	0.09590573
47	0xbdbeeff7	-0.093231134
48	0x3ccc8e9b	0.024970343
49	0x3bebf584	0.0072008986
50	0xbd18389c	-0.037163362
51	0xbde37bcd	-0.111075975
52	0x3c18c9de	0.009325473
53	0x3cccb82f	0.02499017
54	0xbbb88eb1	-0.0056322445
55	0x3b892a6d	0.0041859658
56	0x3c1fd63f	0.00975567
57	0xbd8a92c2	-0.06766273
58	0xbc372e80	-0.01118052
59	0xbc305a6d	-0.010763747
60	0xbd57205c	-0.052521095
61	0x3d7a443e	0.061100237
62	0x3d6adcf0	0.05733961
63	0xbd086249	-0.033296857
64	0xbb8c7926	-0.004286903
65	0xbe2ed330	-0.17072749
66	0xbdd069f3	-0.10176458
67	0xbe2a2aa6	-0.16617832
68	0xbda1cae6	-0.07900028
69	0x3d78089a	0.060555078
70	0xbd83071d	-0.06397841
71	0xbd86b538	-0.065775335
72	0x3d1db5bf	0.038503405
73	0x3e1a3ed9	0.15063037
74	0xbd94dc8b	-0.07268628
75	0xbc4bb2a6	-0.01243273
76	0x3df5b4a7	0.11997347
77	0xbdabb026	-0.08383207
78	0xbdf0e166	-0.11761741
79	0xbcb171d2	-0.021660719
80	0xbc34bb0b	-0.011030923
81	0xbdbcf572	-0.092265025
82	0xbd958a2d	-0.073017456
83	0xb9a456b4	-0.00031345116
84	0xbd236fb5	-0.039901454
85	0x3d3b5ef9	0.04574487
86	0xbda72b6c	-0.08162579
87	0xbb9e6f95	-0.004835079
88	0x3cad0e02	0.021124844
89	0x3c6cdada	0.014456475
90	0xbdd1ea2c	-0.10249743
91	0xbd6e7d40	-0.058224916
92	0xbde0ff40	-0.10986185
93	0xbd912304	-0.07086757
94	0xbd40bd49	-0.047055516
95	0xbcdd0714	-0.026980914
96	0x3db17258	0.086643875
97	0x3d8752c0	0.0660758
98	0xbd1a85df	-0.037725326
99	0xbccdc652	-0.02511898
100	0xbc914dd4	-0.017737307
101	0xbdf33f0e	-0.11877261
102	0xbd880d23	-0.06643131
103	0xbdb788f3	-0.08961668
104	0xbd69d9de	-0.05709254
105	0xbd2be304	-0.041964546
106	0xbd46d3d4	-0.04854186
107	0xbdafae86	-0.085782096
108	0xbd177de0	-0.036985278
109	0xbe133b14	-0.14378005
110	0xbdf88fc6	-0.121367976
111	0x3d984a86	0.07436089
112	0x3d55cc99	0.052197073
113	0x3d6b9a8f	0.057520445
114	0xbdb21f92	-0.08697428
115	0x3d8794f1	0.06620205
116	0x3d65506e	0.055984907
117	0x3d9bc711	0.07606328
118	0x3bb83ecc	0.0056227203
119	0x3c818e51	0.015814932
120	0xbdc80351	-0.097662576
121	0xbd142313	-0.036166262
122	0x3d915b8d	0.0709754
123	0xbddabf69	-0.1068104
124	0xbcf5f3cb	-0.030023476
125	0xbd258b65	-0.04041614
126	0xbd1fe9ad	-0.03904121
127	0xbdda0bfe	-0.106468186
128	0x3d41c72a	0.04730908
129	0xbdbf6c17	-0.093467884
130	0xbda51fea	-0.08062728
131	0xbdcfa1bc	-0.1013827
132	0x3cbeb782	0.023280863
133	0xbdd7c7a2	-0.10536124
134	0x3c542a8c	0.012949597
135	0x3dbdb50f	0.0926305
136	0xbdc456e5	-0.09586886
137	0x3d7e0b3b	0.06202243
138	0x3d369ebb	0.04458497
139	0x3c825bf7	0.015912993
140	0xbc442976	-0.011972776
141	0xbe23106f	-0.15924238
142	0xbd8c87b6	-0.06861822
143	0xbc96e1a9	-0.01841815
144	0xbd1c94e3	-0.038227927
145	0xbcfc046f	-0.030763833
146	0xbcd7dd92	-0.02635077
147	0xbd9bc2c6	-0.076055095
148	0xbcda3062	-0.026634399
149	0xbce518aa	-0.027965862
150	0xbd58415f	-0.052796718
151	0x3c41b2e2	0.011822434
152	0xbd7fc045	-0.062439222
153	0xbd8aa57e	-0.067698464
154	0x3d496521	0.04916871
155	0x3d08a189	0.033357177
156	0xbddb143d	-0.106972195
157	0xbdaed801	-0.08537293
158	0xbd92ccbe	-0.07167958
159	0x3d2159b4	0.03939219
160	0xbdb4a86d	-0.08821187
161	0x3c86d4d8	0.016458914
162	0xbd736e1b	-0.059431177
163	0xbcf142ce	-0.0294508
164	0x3ceba39c	0.028764538
165	0xbe2063ff	-0.15663145
166	0xbe08d206	-0.13361368
167	0x3d53ed0b	0.051739734
168	0xbe08ba59	-0.13352336
169	0xbd44a8a1	-0.04801238
170	0x3b5b0ef7	0.0033425668
171	0xbdeed9be	-0.11662625
172	0xbc726617	-0.014794848
173	0x3c26d3c9	0.010182329
174	0x3be2f3d0	0.0069260374
175	0xbdbd65ed	-0.092479564
176	0xbdb76cb7	-0.089562826
177	0xbb3fdeca	-0.002927708
178	0xbad1f58b	-0.0016018612
179	0xbdff8872	-0.12477197
180	0xbde74813	-0.11293044
181	0x3d57a819	0.052650545
182	0xbd1bccf2	-0.038037248
183	0xbe02e602	-0.12783054
184	0xbd23f5f1	-0.04002947
185	0xbdcc7c0d	-0.09984598
186	0xbd30e115	-0.043183405
187	0xbc65f24d	-0.01403482
188	0x3a5921aa	0.00082829094
189	0xbd5c95f5	-0.053853948
190	0xbd9129ef	-0.07088076
191	0xbe19f8d4	-0.15036327
192	0xbd975c4f	-0.07390653
193	0xbe3389f6	-0.17533097
194	0x3d014d41	0.031567816
195	0xbd79e259	-0.061006878
196	0xbe04a62f	-0.12954019
197	0x3cc90ff0	0.024543732
198	0x3b210e4e	0.0024575177
199	0xbc80039a	-0.015626717
200	0xbda440d0	-0.080201745
201	0xbdba4668	-0.0909546
202	0xbcc7fbed	-0.02441212
203	0x3d0f82cb	0.035036843
204	0xbda8309f	-0.08212399
205	0xbdbea3c9	-0.09308583
206	0xbd38295b	-0.044961315
207	0x3c3ff89d	0.011716989
208	0x3d0c7b10	0.03429705
209	0xbdab4c92	-0.08364214
210	0xbe38cfd8	-0.18048036
211	0x3b53a207	0.003229262
212	0xbdfb9d9f	-0.12285923
213	0xbe05591e	-0.13022277
214	0xbdc15d1e	-0.09441589
215	0xbdd1b01c	-0.10238668
216	0xbde770ae	-0.11300789
217	0x3c10f0b7	0.008846453
218	0x3c1eff78	0.009704463
219	0xbd77c4e4	-0.060490504
220	0x3c00e775	0.007867684
221	0xbd307ce5	-0.04308786
222	0xbd0de622	-0.0346433
223	0xbd66c794	-0.056342676
224	0x3ca9da50	0.020733982
225	0x3d623fb2	0.055236526
226	0xbd9705a3	-0.07374122
227	0xbd9891dc	-0.074496955
228	0xbdd87f51	-0.10571159
229	0x3c6f4928	0.014604844
230	0x3dae8de9	0.08523161
231	0xbdbe60d8	-0.09295815
232	0xbd5a20e7	-0.053254034
233	0xbe0095e8	-0.12557185
234	0xbd696b7c	-0.05698727
235	0xbc82c5d7	-0.015963478
236	0xbc296957	-0.010340056
237	0xbdbabeca	-0.091184214
238	0xbdf2f19d	-0.1186249
239	0xbddb7d9a	-0.10717316
240	0xbd208b20	-0.03919518
241	0xbd8b658f	-0.0680648
242	0x3c924840	0.017856717
243	0x3d99e302	0.075140014
244	0x3d85958c	0.065226644
245	0x3d18d612	0.03731353
246	0xbd7cefec	-0.061752245
247	0xbdad33c6	-0.084571406
248	0xbd9269e5	-0.07149104
249	0xbd93c560	-0.07215381
250	0xbdeb6d2e	-0.11495434
251	0xbde8407a	-0.11340423
252	0xbde63045	-0.112396754
253	0xbe098e18	-0.1343311
254	0xbd7e08f4	-0.062020257
255	0x3c881675	0.01661227

lstm.bias_hh_l0 f4 [512]
0	0x3d38fe09	0.04516414
1	0xbd5487ef	-0.05188745
2	0x3d608b05	0.05482008
3	0xbd3b1ce2	-0.04568184
4	0x3c7b4e0f	0.015338435
5	0x3d176f01	0.036971096
6	0xbdcf2826	-0.101150796
7	0x3d9c171d	0.07621596
8	0xbd13c22a	-0.03607384
9	0x3c4778d9	0.012174808
10	0x3d00e0cf	0.031464394
11	0xbd6c8439	-0.057743285
12	0xbcc8cb68	-0.024511054
13	0x3e1b05a2	0.15138867
14	0xbdb5d797	-0.08879011
15	0xbbf6d7a1	-0.007533029
16	0xbd8b8d9f	-0.068141215
17	0xbcd3c882	-0.025852446
18	0x3d599efb	0.05313013
19	0xbd7d6eb5	-0.061873157
20	0x3d81fe68	0.06347352
21	0xbd006842	-0.031349428
22	0xbcaa86ed	-0.02081629
23	0x3d710098	0.058838457
24	0xbd783bc6	-0.06060388
25	0xbc5072d5	-0.012722691
26	0xbda01073	-0.078156374
27	0xbd1d1e30	-0.038358867
28	0xbceb3819	-0.028713273
29	0xbd65d293	-0.056109022
30	0xbd75fd31	-0.060055915
31	0x3d2e1bcd	0.04250698
32	0xbdfad9e4	-0.122485906
33	0x3d8e26c8	0.06940991
34	0x3d1d6e14	0.038435057
35	0xbcd3942b	-0.025827488
36	0x3bca4b36	0.0061735166
37	0xbd821a35	-0.06352655
38	0xbd1e53af	-0.038654026
39	0xbaa371d7	-0.001246984
40	0xbcdf30cf	-0.027244953
41	0x3ce873cd	0.02837553
42	0x3d04f6be	0.032461874
43	0x3ae6c38f	0.0017605888
44	0x3cf0cb4a	0.02939381
45	0xbdef91ee	-0.11697756
46	0x3d71bb3a	0.059016444
47	0xbdbc2fd9	-0.09188814
48	0xbda36a9a	-0.07979317
49	0x3c420e6d	0.01184426
50	0xbe0f2d12	-0.13982037
51	0xbd0c5afe	-0.034266464
52	0xbc32ff0f	-0.0109250685
53	0xbd2fc521	-0.042912606
54	0xbb319709	-0.002709808
55	0x3c149fa6	0.009071266
56	0xbc2f1542	-0.010686221
57	0xbd3a7fef	-0.045532163
58	0xbd1706be	-0.036871664
59	0xbdf7aeb4	-0.12093869
60	0xbda0ce28	-0.07851821
61	0x3bfc4236	0.0076983226
62	0xbd0179e7	-0.031610396
63	0xbce28182	-0.027649645
64	0x3d211157	0.039323177
65	0xbdcb56a3	-0.09928634
66	0x3d224a03	0.039621364
67	0xbdf81be3	-0.12114694
68	0xbd9d19a0	-0.07670903
69	0xbcc65b3e	-0.02421343
70	0xbccce61f	-0.025012074
71	0xbd191fab	-0.037383717
72	0xbdcd3560	-0.10019946
73	0x3d92c38a	0.07166202
74	0x3d8e1021	0.0693667
75	0xbd9ed1fe	-0.077548966
76	0x3da713a3	0.08158042
77	0x3b585d7d	0.0033014708
78	0xbde4de9c	-0.11175272
79	0xbda8abe8	-0.082359135
80	0xbd913b4e	-0.070913896
81	0x3d01610c	0.03158669
82	0xbdc562bb	-0.09637972
83	0xbe156cdb	-0.14592306
84	0xbdd7dc74	-0.10540095
85	0xbd71c173	-0.05902238
86	0xbbeb2e4e	-0.007177151
87	0xbd39d786	-0.045371555
88	0x3d416468	0.047214895
89	0xbb8ec705	-0.004357221
90	0xbd99056e	-0.07471739
91	0xbd93eff8	-0.07223505
92	0xbd2af534	-0.04173775
93	0xbd44cfce	-0.04804974
94	0x3ce6b0d8	0.028160498
95	0xbd050fd6	-0.032485805
96	0xbc557719	-0.013028883
97	0x3c94e25f	0.018174348
98	0x3d7e7d6e	0.062131338
99	0x3dad1c08	0.08452612
100	0x3d4419ab	0.04787604
101	0xbcef99ee	-0.029248204
102	0x3ce35a90	0.027753145
103	0xbded1927	-0.11577063
104	0xbd4e9fb9	-0.050445292
105	0xbcbdd729	-0.023173885
106	0xbd238088	-0.0399175
107	0x3d20c549	0.039250646
108	0x3dce6499	0.10077781
109	0xbd2e0698	-0.042486757
110	0xbe2aca53	-0.16678743
111	0x3d8f5389	0.06998355
112	0x3cde4cca	0.027136225
113	0xbd93c7e4	-0.072158605
114	0x3d5bfae8	0.05370608
115	0x3cf1a08d	0.029495502
116	0xbcb0b503	-0.021570688
117	0x3c9a5e6f	0.018843858
118	0xbc1396f1	-0.009008155
119	0xbd5da1d9	-0.054109428
120	0xbde55d2b	-0.11199411
121	0xbde4d88f	-0.11174118
122	0x3dd308be	0.10304402
123	0x3c814139	0.01577817
124	0x3d117b12	0.03551776
125	0xbd8fced5	-0.07021872
126	0xbd5c7f31	-0.053832237
127	0xbd809dc2	-0.0628009
128	0x3d892829	0.06697113
129	0x3d5d15ce	0.053975873
130	0xbd5c091a	-0.053719617
131	0xbdefa4d4	-0.1170136
132	0xbca4ec80	-0.020132303
133	0xbe219c63	-0.15782313
134	0x3ca1b399	0.01973896
135	0x3d6768fd	0.05649661
136	0xbdf5fef5	-0.1201152
137	0x3cf77d0e	0.030210998
138	0xbc8e6d23	-0.017386025
139	0xbd8ad099	-0.06778068
140	0xbd9f84ba	-0.077889875
141	0xbde764c2	-0.11298515
142	0xbd5c5d42	-0.053799875
143	0xbde99723	-0.1140578
144	0xbd41ec91	-0.047344748
145	0x3daf2a78	0.08553022
146	0x3c479448	0.012181349
147	0xbca1b0c8	-0.019737616
148	0x3d8a664b	0.06757792
149	0xbda15f43	-0.07879498
150	0xbd9e34e9	-0.077249356
151	0xbe128403	-0.14308171
152	0xbca4d835	-0.020122627
153	0xbddb208c	-0.10699567
154	0x3bec6f4a	0.007215415
155	0xbd9c4b08	-0.076314986
156	0xbe1b1579	-0.1514491
157	0xbdedc1bf	-0.1160922
158	0xbdd73256	-0.10507648
159	0x3c673933	0.014112758
160	0xbd8218ed	-0.063524105
161	0x3ca86797	0.020557208
162	0xbd99e52d	-0.07514415
163	0xbc29a988	-0.010355361
164	0xbccbb3b6	-0.024865966
165	0xbde32c88	-0.11092478
166	0xbcd58e13	-0.026068723
167	0xbda58782	-0.08082487
168	0xbdc84af5	-0.09779922
169	0x3d49dbe9	0.04928199
170	0xbcc047a2	-0.023471657
171	0xbcd84733	-0.026401138
172	0x3d461da2	0.048368104
173	0xbd17b890	-0.037041247
174	0x3d92abe7	0.07161694
175	0xbe0d546b	-0.13801734
176	0xbdad1bc3	-0.08452561
177	0x3d3dab7e	0.046306126
178	0xbc004210	-0.0078282505
179	0xbc057dd8	-0.008147679
180	0xbe23b8d4	-0.15988475
181	0xbc969039	-0.018379318
182	0xbd34d673	-0.044149827
183	0xbb3c8f90	-0.0028772093
184	0x3d682c13	0.056682657
185	0xbe20c481	-0.1569996
186	0xbd0cdf61	-0.03439272
187	0xbd3b97e6	-0.04579916
188	0xbcd0903f	-0.025459407
189	0x3bee1114	0.0072652195
190	0xbcd80e34	-0.02637396
191	0xbe0b7593	-0.1361907
192	0xbe21c46a	-0.15797582
193	0xbe01daad	-0.12681074
194	0xbd1ee4a5	-0.03879227
195	0xbdca77f9	-0.09886164
196	0xbd0ad640	-0.03389573
197	0x3d23519d	0.039872754
198	0xbd8a55db	-0.06754657
199	0x3d634735	0.05548783
200	0xbdec435e	-0.11536287
201	0x3c0b2027	0.008491552
202	0xbd754e12	-0.059888907
203	0xbd3ab31e	-0.045580976
204	0xbe13f53b	-0.14449017
205	0xbd7fda58	-0.06246409
206	0xbde8f1b4	-0.11374226
207	0xbe061e5c	-0.13097519
208	0xbd202800	-0.039100647
209	0xbcbd1467	-0.023081018
210	0xbe20c898	-0.1570152
211	0xbc0f8ce6	-0.00876162
212	0xbdb34889	-0.08754069
213	0xbdc70019	-0.097168155
214	0x3d02127b	0.031755906
215	0x3d8880cc	0.06665191
216	0xbe1030dc	-0.14081138
217	0xbdc6a09e	-0.09698604
218	0xbd9ef428	-0.07761413
219	0xbd932b57	-0.07186001
220	0xbde4cd99	-0.11172027
221	0xbd96a9ba	-0.073565915
222	0x3c0bb3af	0.008526727
223	0xbd5d7b46	-0.05407264
224	0xbd87338a	-0.06601627
225	0xbcbce9c7	-0.023060692
226	0xbdb7e5af	-0.089793555
227	0xbd90ec7e	-0.07076357
228	0x3ca5d384	0.02024246
229	0xbd0380e8	-0.032105356
230	0xbd3956ee	-0.04524892
231	0xbda34465	-0.079720296
232	0xbd016f28	-0.031600147
233	0xbde35c22	-0.11101557
234	0xbbae7db6	-0.0053250445
235	0x3ca1e5ba	0.019762862
236	0xbdcaee04	-0.09908679
237	0xbe328418	-0.17433202
238	0xbd87a33f	-0.066229336
239	0xbdbb5329	-0.09146721
240	0xbd8a8405	-0.06763462
241	0xbd8d32e5	-0.06894473
242	0xbda0696f	-0.0783261
243	0xbce392c1	-0.027779939
244	0xbd190c3c	-0.037365183
245	0x3b9c5fe5	0.0047721737
246	0xbd9416db	-0.07230922
247	0xbd1e74dc	-0.038685665
248	0xbdffe275	-0.12494365
249	0x3b9929e7	0.0046741846
250	0xbdbf80e4	-0.09350756
251	0xbbab5bb5	-0.005229438
252	0x3d5ca2a7	0.053866055
253	0xbe2318f0	-0.15927482
254	0xbd4264de	-0.047459476
255	0x3caccdb7	0.021094186

lstm.weight_ih_l1 f4 [512, 128]
0	0xbddcb160	-0.10776019
1	0xbda47b87	-0.080313735
2	0x3daa27d9	0.083083816
3	0x3d3b38b2	0.045708366
4	0x3c87ada5	0.016562292
5	0xbd5946fe	-0.05304622
6	0x3d4de76d	0.050269533
7	0x3d92a837	0.07160991
8	0x3d976137	0.07391589
9	0x3d8132b5	0.063085
10	0xbd2920db	-0.0412911
11	0xbd262b68	-0.04056874
12	0xbd92a100	-0.071596146
13	0x3d82a0b6	0.063783094
14	0xbd0fe426	-0.03512969
15	0x3c096e24	0.008388076
16	0x3d2b343d	0.041797865
17	0x3c9ed861	0.019390287
18	0xbe0ce042	-0.13757423
19	0x3d58f0ed	0.05296414
20	0x3d385fe9	0.045013342
21	0xbd34129f	-0.04396307
22	0x3b4e3b46	0.0031468435
23	0x3d1efd09	0.038815532
24	0xbda19143	-0.078890346
25	0x3ddbcfd4	0.107329994
26	0x3d934d18	0.07192439
27	0xbd45716c	-0.04820387
28	0xbb1b312b	-0.002368043
29	0xbd5edf85	-0.054412384
30	0xbd7b362f	-0.06133097
31	0xbc7742e2	-0.01509163
32	0x3c5459ce	0.012960864
33	0x3d60da9b	0.05489598
34	0xbda3c5bb	-0.079966985
35	0xbd777230	-0.060411632
36	0x3b361d1b	0.0027788344
37	0x3d6af567	0.05736294
38	0xbc583b73	-0.013197768
39	0x3c10851c	0.008820798
40	0xbe0f1228	-0.1397177
41	0xbd9511d3	-0.0727879
42	0x3d87df47	0.06634384
43	0x3d296f54	0.041365936
44	0xbc5f3911	-0.013624446
45	0x3bc64837	0.006051089
46	0x3d03d805	0.032188434
47	0x3c696fb4	0.0142478235
48	0xbd91c30b	-0.071172796
49	0x3ccaa9c9	0.024739163
50	0x3d8abfe3	0.06774881
51	0xbc1f023f	-0.009705125
52	0xbdf0c4de	-0.117562994
53	0xbd1d150a	-0.038350143
54	0x3d8083db	0.062751494
55	0x3d9bbc40	0.07604265
56	0x3cca4db5	0.024695257
57	0x3ced4a64	0.028966136
58	0xbc2050dd	-0.009784904
59	0xbd7df983	-0.06200553
60	0xbd902dbe	-0.07039975
61	0xbc53bbfe	-0.012923239
62	0x3d52a91f	0.051430818
63	0xbcfac251	-0.030610235
64	0x3ca56802	0.020191196
65	0x3de5fa49	0.11229379
66	0x3d17ec6c	0.037090704
67	0xbdda487b	-0.10658356
68	0x3c9f266a	0.019427497
69	0xbcdfd7fd	-0.02732467
70	0x3c0eccb7	0.0087158
71	0x3cf58347	0.029969824
72	0xbdc41680	-0.09574604
73	0x3dfb8264	0.122807294
74	0xbd766e34	-0.06016369
75	0xbd493705	-0.049124736
76	0x3c81fbdb	0.015867164
77	0x3d76b12a	0.06022755
78	0x3dbe776b	0.09300121
79	0xbb7f5451	-0.0038960169
80	0x3dad6a10	0.084674954
81	0xb8942d06	-7.065576e-05
82	0x3e0d8d67	0.13823472
83	0x3cd35a66	0.025799941
84	0x3cf64b20	0.03006512
85	0x3b56d829	0.003278265
86	0xbddb6c67	-0.107140355
87	0x3bac1394	0.0052513573
88	0x3c209f6a	0.009803632
89	0x3de1a3ec	0.11017594
90	0x3d714e86	0.058912776
91	0xbdc7cdec	-0.09756073
92	0xbb968853	-0.004593888
93	0x3d4f43a3	0.050601613
94	0xbdd14229	-0.10217697
95	0xbc3c6469	-0.011498549
96	0x3ce6a887	0.028156532
97	0x3db56cd0	0.08858645
98	0xbdc91dcf	-0.09820139
99	0xbc381ed6	-0.011237821
100	0xbcb0080f	-0.021488218
101	0x3dcfeb29	0.10152275
102	0x3da6bff5	0.08142082
103	0x3d06d1e6	0.03291502
104	0x3d3b260b	0.045690577
105	0xbd9ffd03	-0.0781193
106	0x3dd3909a	0.10330315
107	0x3c2e7f20	0.010650426
108	0x3ca397ab	0.019969782
109	0x3da2c669	0.07948
110	0xbd53ef0d	-0.05174165
111	0x3c401dc1	0.011725844
112	0xbddefa6b	-0.10887607
113	0x3d62ae93	0.05534227
114	0xbd43bec7	-0.04778936
115	0xbd247309	-0.04014877
116	0x3bd5d5ac	0.006525716
117	0x3db57dcf	0.08861887
118	0xbca4036d	-0.020021165
119	0x3d790bd4	0.060802296
120	0x3db9a536	0.090647146
121	0x3d025005	0.031814594
122	0x3ce1d897	0.027569098
123	0xbd90435a	-0.07044096
124	0xbc30d553	-0.010793048
125	0x3d6eb1cd	0.058275033
126	0xbd170f3b	-0.03687976
127	0x3db1f86a	0.08689959
128	0x3b76f602	0.0037683253
129	0x3d72f875	0.05931898
130	0xbcc022b6	-0.023454051
131	0xbd33345e	-0.043751113
132	0xbda9b970	-0.082873225
133	0xbd388f84	-0.045058742
134	0x3d9073d9	0.07053346
135	0x3d708afe	0.058726303
136	0xbd71abac	-0.05900161
137	0xbcc6fdba	-0.024290908
138	0xbd16242c	-0.03665559
139	0x3d1afc50	0.03783828
140	0x3dcd2117	0.10016077
141	0x3da12c44	0.07869771
142	0xbd1ee924	-0.03879656
143	0xbd9330e7	-0.07187062
144	0x3d5a2380	0.05325651
145	0xbd46b480	-0.048511982
146	0x3d905d48	0.07049042
147	0xbdc3f4aa	-0.0956815
148	0xbd8aa4cb	-0.06769713
149	0xbd119161	-0.035539035
150	0x3d4d81c5	0.050172586
151	0x3d0e9da4	0.034818307
152	0xbdb187e4	-0.08668497
153	0x3d0b23c8	0.03396967
154	0x3d3528a1	0.0442282
155	0x3cc9f23b	0.024651637
156	0x3d26b40c	0.04069905
157	0x3d973c4d	0.07384548
158	0xbda5e263	-0.080998205
159	0xbd348d3a	-0.044079997
160	0x3d95d187	0.07315355
161	0x3d40bc7b	0.04705475
162	0xbd45751c	-0.048207387
163	0x3c446235	0.011986305
164	0x3b3dc7a1	0.00289581
165	0xbd806ae9	-0.062703915
166	0x3d742820	0.05960858
167	0x3a0111f0	0.00049236324
168	0xbcdb53fb	-0.026773443
169	0xbc36a4e6	-0.011147713
170	0xbdb0ea1c	-0.08638403
171	0xbdbb56d6	-0.09147422
172	0xbd02d20b	-0.031938594
173	0xbbad0711	-0.0052803834
174	0x3d643cd6	0.05572208
175	0x3d26a6a8	0.04068628
176	0xbc81f86f	-0.015865533
177	0x3dd5581b	0.104171954
178	0x3d51af94	0.051192835
179	0xbd35c072	-0.044372983
180	0x3db8d514	0.090250164
181	0xbd590547	-0.05298355
182	0xbd090f95	-0.033462126
183	0x3d9bfd7a	0.07616706
184	0x3c872283	0.016495949
185	0x3dc0c0b9	0.09411759
186	0xbcf6a89b	-0.030109694
187	0x3da1d799	0.0790245
188	0xbd5cd244	-0.053911462
189	0xbd6a7e28	-0.05724922
190	0xbd1618e8	-0.036644846
191	0xbb198f91	-0.002343152
192	0xbbcefa5a	-0.0063164653
193	0x3b728487	0.0037005262
194	0x3c80e861	0.015735807
195	0xbc8855b2	-0.016642425
196	0x3b36c23f	0.0027886776
197	0x3d9b186f	0.0757302
198	0xbcc4d426	-0.024026942
199	0x3d393448	0.045215875
200	0xbabb7822	-0.001430277
201	0x3c124c75	0.008929362
202	0x3d85f6fd	0.0654125
203	0x3d7a196b	0.061059397
204	0x3d4ebbbb	0.050472002
205	0xbd3351cc	-0.04377918
206	0xbd70ce0f	-0.058790263
207	0xbc653401	-0.0139894495
208	0xbccbd050	-0.024879605
209	0xbd2dd60a	-0.04244045
210	0x3ddbdd56	0.10735576
211	0xbc2eab55	-0.010660966
212	0x3c2db635	0.010602524
213	0xbd29d210	-0.041460097
214	0x3dbe862a	0.093029335
215	0x3dba267a	0.0908937
216	0x3d42646a	0.047459044
217	0xbdb75f82	-0.089537635
218	0x3d517dd9	0.05114541
219	0x3d82cfcb	0.063872896
220	0x3ca5215f	0.020157514
221	0x3d0dc63d	0.034612883
222	0x3d9b8585	0.07593826
223	0x3dc5c152	0.096560135
224	0xbde015d4	-0.109416634
225	0xbdb29dc5	-0.087214984
226	0xbc112c2c	-0.008860629
227	0xbd7eb0d5	-0.06218036
228	0xbd14904d	-0.03627043
229	0xbdcaffd4	-0.099120766
230	0xbd987129	-0.074434586
231	0x3dbc6ca0	0.09200406
232	0x3d26b19e	0.040696733
233	0x3cb21a4e	0.021741059
234	0x3cce1cf0	0.025160283
235	0xbd75ae7d	-0.059980858
236	0x3cc28c05	0.023748407
237	0xbd574d72	-0.052564092
238	0xbdab30c2	-0.08358909
239	0xbdbec4b1	-0.0931486
240	0xbb1f66c4	-0.0024322728
241	0x3d8d5a91	0.0690204
242	0xbd6a27bd	-0.057166804
243	0x3de4f926	0.11180334
244	0x3d64b1f3	0.055833768
245	0x3d85a909	0.065263815
246	0xbca80a49	-0.020512717
247	0x3d05ec08	0.0326958
248	0xbd0258f6	-0.03182312
249	0x3cfa3980	0.030544996
250	0xbc884a84	-0.016637094
251	0x3d786ec0	0.060652494
252	0x3c435284	0.011921529
253	0x3d6ad45a	0.05733142
254	0x3cf2f158	0.029656097
255	0x3d5718e8	0.052513987

lstm.weight_hh_l1 f4 [512, 128]
0	0xbcd8ae1f	-0.026450215
1	0xbcfa6d6b	-0.030569753
2	0x3ba53e63	0.0050428375
3	0xbdbf7a55	-0.09349505
4	0x3d49e556	0.049290977
5	0xbc6a0e59	-0.014285647
6	0x3c39fc80	0.011351705
7	0xbd7f8bab	-0.062389057
8	0xbdd0200b	-0.10162362
9	0x3bb853ef	0.00562524
10	0xbd1de13f	-0.03854489
11	0xbda73b88	-0.081656516
12	0xbd5cb6aa	-0.05388514
13	0x3e1a3964	0.15060955
14	0x3d9b5d05	0.075861014
15	0xbd06dbd6	-0.032924496
16	0xbdc8bc00	-0.09801483
17	0x3d40a63d	0.047033537
18	0xbc12fe48	-0.008971758
19	0x3d912044	0.07086232
20	0xbd8b5078	-0.068024576
21	0x3adab6ca	0.0016686555
22	0x3da655e1	0.08121849
23	0xbd44f196	-0.048081957
24	0x3d436a13	0.047708582
25	0xbd33f56a	-0.043935217
26	0x3ca8a60d	0.020586992
27	0xbda94ab8	-0.082662046
28	0xbd99d20d	-0.07510767
29	0x3d021e05	0.03176691
30	0xbd26e945	-0.040749807
31	0x3e097efd	0.13427348
32	0x3ddd3336	0.10800783
33	0x3dd29ce9	0.102838345
34	0x3dae4fac	0.0851129
35	0xbd0d591c	-0.03450881
36	0x3cd15e2e	0.025557604
37	0xbcd44f99	-0.025916861
38	0x3cbb024a	0.02282824
39	0xbc806ec2	-0.015677813
40	0x3a604a34	0.0008555979
41	0xbdac3384	-0.08408263
42	0x3db776b7	0.0895819
43	0xbd25b568	-0.040456206
44	0x3daf7b8a	0.08568485
45	0xbd339019	-0.043838594
46	0x3c6f2b41	0.014597715
47	0x3de1c9c9	0.110248156
48	0x3d97eb1f	0.07417893
49	0x3d192617	0.03738984
50	0xbbd368e2	-0.006451712
51	0x3d0b1586	0.033956073
52	0xbda3f1ec	-0.08005127
53	0xbc5a7e75	-0.013335814
54	0xbd1923e7	-0.037387755
55	0x3d3f4105	0.046692867
56	0x3d1f703c	0.038925394
57	0x3cada83f	0.02119839
58	0x3daaabd8	0.08333558
59	0xbc8227de	-0.01588815
60	0xbd06d2e5	-0.03291597
61	0x3ca7d5ba	0.020487655
62	0xbda57393	-0.08078685
63	0xbd10e35f	-0.035373088
64	0x3c0f986f	0.00876437
65	0xbd1b1e86	-0.037870906
66	0xbe0ac4df	-0.13551663
67	0xbd3d3e49	-0.046201978
68	0xbd7b6141	-0.061372045
69	0x3cbb8518	0.022890612
70	0x3cb8903e	0.022529718
71	0x3d84ed6e	0.064905986
72	0xbd76b9dd	-0.060235847
73	0xbd165f79	-0.036712144
74	0xbd9a81ac	-0.07544264
75	0x3ce36bf2	0.027761433
76	0x3d8900ab	0.066895805
77	0xbd39db96	-0.04537543
78	0x3dd2f975	0.103014864
79	0xbe06f023	-0.13177542
80	0x3b26fe15	0.0025481035
81	0x3d489b16	0.048976026
82	0xbb4f340b	-0.0031616713
83	0x3c072f0a	0.008250961
84	0xbdfbd632	-0.12296714
85	0xbb276b36	-0.002554608
86	0x3d47f051	0.048813168
87	0xbc414fde	-0.011798827
88	0xbd49c0a5	-0.049255986
89	0xbda4c405	-0.080452
90	0x3cc7ca81	0.024388554
91	0x3c0b997b	0.008520479
92	0x3cce2050	0.025161892
93	0xbd04d573	-0.032430124
94	0x3d04b247	0.03239658
95	0xbca8698d	-0.020558143
96	0x3d42155c	0.04738365
97	0xbcb13213	-0.021630323
98	0x3d7c07e6	0.06153097
99	0xbd389c06	-0.04507067
100	0xbbfb741a	-0.0076737525
101	0xbdefc66b	-0.11707767
102	0x3d04d649	0.03243092
103	0x3d9e38be	0.077256665
104	0x3d1627bb	0.036658984
105	0x3bfe893c	0.0077678245
106	0x3dd0a2e5	0.1018732
107	0xbd421a3a	-0.047388293
108	0x3d098216	0.033571325
109	0xbc25cbfa	-0.010119433
110	0x3d8da0db	0.06915446
111	0xbbde2996	-0.00677986
112	0x3d1a42c3	0.037661325
113	0x3d91d396	0.07120435
114	0x3c148204	0.009064201
115	0x3d361c54	0.04446061
116	0xbdaeafc3	-0.08529618
117	0x3d1c6666	0.038183592
118	0x3dcb14f0	0.09916103
119	0x3cadc841	0.021213653
120	0x3cfa395f	0.030544935
121	0x3cbc8d2d	0.023016537
122	0xbd0851f9	-0.0332813
123	0x3c3a7abc	0.011381801
124	0xbdc3bff7	-0.09558099
125	0x3db48bbf	0.08815717
126	0xbde95ade	-0.11394285
127	0x3d5f8d95	0.054578383
128	0x3d05a4dc	0.032627925
129	0x3d9bea3c	0.07613036
130	0x3d9897d3	0.07450833
131	0x3d3c1b34	0.04592438
132	0x3dd189cd	0.102313615
133	0x3d654ab2	0.055979438
134	0xbd145162	-0.036210425
135	0x3da8130b	0.08206757
136	0xbde516e6	-0.11186008
137	0x3e0abdab	0.13548915
138	0x3d789f84	0.060699
139	0xbdc5c117	-0.096559696
140	0x3d38273a	0.044959284
141	0xbaa9b006	-0.0012946136
142	0x3e18318d	0.14862652
143	0xbc9a2012	-0.01881412
144	0xbd8ae3b7	-0.067817144
145	0x3d757651	0.05992729
146	0xbdbc76de	-0.092023596
147	0x3c15a650	0.00913389
148	0xbdaa5e81	-0.083188064
149	0x3d52f259	0.051500652
150	0x3d0d23e5	0.03445806
151	0x3bd5e365	0.0065273517
152	0xbda66cec	-0.08126244
153	0x3cb3bc9d	0.021940524
154	0xbdb17e74	-0.08666697
155	0xbd827fb9	-0.063720174
156	0x3d412ffb	0.0471649
157	0xbcff1f69	-0.031142907
158	0xbdba91fc	-0.091098756
159	0xba72e1dd	-0.00092652236
160	0x3ddf2020	0.10894799
161	0xbc9bf2fe	-0.019036766
162	0x3d4a2cec	0.049359247
163	0xbd5324a6	-0.051548623
164	0x3d55fb37	0.05224153
165	0xbd0f6783	-0.035010826
166	0xbb80fe45	-0.0039365613
167	0xbd29b9f4	-0.041437104
168	0x3dc0ad5d	0.094080664
169	0x3d2f457e	0.042790882
170	0xbcc0e24c	-0.023545407
171	0xbd0cbdff	-0.034360882
172	0xbd308b34	-0.043101504
173	0xbc7d36cc	-0.015454959
174	0xbd584d77	-0.05280825
175	0xbdd13093	-0.10214343
176	0xbd881494	-0.0664455
177	0xbd7b2112	-0.061310835
178	0x3dce461a	0.100719646
179	0x3c2d3c65	0.010573481
180	0xbdd6521f	-0.10464882
181	0x3cc31adc	0.023816518
182	0xbe0642f3	-0.13111477
183	0x3d106402	0.035251625
184	0x3dbf1a8b	0.093312345
185	0x3d87734b	0.06613787
186	0xbda0f976	-0.07860081
187	0xbcdff02c	-0.027336203
188	0x3d7622f7	0.06009194
189	0x3da73507	0.08164411
190	0x3d848618	0.06470889
191	0xbd875077	-0.06607144
192	0xbd8b7bd9	-0.068107314
193	0x3d268bac	0.040660545
194	0xbd8038a8	-0.06260806
195	0x3d2bbb69	0.041926775
196	0x3de0fba0	0.10985494
197	0x3dcfec21	0.1015246
198	0x3dbcebe4	0.0922468
199	0x3d020259	0.03174052
200	0x3d8490ef	0.064729564
201	0xbd62d6f1	-0.055380765
202	0xbd953575	-0.07285587
203	0xbb1184d5	-0.0022204418
204	0x3d86390c	0.065538496
205	0x3bb9c471	0.0056691696
206	0x3cf204ed	0.029543364
207	0xbdc8fe58	-0.09814137
208	0xbc90d12a	-0.017677862
209	0xbda0bdf7	-0.07848733
210	0xbd9dd076	-0.077057764
211	0x3d4fcf0e	0.050734572
212	0xbd65119f	-0.055925008
213	0x3d4ab8e0	0.049492717
214	0x3a87d098	0.0010361848
215	0xbc9567b3	-0.018237924
216	0x3cce7fee	0.025207486
217	0xbe09ab66	-0.1344429
218	0xbc9e5a4e	-0.01933017
219	0x3df1130e	0.117712125
220	0xbc8ea270	-0.01741144
221	0x3d342e20	0.0439893
222	0xbd80598a	-0.06267078
223	0xbdd776c8	-0.105207026
224	0xbdb275a3	-0.08713844
225	0x3d3bb88c	0.045830294
226	0x3d94e87d	0.07270906
227	0x3d9b039f	0.0756905
228	0x3da9608d	0.08270369
229	0xbc7aa12a	-0.015297214
230	0xbde97572	-0.11399354
231	0xbd23904f	-0.039932545
232	0xbd07d562	-0.033162482
233	0xbd689abc	-0.05678819
234	0x3dfa5704	0.12223628
235	0x3c0f67b5	0.008752753
236	0x3b99f8d6	0.004698853
237	0xbd0a4060	-0.0337528
238	0x3d20a2e6	0.039217852
239	0xbcef1105	-0.02918292
240	0xbd8bc5ce	-0.068248376
241	0xbc4abcd4	-0.012374122
242	0x3ddea19d	0.10870669
243	0xbd979aa0	-0.07402539
244	0xbd30f243	-0.04319979
245	0x3ace2f39	0.0015730626
246	0xbdc35b12	-0.09538855
247	0x3df0fed0	0.117673516
248	0xbdcfa635	-0.10139123
249	0x3d21ac0a	0.03947071
250	0xbd6a5855	-0.057213146
251	0xba677939	-0.0008830014
252	0xbc0910d6	-0.00836583
253	0xbd58541f	-0.0528146
254	0x3b8d2b42	0.0043081352
255	0xbd52eb8d	-0.05149417

lstm.bias_ih_l1 f4 [512]
0	0xbda7fce0	-0.08202529
1	0xbcc9fea9	-0.024657564
2	0x3c83d996	0.016094964
3	0xbda37907	-0.079820685
4	0x3c91afff	0.017784117
5	0xbc89b332	-0.01680908
6	0xbc9a12f6	-0.01880787
7	0xbdee9cc2	-0.11650993
8	0x3d825f95	0.06365887
9	0xbdafd4a5	-0.085854806
10	0x3ce8f77e	0.028438326
11	0x3c1d76eb	0.009610872
12	0xbbc57320	-0.006025687
13	0xbe497582	-0.19673732
14	0xbd0bc7b4	-0.034126
15	0xbbe1483c	-0.006875066
16	0x3da65b07	0.08122831
17	0xbe267b0a	-0.16257873
18	0xbd8883d3	-0.066657685
19	0xbdaf1268	-0.085484326
20	0xbd581190	-0.052751124
21	0xbe2ee6d5	-0.17080243
22	0xbdb0b491	-0.0862819
23	0xbe130b03	-0.1435967
24	0xbda62deb	-0.08114227
25	0x3c1502d4	0.009094913
26	0xbcb28fbf	-0.02179706
27	0xbd4772b1	-0.048693363
28	0xbd50e153	-0.050996136
29	0xbe214b3e	-0.15751359
30	0xbd9a4491	-0.07532609
31	0xbd8155b3	-0.06315174
32	0xbd54f212	-0.05198867
33	0xbd1f736f	-0.038928445
34	0xbc94a9cb	-0.01814737
35	0xbd60e09e	-0.05490171
36	0xbcc14efc	-0.023597233
37	0xbe17b283	-0.1481419
38	0x3ca17e3e	0.019713517
39	0x3d6fad86	0.058515094
40	0xbdcc7638	-0.09983486
41	0xbd97a5c1	-0.07404662
42	0xbe4aa75d	-0.19790407
43	0xbe233e2f	-0.1594169
44	0xbdc7271f	-0.09724259
45	0xbd4f64a1	-0.050633077
46	0xbd6aff73	-0.05737252
47	0xbde868e1	-0.11348129
48	0xbe8098dd	-0.25116625
49	0xbd1d0d26	-0.038342617
50	0xbdcef61b	-0.10105535
51	0xbdbc24a5	-0.09186677
52	0xbd2e8e9f	-0.042616483
53	0xbdaba14e	-0.08380376
54	0x3a78f670	0.0009497171
55	0xbe208295	-0.15674813
56	0xbd899a17	-0.067188434
57	0x3ca1a43c	0.019731633
58	0xbe441eb1	-0.19152333
59	0xbdc8d3d9	-0.09806032
60	0x3d7ce019	0.061737154
61	0xbe533d88	-0.20628941
62	0xbd2edb2a	-0.04268948
63	0xba9d854e	-0.0012017877
64	0xbe48e1c8	-0.19617379
65	0x3d0354bc	0.03206323
66	0xbe213a98	-0.15745008
67	0xbd8b9a32	-0.0681652
68	0xbb97c204	-0.0046312828
69	0xbe01509c	-0.12628406
70	0xbc7c332e	-0.015393062
71	0x3c41d141	0.011829675
72	0x3c356e5b	0.011073674
73	0xbd40af76	-0.047042333
74	0xbc135ecd	-0.00899477
75	0xbd9fcda4	-0.07802895
76	0xbde39a30	-0.11113393
77	0x3d1c2b05	0.038126964
78	0xbd80191a	-0.06254788
79	0xbbc178e1	-0.0059043025
80	0xbcb1e778	-0.021716818
81	0xbdf74c7a	-0.120751336
82	0xbda16113	-0.078798436
83	0xbcb6b362	-0.022302333
84	0xbda54d4d	-0.080713846
85	0xbd157248	-0.03648594
86	0xbd6e36ee	-0.058157854
87	0xbddd7c1f	-0.1081469
88	0x3c45a757	0.012063823
89	0x3d8286aa	0.063733414
90	0x3c02139b	0.007939245
91	0xbe53e93a	-0.20694438
92	0xbcee7b7e	-0.02911162
93	0xbdebe3fa	-0.115180925
94	0xbdffe000	-0.124938965
95	0xbc8c1450	-0.01709953
96	0xbdf8bf07	-0.121458106
97	0xbe1e4cc5	-0.15458973
98	0xbdc2571c	-0.09489271
99	0xbdc7020f	-0.097171895
100	0xbbebe3df	-0.007198795
101	0xbdc2fd0e	-0.095209226
102	0x3b977c5d	0.0046229796
103	0x3d0db03b	0.034591895
104	0xbdc45d12	-0.09588064
105	0xbc947bbf	-0.018125413
106	0x3d2ff877	0.042961564
107	0xbe01ca9e	-0.12674949
108	0xbd55090b	-0.052010577
109	0xbd92cbb7	-0.07167762
110	0x3cdb2f30	0.0267559
111	0xbdf100dd	-0.11767743
112	0xbdceda0c	-0.10100183
113	0xbd4800cd	-0.04882889
114	0xbe5fb727	-0.21847211
115	0xbd69539f	-0.056964513
116	0xbdac8d9b	-0.084254466
117	0xbd9cb021	-0.076507814
118	0xbb9cd61c	-0.004786266
119	0xbdf237fd	-0.11827085
120	0xbcd2a13b	-0.025711646
121	0xbd70367f	-0.05864572
122	0xbbb687d2	-0.0055703903
123	0x3d09c0cb	0.033631127
124	0xbdc73f40	-0.09728861
125	0xbd8108d2	-0.063005105
126	0x3d3654c4	0.044514433
127	0xbd847c71	-0.06469048
128	0xbdaf62b0	-0.08563745
129	0xbde70794	-0.11280742
130	0x3bb3e68a	0.005490129
131	0x3c559d32	0.013037967
132	0xbd6cf5a2	-0.05785144
133	0xbcce3352	-0.025170956
134	0xbc130a22	-0.008974584
135	0xbe0b457a	-0.13600722
136	0xbd419d38	-0.047269076
137	0xbd9b533d	-0.07584236
138	0xbdaca34f	-0.08429586
139	0xbde6b5df	-0.11265158
140	0xbe37bd6c	-0.17943352
141	0xbdee9483	-0.1164942
142	0xbe068d4c	-0.13139838
143	0x3bc95f30	0.0061453804
144	0xbd74326e	-0.059618406
145	0x3c898e2b	0.016791424
146	0xbe17ccdd	-0.14824243
147	0xbd8d2cba	-0.068932965
148	0xbdab8bf8	-0.08376306
149	0xbd84a894	-0.06477466
150	0x3c6cb0bb	0.014446433
151	0xbd1d7a68	-0.038446814
152	0xbaabcccf	-0.0013107302
153	0xbe102399	-0.1407608
154	0xbdbb75bb	-0.09153315
155	0xbe1a3f98	-0.15063322
156	0xbddbeaee	-0.10738169
157	0xbd48165d	-0.048849452
158	0xbe394b47	-0.18095122
159	0xbe0665a7	-0.13124715
160	0xbe36b642	-0.17842963
161	0xbdae7931	-0.08519209
162	0x3ce6928c	0.02814605
163	0xbdf8c88c	-0.12147626
164	0xbdbc9c05	-0.09209446
165	0xbe147233	-0.14496689
166	0xbd23b602	-0.039968498
167	0x3d228cc3	0.039685022
168	0x3ca7e4ea	0.020494897
169	0xbd1b131b	-0.037860017
170	0xbd9a3993	-0.07530513
171	0xbd3aaeef	-0.045576986
172	0xbe07f5af	-0.13277315
173	0x3a18f978	0.00058355136
174	0x3d4bbb41	0.049739126
175	0xbd2eecde	-0.042706363
176	0xbd5a441a	-0.053287603
177	0x3cd14da1	0.025549712
178	0xbdbf6c26	-0.093467996
179	0x3db1260f	0.08649837
180	0xbcf2a12c	-0.029617868
181	0xb9ebc3de	-0.00044968625
182	0xbb88ae71	-0.0041711857
183	0xbde2c291	-0.11072267
184	0xbdc01ceb	-0.09380516
185	0xbce896e6	-0.028392266
186	0xbda102f4	-0.078618914
187	0x3e09d6b8	0.13460815
188	0xbd0d8380	-0.034549236
189	0xbde7cee1	-0.11318756
190	0xbd354d59	-0.044263218
191	0xbc867176	-0.016411524
192	0xbe0d2d7c	-0.13786882
193	0xbbe13e84	-0.0068739075
194	0x3e0c7485	0.13716324
195	0xbd6122e6	-0.054964922
196	0x3d605195	0.054765303
197	0xbd186338	-0.037203997
198	0xbd7353f3	-0.059406232
199	0xbcef309e	-0.029197987
200	0xbd757965	-0.059930224
201	0x3d56bdd1	0.052427117
202	0x3c064b27	0.008196629
203	0xbe136386	-0.14393434
204	0x3d2c0830	0.041999996
205	0xbca2d521	-0.019877018
206	0x3bc5d061	0.0060368036
207	0xbdf8092a	-0.12111123
208	0xbe151d21	-0.14561893
209	0xbdca187d	-0.09867952
210	0x3cb7c794	0.022434033
211	0x3cbb4cd2	0.02286378
212	0xbe122d4c	-0.14275092
213	0x3c56ffba	0.013122493
214	0xbd7fd977	-0.06246325
215	0x3d073088	0.033005267
216	0x3d41fbb5	0.047359187
217	0xbc4f48bb	-0.012651618
218	0x3d062788	0.032752544
219	0xbda11ffe	-0.0786743
220	0xbc2881f8	-0.010284893
221	0xbe191320	-0.14948702
222	0xbd9f53e9	-0.077796765
223	0xbe233f51	-0.15942122
224	0xbe1d0a8a	-0.15336052
225	0xbe3c28b3	-0.183749
226	0xbd7b554b	-0.06136064
227	0xbdff2c27	-0.12459593
228	0x3ca1e649	0.019763129
229	0xbd274f64	-0.040847197
230	0x3d03f30d	0.032214213
231	0x3d143068	0.036178976
232	0xbd3d53d0	-0.046222508
233	0xbdf711c3	-0.12063935
234	0xbd511721	-0.051047448
235	0xbe08d946	-0.13364133
236	0xbe194501	-0.14967729
237	0xbd1e5408	-0.038654357
238	0xbd1e5e0f	-0.03866392
239	0xbe2787b8	-0.16360366
240	0xbdcbd3a1	-0.099524744
241	0xbd1f6304	-0.038912788
242	0xbe0ebc7b	-0.13939087
243	0xbdd8343c	-0.10556838
244	0x3bdfe1c1	0.006832332
245	0x3d50312f	0.050828155
246	0x3e03fea2	0.12890103
247	0x3d11d4cd	0.035603333
248	0xbd2ed7b5	-0.042686183
249	0x3a51a7b0	0.00079977047
250	0xbdd6a8d8	-0.10481423
251	0xbbc03506	-0.005865696
252	0xbe17f0f9	-0.14838018
253	0x3cdcb67e	0.026942488
254	0xbd99a483	-0.07502081
255	0xbdebc1fb	-0.11511608
