models/GBPJPY_model.pth (torch, 843660 bytes, 15 tensors)

lstm.weight_ih_l0 f4 [512, 12]
0	0x3a8eecc1	0.0010904298
1	0x3a941cb7	0.0011300062
2	0x3a8f766b	0.0010945325
3	0x3a9322cd	0.0011225581
4	0x3926104e	0.00015837068
5	0x3a92acc3	0.0011190403
6	0x3a981f37	0.0011605982
7	0x395a1085	0.00020796254
8	0xb90756c1	-0.00012906922
9	0x3a224d02	0.00061912846
10	0x39f6c0d4	0.00047064445
11	0x39878387	0.00025847202
12	0x3a39aa22	0.00070825417
13	0x3a3e3462	0.00072557305
14	0x3a3a4573	0.00071056857
15	0x3a3d153b	0.00072129414
16	0x390def30	0.00013535912
17	0x3a3dded2	0.00072429806
18	0x3a438c05	0.0007459524
19	0x3917f2ce	0.00014490934
20	0xb80b4bea	-3.3210883e-05
21	0x3a0d7a9c	0.00053969934
22	0x3a012e3c	0.0004927849
23	0x39d7dd6f	0.00041172976
24	0x3951dd3a	0.00020014207
25	0x397185fa	0.00023033461
26	0x394ae97e	0.00019351204
27	0x395580c6	0.00020361235
28	0xb9547b65	-0.00020263864
29	0x397d114e	0.00024134407
30	0x3994b9b3	0.00028367116
31	0xba0b140b	-0.0005305416
32	0xb9b8f8e9	-0.00035280667
33	0xb9906676	-0.0002754216
34	0xb9a9f38e	-0.00032415654
35	0xb9d6cff3	-0.00040972195
36	0x3a9d9f5a	0.001202564
37	0x3a9e0194	0.0012054914
38	0x3a9caa08	0.0011952529
39	0x3a9d70a0	0.0012011714
40	0x3a17b21c	0.0005786733
41	0x3a9fca09	0.0012190948
42	0x3aa3eb2e	0.0012506002
43	0x3955aa10	0.00020376616
44	0x397d24cc	0.00024141668
45	0x3a1649ae	0.0005733025
46	0x3a21a0f3	0.0006165646
47	0x3a02d10a	0.00049902557
48	0x3aa6208c	0.0012674495
49	0x3aab61f1	0.0013075453
50	0x3aa763bf	0.0012770816
51	0x3aabb222	0.0013099352
52	0x3a111bd5	0.00055354583
53	0x3aa880e2	0.0012855793
54	0x3aae5a54	0.0013302066
55	0x3a057bdf	0.00050920056
56	0x3a07eb9f	0.00051849516
57	0x3ac28a20	0.001484219
58	0x3aa8d621	0.0012881198
59	0x3a8b623c	0.0010634135
60	0x3aa661e2	0.0012693966
61	0x3aaa4de2	0.0012993182
62	0x3aa78a8d	0.001278238
63	0x3aaaabac	0.0013021133
64	0xb9b2f231	-0.00034131252
65	0x3aaa1f69	0.0012979332
66	0x3ab26c46	0.001361259
67	0x39a71019	0.00031864716
68	0xb98b054d	-0.00026516095
69	0x3a5f3957	0.0008515319
70	0x3a4f150b	0.0007899559
71	0x3a02950e	0.00049813173
72	0x3a05b501	0.0005100519
73	0x3a09f86c	0.0005263153
74	0x3a068055	0.00051308173
75	0x3a095119	0.000523822
76	0xb7b6345a	-2.1720469e-05
77	0x3a085126	0.00052000803
78	0x3a0be6fc	0.00053368486
79	0x394fb10f	0.00019807018
80	0x374291da	1.159726e-05
81	0x3990e0fa	0.0002763344
82	0x399e7c9b	0.00030228947
83	0x395de7ad	0.00021162508
84	0x3ae445f6	0.001741587
85	0x3ae71539	0.0017630226
86	0x3ae3c0ec	0.0017376221
87	0x3ae710e0	0.001762893
88	0x38b73446	8.735857e-05
89	0x3ae822bd	0.0017710548
90	0x3aee34c3	0.0018173683
91	0x3a329fa4	0.00068139494
92	0xb80c088f	-3.3386572e-05
93	0x3a369fb0	0.00069665443
94	0x3a48f913	0.00076665095
95	0x3a1f0801	0.00060665613
96	0x3a9233da	0.0011154369
97	0x3a92d5ab	0.0011202594
98	0x3a9295d5	0.001118357
99	0x3a93a28f	0.0011263656
100	0x39e977d0	0.0004453049
101	0x3a937078	0.0011248728
102	0x3a95a0d3	0.0011415727
103	0x39cfab48	0.0003960973
104	0x395c7844	0.00021025637
105	0x39e04887	0.00042778646
106	0x39f09d10	0.00045893388
107	0x39b8af38	0.00035225763
108	0x39f868f3	0.0004738044
109	0x3a00e3a1	0.0004916732
110	0x3a00b0db	0.0004909166
111	0x3a0089bc	0.00049033365
112	0x3992df61	0.0002801372
113	0x39fcd12f	0.0004822104
114	0x39fbee02	0.0004805178
115	0x39f7b52b	0.00047246492
116	0x393f409f	0.00018239253
117	0x399b0150	0.00029564882
118	0x39840c0d	0.0002518598
119	0x3986b51a	0.00025693403
120	0x3994f186	0.0002840871
121	0x399e2938	0.0003016682
122	0x399350dd	0.00028098273
123	0x399a3dba	0.0002941916
124	0xb9267b46	-0.00015876917
125	0x399eef23	0.0003031428
126	0x39ab1dec	0.00032637955
127	0xb83d6411	-4.5154306e-05
128	0xb8f17e45	-0.00011515295
129	0x39b38daa	0.00034247088
130	0x39581f95	0.0002061113
131	0x38a152ce	7.692502e-05
132	0x3a230560	0.00062187575
133	0x3a2566cb	0.0006309568
134	0x3a230eeb	0.00062201795
135	0x3a25ce9c	0.00063250377
136	0x389aee8a	7.3877236e-05
137	0x3a262ebf	0.0006339363
138	0x3a2af6be	0.0006521753
139	0x39b9c335	0.0003543139
140	0x390ec9ba	0.00013617324
141	0x3a1a414c	0.0005884364
142	0x3a1662f4	0.0005736791
143	0x3a025e38	0.0004973146
144	0x3a46b608	0.00075802254
145	0x3a5d3e5c	0.0008439773
146	0x3a4e7f5f	0.0007877256
147	0x3a577029	0.0008218312
148	0xb8f406a4	-0.000116360636
149	0x3a550e1c	0.00081274076
150	0x3a5e7b5e	0.0008487011
151	0xb8dca6d0	-0.00010521489
152	0xb9ed6dfb	-0.00045286104
153	0xb8ba3345	-8.878721e-05
154	0xb837258e	-4.3665576e-05
155	0xb9821428	-0.0002481055
156	0xb2993670	-1.78363e-08
157	0xb1e5d2c0	-6.6887367e-09
158	0x320b3d40	8.1047915e-09
159	0x322f3e30	1.02004805e-08
160	0xb0fdd640	-1.8469066e-09
161	0xb3890300	-6.380105e-08
162	0xb3fcac6c	-1.1766028e-07
163	0x34917a96	2.7097548e-07
164	0x345dc971	2.0655513e-07
165	0xb4a1c75a	-3.0133634e-07
166	0xb438ab3c	-1.719863e-07
167	0xb47d88f6	-2.3612287e-07
168	0x3ae72106	0.0017633743
169	0x3aec8ae2	0.0018046761
170	0x3aea2f55	0.0017866889
171	0x3aecf094	0.0018077069
172	0x3928b784	0.00016090093
173	0x3ae7ebbd	0.0017694157
174	0x3aecb849	0.0018060292
175	0x3a8b8954	0.0010645785
176	0x399eddec	0.00030301453
177	0x3aeb360c	0.0017945184
178	0x3b02209b	0.001985586
179	0x3ad8c363	0.0016537722
180	0x3a702e1a	0.0009162143
181	0x3a7442d8	0.0009317822
182	0x3a71d728	0.0009225481
183	0x3a75641c	0.0009360926
184	0x394f2125	0.00019753406
185	0x3a741177	0.0009310464
186	0x3a7a01ea	0.00095370284
187	0x39badc84	0.00035640982
188	0x38793bee	5.942204e-05
189	0x3a00b108	0.0004909192
190	0x39fa670e	0.00047760498
191	0x39ce08fc	0.00039298076
192	0x3b286b16	0.0025698594
193	0x3b2e4633	0.0026592135
194	0x3b29b508	0.0025895257
195	0x3b2d33fd	0.0026428693
196	0xb9433d9e	-0.00018619603
197	0x3b2c540e	0.0026295218
198	0x3b2fd380	0.0026828945
199	0x3a89c033	0.001050955
200	0xb98b18c0	-0.00026530586
201	0x3ab21293	0.0013585858
202	0x3abbde99	0.0014333307
203	0x3a9061b6	0.0011015448
204	0x3b013016	0.00197125
205	0x3b02d870	0.0019965433
206	0x3b0154e0	0.0019734427
207	0x3b037952	0.0020061326
208	0x39ae2782	0.00033217302
209	0x3b02086c	0.0019841446
210	0x3b049c3e	0.002023473
211	0x3a84b525	0.0010124786
212	0xb6885800	-4.0633604e-06
213	0x3a888eff	0.0010418593
214	0x3aa1c340	0.0012341514
215	0x3a7d4fde	0.0009663085
216	0x3a296ddc	0.00064632087
217	0x3a289553	0.00064309424
218	0x3a2b8e1c	0.0006544308
219	0x3a292750	0.00064526964
220	0x3a251597	0.00062974676
221	0x3a299246	0.0006468635
222	0x3a2701aa	0.00063707924
223	0x39156130	0.00014245952
224	0x39c16bf6	0.00036892266
225	0x392ed9fc	0.00016675139
226	0x394f130a	0.00019748151
227	0x398a2645	0.00026349924
228	0x39d5db8a	0.00040790095
229	0x39db86c6	0.0004187135
230	0x39d6e5de	0.00040988525
231	0x39da2800	0.00041610003
232	0x382c11c4	4.102454e-05
233	0x39d4218b	0.00040460782
234	0x39d6fe50	0.00041006738
235	0x3952e32b	0.00020111787
236	0xb8913c04	-6.9253176e-05
237	0x397618aa	0.00023469576
238	0x39bfa58b	0.00036553698
239	0x39ad5038	0.000330569
240	0x3acb3068	0.0015502097
241	0x3acc2305	0.0015574401
242	0x3aca77b5	0.0015447052
243	0x3acc2647	0.0015575372
244	0x3995f923	0.00028605116
245	0x3acdfa0a	0.0015714776
246	0x3ad2cfc2	0.0016083645
247	0x3a66c616	0.0008803321
248	0x3a079af9	0.0005172934
249	0x3af469e8	0.0018647285
250	0x3aef9d49	0.0018281128
251	0x3ad32b0c	0.0016110851
252	0x3af44c74	0.0018638507
253	0x3afab679	0.0019127867
254	0x3af61af8	0.0018776348
255	0x3afa2a6f	0.0019086133

lstm.weight_hh_l0 f4 [512, 128]
0	0xb91caeb8	-0.00014942407
1	0x36f40580	7.272407e-06
2	0xb7999a0a	-1.8310751e-05
3	0x37dd3630	2.6370486e-05
4	0xb7fe9ec0	-3.0353083e-05
5	0x38829e86	6.22841e-05
6	0x370f9fa0	8.56063e-06
7	0x362e6d00	2.5991467e-06
8	0xb762af78	-1.3511504e-05
9	0xb9108e19	-0.00013785846
10	0x3742c3a0	1.1608849e-05
11	0x3833d721	4.287728e-05
12	0x3624c980	2.4555193e-06
13	0xb5989568	-1.1368365e-06
14	0x385934ea	5.178611e-05
15	0x36f39700	7.259543e-06
16	0xb73f44a0	-1.1400465e-05
17	0x3732514c	1.0628555e-05
18	0xb9362a33	-0.00017372593
19	0x377feb04	1.5253903e-05
20	0x38b12a69	8.447917e-05
21	0x38266d34	3.9679187e-05
22	0xb7580718	-1.2876255e-05
23	0xb8926f9f	-6.9826136e-05
24	0xb6b54e90	-5.4033662e-06
25	0x358a5280	1.0305812e-06
26	0xb6bcb300	-5.623675e-06
27	0xb511b100	-5.427428e-07
28	0xb781f104	-1.549023e-05
29	0x37d56580	2.5438843e-05
30	0xb2b46cc0	-2.1004212e-08
31	0xb6aec178	-5.208127e-06
32	0xb687a620	-4.042653e-06
33	0x3725ff00	9.894138e-06
34	0xb7bfd4b9	-2.2868031e-05
35	0x376534ac	1.3661727e-05
36	0x377068b0	1.4329489e-05
37	0xb38e3400	-6.621849e-08
38	0xb686a612	-4.0128443e-06
39	0xb7922c9a	-1.7425325e-05
40	0x37e2fd36	2.705921e-05
41	0xb808b919	-3.2597312e-05
42	0x37f9fa72	2.9799736e-05
43	0xb7e17a16	-2.687894e-05
44	0xb7fd8804	-3.0223287e-05
45	0xb7a8d92a	-2.0128286e-05
46	0xb7c41172	-2.3373144e-05
47	0x378817ad	1.6223488e-05
48	0x37a0ce78	1.916963e-05
49	0xb819821a	-3.659921e-05
50	0xb647473e	-2.969478e-06
51	0x362199f8	2.408049e-06
52	0xb6849830	-3.9516235e-06
53	0xb724ec00	-9.83011e-06
54	0x37aa95ab	2.0335274e-05
55	0x379ab4be	1.8442395e-05
56	0x3774b784	1.4586261e-05
57	0x37150184	8.881445e-06
58	0x38e9f9ed	0.00011156858
59	0xb78bd67b	-1.6669966e-05
60	0x38addff5	8.290998e-05
61	0xb82c357b	-4.1057803e-05
62	0x36a7a878	4.9966e-06
63	0x377dcf1c	1.51281965e-05
64	0x38cce02c	9.769233e-05
65	0x374a4b54	1.2057677e-05
66	0x380ab175	3.3067034e-05
67	0xb7ab4eb1	-2.0421432e-05
68	0xb6743c40	-3.6393903e-06
69	0x383d7e5a	4.5178786e-05
70	0x366591b0	3.420846e-06
71	0x371ce998	9.352712e-06
72	0x38fe925d	0.00012138926
73	0xb800757d	-3.0626998e-05
74	0x3845d7e8	4.716954e-05
75	0xb69a8008	-4.6044624e-06
76	0xb72c9428	-1.0286494e-05
77	0xb7f846c8	-2.9596864e-05
78	0x3789b958	1.641798e-05
79	0x3747d5b8	1.1911085e-05
80	0xb7a978bc	-2.0202591e-05
81	0xb72ad268	-1.0181779e-05
82	0x37f6ed7c	2.9436073e-05
83	0x36c1a2d0	5.770802e-06
84	0x37fc06d8	3.0043928e-05
85	0x3732a764	1.06486e-05
86	0x375bdc08	1.3104647e-05
87	0x38cc2546	9.734421e-05
88	0xb77ed1d0	-1.5188431e-05
89	0xb88db6dc	-6.757464e-05
90	0x37d4bba1	2.535974e-05
91	0xb70bb89c	-8.328028e-06
92	0xb71b8a6e	-9.270951e-06
93	0xb83c6ac0	-4.492211e-05
94	0x38273682	3.9866667e-05
95	0x37cb4d2c	2.4235422e-05
96	0xb7e19ea6	-2.6895967e-05
97	0x37b4d46e	2.1556592e-05
98	0x36a08630	4.783993e-06
99	0x382cc669	4.119278e-05
100	0x377de296	1.5132731e-05
101	0x3762ee30	1.3526107e-05
102	0xb7fd94ac	-3.0229181e-05
103	0xb7b8ede8	-2.2045293e-05
104	0xb8573fb0	-5.1319308e-05
105	0x366e0fc0	3.5473931e-06
106	0x37842c98	1.5756392e-05
107	0x376e20fc	1.4193585e-05
108	0x36eef090	7.120958e-06
109	0x378b7961	1.6626613e-05
110	0x37c9aa08	2.4040244e-05
111	0x380f0e7d	3.410735e-05
112	0x37fba533	2.9998459e-05
113	0xb820fac5	-3.838052e-05
114	0xb7e497ad	-2.7250348e-05
115	0xb7d5cc6c	-2.548677e-05
116	0x36ff4870	7.608025e-06
117	0x37447928	1.1710719e-05
118	0x376138e0	1.3424287e-05
119	0xb7c6bdc8	-2.3691813e-05
120	0xb732197e	-1.0615562e-05
121	0x36e58f28	6.8413974e-06
122	0x37953376	1.7786148e-05
123	0xb7dc99dc	-2.629769e-05
124	0x37cb7fb8	2.425896e-05
125	0x37d5292b	2.5410749e-05
126	0x379c91f0	1.8664607e-05
127	0x38756576	5.8507045e-05
128	0xb8231ff3	-3.8891983e-05
129	0xb7a5adc9	-1.9750458e-05
130	0x37a7c2cc	1.999866e-05
131	0xb752e2e2	-1.2569801e-05
132	0x37888bb0	1.627751e-05
133	0xb7c5e29c	-2.3589753e-05
134	0xb72c5d6c	-1.027375e-05
135	0xb7c05556	-2.2927921e-05
136	0xb6f310f6	-7.243939e-06
137	0xb7292b25	-1.008323e-05
138	0xb7723e30	-1.4438803e-05
139	0xb7bb6720	-2.2340158e-05
140	0x383df602	4.5290224e-05
141	0xb49ed387	-2.95837e-07
142	0x3901fe55	0.00012397145
143	0xb7a09d5e	-1.9146766e-05
144	0x37651778	1.3654928e-05
145	0xb7afdf9e	-2.0965756e-05
146	0x3804dc37	3.1676343e-05
147	0x37f11950	2.8741226e-05
148	0x37950168	1.7762839e-05
149	0x382cd8c6	4.120988e-05
150	0x37244d77	9.793198e-06
151	0xb826f73c	-3.980774e-05
152	0x379e2ffb	1.885741e-05
153	0xb7f78256	-2.9505387e-05
154	0x37f61e96	2.9339728e-05
155	0xb8138067	-3.5167115e-05
156	0xb67629e3	-3.6681238e-06
157	0xb89ec5d9	-7.570879e-05
158	0xb1e336b0	-6.6127868e-09
159	0x36eb29d0	7.0084134e-06
160	0x37644091	1.3604892e-05
161	0xb7ab1dac	-2.0398606e-05
162	0x37f91153	2.969118e-05
163	0xb717e567	-9.053713e-06
164	0xb69aa560	-4.60881e-06
165	0x3812c9fc	3.4997225e-05
166	0x36091328	2.0425741e-06
167	0x375e0a48	1.3234625e-05
168	0xb7c5d77b	-2.3584571e-05
169	0x36c0bd10	5.7440557e-06
170	0xb727fa4c	-1.00122525e-05
171	0x37f0ed1a	2.8720639e-05
172	0x3804d2d4	3.16676e-05
173	0x3779de10	1.48932595e-05
174	0x375bb4a5	1.3095477e-05
175	0xb76b7d82	-1.4036314e-05
176	0xb7882c4c	-1.623309e-05
177	0x37fd7d12	3.021819e-05
178	0xb603dd7a	-1.9649437e-06
179	0x36a319dc	4.860789e-06
180	0x36e92a08	6.948834e-06
181	0x37cc50d6	2.4356337e-05
182	0xb81ed6c9	-3.787017e-05
183	0xb79899e8	-1.819148e-05
184	0x37b708a7	2.1819329e-05
185	0xb78433be	-1.575972e-05
186	0x38fcb934	0.00012050793
187	0xb766ff4e	-1.3768511e-05
188	0xb7ccf74a	-2.4433848e-05
189	0x373e66e8	1.1348842e-05
190	0xb7440b99	-1.1685211e-05
191	0xb7846854	-1.5784208e-05
192	0xb7c07d34	-2.2946486e-05
193	0xb75d1a5b	-1.3178763e-05
194	0x3859c72c	5.1922325e-05
195	0x3780525c	1.529714e-05
196	0xb7ecc5ae	-2.8225444e-05
197	0xb83c4211	-4.4884222e-05
198	0x369102ec	4.321677e-06
199	0xb7943fa4	-1.767261e-05
200	0x37c6af78	2.3685148e-05
201	0x370d3f42	8.418983e-06
202	0x37ab1d28	2.0398365e-05
203	0x37519ba1	1.2493606e-05
204	0x3785eb78	1.5964484e-05
205	0x37196f18	9.145377e-06
206	0x3790c9e3	1.7260149e-05
207	0xb6cc5df0	-6.0906095e-06
208	0x36ed03e1	7.063602e-06
209	0x3702e212	7.80124e-06
210	0xb659ae60	-3.243702e-06
211	0xb7f51936	-2.9218016e-05
212	0xb7a2b735	-1.9397217e-05
213	0xb7150b02	-8.883655e-06
214	0x37b0a4e4	2.1057618e-05
215	0x37a0afc6	1.9155337e-05
216	0x37de3c19	2.6492447e-05
217	0xb7d3894a	-2.521709e-05
218	0x38018396	3.0878546e-05
219	0x37bfb8a0	2.2854947e-05
220	0x373d5886	1.1285889e-05
221	0xb7dde648	-2.6452486e-05
222	0xb8055892	-3.179216e-05
223	0xb5ecb700	-1.763663e-06
224	0x35af0560	1.304008e-06
225	0xb77beef3	-1.50164005e-05
226	0x37e9ffb8	2.7894843e-05
227	0x36f84a80	7.399649e-06
228	0x379ec09d	1.892476e-05
229	0xb8068d14	-3.207948e-05
230	0x37b218c9	2.1230795e-05
231	0x370dddec	8.455925e-06
232	0x3764d0c8	1.363847e-05
233	0xb7d3d383	-2.5251653e-05
234	0x37939e28	1.7597413e-05
235	0x37551924	1.2701643e-05
236	0xb7d9628e	-2.5914309e-05
237	0xb7c550fd	-2.3521943e-05
238	0x37a80e52	2.0033829e-05
239	0xb6f9ada4	-7.4409927e-06
240	0xb7a82c05	-2.0047659e-05
241	0xb7d61618	-2.5521076e-05
242	0x37236710	9.739553e-06
243	0x37fdddba	3.02632e-05
244	0xb7a7134b	-1.9916935e-05
245	0x3722f470	9.712865e-06
246	0xb826a6a2	-3.9732673e-05
247	0xb766ca5a	-1.3756182e-05
248	0x37063f02	8.001693e-06
249	0x3610df88	2.1587784e-06
250	0xb7d502f5	-2.5392956e-05
251	0x380f4624	3.415918e-05
252	0xb7e402d8	-2.7181042e-05
253	0xb71ed781	-9.46771e-06
254	0x379db99a	1.8802286e-05
255	0x3881137c	6.1548286e-05

lstm.bias_ih_l0 f4 [512]
0	0x3a78e8ec	0.0009495157
1	0x3a0e170a	0.0005420303
2	0xb8c39b36	-9.327235e-05
3	0x3a94b2b2	0.0011344759
4	0x3a88be21	0.0010432639
5	0x3a9e8f19	0.001209709
6	0x39e3600b	0.00043368372
7	0x3af9d0b7	0.0019059394
8	0x3a9d9bef	0.0012024621
9	0x399c46d7	0.00029807418
10	0x39a50d56	0.00031481188
11	0x3a27b52a	0.000639754
12	0x385b6e1c	5.2316216e-05
13	0xb44ee837	-1.9269724e-07
14	0x3ac24a9b	0.001482326
15	0x3a6d942a	0.00090629107
16	0x3b0b4dc5	0.002125607
17	0x3b0b56be	0.002126142
18	0x3a32fd4c	0.00068279053
19	0x3990a43f	0.00027588193
20	0x3acb6e50	0.0015520547
21	0x3acfad95	0.0015844578
22	0x39db9d94	0.0004188834
23	0x3a226e21	0.000619622
24	0x3a6ffbcb	0.00091546465
25	0x395d04c5	0.00021077979
26	0x3a8312ba	0.0010000088
27	0x3ab99fe5	0.0014162032
28	0x37c3d5a0	2.3345288e-05
29	0x399623b0	0.0002863682
30	0xb0561a05	-7.788972e-10
31	0x39badf00	0.00035642833
32	0x3a779e33	0.0009445876
33	0x3a0f77e5	0.0005472883
34	0x3a832437	0.00100053
35	0x3a1598dc	0.0005706677
36	0x3a9bff81	0.0011901708
37	0x39bfc6e1	0.00036578535
38	0x39f54299	0.0004677966
39	0x3a5f7e7d	0.0008525623
40	0x3b09d444	0.0021031061
41	0x3aa0bbc8	0.0012262994
42	0x39dfc64d	0.0004268162
43	0x3a06b4ff	0.0005138665
44	0x3a900208	0.0010986933
45	0x3b102367	0.0021993758
46	0x3a377fdb	0.0006999948
47	0x3a9107ac	0.0011064908
48	0x3a2294ca	0.0006201981
49	0x3aaa7cb4	0.0013007135
50	0xb5148394	-5.532577e-07
51	0x3a0e4e8f	0.0005428576
52	0x3a6deba3	0.0009075945
53	0x3a3d78c4	0.00072277733
54	0xb7501f64	-1.2405075e-05
55	0x3a6c70dd	0.00090195035
56	0x39ef8f2c	0.00045692304
57	0x3a1d6da5	0.0006005413
58	0xb9b80e63	-0.00035105934
59	0x3a336a90	0.0006844187
60	0x3a710060	0.0009193476
61	0x3ac478b8	0.001498959
62	0x3a353bd8	0.00069135195
63	0x3a057b5b	0.0005091929
64	0x39c0a1c9	0.00036741633
65	0x3a3a8c54	0.00071162474
66	0x39622fe8	0.00021570886
67	0x3a232a05	0.0006224218
68	0x3a3471f4	0.00068834354
69	0x3ac817dd	0.0015265901
70	0x3a16e322	0.00057558913
71	0xb766ad24	-1.3749381e-05
72	0x3a92b7d2	0.0011193699
73	0x3a446764	0.0007492213
74	0x3a8cd448	0.0010744417
75	0x3a8bb51a	0.0010658831
76	0x3a2eb4bf	0.00066645065
77	0x39896e76	0.00026212976
78	0x39a7b86b	0.00031990124
79	0x38c046a7	9.1684335e-05
80	0x399dfe72	0.0003013495
81	0x39a8f397	0.00032224946
82	0x38fcf1d1	0.00012061338
83	0x3a28cf1a	0.0006439552
84	0x3aa8c206	0.0012875206
85	0x395da538	0.00021137751
86	0x3ad5116d	0.0016255804
87	0x3ac3c7a0	0.0014936812
88	0x39250034	0.00015735702
89	0x3a45d564	0.00075467513
90	0x39ef3c7a	0.0004563069
91	0x3a803c3b	0.0009783575
92	0x3a6b3413	0.0008972298
93	0x3a98b630	0.0011650976
94	0x3a8f58d0	0.0010936502
95	0x3a0f0c6f	0.000545687
96	0x3a488123	0.00076486374
97	0x39a35c65	0.00031158622
98	0x3969913a	0.00022274713
99	0x3976d17a	0.00023538424
100	0x39587ab7	0.0002064508
101	0x3a034eaf	0.0005008978
102	0x3a223b6f	0.0006188666
103	0x3a9c4ac0	0.0011924133
104	0x3a274092	0.0006380166
105	0x3a6d7db9	0.00090595667
106	0x3a3eacdf	0.00072736846
107	0x39bc6243	0.00035931365
108	0x38481a35	4.7708123e-05
109	0x39ef2e6c	0.0004562022
110	0x3ac91063	0.0015339967
111	0x3a7a8425	0.0009556434
112	0x3a5089f1	0.0007955125
113	0x3818fc36	3.6474514e-05
114	0x3a1d4c08	0.0006000404
115	0x3b0180fe	0.0019760723
116	0x3a7d6d9e	0.00096675183
117	0x3a57b600	0.0008228719
118	0x3ab4cd4a	0.0013794091
119	0x3a8ca845	0.00107313
120	0x39ae9f09	0.00033306357
121	0x3a196044	0.00058508315
122	0x39952b38	0.00028451695
123	0xb9c5a4a7	-0.00037697444
124	0x3a583d39	0.0008248869
125	0x3a702035	0.00091600727
126	0x3ab1b243	0.0013557154
127	0xb91dad48	-0.00015037239
128	0x3a4a861e	0.00077256735
129	0x39f30a38	0.00046356185
130	0xb9475452	-0.0001900953
131	0x3a895d85	0.0010480142
132	0x3a63e10a	0.0008692896
133	0x3a8a5f4a	0.0010556963
134	0x39bf1626	0.0003644686
135	0x3aea5338	0.0017877584
136	0x3a8e7698	0.0010869084
137	0x397745b4	0.00023581722
138	0x396f5230	0.00022823433
139	0x3a171ec9	0.000576478
140	0xb92e84d1	-0.00016643411
141	0xb49135d6	-2.7047525e-07
142	0x3aaab71d	0.0013024543
143	0x3a577552	0.0008219081
144	0x3af812ba	0.0018926479
145	0x3b01a2d1	0.0019780884
146	0x3a3139c3	0.00067606213
147	0x3958fca3	0.0002069348
148	0x3ac2a4e2	0.0014850164
149	0x3ab5c208	0.001386703
150	0x39ba7573	0.0003556419
151	0x39da785e	0.0004166988
152	0x3a582306	0.0008244965
153	0x392e4b5a	0.00016622004
154	0x3a5ba71a	0.0008379087
155	0x3a9aa423	0.0011798184
156	0x37b12d0e	2.1121024e-05
157	0x3991c1da	0.00027800986
158	0xb042590e	-7.0703343e-10
159	0x399eb1ee	0.00030268676
160	0x3a5ed602	0.00085005176
161	0x39ea28db	0.00044662398
162	0x3a7fbbad	0.0009755444
163	0x3a06c7f1	0.0005141488
164	0x3a978415	0.0011559749
165	0x399443c6	0.00028279255
166	0x39dee2d0	0.00042512128
167	0x3a24e7c9	0.0006290642
168	0x3af909fa	0.0019000166
169	0x3a9b94f1	0.001186995
170	0x39c6a4bc	0.0003788824
171	0x3a04178c	0.0005038909
172	0x3a8710c6	0.0010304681
173	0x3b03938d	0.002007696
174	0x3a1f3518	0.000607328
175	0x3a836307	0.0010024019
176	0x3a023c28	0.00049680704
177	0x3a9ae030	0.0011816081
178	0xb51511dc	-5.5532814e-07
179	0x3a06b6de	0.00051389437
180	0x3a3835f9	0.00070270855
181	0x3a2c0126	0.00065614504
182	0xb8808ad8	-6.129377e-05
183	0x3a5d53c3	0.00084429624
184	0x39d27779	0.00040143335
185	0x3a0610b7	0.0005114185
186	0xba3bf050	-0.0007169293
187	0x3a286fe4	0.00064253644
188	0x3a2f7a20	0.0006693918
189	0x3ab36eb3	0.0013689607
190	0x3a262396	0.00063377
191	0x39e99abe	0.00044556515
192	0x39032ef0	0.00012510619
193	0x3a1e89a0	0.00060477294
194	0x39453e67	0.0001881063
195	0x3a1a0f72	0.00058769353
196	0x3a1c5ffe	0.00059652317
197	0x3abdb6da	0.001447405
198	0x3a080196	0.00051882246
199	0xb9171206	-0.00014407196
200	0x3a6bf783	0.00090014207
201	0x3a381bc5	0.0007023181
202	0x3a775636	0.00094351487
203	0x3a8285de	0.0009958108
204	0x3a1322e2	0.0005612803
205	0x397da643	0.00024189898
206	0x399aa286	0.00029494258
207	0x3847c05f	4.7624457e-05
208	0x3983d63d	0.00025145887
209	0x399a6c12	0.00029453688
210	0x388699cd	6.4182655e-05
211	0x3a0ca8af	0.0005365712
212	0x3a99ba13	0.0011728428
213	0x394979f8	0.0001921429
214	0x3abf0ee0	0.0014576577
215	0x3aae3326	0.001329039
216	0xb87be518	-6.0056424e-05
217	0x3a25ff3b	0.0006332283
218	0x39d57379	0.0004071256
219	0x3a66cc71	0.0008804268
220	0x3a529dbd	0.0008034369
221	0x3a7b6ec1	0.0009591394
222	0x3a707500	0.0009172708
223	0x39d78caa	0.00041112798
224	0x3a3f98d0	0.00073088426
225	0x3941373d	0.00018426492
226	0xb7cff570	-2.4790614e-05
227	0x3973c34a	0.00023247037
228	0x39386158	0.00017583871
229	0x39f40e36	0.00046549895
230	0x39f1c3af	0.00046112898
231	0x3a81b9bd	0.0009897273
232	0x3a131382	0.0005610512
233	0x3a528872	0.0008031196
234	0x3a1f1ca3	0.0006069636
235	0x39acfcb0	0.00032994663
236	0x380a93e2	3.303949e-05
237	0x39d3c319	0.00040390415
238	0x3aa4496e	0.0012534091
239	0x3a568fac	0.0008184861
240	0x3a4107e3	0.0007363541
241	0x34410fc0	1.7980256e-07
242	0x3a198132	0.00058557384
243	0x3ae84498	0.0017720638
244	0x3a655e42	0.0008749702
245	0x3a3bd211	0.0007164786
246	0x3a98906b	0.001163972
247	0x3a75a4fd	0.00093705935
248	0x3997fd76	0.00028989807
249	0x3a0f05ce	0.0005455882
250	0x396da7c3	0.00022664577
251	0xba0555d6	-0.0005086338
252	0x3a2ea374	0.00066619297
253	0x3a5ea99d	0.0008493902
254	0x3a9b9c57	0.0011872154
255	0xb9d6237f	-0.00040843707

lstm.bias_hh_l0 f4 [512]
0	0x3a78e8ec	0.0009495157
1	0x3a0e170a	0.0005420303
2	0xb8c39b36	-9.327235e-05
3	0x3a94b2b2	0.0011344759
4	0x3a88be21	0.0010432639
5	0x3a9e8f19	0.001209709
6	0x39e3600b	0.00043368372
7	0x3af9d0b7	0.0019059394
8	0x3a9d9bef	0.0012024621
9	0x399c46d7	0.00029807418
10	0x39a50d56	0.00031481188
11	0x3a27b52a	0.000639754
12	0x385b6e1c	5.2316216e-05
13	0xb44ee837	-1.9269724e-07
14	0x3ac24a9b	0.001482326
15	0x3a6d942a	0.00090629107
16	0x3b0b4dc5	0.002125607
17	0x3b0b56be	0.002126142
18	0x3a32fd4c	0.00068279053
19	0x3990a43f	0.00027588193
20	0x3acb6e50	0.0015520547
21	0x3acfad95	0.0015844578
22	0x39db9d94	0.0004188834
23	0x3a226e21	0.000619622
24	0x3a6ffbcb	0.00091546465
25	0x395d04c5	0.00021077979
26	0x3a8312ba	0.0010000088
27	0x3ab99fe5	0.0014162032
28	0x37c3d5a0	2.3345288e-05
29	0x399623b0	0.0002863682
30	0xb0561a05	-7.788972e-10
31	0x39badf00	0.00035642833
32	0x3a779e33	0.0009445876
33	0x3a0f77e5	0.0005472883
34	0x3a832437	0.00100053
35	0x3a1598dc	0.0005706677
36	0x3a9bff81	0.0011901708
37	0x39bfc6e1	0.00036578535
38	0x39f54299	0.0004677966
39	0x3a5f7e7d	0.0008525623
40	0x3b09d444	0.0021031061
41	0x3aa0bbc8	0.0012262994
42	0x39dfc64d	0.0004268162
43	0x3a06b4ff	0.0005138665
44	0x3a900208	0.0010986933
45	0x3b102367	0.0021993758
46	0x3a377fdb	0.0006999948
47	0x3a9107ac	0.0011064908
48	0x3a2294ca	0.0006201981
49	0x3aaa7cb4	0.0013007135
50	0xb5148394	-5.532577e-07
51	0x3a0e4e8f	0.0005428576
52	0x3a6deba3	0.0009075945
53	0x3a3d78c4	0.00072277733
54	0xb7501f64	-1.2405075e-05
55	0x3a6c70dd	0.00090195035
56	0x39ef8f2c	0.00045692304
57	0x3a1d6da5	0.0006005413
58	0xb9b80e63	-0.00035105934
59	0x3a336a90	0.0006844187
60	0x3a71005e	0.0009193475
61	0x3ac478b8	0.001498959
62	0x3a353bd8	0.00069135195
63	0x3a057b5b	0.0005091929
64	0x39c0a1fc	0.00036741782
65	0x3a3a8c54	0.00071162474
66	0x39622fe0	0.00021570874
67	0x3a232a07	0.0006224219
68	0x3a3471f4	0.00068834354
69	0x3ac817dd	0.0015265901
70	0x3a16e322	0.00057558913
71	0xb766ad24	-1.3749381e-05
72	0x3a92b7d2	0.0011193699
73	0x3a446764	0.0007492213
74	0x3a8cd448	0.0010744417
75	0x3a8bb51a	0.0010658831
76	0x3a2eb4bf	0.00066645065
77	0x39896e76	0.00026212976
78	0x39a7b86b	0.00031990124
79	0x38c046a7	9.1684335e-05
80	0x399dfe72	0.0003013495
81	0x39a8f397	0.00032224946
82	0x38fcf1d1	0.00012061338
83	0x3a28cf1a	0.0006439552
84	0x3aa8c206	0.0012875206
85	0x395da538	0.00021137751
86	0x3ad5116d	0.0016255804
87	0x3ac3c7a0	0.0014936812
88	0x39250034	0.00015735702
89	0x3a45d564	0.00075467513
90	0x39ef3c7a	0.0004563069
91	0x3a803c3b	0.0009783575
92	0x3a6b3413	0.0008972298
93	0x3a98b630	0.0011650976
94	0x3a8f58d0	0.0010936502
95	0x3a0f0c6f	0.000545687
96	0x3a488123	0.00076486374
97	0x39a35c65	0.00031158622
98	0x3969913a	0.00022274713
99	0x3976d17a	0.00023538424
100	0x39587ab7	0.0002064508
101	0x3a034eaf	0.0005008978
102	0x3a223b72	0.00061886676
103	0x3a9c4ac0	0.0011924133
104	0x3a274092	0.0006380166
105	0x3a6d7db9	0.00090595667
106	0x3a3eacdf	0.00072736846
107	0x39bc6243	0.00035931365
108	0x38481a35	4.7708123e-05
109	0x39ef2e6c	0.0004562022
110	0x3ac91063	0.0015339967
111	0x3a7a8425	0.0009556434
112	0x3a5089f1	0.0007955125
113	0x3818fc36	3.6474514e-05
114	0x3a1d4c07	0.00060004037
115	0x3b0180fe	0.0019760723
116	0x3a7d6d9c	0.0009667517
117	0x3a57b600	0.0008228719
118	0x3ab4cd4a	0.0013794091
119	0x3a8ca845	0.00107313
120	0x39ae9f09	0.00033306357
121	0x3a196044	0.00058508315
122	0x39952b38	0.00028451695
123	0xb9c5a4a7	-0.00037697444
124	0x3a583d39	0.0008248869
125	0x3a702035	0.00091600727
126	0x3ab1b243	0.0013557154
127	0xb91dad48	-0.00015037239
128	0x3a4a861e	0.00077256735
129	0x39f30a38	0.00046356185
130	0xb9475452	-0.0001900953
131	0x3a895d85	0.0010480142
132	0x3a63e10a	0.0008692896
133	0x3a8a5f4a	0.0010556963
134	0x39bf1626	0.0003644686
135	0x3aea5338	0.0017877584
136	0x3a8e7698	0.0010869084
137	0x397745b5	0.00023581724
138	0x396f5230	0.00022823433
139	0x3a171ec8	0.00057647796
140	0xb92e84d1	-0.00016643411
141	0xb49135d6	-2.7047525e-07
142	0x3aaab71d	0.0013024543
143	0x3a577552	0.0008219081
144	0x3af812ba	0.0018926479
145	0x3b01a2d1	0.0019780884
146	0x3a3139c3	0.00067606213
147	0x3958fca3	0.0002069348
148	0x3ac2a4e2	0.0014850164
149	0x3ab5c208	0.001386703
150	0x39ba7573	0.0003556419
151	0x39da785e	0.0004166988
152	0x3a582306	0.0008244965
153	0x392e4b5a	0.00016622004
154	0x3a5ba71a	0.0008379087
155	0x3a9aa423	0.0011798184
156	0x37b12d0e	2.1121024e-05
157	0x3991c1da	0.00027800986
158	0xb042590e	-7.0703343e-10
159	0x399eb1ee	0.00030268676
160	0x3a5ed602	0.00085005176
161	0x39ea28db	0.00044662398
162	0x3a7fbbad	0.0009755444
163	0x3a06c7f1	0.0005141488
164	0x3a978415	0.0011559749
165	0x399443c6	0.00028279255
166	0x39dee2d2	0.00042512134
167	0x3a24e7c9	0.0006290642
168	0x3af909fa	0.0019000166
169	0x3a9b94f1	0.001186995
170	0x39c6a4bc	0.0003788824
171	0x3a04178c	0.0005038909
172	0x3a8710c6	0.0010304681
173	0x3b03938d	0.002007696
174	0x3a1f351a	0.00060732814
175	0x3a836307	0.0010024019
176	0x3a023c28	0.00049680704
177	0x3a9ae030	0.0011816081
178	0xb51511dc	-5.5532814e-07
179	0x3a06b6de	0.00051389437
180	0x3a3835f9	0.00070270855
181	0x3a2c0126	0.00065614504
182	0xb8808ad8	-6.129377e-05
183	0x3a5d53c3	0.00084429624
184	0x39d27779	0.00040143335
185	0x3a0610b7	0.0005114185
186	0xba3bf050	-0.0007169293
187	0x3a286fe4	0.00064253644
188	0x3a2f7a20	0.0006693918
189	0x3ab36eb3	0.0013689607
190	0x3a262396	0.00063377
191	0x39e99abe	0.00044556515
192	0x39032ec4	0.00012510555
193	0x3a1e89a0	0.00060477294
194	0x39453eae	0.00018810734
195	0x3a1a0f72	0.00058769353
196	0x3a1c5ffe	0.00059652317
197	0x3abdb6da	0.001447405
198	0x3a080196	0.00051882246
199	0xb9171206	-0.00014407196
200	0x3a6bf783	0.00090014207
201	0x3a381bc5	0.0007023181
202	0x3a775636	0.00094351487
203	0x3a8285de	0.0009958108
204	0x3a1322e2	0.0005612803
205	0x397da643	0.00024189898
206	0x399aa286	0.00029494258
207	0x3847c05f	4.7624457e-05
208	0x3983d63d	0.00025145887
209	0x399a6c12	0.00029453688
210	0x388699cd	6.4182655e-05
211	0x3a0ca8af	0.0005365712
212	0x3a99ba13	0.0011728428
213	0x394979f8	0.0001921429
214	0x3abf0ee0	0.0014576577
215	0x3aae3326	0.001329039
216	0xb87be518	-6.0056424e-05
217	0x3a25ff3b	0.0006332283
218	0x39d57379	0.0004071256
219	0x3a66cc73	0.0008804269
220	0x3a529dbd	0.0008034369
221	0x3a7b6ec1	0.0009591394
222	0x3a707500	0.0009172708
223	0x39d78caa	0.00041112798
224	0x3a3f98d0	0.00073088426
225	0x3941373d	0.00018426492
226	0xb7cff570	-2.4790614e-05
227	0x3973c34a	0.00023247037
228	0x39386158	0.00017583871
229	0x39f40e36	0.00046549895
230	0x39f1c3af	0.00046112898
231	0x3a81b9bd	0.0009897273
232	0x3a131382	0.0005610512
233	0x3a528872	0.0008031196
234	0x3a1f1ca3	0.0006069636
235	0x39acfcb0	0.00032994663
236	0x380a93e2	3.303949e-05
237	0x39d3c319	0.00040390415
238	0x3aa4496e	0.0012534091
239	0x3a568fac	0.0008184861
240	0x3a4107e3	0.0007363541
241	0x34410fc0	1.7980256e-07
242	0x3a198132	0.00058557384
243	0x3ae84498	0.0017720638
244	0x3a655e42	0.0008749702
245	0x3a3bd211	0.0007164786
246	0x3a98906b	0.001163972
247	0x3a75a4fd	0.00093705935
248	0x3997fd76	0.00028989807
249	0x3a0f05ce	0.0005455882
250	0x396da7c3	0.00022664577
251	0xba0555d6	-0.0005086338
252	0x3a2ea374	0.00066619297
253	0x3a5ea99d	0.0008493902
254	0x3a9b9c57	0.0011872154
255	0xb9d6237b	-0.00040843696

lstm.weight_ih_l1 f4 [512, 128]
0	0x22106654	1.9569811e-18
1	0x207d47c0	2.1453674e-19
2	0xaf9fcb30	-2.9066305e-10
3	0xa1ab777c	-1.1619038e-18
4	0x20407aa9	1.6303617e-19
5	0x9fb21270	-7.5416435e-20
6	0x2116e7dd	5.1128845e-19
7	0x21c0bef8	1.3060975e-18
8	0x2d69848c	1.3273948e-11
9	0xaf3cda6a	-1.7176097e-10
10	0x21a3def7	1.1104328e-18
11	0x21289082	5.711187e-19
12	0xa07f0510	-2.1601015e-19
13	0x2fcea8f2	3.7591225e-10
14	0xa0c07ec7	-3.260996e-19
15	0x213ec51c	6.4635376e-19
16	0xae78cc84	-5.6570318e-11
17	0xa09bbc28	-2.6382533e-19
18	0x1f7be910	5.3344102e-20
19	0xa18e0950	-9.624759e-19
20	0x1fe26f52	9.589889e-20
21	0xa7396ae2	-2.5731849e-15
22	0xae8a1718	-6.279616e-11
23	0x2f53d41c	1.9265695e-10
24	0x2f48f593	1.827714e-10
25	0xaf6dab9c	-2.1615992e-10
26	0x22d83bd8	5.861028e-18
27	0xaf8d4285	-2.5695016e-10
28	0xa1ca4a5b	-1.3707734e-18
29	0x2084a473	2.2470493e-19
30	0x9f322a2d	-3.7727853e-20
31	0x1faaeab9	7.2386117e-20
32	0xae8856df	-6.1999954e-11
33	0x203d69d9	1.6043945e-19
34	0x2f2e1280	1.583178e-10
35	0x2e97e14e	6.906707e-11
36	0x21e9840a	1.5823645e-18
37	0xa15e3a6e	-7.5293857e-19
38	0x2f0ad7e6	1.262773e-10
39	0xa1c140aa	-1.3095305e-18
40	0xaf402360	-1.7474866e-10
41	0x2cb97c6d	5.2718303e-12
42	0x2ae65a00	4.0918657e-13
43	0x20eca3bd	4.0088308e-19
44	0x2e173124	3.437707e-11
45	0x2218b3e7	2.069508e-18
46	0xaf6859f2	-2.1132232e-10
47	0x2fdb90e8	3.993883e-10
48	0x229ecdaa	4.304374e-18
49	0x2e726a20	5.5118687e-11
50	0xafd8e929	-3.945584e-10
51	0x2f098062	1.2505688e-10
52	0x2f1bb393	1.4160965e-10
53	0x21c8dc22	1.3610796e-18
54	0x2f3275d9	1.6230874e-10
55	0xafe1a524	-4.10446e-10
56	0xa1141794	-5.0175556e-19
57	0x2f1e1bd4	1.4379903e-10
58	0xa146d562	-6.736742e-19
59	0xabb4efd8	-1.2856339e-12
60	0x21c16fe2	1.3107804e-18
61	0xa0805e4e	-2.174645e-19
62	0x2f36b2e4	1.6616358e-10
63	0xad8a99a0	-1.5757007e-11
64	0xa0dc7c37	-3.7351648e-19
65	0xa1cc7617	-1.3854836e-18
66	0x1e5bea30	1.1642192e-20
67	0xa11a0838	-5.2188107e-19
68	0x2e13c70c	3.360072e-11
69	0x2fb9eb21	3.3818373e-10
70	0x2d64ca54	1.3005225e-11
71	0x20884f10	2.3091615e-19
72	0xaf29ad5e	-1.5432053e-10
73	0x250361da	1.1395592e-16
74	0x2255d9e9	2.8982244e-18
75	0x22fb595c	6.81283e-18
76	0x2fa747ee	3.0428232e-10
77	0x1cccc100	1.3549477e-21
78	0x20c0f321	3.2686954e-19
79	0x21dcb284	1.4955033e-18
80	0x21f0f5a6	1.6328055e-18
81	0x2fbd49ff	3.4431477e-10
82	0xaf9bfe14	-2.837487e-10
83	0x2102d3f0	4.432621e-19
84	0xa1e7555d	-1.5675764e-18
85	0xaec9fd55	-9.1854226e-11
86	0xa21de7b5	-2.1400132e-18
87	0xaf62d492	-2.06301e-10
88	0xaf0be246	-1.2722365e-10
89	0xa520d950	-1.3951416e-16
90	0x9fcd0000	-8.682088e-20
91	0xae6f6328	-5.4430377e-11
92	0x2781230c	3.584269e-15
93	0x21d2c4e2	1.4282268e-18
94	0x1fde6b38	9.4198036e-20
95	0xa266af55	-3.1263632e-18
96	0xa1b3faf4	-1.2195939e-18
97	0x9e07cba0	-7.188949e-21
98	0xaf20110c	-1.4557971e-10
99	0xa1839cb7	-8.918387e-19
100	0x21c1ef2e	1.3141499e-18
101	0xa7ef706c	-6.6457714e-15
102	0x22363f48	2.46991e-18
103	0xa10c18b6	-4.746655e-19
104	0x9fd42670	-8.984908e-20
105	0x27e87110	6.451552e-15
106	0xb021d880	-5.8879124e-10
107	0xaecb6f49	-9.2511394e-11
108	0x2f385162	1.6763615e-10
109	0x203501f8	1.5331948e-19
110	0x20cdf8f4	3.4893094e-19
111	0xa7a7fb12	-4.6624022e-15
112	0xa1441278	-6.6431826e-19
113	0x20f14828	4.0874737e-19
114	0xa0e168ae	-3.8185754e-19
115	0xa0b957f6	-3.1398427e-19
116	0x21e1f6d6	1.531193e-18
117	0xa16942a4	-7.903167e-19
118	0x2f18a7fe	1.3884002e-10
119	0xaeeabd7a	-1.0674746e-10
120	0xaf0070b2	-1.168157e-10
121	0x2f711ad1	2.192835e-10
122	0x211e7603	5.368867e-19
123	0xaf3c5cbd	-1.7131448e-10
124	0x212e5b71	5.9074515e-19
125	0x2f042ea2	1.2021897e-10
126	0x218d99c4	9.595233e-19
127	0x214b9d7c	6.8987504e-19
128	0x1695b191	2.4184308e-25
129	0x966dfd87	-1.9224707e-25
130	0x16858919	2.157383e-25
131	0x1563d458	4.6009795e-26
132	0x16af1b05	2.8289827e-25
133	0x96a80f76	-2.715162e-25
134	0x143e51a0	9.608646e-27
135	0x15eb9308	9.514772e-26
136	0x15bf198c	7.718459e-26
137	0x160119f6	1.0428729e-25
138	0x16b5e96e	2.9389442e-25
139	0x969d0e78	-2.537385e-25
140	0x1605e4e0	1.0815875e-25
141	0x14734dda	1.2283718e-26
142	0x95c080e0	-7.775151e-26
143	0x16fe461c	4.1080158e-25
144	0x14d693c0	2.1666755e-26
145	0x154755a8	4.02553e-26
146	0x95aafef0	-6.9064674e-26
147	0x96653034	-1.8513683e-25
148	0x14303640	8.896428e-27
149	0x1694f9de	2.4068378e-25
150	0x16ad7371	2.802251e-25
151	0x168ab416	2.2408753e-25
152	0x952dea38	-3.5121838e-26
153	0x15e9825a	9.431361e-26
154	0x964c1c72	-1.6487965e-25
155	0x96a1b60a	-2.6125836e-25
156	0x13b03100	4.4476964e-27
157	0x15ab7342	6.9248195e-26
158	0x93408978	-2.4301584e-27
159	0x9711c013	-4.709446e-25
160	0x9692039c	-2.358985e-25
161	0x958379e8	-5.310281e-26
162	0x9648d87a	-1.6224179e-25
163	0x16c433d8	3.1698226e-25
164	0x963311b4	-1.4465091e-25
165	0x168efa14	2.309916e-25
166	0x16c79338	3.2243092e-25
167	0x96856f55	-2.155757e-25
168	0x95dd470b	-8.9373275e-26
169	0x15f25b28	9.788684e-26
170	0x16610f84	1.8180251e-25
171	0x96942e21	-2.39398e-25
172	0x153837f0	3.720263e-26
173	0x95b3f620	-7.268584e-26
174	0x968b8f64	-2.2547153e-25
175	0x95f174b8	-9.7523275e-26
176	0x16e467df	3.6900939e-25
177	0x16a83f9d	2.718201e-25
178	0x14292ea9	8.541522e-27
179	0x16911b18	2.3443112e-25
180	0x171883ad	4.9280047e-25
181	0x16ab4dbc	2.7675597e-25
182	0x1693ee98	2.3899705e-25
183	0x971c0b88	-5.0420873e-25
184	0x16a4716c	2.6567208e-25
185	0x168e5ab0	2.299857e-25
186	0x94edcb80	-2.4011151e-26
187	0x95f60474	-9.9365635e-26
188	0x16429be9	1.5720392e-25
189	0x164fe753	1.679432e-25
190	0x96b3f68f	-2.907461e-25
191	0x164754af	1.6101813e-25
192	0x16959430	2.4165768e-25
193	0x95ee7fc8	-9.632904e-26
194	0x13a15eb0	4.0735483e-27
195	0x16c99df2	3.257298e-25
196	0x96d5cb08	-3.4540137e-25
197	0x95d55f54	-8.6180416e-26
198	0x15814f10	5.2227424e-26
199	0x166ead62	1.9280197e-25
200	0x16f45c0b	3.9478413e-25
201	0x94b25c50	-1.8009818e-26
202	0x9685b374	-2.160056e-25
203	0x1675ec8e	1.9865586e-25
204	0x96be6bd9	-3.0764217e-25
205	0x9450bb98	-1.0538313e-26
206	0x954ce7f0	-4.1380438e-26
207	0x96c403c1	-3.1667877e-25
208	0x169c92c9	2.5295794e-25
209	0x95433fa0	-3.9430128e-26
210	0x95d9ba32	-8.7939366e-26
211	0x96f6e63e	-3.9888747e-25
212	0x16627112	1.8291813e-25
213	0x96b4d01f	-2.9211911e-25
214	0x9692c63f	-2.3712683e-25
215	0x96a60798	-2.6823539e-25
216	0x15589585	4.3738803e-26
217	0x163ba055	1.5156332e-25
218	0x96cef8b1	-3.3438041e-25
219	0x16d2f087	3.4079124e-25
220	0x93a4a240	-4.155941e-27
221	0x96749186	-1.9756082e-25
222	0x151510f0	3.0103672e-26
223	0x171f3337	5.1440313e-25
224	0x16301754	1.4224528e-25
225	0x968071e0	-2.075138e-25
226	0x970eccc9	-4.614115e-25
227	0x9559caf0	-4.398289e-26
228	0x95ce9196	-8.343243e-26
229	0x96960c48	-2.4241558e-25
230	0x966b58c8	-1.9011163e-25
231	0x15e5b850	9.278316e-26
232	0x934b9280	-2.5694432e-27
233	0x1715805e	4.830652e-25
234	0x16e2b4b6	3.6626314e-25
235	0x968a2dca	-2.2324e-25
236	0x962df01f	-1.4050598e-25
237	0x96475e28	-1.6104802e-25
238	0x16e917ca	3.7658193e-25
239	0x96a0b34d	-2.596255e-25
240	0x1689e2f9	2.2276784e-25
241	0x9621f8da	-1.3084e-25
242	0x96085a5f	-1.1014509e-25
243	0x95e7e3a6	-9.365932e-26
244	0x962bb8ea	-1.3871619e-25
245	0x16344eca	1.4565146e-25
246	0x16251fdf	1.333865e-25
247	0x9645197c	-1.5921575e-25
248	0x9300e300	-1.6267791e-27
249	0x16349a56	1.4588984e-25
250	0x167a92cc	2.024116e-25
251	0x135188a0	2.644687e-27
252	0x968873f0	-2.2045152e-25
253	0x154ae078	4.097065e-26
254	0x166b9d99	1.9032878e-25
255	0x950ad6f4	-2.8038446e-26

lstm.weight_hh_l1 f4 [512, 128]
0	0x9b5de596	-1.8354875e-22
1	0x119e06a0	2.4932088e-28
2	0x8a18e886	-7.3622666e-33
3	0x8f827e64	-1.2867674e-29
4	0x1b0ed7b4	1.1815662e-22
5	0x16ecb9e0	3.824516e-25
6	0x1984b4df	1.3721533e-23
7	0xab048abe	-4.7088364e-13
8	0x216b605b	7.974862e-19
9	0x0fe83d0d	2.2900482e-29
10	0x16839dfc	2.1263894e-25
11	0x9cfb1dd0	-1.6617493e-21
12	0x0d5d303f	6.8158957e-31
13	0x10deb828	8.78473e-29
14	0x9b20d9ba	-1.3305241e-22
15	0x90fde84f	-1.0014883e-28
16	0x8f175fb6	-7.463308e-30
17	0x97b73a78	-1.1840857e-24
18	0xab08160a	-4.834749e-13
19	0x1914d05d	7.693499e-24
20	0x8f1ff3a0	-7.886226e-30
21	0x20345f69	1.5278162e-19
22	0x1982c70e	1.3522083e-23
23	0x20822d4c	2.2052832e-19
24	0xa1367dca	-6.183048e-19
25	0x98dbc561	-5.6809475e-24
26	0x8a98b9db	-1.4706979e-32
27	0x10a3d4c6	6.4619993e-29
28	0x209b0256	2.6259567e-19
29	0x1ec45a68	2.0789698e-20
30	0x2e84c8cd	6.0383344e-11
31	0x9ba5a6f4	-2.740485e-22
32	0x19218c0e	8.351789e-24
33	0x8f283f14	-8.295188e-30
34	0x97bb59d5	-1.2107269e-24
35	0x174e6cf4	6.669971e-25
36	0x937ba558	-3.1762175e-27
37	0x0e1a9d83	1.9057805e-30
38	0xac2d92d2	-2.466628e-12
39	0x2b825b4e	9.262398e-13
40	0x27f70f3a	6.857278e-15
41	0x8cc57c32	-3.0427403e-31
42	0x9f093d98	-2.9061828e-20
43	0x18f0c10e	6.223348e-24
44	0x2d785a58	1.4117228e-11
45	0x92d9386c	-1.3708534e-27
46	0x8f78a8a0	-1.225982e-29
47	0x8895e0be	-9.020448e-34
48	0xabad10c1	-1.229704e-12
49	0x123568d2	5.724273e-28
50	0x9ab93fc0	-7.66172e-23
51	0x8bd81450	-8.3230736e-32
52	0x8da25339	-1.0004056e-30
53	0x8b552797	-4.1052092e-32
54	0x1941ad0a	1.0012811e-23
55	0x98c12c21	-4.993389e-24
56	0xacbdd9d8	-5.3958886e-12
57	0x206247fd	1.9166764e-19
58	0x18bd2e58	4.890215e-24
59	0x2fcd0b60	3.7297365e-10
60	0x1929f5a4	8.786702e-24
61	0x9ec98022	-2.1334697e-20
62	0x197436eb	1.2625595e-23
63	0x8a766ac8	-1.18645525e-32
64	0x8fc48b28	-1.9380693e-29
65	0x1203ef53	4.16313e-28
66	0x300fe81b	5.235294e-10
67	0x126ed576	7.536267e-28
68	0x0e98c1e4	3.7657603e-30
69	0x12650ea6	7.2277715e-28
70	0xab0ca029	-4.996026e-13
71	0xae903a8b	-6.558761e-11
72	0x217bab2c	8.526865e-19
73	0x1a468628	4.105381e-23
74	0x8a8a55d2	-1.3321199e-32
75	0x890a06a0	-1.661426e-33
76	0x2b4054f9	6.8330026e-13
77	0x1a05428e	2.7557518e-23
78	0x8b0a224b	-2.6603632e-32
79	0x1809d12a	1.7812436e-24
80	0x9b887758	-2.2576437e-22
81	0x0ca57b36	2.549643e-31
82	0xa0058306	-1.130889e-19
83	0x894a4540	-2.4347427e-33
84	0x904192cc	-3.8175627e-29
85	0x180d0121	1.8224393e-24
86	0xae139b0a	-3.3561633e-11
87	0x919aea54	-2.4441332e-28
88	0x18c283c4	5.0280874e-24
89	0x2c370a0d	2.6011443e-12
90	0x1943c8d7	1.0121823e-23
91	0x19503c8c	1.0765575e-23
92	0x206be380	1.9980548e-19
93	0x8d8f9de0	-8.851062e-31
94	0x1522e064	3.2892652e-26
95	0x91147f78	-1.1714421e-28
96	0x95b986e0	-7.49337e-26
97	0x11546e51	1.6757845e-28
98	0x9d81c1c8	-3.434638e-21
99	0x26f12546	1.6732837e-15
100	0x102c2af2	3.3954103e-29
101	0x91acedc8	-2.728336e-28
102	0x192c0ece	8.895181e-24
103	0x20182a82	1.2888965e-19
104	0x0ee159b8	5.555318e-30
105	0x90aabcae	-6.7343884e-29
106	0x1238046e	5.8065623e-28
107	0x1286c760	8.505739e-28
108	0x1135f034	1.4352401e-28
109	0x9b4e196c	-1.7048135e-22
110	0x14c96447	2.0335366e-26
111	0x9a37952d	-3.7964016e-23
112	0x1148edf7	1.5850547e-28
113	0x90b78538	-7.238603e-29
114	0x113b1816	1.4759121e-28
115	0x8c3ee6ff	-1.470658e-31
116	0x976ae270	-7.589528e-25
117	0x9bf88e4e	-4.112012e-22
118	0xaef2efa2	-1.1047453e-10
119	0x1a346185	3.7301903e-23
120	0x9c6f803c	-7.9244206e-22
121	0x8eccc4e0	-5.0479466e-30
122	0x95fe1c10	-1.0263406e-25
123	0x2f5bc62c	1.9988339e-10
124	0x8fdd07f2	-2.1795343e-29
125	0xa166d634	-7.8210527e-19
126	0x90269bb0	-3.2857665e-29
127	0x996ff924	-1.2406324e-23
128	0x0f824858	1.2846856e-29
129	0x89460c93	-2.3839295e-33
130	0x01be2998	6.985466e-38
131	0x08bf07f7	1.1497267e-33
132	0x90ead547	-9.262533e-29
133	0x0f4bb338	1.0043189e-29
134	0x8f9b38ed	-1.5306107e-29
135	0x0f535072	1.04185964e-29
136	0x956de29c	-4.8040532e-26
137	0x0341a566	5.690747e-37
138	0x8bd64e36	-8.254748e-32
139	0x1235c854	5.7360453e-28
140	0x83ac8236	-1.0139146e-36
141	0x899ae268	-3.7287063e-33
142	0x90756ac8	-4.8399992e-29
143	0x88633018	-6.836686e-34
144	0x08e29d66	1.3638884e-33
145	0x0d6d0ff0	7.3050448e-31
146	0x8f808cd2	-1.2676016e-29
147	0x0db444fe	1.1109966e-30
148	0x88ee5187	-1.4343271e-33
149	0x15c0c55c	7.785956e-26
150	0x8e6e2a32	-2.9356081e-30
151	0x956d61b0	-4.793883e-26
152	0x95c9c0d6	-8.1487495e-26
153	0x0e425204	2.3951835e-30
154	0x0698eef5	5.752716e-35
155	0x88645e4c	-6.87221e-34
156	0x959b1a5a	-6.2645577e-26
157	0x92980a83	-9.59514e-28
158	0x10f2df46	9.5796177e-29
159	0x2ec8f952	9.139235e-11
160	0xae969e68	-6.849349e-11
161	0x8732a6b0	-1.3440217e-34
162	0x0eb4232c	4.4407295e-30
163	0x0cff04d6	3.9291881e-31
164	0x0b44f2e5	3.793096e-32
165	0x0710f3da	1.0905017e-34
166	0x105a61c0	4.3068223e-29
167	0x0f16a9b4	7.4282546e-30
168	0x0f95edba	1.4784103e-29
169	0x83ccb7ae	-1.2032213e-36
170	0x960d755d	-1.1426923e-25
171	0x0d65698c	7.069312e-31
172	0x8f2fd2c4	-8.668758e-30
173	0x8b2cf03e	-3.3306733e-32
174	0x860b66e0	-2.6218575e-35
175	0x08a024d3	9.638307e-34
176	0x8efb7b85	-6.1995222e-30
177	0x88a49a94	-9.906732e-34
178	0x8f3f455c	-9.430385e-30
179	0x068c790f	5.2840027e-35
180	0x84916eb4	-3.4191e-36
181	0x097d7cfe	3.0512538e-33
182	0x8f7ba4e1	-1.240701e-29
183	0x0e2005f8	1.9724396e-30
184	0x307488ac	8.8960905e-10
185	0x95ad6577	-7.0034227e-26
186	0x8e22bb8d	-2.0058344e-30
187	0x0cf9ed20	3.850724e-31
188	0x0eb9120d	4.5623403e-30
189	0x13b81105	4.6464913e-27
190	0x8e9d2448	-3.8738426e-30
191	0x822801a2	-1.2343159e-37
192	0x8748e2d8	-1.5112991e-34
193	0x0a4ea790	9.950054e-33
194	0x105d690c	4.366549e-29
195	0x0997b176	3.651881e-33
196	0x871db4c2	-1.1864487e-34
197	0x895378c8	-2.5454992e-33
198	0x1120cf24	1.2685605e-28
199	0x8ec66310	-4.8906162e-30
200	0x950005c4	-2.5853942e-26
201	0x8ed48a3a	-5.2395142e-30
202	0x87908416	-2.1744345e-34
203	0x81b0511a	-6.4768564e-38
204	0x0d1fb0d0	4.920849e-31
205	0x8e033030	-1.6170198e-30
206	0x09537c24	2.5456572e-33
207	0x918fed54	-2.2707687e-28
208	0x9285d405	-8.445747e-28
209	0x069933fa	5.7628576e-35
210	0x156e732f	4.815458e-26
211	0x050fdf36	6.764825e-36
212	0x8961c458	-2.717571e-33
213	0x0e1691d6	1.8559145e-30
214	0xaed9dfb8	-9.907758e-11
215	0x05d27468	1.9791066e-35
216	0x0c9b6500	2.3942318e-31
217	0x0f9a59a4	1.52201e-29
218	0x100db4bc	2.794658e-29
219	0x8d515708	-6.4507857e-31
220	0x95a9c007	-6.856152e-26
221	0x0981074e	3.106249e-33
222	0x8abdfb29	-1.8294514e-32
223	0x06ed1f0b	8.9195105e-35
224	0x8ddb34b1	-1.3509602e-30
225	0x8572d268	-1.1417431e-35
226	0x0d8a903c	8.53963e-31
227	0x10733be0	4.7969426e-29
228	0x86d97c08	-8.1808575e-35
229	0x05a85a10	1.5831728e-35
230	0x1016a5a9	2.9709904e-29
231	0x15b51175	7.313286e-26
232	0x8920a308	-1.9335956e-33
233	0x063a7be9	3.5073747e-35
234	0x06986466	5.732357e-35
235	0x0a8f21cd	1.3783114e-32
236	0x08d30938	1.2701268e-33
237	0x91b1b8bc	-2.8039527e-28
238	0x8a0cc963	-6.7786314e-33
239	0x9072777e	-4.7818138e-29
240	0x84ade140	-4.0878964e-36
241	0x868dcd40	-5.3339893e-35
242	0x85c8a1a0	-1.8867281e-35
243	0x06d1a250	7.885556e-35
244	0x0ce47336	3.5198302e-31
245	0x8f54cc04	-1.0491699e-29
246	0x8e1ba7a8	-1.9185949e-30
247	0x8e081a71	-1.6776025e-30
248	0x11bdd978	2.9952968e-28
249	0x04df911c	5.256031e-36
250	0x8ea4d43a	-4.063349e-30
251	0x901114c7	-2.8612214e-29
252	0x8441fcd8	-2.2803141e-36
253	0x93ab7f00	-4.32917e-27
254	0x8887e098	-8.177819e-34
255	0x8e7b92f8	-3.1008902e-30
