models/GBPUSD_model.pth (torch, 860300 bytes, 15 tensors)

lstm.weight_ih_l0 f4 [512, 12]
00000000: fffb 89be 675c 23be 52fb 58be 8598 3fbe
00000010: e25d a4bd b625 7dbe 13ab f2bd f61c a5bd
00000020: de08 c1bd bb68 49bd 8fa7 55bd 489b f3bd
00000030: b1ba 7f3d c801 e13c 435e 1c3e 7443 1b3e
00000040: 0691 d1be e453 a93c 65e6 02bd bed4 b0bb
00000050: 6277 c2bc e497 d53b 7a83 2f3e e062 723d
00000060: e879 51bd bf35 87bd cb57 18be 09a1 08be
00000070: bda4 84bc 8b37 5abe 8c72 26be 31d1 80be
00000080: 06fa 843e 265d 36bd 1b8c 623d 7f4f cfbd
00000090: b13e b5bd ad68 a3bd 8c17 5bbd ac70 fabc
000000a0: dcf3 743e 3f85 e2bd 39d0 e7bd b5ef afbd
000000b0: 6d7c 3dbd fa72 dabc f65a 18bd b663 123d
000000c0: de7a 7f3e ed3b 403e 9fe8 033e 0b31 593e
000000d0: 603d d43d 435c 8a3e 69a9 1f3e 6ac1 d03d
000000e0: 6800 6b3e faa0 943d ba49 df3d 0d4c d43d
000000f0: d028 b9bd bd13 75be 934a ddbd 3f0a 40be
00000100: 1828 713d b94d 78be 39d8 17be 2993 4d3d
00000110: cc6c acbd 1a43 2b3d aafe 0d3e 5bce 9b3d
00000120: 4a5c ad3c cbee ffbc 26a2 9bbd 86b9 dcbd
00000130: 7107 073e bffb 32bb 1e24 91bb 5ff6 903d
00000140: 7b17 503d 84b0 fb3d b5af 223e 39e0 223d
00000150: 301a 61be 109c 46be 3205 25be 997c 1ebe
00000160: 8d06 6abd 01ab 0abe 15ac 24be 4942 01be
00000170: f6e7 b53e e706 e9bd f08a 0cbe 22f3 80bd
00000180: c89f 533d f7f9 cf3c c624 aabc 03d8 78bb
00000190: 58c1 b1be ab8d 7b3d 59ff a03d 8726 8fbe
000001a0: 9066 d7bd 2fe1 01bd d4df cc3d 6e99 c4bd
000001b0: 4e08 943d ac9b 373d e8bb 3a3d 191b 973d
000001c0: 0ce5 2f3d 69fb e23d 5256 753d ab28 da3e
000001d0: b056 333e e9f0 bc3e d815 da3e aa4d 253e
000001e0: 4ca4 303d 300c f7bb 4f1e 47bd 0594 0cbb
000001f0: ce58 133f 3c62 0b3c 781a 15bd 7522 e3bd
00000200: 9e3c 063e f95e 143e 7c29 183e 640a 2b3d
00000210: a766 d4bc c029 57bd e256 853b 2438 b03d
00000220: 6fe5 6e3e ee02 b33d b323 bdbb e1e4 64be
00000230: 14d5 44be 0dad 2bbc db04 efbd 83b9 be3c
00000240: 3223 1c3e 6664 393e 60a7 e83d a857 203d
00000250: 5bef 00be 7271 243d 3eb1 313e 52e6 24be
00000260: 39ca b33e a114 f43d ecb8 f2bc 1d49 94bd
00000270: 3cd5 fd3c c9c4 c2bd f877 92bd 8eba 27bd
00000280: a37a 29be 7072 01be dc1f 94bd d19f 9ebe
00000290: c473 bbbc 4bcf 32bd edfa cdbd 2873 7dbe
000002a0: ae2d 34be 8106 8fbe 9fe4 eebd 41f3 8abe
000002b0: d390 c2bd 958c 79be f2dd 3dbe 113e 073d
000002c0: bf74 01be 3221 b23d 0666 7fbd d4e6 f93d
000002d0: a1c6 97be ebc3 fabd b933 3abe d5ce 8abe
000002e0: 51e6 91bc e139 5dbe b56d 01be e099 e1bd
000002f0: ba60 c63b aef8 c5bd 836b 26be 653c e7bd
00000300: 3634 be3c 8369 813d 3a86 d73d f0fb 423e
00000310: bc1b 8339 625a d83d a289 b13d 671d 44be
00000320: 213e a3bc f4a6 ebbc 4204 39bd 6fdf 77bd
00000330: cbbf 31bd 69f1 b83d 2175 173d 0d20 363d
00000340: 4702 7abc 8fe9 ee3d 0516 85bd e8ab ef3d
00000350: 4ad9 40be 2038 b4bb ee38 e8bb 4ec7 1ebc
00000360: c611 313e 41d4 163e 8797 4c3d cc83 f73d
00000370: 8cb5 b8bd 3506 d13d 8dfa 0f3e 43b8 9c3e
00000380: 5078 d83e c433 c83e c92a a53e d262 873e
00000390: 45dd 9dbe c809 33be 3a74 82be 7737 a7be
000003a0: db4f 023d 446b 92be 1922 6ebe 203c cd3c
000003b0: 94e2 c03d 6f53 69bc 28fe 30bc 2d9f ebbd
000003c0: 340c 43bd 6031 a23d 0849 393d c4c1 ac3d
000003d0: edf1 aa3e 0a9b 203d 8651 5dbd 8505 ffbd
000003e0: ed0b 133e 72b5 b83d 0376 a43c 6283 1f3d
000003f0: dfdd 1bbe eaf8 90be e8a2 2bbe c39a 4abe
-0.2695007 -0.15953217 -0.21189621 -0.18710525 -0.08025719 -0.24721417 -0.11849036 -0.080621645
-0.094255194 -0.049172144 -0.05216175 -0.11894852 0.062433902 0.02746667 0.15270333 0.1516245
-0.40930957 0.020669885 -0.031958003 -0.0053964546 -0.023738567 0.006518351 0.17139998 0.059176326
-0.05114165 -0.06602048 -0.1487724 -0.1334268 -0.016191835 -0.2131025 -0.16254634 -0.251596
0.25972003 -0.044522427 0.055309396 -0.101225846 -0.08849848 -0.0797895 -0.053489253 -0.030571304
0.2392115 -0.11060571 -0.11319012 -0.08590642 -0.04626124 -0.026666153 -0.037196122 0.035739623
0.24949214 0.1877286 0.12881707 0.21210115 0.10363269 0.27023515 0.15591969 0.10193141
0.22949374 0.07257266 0.10902734 0.10366068 -0.090409875 -0.23933311 -0.108052395 -0.18753909
0.058876127 -0.24248399 -0.14828576 0.05018917 -0.08419189 0.04181204 0.13866678 0.076077186
0.02116217 -0.031241795 -0.07599287 -0.10777573 0.13186432 -0.0027310697 -0.0044293543 0.070782416
0.050803643 0.12289527 0.1588734 0.039764617 -0.21982646 -0.1939547 -0.16115263 -0.15477218
-0.057135154 -0.13541795 -0.16081269 -0.12622942 0.35528535 -0.1137827 -0.13724875 -0.06296374
0.05166605 0.025387747 -0.020769488 -0.003797055 -0.34717822 0.061414402 0.07861204 -0.27959082
-0.10517609 -0.031708892 0.10003629 -0.09599577 0.072281465 0.044826195 0.045589358 0.07378215
0.042943045 0.11083109 0.059896775 0.42609152 0.17513537 0.3690255 0.4259479 0.16142908
0.043125436 -0.0075392947 -0.04861289 -0.0021450531 0.5755738 0.008507308 -0.036402196 -0.110905565
0.13109061 0.14489354 0.14859575 0.041757956 -0.025927855 -0.05253005 0.004069195 0.08604458
0.2332971 0.08740793 -0.005772078 -0.22352935 -0.19221908 -0.01047827 -0.11670848 0.023281818
0.15247801 0.18104705 0.11360049 0.039146096 -0.12591307 0.040147252 0.17352769 -0.16103485
0.3511522 0.11917997 -0.029629193 -0.07240508 0.030985467 -0.0951019 -0.071517885 -0.040949397
-0.16550688 -0.1264131 -0.07232639 -0.30981305 -0.02288235 -0.04365472 -0.10057626 -0.2475096
-0.1759555 -0.2793465 -0.116647 -0.27138713 -0.09500279 -0.24370034 -0.18541697 0.033018176
-0.12642191 0.08697738 -0.062353157 0.1220223 -0.2964373 -0.122444 -0.18183793 -0.27110925
-0.017810019 -0.2160411 -0.12639506 -0.110156775 0.006054011 -0.096665725 -0.1625195 -0.11290816
0.023218255 0.06318953 0.105236486 0.19041419 0.0002500693 0.10564114 0.086688295 -0.19151841
-0.019927086 -0.028766133 -0.045170076 -0.060515817 -0.0433958 0.0903042 0.036976937 0.04446416
-0.015259332 0.116656415 -0.064983405 0.117027104 -0.18832889 -0.0054998547 -0.0070868647 -0.009691073
0.17291936 0.14729406 0.049949195 0.12085685 -0.09019002 0.10206262 0.14060421 0.3060933
0.4227929 0.39101994 0.32259205 0.2644258 -0.30832878 -0.174842 -0.254793 -0.32659504
0.031814437 -0.28597462 -0.23255195 0.025053084 0.09418216 -0.0142410835 -0.010802783 -0.1150497
-0.04761906 0.07919574 0.045235664 0.08435395 0.333877 0.039210357 -0.054032825 -0.12452225
0.14360018 0.09018983 0.020075804 0.038943656 -0.15221356 -0.28314906 -0.16761363 -0.197856

lstm.weight_hh_l0 f4 [512, 128]
00000000: c552 cb3d 6a73 80be e27e 9b3d fa28 3d3e
00000010: 2ba1 95be 0ad9 0abd 212c 683c 9913 943c
00000020: f4cd 4c3e 0e1d bf3d f428 a2be 8695 ef3d
00000030: 5145 9d3d 721a 1bbe b176 523d d49c d23e
00000040: 2c9c 013e 61c7 35be b0eb 473e 4055 8c3d
00000050: 66ef 53be aef5 263e 9cdf 5d3e 9b6c 87be
00000060: 560e 37bd 2bce 553d b065 94be 17b6 873e
00000070: f354 46be 82aa 393e 04ad 533e bf68 333e
00000080: 90bc 9cbe 7637 9fbd 9891 52bd c1ca 0fbe
00000090: c084 2f3e 007a 8cbe c014 473d 0b64 d43d
000000a0: 382d c43d 90d1 12bd 6156 843e e096 773e
000000b0: e913 5a3e c605 48be 8046 74be c9d0 363e
000000c0: 33ac 16be 67b8 a43e 2740 8c3e b6a8 00be
000000d0: b58f 813e b04c 853e 9d60 163d aacb a33d
000000e0: 0229 0cbe ee17 d3bd 862c 3bbe 90c5 143e
000000f0: eabc 6cbd 04e0 63be 89ed be3c bd11 933d
00000100: 1984 c3bd f078 3b3d 08fd 25bd f810 3d3d
00000110: 64ad 24be 92a1 893d 5637 babd 172a 123e
00000120: e127 3dbe ade6 cebe f180 573e e44b 323e
00000130: c9d2 a2bd 88c6 3b3e 502a 113d ca6c 65be
00000140: 1428 86be 2920 1b3e 01ab 323b 5918 cabc
00000150: f9c0 8cbd fc10 1cbe 018b df3d 7ad3 bc3c
00000160: 8aba a73d 3005 1c3e 006f 30be 9a05 84bc
00000170: 7ddb 203e 6764 72bd accf f03d 47be 613e
00000180: 7f5e 58be 92f9 883e 0ff7 4cbe c8c5 28be
00000190: ffde c3be 2f85 8d3e 125d aebe 7f3e f23d
000001a0: b839 fb3d cb9e 38bd ce55 45be 24ad 0b3e
000001b0: 4299 563e cd76 56bd 6f40 b0ba 7733 03be
000001c0: fcee 103d f7a4 59be f496 ec3c a43a b2bd
000001d0: 7e21 8abd 5a45 f03d 2cf7 57be 0dae dfbd
000001e0: f5c3 553e 3e7c 8cbe 96d3 4c3e bfc2 b6bd
000001f0: 00fc 073e 9c87 713e cc09 4c3d 6fea ee3d
00000200: 0688 c3be eee6 dfbd 040d 9cbe a58f 30bf
00000210: a527 893d f02e 3bbf 45bd 1dbe e3f9 48bc
00000220: 40fe c6bc d71c 44be c9aa 1f3e 26f6 51be
00000230: bb6c b93b 845f b93e 8038 1d3f 6884 e13c
00000240: 3e70 483e 28cb e3bd 0bf0 b0be a7d9 3d3f
00000250: feef ab3e d9f8 ba3d a9fe ddbd d301 623e
00000260: 8447 7a3e fba9 0ebe d993 6bbe e782 35bd
00000270: 3a46 473e 9b68 15bd 20d1 04bd 7f24 a6be
00000280: 2131 da3d a1e4 0b3f 5b44 6bbd e728 48be
00000290: 634b 5abe f7d4 c1bd 641d d4bd 4a5f 1ebe
000002a0: 6f71 a63e 2035 aabd 5649 65bb 3643 8abe
000002b0: 46f1 4d3e 9cc7 853d ec47 2b3d e1c4 e23d
000002c0: 5737 823e 1b63 8bbe 92e6 ddbd dd62 c93e
000002d0: 9bfa 4b3e 305e d63e bbfd 45be cfd5 653d
000002e0: 4c8e d83d baa0 2a3e de1f a03e a99f 833e
000002f0: 3921 123e 7824 9fbe 8e84 c13d 8ecb 04bf
00000300: e143 a33e 9505 8f3c 9864 be3d f8ff 65bc
00000310: b5e8 613e 907a 823e 90a3 30be cd11 903c
00000320: 4f1a e23c 1910 c0be 3c9d afbe 6491 9fbe
00000330: a201 3f3e c287 653d 1d85 dd3d 389d c7be
00000340: f4ee 44be da61 1d3d 1b20 e23e 3ec1 b7bd
00000350: a3af 9b3e 678e 083e 4744 853d 235b 95bd
00000360: 120b b4be f0f2 7f3e a0bb ca3e 8959 a53c
00000370: 1a12 42bf bf12 4abe 5bfe 04be 2bdb 52be
00000380: ac23 03be ba08 233e f781 c9bd a7ef 123d
00000390: cb76 b8bd 63d5 523e 425c 4dbe 99dd 57be
000003a0: f447 1fbe fbdf 5abd 6686 9a3e 1597 03bf
000003b0: 7579 bf3d 1f3d d9be 7ebe 6cbd c722 ac3d
000003c0: d0aa 073e 9a3f 83be 6492 103e 12e6 23bf
000003d0: e837 cabe 179d a7be 78bc fe3d 8fc4 b43e
000003e0: f3fa b13e f278 8a3e e638 afbe f416 a73e
000003f0: aad7 24be 0256 2f3f 2f09 663e 2af2 f8be
0.099278964 -0.25088054 0.0759256 0.18472663 -0.29224524 -0.03389839 0.014170677 0.018075751
0.2000044 0.093317136 -0.3167187 0.11698441 0.07679237 -0.15146807 0.051382724 0.41135275
0.12657231 -0.17751838 0.19523501 0.06852198 -0.20696792 0.16304657 0.21667331 -0.26450047
-0.044691406 0.05219857 -0.2898383 0.2650611 -0.19368343 0.1813145 0.20671469 0.17520426
-0.30612612 -0.0777425 -0.05140838 -0.14042188 0.17140484 -0.2743683 0.048603773 0.10370644
0.09578937 -0.035844386 0.25847152 0.24178648 0.21296658 -0.19533452 -0.23855019 0.17853083
-0.14714126 0.32171938 0.27392694 -0.12564358 0.25304952 0.2603507 0.03671323 0.0799783
-0.13687518 -0.103072986 -0.18278703 0.14528489 -0.05779735 -0.22253424 0.023306625 0.07181118
-0.0954668 0.04576963 -0.040524513 0.04615876 -0.16081768 0.0672027 -0.09092586 0.14273869
-0.18472244 -0.40410367 0.21045281 0.17411762 -0.0795036 0.18337452 0.035440743 -0.22404781
-0.26202452 0.15148987 0.002726257 -0.024669813 -0.06872744 -0.15240854 0.10915185 0.023050059
0.081898764 0.15236354 -0.17229843 -0.016115952 0.15708728 -0.059177782 0.1175836 0.22045241
-0.21129797 0.26752907 -0.2001612 -0.16481698 -0.3825607 0.27640674 -0.34055382 0.118283264
0.12266868 -0.04507331 -0.19271013 0.13640267 0.209569 -0.05235939 -0.0013446937 -0.12812601
0.035384163 -0.21254335 0.028880574 -0.08702591 -0.067446694 0.11731978 -0.21090382 -0.109218694
0.20875533 -0.2743854 0.20002589 -0.089238636 0.13279724 0.23586887 0.04981403 0.116658084
-0.38189715 -0.10932718 -0.3047868 -0.68969184 0.06697015 -0.73118496 -0.15404232 -0.012266609
-0.024291158 -0.19151627 0.15592493 -0.20504054 0.0056587136 0.36205685 0.6141434 0.027528957
0.19574067 -0.11122733 -0.34558138 0.74160236 0.33581537 0.09129495 -0.10839588 0.22071008
0.24441344 -0.1393203 -0.23005618 -0.04431429 0.19460383 -0.036476713 -0.032426 -0.3244972
0.10653902 0.54645735 -0.057438236 -0.19546853 -0.2131782 -0.09464448 -0.10357168 -0.15466037
0.32508418 -0.08310914 -0.0034986339 -0.27004403 0.2011157 0.06532213 0.041816637 0.11072708
0.25432846 -0.2722405 -0.108349934 0.3933324 0.19919817 0.41868734 -0.19335072 0.056112107
0.10574016 0.16662875 0.31274313 0.2570775 0.14270486 -0.3108251 0.09449111 -0.518731
0.31887725 0.017458716 0.092965305 -0.0140380785 0.22061427 0.25484133 -0.17249894 0.017586613
0.027600436 -0.37512282 -0.34299648 -0.31165612 0.18652967 0.056037672 0.10816405 -0.38987136
-0.19231778 0.038423397 0.4416512 -0.08972405 0.30407438 0.13335572 0.065071635 -0.072927736
-0.35164696 0.24995017 0.39596272 0.020184295 -0.7580887 -0.19733714 -0.12987654 -0.20591418
-0.12806576 0.15921298 -0.09839242 0.03587308 -0.09007033 0.20589213 -0.20054725 -0.21080627
-0.15554792 -0.05343626 0.30180663 -0.5140241 0.09349338 -0.42429444 -0.057798855 0.08405071
0.13248754 -0.25634462 0.14118344 -0.64022934 -0.39495778 -0.32737038 0.12438291 0.35306212
0.34761772 0.270454 -0.34223098 0.326347 -0.16097894 0.6849061 0.22464441 -0.48622257

lstm.bias_ih_l0 f4 [512]
00000000: 91e6 71bd f740 a2bd ebca 5bbc 0ba4 393e
00000010: 4af2 ecbd 5ad9 633d b452 133e 6a2f 02be
00000020: 3357 a1bd f816 be3d 6f18 913d ed18 513d
00000030: 7b66 84bd 0737 d93d 0d60 493c 5b79 343c
00000040: 5c43 7cbd ba9d d6bd 918b 0b3e e9ca a6bd
00000050: 5f91 f23d e8f9 f73c ae4e 41bc e6e4 713e
00000060: bfa7 293e f923 c73d 2d0d cbbd a9cb ae3d
00000070: 32d2 ed3d aacc 023b ac03 c93d b2c0 ddbd
00000080: 48de 023d d80a 6b3e 0211 aa3d b7b3 0bbe
00000090: 1e8a 1b3e 38c3 343d 8561 ae3d bc14 fdbd
000000a0: 4d4e 693d d1c4 143e 14f6 49be a19d 8c3e
000000b0: 78d2 203d f95a 383c dd84 22be abb1 2ebe
000000c0: cab5 79bd 7069 0d3e def8 4f3e e9a3 e93d
000000d0: 787c 303c 242b 803c 30c5 01be 57e2 69bc
000000e0: d18a 993d 1545 57bd 2fd4 593d b37e 9d3c
000000f0: 1bf6 98bd 62b2 70be 4ef2 af3c a672 1d3e
00000100: b3ac 583e 0f69 28be 4e23 ffbc 7ca0 88be
00000110: 6382 afbd a6fa 4abc 2d49 a9bd d37f 4bbd
00000120: 09d9 f5bd 2900 6cbe 1aed 483e b3b0 cdbc
00000130: fead d63d 4940 17be 7590 0abe 1016 9c3d
00000140: 8668 24be e9cd 403d 4534 d83d d34e ab3d
00000150: 766e 1d3d a38e 943e 4dc4 90bd a563 fb3c
00000160: 2bb7 50bd 13e0 eebd 7c9a cbbc dc86 10be
00000170: 6e78 26bd 17f9 43be 2de8 8d3c 3a31 02bd
00000180: 4f22 a0bd dd6f 003d bf95 e4bd cfb4 1ebe
00000190: 1354 9f3c 91a9 1f3d 57f8 01bd fe0b 89bd
000001a0: cb5c 17bc f6ef 25be ba28 093e d1fc a93c
000001b0: b96c 04be e54a 823c 8944 d6bc 7fbe 6a3e
000001c0: faa4 1bbd 5dfe 06bd da29 1fbd b094 ed3d
000001d0: 7b59 cfbd 5f75 c3ba 8c61 36be d2c5 8dbd
000001e0: ee2b 223e 3fe9 aa3b 27b9 303c f0e1 debb
000001f0: 69ed 7b3d a420 1b3e 0f35 853c 4d19 803d
00000200: 4d3a 92bd ad85 3bbe 4f88 19be e8c9 bfbd
00000210: 7a8e d0be 00b1 7b3e e3e7 8abe a2bc 46be
00000220: 82fa 68be 20cb 8dbe 8a1e c1be d246 eb3a
00000230: 63f6 98bd 7370 53be 5c48 4a3e 80d8 d5bd
00000240: b71a c1be 1d1b f7bd c9ef a6be 40df 0d3d
00000250: 47a4 90be bed7 02bd b2bb bdbe ceb2 45be
00000260: b19c f4bd 68dd 5dbe 6d16 27be 1c29 c53d
00000270: a837 b33a 4a4b 96be 4085 8ebe ef36 c3be
00000280: b669 b8be e4ac 4abe f345 7c3d 28a0 46be
00000290: 586c 07bf 1578 1a3e c602 8a3e 56ec 79be
000002a0: 9ca4 89be f377 c93d b387 48be 06c9 03bf
000002b0: 9029 7dbe 6341 33be 198e c7bd c947 9bbc
000002c0: 8dbf 88be 0096 bebe a53e 14be 8b6e eb3d
000002d0: 3400 dbbe d5eb c63b 3edb 4abe 328b dcbd
000002e0: 4c86 6bbe d1ff 08be f505 96be f1ca bebd
000002f0: 4e7c 61be 5fa5 b9be 7dec 81bd a7e2 9fbe
00000300: 2856 3bbe 9e10 6ebe ff2b 1d3d a025 d6bd
00000310: 682c cebd e4fa 363d 00e6 15be 0512 cd3c
00000320: 83d0 9a3d d9f7 8ebe ee89 80be 6d0e 83be
00000330: 10bd 4bbe 885c c6bd 5e16 e5bd 09f0 c63d
00000340: 6b13 16be b062 a0be 7b5d 32be 9844 0ebe
00000350: e8a7 d8bd 9524 73be 8c0a 653d 6036 35be
00000360: d9fa c4be 71f1 01be 8d7a 84be b233 c73b
00000370: 4c18 833d 1a83 1fbe 76c7 a4be 5d43 82be
00000380: bf95 81be 65a5 96be 016d 63be 6881 1cbe
00000390: 04ad 78bd d014 143e 8949 033e ea93 8f3c
000003a0: 99bb e7be 59dd 5dbd 3252 2ebe 851c 74be
000003b0: 3668 a5be a000 c9bd adf5 1abe 8b0f e4be
000003c0: 9fc7 23be 1ba7 17bf cd79 1ebe 1b2b 653d
000003d0: 1a5c ccbd 306c 85be 6055 57be cbdc 2fbe
000003e0: cdb3 723d 15ff dbbe 0880 86bc 8309 80be
000003f0: f29a dcbe a92b 683e 7d89 bdbe 2e91 27be
-0.059057776 -0.07922547 -0.013415079 0.18128984 -0.115696505 0.055627204 0.14387017 -0.127134
-0.0787796 0.09281725 0.070847385 0.05104916 -0.06464859 0.10606199 0.012290967 0.0110152615
-0.061587676 -0.10479303 0.13627459 -0.08144171 0.118441336 0.030270532 -0.011798544 0.23622474
0.16567896 0.09723658 -0.099146225 0.08534939 0.11612357 0.0019958415 0.098151535 -0.10827769
0.031950265 0.22953355 0.08304025 -0.13642775 0.15189406 0.044131488 0.08514694 -0.123574704
0.05695944 0.14528205 -0.19722778 0.2746401 0.03926322 0.011252158 -0.15870996 -0.17059962
-0.060964383 0.13809752 0.20309779 0.114082165 0.010771863 0.015645571 -0.12672877 -0.014275155
0.0749718 -0.052556116 0.05318087 0.019225454 -0.07468816 -0.23505548 0.021477845 0.15375766
0.2115963 -0.16446327 -0.031144764 -0.2668494 -0.08569791 -0.012388861 -0.0826591 -0.04968245
-0.12004287 -0.23046936 0.19621697 -0.02510867 0.10482405 -0.14770617 -0.13531668 0.076213956
-0.16055498 0.04707137 0.105568446 0.08364644 0.038435422 0.29015073 -0.070686914 0.030687163
-0.050955933 -0.116638325 -0.024853937 -0.14113945 -0.040642194 -0.19137989 0.017322624 -0.031785227
-0.07819044 0.03135668 -0.11161374 -0.1549866 0.01944927 0.03898007 -0.031730976 -0.066917405
-0.009238432 -0.16204819 0.13394442 0.020750435 -0.129321 0.015904853 -0.026155727 0.22924231
-0.03799913 -0.032957423 -0.038858272 0.116006255 -0.10124489 -0.0014912299 -0.17810649 -0.06922497
0.1583707 0.0052157934 0.010786331 -0.006801836 0.06150571 0.1514917 0.016260652 0.06254826
-0.07140026 -0.18312712 -0.14993404 -0.093646824 -0.407337 0.24579239 -0.2713004 -0.19407895
-0.22751811 -0.27694035 -0.37718612 0.0017950183 -0.074688695 -0.20648365 0.19754165 -0.10441685
-0.37715694 -0.12065718 -0.32604817 0.034636736 -0.28250334 -0.03194403 -0.37057263 -0.1930649
-0.11943949 -0.21666491 -0.16317149 0.096269816 0.0013673203 -0.29354316 -0.27836037 -0.38127849
-0.3601815 -0.19792515 0.061590146 -0.19397032 -0.52899694 0.1508487 0.2695524 -0.24406561
-0.268834 0.098373316 -0.19583015 -0.5147861 -0.24722886 -0.17505412 -0.097439 -0.018955128
-0.26708642 -0.37223816 -0.14477022 0.11495694 -0.42773592 0.006070594 -0.19810197 -0.10768737
-0.23000449 -0.13378836 -0.2930142 -0.09316052 -0.22020075 -0.3625898 -0.06343935 -0.3122761
-0.18294585 -0.23248526 0.038372036 -0.10456395 -0.100670636 0.04467286 -0.1463852 0.025033006
0.07559302 -0.27923468 -0.25105232 -0.25596943 -0.1989634 -0.09685618 -0.11185907 0.09713752
-0.14655845 -0.31325293 -0.17418472 -0.13893354 -0.105789006 -0.23744424 0.05591826 -0.17696524
-0.38472632 -0.12689759 -0.2587475 0.0060791606 0.06401119 -0.15577355 -0.32183427 -0.2544202
-0.2530956 -0.2942306 -0.2220955 -0.1528374 -0.060711876 0.14461064 0.1282102 0.017526586
-0.45260313 -0.05416617 -0.17023543 -0.23839004 -0.3230607 -0.09814572 -0.1513278 -0.44543108
-0.15994118 -0.5923936 -0.15476151 0.05594931 -0.099785045 -0.26059103 -0.21028662 -0.1717407
0.059253503 -0.4296805 -0.016418472 -0.25007257 -0.43086964 0.22672905 -0.37018958 -0.16363975

lstm.bias_hh_l0 f4 [512]
00000000: d90f 163d 4c20 5fbe 2026 0ebe f362 fe3c
00000010: c820 53bd a6c0 723d 3acd 2b3e e6d2 e5bd
00000020: 311f 1abe cc62 b43d 68fb 213e a284 b93d
00000030: a3ac ddbc 8d52 af3d 413e 43bc e0c8 aebd
00000040: e2b4 a9bc 99d4 8cbd 4dae 653e 37be d13c
00000050: 3fa2 883c 558e 0f3c fcb2 833c 649f 333e
00000060: abc4 1d3e 4cfb 0a3e ff6f b5bd 1b5e e73a
00000070: ebf5 173e f8e2 61bd c6ab ad3c b1fc 29be
00000080: 00fa 453d c346 c13d 1dcc b33c 417b 0fbe
00000090: 3ba7 813d 9b4d 203b 9719 3f3d 5e03 c8bd
000000a0: 1477 be3d ab69 1d3d 35f3 2ebd a0ca 7b3e
000000b0: 619a d13c cf05 2cbd 6dff 80bd bd9c 5ebe
000000c0: 8d64 063c 9828 853e eec9 6a3e ef51 0f3e
000000d0: ba88 9ebd 36cc 8d3d 03d0 e5bc 7453 0fbe
000000e0: cac8 293d fd38 9f3c 1730 133e a1cc 91bc
000000f0: 4823 fcbd cc4c 13be 5082 c3bd cdd9 ac3d
00000100: b7b5 b63d 3dc1 58be 070f d2bd 6e34 8cbe
00000110: 1a2a 2abe f089 b1bc 696c 0d3d 12e2 b1bd
00000120: 832f e2bd f7e7 36be e0dc d93d 50d6 38be
00000130: 4667 153e 5d1f 33be b188 05be 718c 3b3d
00000140: a373 9abe 4611 ce3b 6f5d c33c df5c 833c
00000150: dff6 8ebc dd32 863e 1def 9bbd b001 55bc
00000160: eba4 2ebd 89ff 14bc 51ea cb3a f673 a0bd
00000170: 0997 b1bb ddae 27be 5362 6f3d 043a dc3d
00000180: e3b9 2dbe ebbd c7bb 2b87 32bd ea9a 82bd
00000190: c7cf 12bd 0d43 383d 1a00 d0bc 85b3 d2bc
000001a0: 1231 c03d 4056 91bd 8d5b 023e d63a f53b
000001b0: 5fe2 20be 84e0 fcbc 7e54 453c 5f26 053e
000001c0: 9ead 81bd d871 05be 9b2b dc3c 6933 6a3c
000001d0: 56cd b6bc d700 1f3d baf3 15be 5e75 3d3b
000001e0: 863e fc3d cdf1 9ebd 8c38 a13d afb4 0cbe
000001f0: 0c2e 803c c9fb ab3d 4ffe f4bc 904f 673d
00000200: 0784 68bd ed58 8dbe 3f69 6ebe c647 cebd
00000210: 1af5 09bf 9dd3 463e 532d 9dbe 2c5b 42be
00000220: 2e52 66be 56a6 9bbe dc71 b2be c922 923d
00000230: a07d dd3b 2e2b 89be 308c 533e 86ba 0bbe
00000240: 11af f5be bd66 04be 0050 4ebe dc71 743c
00000250: bcf0 29be e1c9 eebd 1ce1 bfbe 289a afbe
00000260: dad0 c1bd 2ab5 70be 9be6 29be f11f d7bc
00000270: e599 3a3d 09e3 6dbe 72c6 abbe 2952 abbe
00000280: 8ad2 a5be 5d33 85be 5fbf 81bd f67b dbbd
00000290: beee e9be 6e23 6d3d 66a3 5f3e 42f8 a9be
000002a0: 70ba 54be e7e8 b73d 6f09 49be f383 d5be
000002b0: 7930 b8bd e905 7bbe ff60 eebd 7fd8 f3bd
000002c0: 8390 87be 68c6 bdbe f337 2cbe 645e 2b3e
000002d0: cc29 b7be ef90 b7bb 0463 5abe 0ad5 c0bb
000002e0: d8fd 73be 7501 50be b071 4dbe 60f6 a0bc
000002f0: e8a3 6ebe f3e6 afbe 6676 a9bc 2d92 93be
00000300: 8072 3dbe a274 26be 8757 db3d 079f 77be
00000310: 14b8 b6bd f7f0 cb3d 9ce5 6dbe 8166 6ebd
00000320: 7fce d83a 4bb0 c0be 130c bebe 3358 7abe
00000330: 7f96 91be ce3a a3bd c4e5 edbc 4b9d c83d
00000340: ab3a 7bbe 4921 22be 5c0a 93bd 02d3 16be
00000350: 2fea 71be d245 3cbe ab50 87bd 2684 8fbe
00000360: 19ee c6be a8c4 59bd 8e40 23be d9c7 04bd
00000370: e80a ba3c e019 2ebd e69b b5be 85f8 96be
00000380: d160 5cbe ab79 9ebe bf0a 96be 8294 11be
00000390: 3279 9bbc 2182 463d 9716 193d 3fca d43d
000003a0: af1d c3be 9402 2bbe f859 2dbe cb0b 34be
000003b0: 4630 6abe b781 0abd 1b6b c83b d279 febe
000003c0: 6539 18be 3d27 25bf 202c c8bd 4793 013e
000003d0: b9d0 7abe 5a77 a4be 05ff 8ebe dfff f5bd
000003e0: c69c 0a3e a659 01bf 3e02 77bd 6760 efbd
000003f0: 6213 9bbe 1be5 573e 8295 7cbe e919 86be
0.036636207 -0.21789664 -0.13881731 0.031053042 -0.051544935 0.059265755 0.16777506 -0.11221866
-0.15050961 0.088079065 0.1581856 0.09058501 -0.027059859 0.08560667 -0.011916698 -0.085344076
-0.020716134 -0.06876487 0.22429772 0.025603397 0.016678927 0.008761962 0.016076557 0.17541271
0.15407054 0.13572425 -0.08859252 0.0017651947 0.14839904 -0.055148095 0.021200072 -0.166003
0.04833412 0.09437325 0.021947915 -0.14011861 0.06330725 0.002446032 0.046655264 -0.09766267
0.09300056 0.03843085 -0.04271241 0.24589014 0.025586309 -0.041997727 -0.062987186 -0.21739478
0.008202684 0.26007533 0.22928593 0.13996099 -0.07740922 0.06923716 -0.02805329 -0.13996679
0.041451253 0.019436354 0.14373814 -0.01779777 -0.12311417 -0.14384764 -0.095463395 0.0843998
0.08921378 -0.21167465 -0.102567725 -0.2738375 -0.16617623 -0.021672219 0.034527216 -0.086856976
-0.110442184 -0.17861925 0.10637832 -0.18050504 0.14590177 -0.17492433 -0.13040425 0.045788232
-0.3016635 0.0062886802 0.023848264 0.016035495 -0.017451702 0.2621068 -0.076139666 -0.013000891
-0.042637747 -0.009094127 0.0015557503 -0.07834618 -0.005419616 -0.16375299 0.05844338 0.10753253
-0.16965441 -0.006095638 -0.043585937 -0.06377204 -0.035842683 0.04498582 -0.025390673 -0.025720367
0.093843594 -0.07096529 0.12730236 0.0074838204 -0.15711354 -0.030868776 0.01204407 0.13002919
-0.06331943 -0.13031709 0.026876261 0.014294484 -0.022314709 0.03881916 -0.14643756 0.0028909068
0.12316613 -0.077609636 0.078721136 -0.137408 0.015646957 0.083976336 -0.02990642 0.05647236
-0.056766536 -0.27606907 -0.23282336 -0.100722834 -0.5388962 0.19416662 -0.30698642 -0.18980092
-0.22492287 -0.30400342 -0.34852493 0.07135541 0.0067593604 -0.26790756 0.20658946 -0.13645372
-0.47985128 -0.12929817 -0.20147705 0.014919724 -0.16595739 -0.11659599 -0.37476432 -0.342973
-0.094636634 -0.23506609 -0.16591875 -0.026260348 0.04555692 -0.23231138 -0.3354984 -0.3346112
-0.3238719 -0.2601575 -0.06335329 -0.10717003 -0.45689958 0.057895117 0.21839675 -0.33197218
-0.20774245 0.089799695 -0.19632505 -0.41702232 -0.089936204 -0.24513973 -0.11639594 -0.11906528
-0.2647744 -0.37065434 -0.16818218 0.16735226 -0.35774076 -0.005601994 -0.21326834 -0.0058847712
-0.23827302 -0.20313056 -0.200629 -0.01964873 -0.23304713 -0.34355888 -0.02068634 -0.2882246
-0.1850071 -0.1625543 0.10710054 -0.24181758 -0.08921829 0.0995807 -0.2323212 -0.058203224
0.0016541033 -0.376345 -0.37118587 -0.24447708 -0.28435132 -0.079702005 -0.029040225 0.09795626
-0.24534099 -0.1583301 -0.0717971 -0.1472893 -0.2362449 -0.1838601 -0.06607183 -0.2803051
-0.3885353 -0.05316606 -0.15942594 -0.032417152 0.022710279 -0.042505145 -0.35470504 -0.2948648
-0.21521308 -0.309522 -0.29305074 -0.14216807 -0.018978689 0.048463944 0.03737506 0.10390138
-0.38108584 -0.16700202 -0.16928852 -0.17582624 -0.22869977 -0.033815112 0.0061162836 -0.49702317
-0.14865644 -0.64513 -0.09774041 0.12653838 -0.24493684 -0.32122308 -0.2792894 -0.12011694
0.13536367 -0.5052742 -0.060304873 -0.11688309 -0.30288225 0.2108349 -0.24666408 -0.26191643

lstm.weight_ih_l1 f4 [512, 128]
00000000: ad85 65bb 44f7 8dbd 4e79 5ebe 21ed 94bd
00000010: 92c9 5dbe 65b3 283e fea4 c13d 8a59 00bc
00000020: ea25 4b3d 9bfc 453d 9ae7 153e dc8c 99be
00000030: 10a5 d0bd d4ec 84bd e218 31be b00d 9f3d
00000040: 766f b93d 64d8 8c3e 2965 843d d337 703e
00000050: f395 a73e f1af 5bbe e900 95be 09f2 07be
00000060: 4c3d 18be d0e8 17be b439 d33d 228f 65bd
00000070: 11d2 4b3e 1fb9 e63d 187c d43d cd5a 8dbe
00000080: 07d4 c83c b9d4 17bd 7bd0 ee3e b89b 0fbe
00000090: 81fc 58be db17 cfbd 688f 7c3d 6b0a ccbd
000000a0: 551d 3abe 9ad6 7abd e0cf 3e3a f2fa e9bc
000000b0: 0544 b5bd baec e6bd 732a 3bbd c949 89bd
000000c0: 1432 d839 3acc 8d3e 509b 113e 0c26 54bd
000000d0: 27c5 69bd 0d9e ea3d 451d cf3c ce5a 023e
000000e0: a96c 46be 822f ba3d 3301 1e3e 9147 343e
000000f0: 83b8 1cbd 7116 07be f73e 2bba 8bbd 9c3c
00000100: 520a 64bd e055 95bd 52b3 233c 64c4 67bb
00000110: 74a1 76be 9fad 8e3c 4ea8 003e 6a3a 093e
00000120: 9e86 91bd 84e1 f8be 7594 ca3d 9d86 7e3d
00000130: b311 8ebd 48bf e13d 38ac f4bc fda0 843c
00000140: 0296 1dbe 64cb 243d 250a 6d3e d456 353e
00000150: 1486 903e 2d95 063e 3e39 94be be0e 59be
00000160: cfe6 29be d798 d33d 9606 cd3d e8a0 3cbe
00000170: f827 9b3d ae75 00be eae5 cf3d e71f edbc
00000180: f9e6 95be 8fd6 a43d 778d 403d a98b 0f3e
00000190: e4d2 a03c 1964 113d 7937 9a3c d823 7dbe
000001a0: 1040 b03d 2d53 263e eb03 c23c a2ee a53d
000001b0: 14db e4bd 9a35 a43d ad6e b63d bdb9 8c3d
000001c0: 1d8d 66bc 0163 a7be d0c5 97bd 6851 983d
000001d0: a935 823d a63b b83d 9d9c a5be 0b34 123e
000001e0: 9e57 5f3d 9395 12bd ecce a53e 311c 8c3e
000001f0: 4e6b 6dbe 3a9d c3bd c503 073e 6577 313e
00000200: 1712 3fbd 7754 38bd bf5d 47be 94b0 073e
00000210: 308c 04be b014 36bd 1cd6 3e3e 84fd 593e
00000220: 07bd d5bd b179 7b3e 4edd 04be a4d3 eabd
00000230: 4fd4 a2b8 0e35 f73c bb4e d63d 31b6 39bc
00000240: 4865 1f3e c2a5 18bd a88c f23d f388 f6bc
00000250: 5534 7dbe 70ae ac3c 1eca 44bd b7bc f43d
00000260: 53bb 08bd fbf1 99bd 2650 bebc 66e9 acbd
00000270: 0487 8d3d 257c cbbd 1516 88bd a0f0 65bc
00000280: 8855 f6bd 7877 a7bd de1b d1bc 25e7 db3d
00000290: 3719 0c3d 77cd dd3d 5bc4 04be 63bf 0bbc
000002a0: 1e83 babb febe a0bc bc10 c83e 9892 683d
000002b0: 70cf 0ebe e2d1 8d3d d456 303d 9f65 8b3d
000002c0: b4eb 10bd 2e27 acbd 8543 39be 3cc9 fe3d
000002d0: 8e72 953e e879 d9bd 3e86 9cbc 0dd6 433e
000002e0: 64c0 90bd b3e5 16be af42 c4be 5b61 023e
000002f0: 14b9 4abd d1d4 903d dabe 723e 08fb 4c3e
00000300: 8661 cabe 0a28 81be 055e d23c 35f7 80bd
00000310: 97af 913d d8b6 f7bd 1a31 0ebd bd1b 8cbd
00000320: e2cd 89bc c635 2b3c 848c 833e 12f2 393c
00000330: 6a8e 973c ac3f 063e 2c7d ebbd ddff 283e
00000340: 3915 3ebe 07d3 b53d 8769 e53a 7e8f 043e
00000350: 5611 2f3e 652e 96be b65d 073d deba 843d
00000360: 76d8 5d3d 983f 853e c763 3dbd 43b8 e53d
00000370: 824f 953d 7d6a 43be 9d29 993e fd53 30be
00000380: dc88 93bd e20f 83bd 45dc 88be f803 303e
00000390: 0198 ccbc 0c9e 8abd 014c 093e cc47 40be
000003a0: 56a7 3f3e 3c65 18bd 2390 c7bd 06ab 11bd
000003b0: d6d9 7f3d e07d 363e ecd9 60bd 1092 813e
000003c0: c871 833d 9efa c03d 68aa 23be 4baf ecbd
000003d0: 4dd5 ee3d a70c 423c c18c 973d 9663 193e
000003e0: 1ff5 e4bd bdbe 9dbd 6a84 29be 27d7 27bd
000003f0: b990 023e 0c43 bc3a 5185 61bd 648a ed3d
-0.0035022304 -0.06931928 -0.21725962 -0.07271791 -0.21658924 0.16474684 0.09455298 -0.007833848
0.049596705 0.048336606 0.1463913 -0.2999028 -0.10187733 -0.06490484 -0.17294648 0.077662826
0.090544626 0.27508843 0.06464607 0.23458795 0.3273159 -0.21453835 -0.29102257 -0.13275923
-0.14867133 -0.14834905 0.103137404 -0.056044705 0.19904353 0.11265778 0.103752315 -0.27608338
0.024515165 -0.037068103 0.46643433 -0.14024246 -0.21190073 -0.10111972 0.0616602 -0.099629246
-0.18175252 -0.061239816 0.00072789006 -0.028562043 -0.08850864 -0.11275621 -0.04569478 -0.067035265
0.00041236042 0.27694875 0.14219403 -0.051794097 -0.057072785 0.11455927 0.025282511 0.12729952
-0.19377388 0.09091093 0.15430145 0.17605425 -0.0382619 -0.13192154 -0.0006532515 0.01913335
-0.055673905 -0.0729177 0.009991484 -0.003536486 -0.24085027 0.017416773 0.12564203 0.1340119
-0.07105754 -0.48609555 0.09891597 0.062140096 -0.069369696 0.11022812 -0.029867277 0.016190046
-0.15389255 0.04023303 0.23148401 0.17708904 0.28227293 0.13142844 -0.28949922 -0.2119703
-0.16591953 0.10331886 0.10011022 -0.18420756 0.07575983 -0.12544891 0.101512745 -0.028945876
-0.2927778 0.08048736 0.04700991 0.1401812 0.01963181 0.03549585 0.01882528 -0.24720705
0.08605969 0.16242667 0.023683509 0.08102156 -0.11174598 0.08018036 0.089078285 0.06871364
-0.01407173 -0.3269272 -0.074107766 0.07437402 0.06357891 0.08995752 -0.3234605 0.14277665
0.054526918 -0.035787176 0.3238443 0.27365258 -0.23185465 -0.09551473 0.13185032 0.17330702
-0.04664811 -0.045002427 -0.19469355 0.13250953 -0.12944102 -0.044453323 0.18636364 0.21288115
-0.10436445 0.2455814 -0.12975046 -0.114661485 -7.7643075e-05 0.030176666 0.104642354 -0.011334942
0.1556598 -0.037267454 0.11843234 -0.0300946 -0.24726994 0.021079272 -0.048044316 0.11950057
-0.03338177 -0.07516857 -0.023231577 -0.08442955 0.06910518 -0.09935788 -0.06644837 -0.01403442
-0.120280325 -0.08177084 -0.025525983 0.10737447 0.034203734 0.10830205 -0.12965529 -0.008529517
-0.0056919 -0.019622322 0.39075267 0.056780428 -0.13946319 0.069247976 0.043051556 0.06806492
-0.035381034 -0.084059104 -0.18092163 0.12440726 0.2918896 -0.10618955 -0.01910698 0.19124623
-0.070679456 -0.14736061 -0.38332126 0.1273245 -0.04949291 0.070718415 0.23705617 0.20017636
-0.3952753 -0.2522586 0.025679598 -0.06297151 0.07113569 -0.120954216 -0.034714796 -0.06841228
-0.016821805 0.010449832 0.25693142 0.011349218 0.018500526 0.13110226 -0.11498484 0.16503854
-0.18562783 0.08878141 0.0017502763 0.12945363 0.17096457 -0.2933227 0.033048354 0.064809546
0.05416151 0.2602508 -0.046237733 0.11216786 0.072905555 -0.19083591 0.2991456 -0.17219539
-0.07203838 -0.06399514 -0.26730552 0.17189014 -0.024974825 -0.06768426 0.134079 -0.18777388
0.18716177 -0.03720592 -0.09744289 -0.03556349 0.062463604 0.17821455 -0.054895326 0.2530675
0.064181864 0.094228014 -0.15982974 -0.11556872 0.11661778 0.011843837 0.073998936 0.14979395
-0.11179566 -0.07702396 -0.16554418 -0.04097667 0.1275052 0.0014363243 -0.05505878 0.115986615

lstm.weight_hh_l1 f4 [512, 128]
00000000: b197 f03d 68a1 9a3d 551f 403e 16eb 81be
00000010: ed7a 23bd 392e 563d b0ef 6e3d 6bcc ed3d
00000020: 5f48 6b3c f197 fbbd 72bf 07be 2098 3c3e
00000030: 39c3 3fbd e5c2 9b3e bbd5 793d 59c7 0fbe
00000040: f6cd 1dbe 8039 c53c 9f70 4d38 7697 80be
00000050: 8b11 683d 9f3a be3d 1964 ca3d 811e e53d
00000060: 72de 7cbc 70e3 823c d6b5 b4be 88c7 003d
00000070: 44e7 03be 9f9e ae3c 8676 643e 09cc 57bd
00000080: 7946 ad3d 0382 9d3b 04f5 0cbe 00ce 36bd
00000090: f5ce bfbd b6b5 0c3e df40 8ebd 2d7f 19be
000000a0: e033 ffba 18ae 44bd e54e 02be 36ff 253e
000000b0: 446d 89bd 7753 dabd 1d6d c83d 52f4 c63b
000000c0: cc41 23be e41c b3bc ad5e 2dbe c653 0bbe
000000d0: 80c5 203d 82fb debd f873 3fbd 43bc e1bc
000000e0: 573b 4bbc 00e7 883e 69ae 043c 2f3a 98be
000000f0: f7c0 7cbd 77ed 53bd d03b 8b3d 1764 8d3c
00000100: ef42 c13d 0b62 0e3e 4283 313d d566 ca3c
00000110: c151 2f3d 53e5 cbbd 7861 a23c 7005 bf3d
00000120: 81b4 d0bd 8731 993d a437 103e 0cb2 ff3b
00000130: 1508 0ebe 406b e6bb 667e d73d 1b09 833d
00000140: 2e95 b83d 7613 cfbd 7cca ba3c 0d03 173e
00000150: e05f 163e ff41 a4be 7fe6 283d 5840 653e
00000160: 1db8 07be 4f09 bbbc a5c7 e93c 79b6 8ebd
00000170: 250a 49bb 13dc 38be 622d 9fbd 2468 1bbe
00000180: f062 bd3d f52a ca3d c459 183c 04db 263d
00000190: 2990 353d 70d8 6bbb a933 e33c c3a2 34be
000001a0: 26b4 82be 7b2d 1e3e 23f0 c03c 86af af3e
000001b0: 0d31 063d 7d23 e73d d442 79bc 3174 d0bd
000001c0: 8baf ecbc 3a20 903d b2f4 763d a179 acbd
000001d0: 99fc 0abc d95b 0abe 822f 1bbe 1fa7 3cbe
000001e0: a91c c3bc ddff f6bd 27bd cf3e 6aee 34be
000001f0: 85e7 593b 2e54 a63d e3db 703d bb1f 20be
00000200: 8ec0 6abe 6b85 823d 1f55 11be e445 bf3d
00000210: 885a 563e 930b ee3d fbc0 d53e 3b72 873d
00000220: bf01 29bb 8722 4b3e 93c9 883d 7bd0 4fbb
00000230: b60b 15be d00a f93d a473 133e be16 de3d
00000240: 0f1a be3d 20bf 4bbe ffb1 ed3d 84f4 403c
00000250: 246e d1bd a88a d63b f823 383e e7fc 4b3e
00000260: 7875 443e e72b da3d bad1 b43e d4bf babe
00000270: 16e9 3cbe 5f28 e5be dca9 da3d 0d5b 203b
00000280: c2b5 083e e240 593d 67c3 043e ba35 67bc
00000290: b5e6 c0be 6aac 54be e4d3 8c3d 10c8 1c3e
000002a0: 9253 673e 92e7 8c3e ce9f 6e3e f94f 833e
000002b0: 1848 6cbe aeee 5bbe f9d4 40be a5b0 053e
000002c0: 356b e8bd e789 a9be 1d3c 843e 4ad1 bd3e
000002d0: 79f4 c73c 0251 933e 7cca d63c 5fef fe3d
000002e0: 7327 923e 7445 9cbd 0477 f23d 9d43 38be
000002f0: bc0e 80be dac9 cf3d 1aaa 9cbd d76d f0be
00000300: a526 ac3c a710 c63e 0c62 233e 8a92 04bf
00000310: aa9a 8fbd e577 a23e 448d 5abe fc89 7d3b
00000320: 7ea8 b43e 3a31 ca3e 865b c7be 58dd dabc
00000330: e910 e3bd b67d ba3e 4978 c13c 6e0c d8be
00000340: 66a5 6abe e565 4fbe a795 473e ed3b 2dbe
00000350: 764f 1ebe d77e 96bd c22c 043e f744 4a3e
00000360: 0773 fabe 5016 353d b395 233d 629e dbbd
00000370: ed07 253e b6d2 c7bb 0789 14bd 3c52 20be
00000380: c2d6 913d 5df2 083e 4234 523e 8e2c b23a
00000390: 56ef 683c ca33 2f3f bf6f 993e a5a3 373e
000003a0: 5c0b 933e 8c31 c8bd 798c 3b3d d514 353c
000003b0: 124b a0bd a88b 9a3e a45c c43e 3815 c73d
000003c0: 9234 ad3d 84a6 eb3d ae7b 15be 8d09 c63d
000003d0: 1f56 c53d 7314 743d fc72 bbbe 8b8d 073e
000003e0: fd6c bbbe 17df bd3d cc59 063e 2e9f a0be
000003f0: c350 b73d 3c12 86be 66fd a13e 93e7 a93e
0.11747683 0.07550317 0.18761952 -0.2537467 -0.039912153 0.052290175 0.058334053 0.11611255
0.014360516 -0.1228484 -0.13256624 0.18417406 -0.04681704 0.3042213 0.060994845 -0.14040889
-0.15410599 0.02407527 4.8980695e-05 -0.25115556 0.056657355 0.09288525 0.09882373 0.11187459
-0.0154338945 0.015977591 -0.3529498 0.031440288 -0.1288119 0.02131587 0.22310838 -0.052684817
0.08460707 0.0048067584 -0.13765341 -0.04463005 -0.09365646 0.13741192 -0.06945967 -0.1498992
-0.0019470416 -0.04801759 -0.12725408 0.16210636 -0.06710294 -0.10660451 0.09786437 0.0060716057
-0.15943068 -0.021864362 -0.16930647 -0.13606176 0.03925085 -0.10887815 -0.046741456 -0.02755559
-0.012404284 0.2673874 0.008098223 -0.2973189 -0.061707463 -0.051740136 0.06798518 0.01725964
0.09436595 0.13904588 0.043338068 0.024707237 0.042802576 -0.099558495 0.019821867 0.09327209
-0.101906784 0.0748015 0.14083725 0.0078032073 -0.1387027 -0.007031828 0.105221555 0.06398221
0.09012829 -0.10111134 0.02280163 0.14747258 0.14685011 -0.320816 0.041235443 0.22387826
-0.13253827 -0.022831587 0.02853758 -0.06968398 -0.0030676213 -0.18052702 -0.07772328 -0.15176445
0.092473865 0.09871475 0.009298746 0.040736213 0.044326935 -0.003598716 0.027734594 -0.17640214
-0.25528067 0.15447037 0.023552006 0.343136 0.032761622 0.11286066 -0.015213687 -0.10178412
-0.0288923 0.07037397 0.060291953 -0.084216364 -0.008483076 -0.135116 -0.15154842 -0.18423127
-0.023817377 -0.12060521 0.40574 -0.17669073 0.0033249569 0.08121525 0.05880345 -0.15637104
-0.22925016 0.06373104 -0.14192627 0.093395025 0.20932972 0.11623301 0.41748795 0.066135846
-0.0025788394 0.1983739 0.06679072 -0.0031709957 -0.14555249 0.121602654 0.14399582 0.108441815
0.09282314 -0.19897127 0.11606216 0.011777047 -0.10226086 0.006547291 0.17982471 0.19920693
0.19185436 0.10652905 0.3531626 -0.36474478 -0.1844829 -0.44757363 0.10676929 0.0024468333
0.13350585 0.053040393 0.12965165 -0.0141119305 -0.37676015 -0.20768896 0.068763524 0.15310693
0.22590473 0.27520424 0.23303148 0.25646952 -0.23074377 -0.21477768 -0.18831243 0.13055666
-0.11348573 -0.33113024 0.25827113 0.37073737 0.024408566 0.28772742 0.026219599 0.12448
0.28545722 -0.07630435 0.11839107 -0.17994542 -0.2501124 0.10145922 -0.07649632 -0.469588
0.02101452 0.3868458 0.1595537 -0.517861 -0.07011922 0.31732097 -0.21342951 0.0038686981
0.352848 0.39490682 -0.38937014 -0.026716873 -0.1108721 0.36424035 0.023616927 -0.42196983
-0.22914657 -0.20253713 0.19490682 -0.16917391 -0.1546 -0.073484115 0.12907699 0.1975287
-0.48915884 0.044210732 0.039937686 -0.107235685 0.16116305 -0.0060981167 -0.036263492 -0.1565637
0.0712104 0.13373704 0.20527747 0.0013593601 0.014217218 0.684384 0.29968068 0.17933519
0.28719604 -0.09775075 0.045788262 0.01105233 -0.078268185 0.30184674 0.3835193 0.09720844
0.084572926 0.1150637 -0.14597961 0.096697904 0.09635567 0.059589814 -0.36611164 0.13237588
-0.3660659 0.09271067 0.13120192 -0.31371444 0.08950951 -0.26185787 0.3163864 0.3318449

lstm.bias_ih_l1 f4 [512]
00000000: 4b84 e43d 8cde e2be 8815 d3be ee8e 1ebf
00000010: 4e00 27be a691 30be 4ee9 653e cef0 66bd
00000020: 70d2 a2be 7edf e3bc ccda 92be 0540 85be
00000030: 8898 0ebc 9258 aabe c790 7bbe a6a4 69be
00000040: 2069 7abe c8cf d9bd a55c 5ebe 782a 01be
00000050: d218 c4be f075 93be e67e afbe ac78 8e3e
00000060: 10ab ecbd addf 3abe 7194 adbe 199c 29be
00000070: f46f 08be a9c1 27be c9e1 ccbe c2de c6be
00000080: 700c 3abe 65f7 55be a4e6 093c 651e d4be
00000090: 885a 8cbe 7982 aabd 1f2c a5be e994 13bf
000000a0: bc95 01bf 558a d53c 5240 07bf 0d42 a7be
000000b0: 1c28 c2be 60a5 5dbe ac9a 79be b860 0e3d
000000c0: f87b acbe f94e e0bd a4b2 21bb 4810 123e
000000d0: 2bf2 a2be 9e04 023e 1c5c a53c 572c c53b
000000e0: f9c4 2e3d 0084 0bbe f920 a3bb b935 56be
000000f0: 8353 96bb 48c9 aabe 4aa5 0ebf ae9e 2abd
00000100: 92c2 cf3d 3b9a aabc 062f 78be 3f59 a7bd
00000110: 3900 fdbc c759 963c dd51 90bd a54f b8be
00000120: a3d6 103e e6d4 3d3d 880b 6bbd 888a a5be
00000130: 735b f5be 90b4 81bd 8271 22be d35f b8bd
00000140: 5565 c2bd 3c79 90bd 292a bebe f153 0c3e
00000150: 4d83 89be aa14 96be cbd0 25bf 5e4a a0be
00000160: 365f 05be 0128 8e3d a2b7 80be a903 e6be
00000170: f0dc ddbe 2ce8 d4be c3e7 c4be 49ba c7be
00000180: c6c6 f4be ea8a 1ebe c668 4cbe d7a1 f3be
00000190: 8bdd 43be f11d 2bbe 2cd4 eebd c6f6 923d
000001a0: eca8 d33d 441a dbbe 9de5 a8be 95c2 aabe
000001b0: 9ab4 c4be 20eb 20bd 3b12 21be 1da7 aabe
000001c0: 6255 a2bd 6f29 a2be e37b 123d a91a 18bf
000001d0: 9f4f 9fbe 0dec 663c 6e1b 65be 48c0 84be
000001e0: aa7f b9bd 8c82 4cbe ada6 8cbe 413e afbd
000001f0: e99c 54be a5b2 3cbd a023 91bd aaca 23bd
00000200: 66f0 5e3e 45e9 a0be cc82 abbe 3188 5a3d
00000210: f31f 163d 63ab 1ebe 9061 523e ec78 f9bc
00000220: cf81 96bd a2e7 6a3e 761e 94be e9c7 62be
00000230: 93fd af3d 64d4 2abe f821 78be e69b a2b8
00000240: 5282 b6bc c26c 66bd 8ede 83bd 0deb e03d
00000250: 64e6 21be 9389 8f3c a6ea 50be 3388 c53d
00000260: 0768 c23d 2184 fdbd 5e0c 9dbe 8b74 eabd
00000270: 9dc9 233e 8b20 0c3e 998f bebe 2908 9bbe
00000280: 6f15 22be 48a6 29be 2cce f63b 3c00 d1be
00000290: 1649 32be 61f5 2b3e f1e8 52be 8ebb d6be
000002a0: 2e62 aebe bdc1 a03d 1ca7 bdbe d69a 1ebe
000002b0: e3d7 9fbe caa9 1ebe c381 85be f870 c7bc
000002c0: dff8 8abe 6f31 513d 08cd bf3d 7b15 e23c
000002d0: 57d5 76be 95fc 3c3e d55c 94bd c3ba 4ebd
000002e0: 7467 e23d eec6 d9bd 5c79 463e 60ab 4dbd
000002f0: 3607 273e db8f 15be d28d b8be f76c 353e
00000300: e00a 953d afc2 2cbd d52e 8fbe eb28 173d
00000310: 59ca bebc be8b 033d 4de3 933d 0c0f 78be
00000320: a55a a33d 72a7 d93d e164 71bd aae0 93be
00000330: ef51 e8bd 07cf 9b3b cdb6 48bc b583 11bd
00000340: c477 e83d 64aa 11be 2c74 9ebe 3124 043e
00000350: 0a00 99bd 0695 893d 4c35 0cbe 8353 85be
00000360: db97 563d c9bb f0bd b3d2 cabe 98bb 8fbe
00000370: f784 69be 0917 cebe f0d7 c4be 3720 893e
00000380: 2d9d cdbe b00f 8cbc a218 e2bd b5d9 9ebe
00000390: e763 99be 63f5 8a3c bde9 3e3e d3f0 873e
000003a0: 4a96 8b3e 8889 9abe 0ae1 8bbe ad62 02be
000003b0: 66ba 9bbe 817e 92bd 3bc6 7cbd 6b87 86be
000003c0: 463f 80bc aaaf 6bbe b83e d2bb aef9 b6be
000003d0: 6c6e 5cbe a6b2 233d e9c4 07bd 341f ebbd
000003e0: 1694 cabc ea65 88be d808 3cbe 75ab ae3d
000003f0: 6123 0fbe 8d3e 7f3d a952 48bd 75be 5d3e
0.111580454 -0.44310415 -0.41227365 -0.61936843 -0.1630871 -0.1724306 0.2245228 -0.056381993
-0.31801176 -0.02781653 -0.28682554 -0.26025406 -0.0087033585 -0.332707 -0.24566947 -0.22816715
-0.24454165 -0.10635334 -0.21715029 -0.12613857 -0.38300186 -0.28800917 -0.34276503 0.2782644
-0.11556065 -0.18249388 -0.33902314 -0.16563453 -0.13323957 -0.16382469 -0.4001601 -0.38841826
-0.18168807 -0.20895155 0.008416805 -0.4142944 -0.2741282 -0.08325667 -0.32260224 -0.57649094
-0.506191 0.026066938 -0.5283252 -0.3266758 -0.37921226 -0.21645117 -0.24375409 0.034760207
-0.3368833 -0.10952563 -0.0024673129 0.14264023 -0.31825384 0.12697074 0.020185523 0.0060172486
0.042668317 -0.13624573 -0.004978296 -0.20918931 -0.004587592 -0.3335669 -0.5572096 -0.041655235
0.10144533 -0.020825496 -0.24236688 -0.08171319 -0.030883895 0.018353356 -0.07046864 -0.35998264
0.14144377 0.046345614 -0.057384044 -0.32332253 -0.47921333 -0.06333268 -0.15863612 -0.09002652
-0.09491984 -0.070543736 -0.3714154 0.13703896 -0.26857987 -0.2931264 -0.6477172 -0.31306738
-0.13024601 0.06941224 -0.251401 -0.44924667 -0.43332624 -0.41583383 -0.3845807 -0.39009312
-0.47807902 -0.15482679 -0.19961843 -0.47584412 -0.1912748 -0.1671064 -0.11661562 0.071759745
0.10334954 -0.42793477 -0.3298768 -0.3335158 -0.38419038 -0.039286733 -0.1572961 -0.33330622
-0.07926442 -0.31672236 0.03576268 -0.5941568 -0.31115434 0.014094365 -0.22373745 -0.2592795
-0.09057553 -0.19971675 -0.27470914 -0.08556796 -0.20762981 -0.046068806 -0.07086873 -0.039988197
0.21771392 -0.3142797 -0.33498228 0.05335254 0.036651563 -0.15495066 0.2054503 -0.030453168
-0.07348978 0.22939923 -0.2892949 -0.22146572 0.08593287 -0.16682583 -0.24231708 -7.7538e-05
-0.022278938 -0.056256063 -0.06438933 0.109823324 -0.15810543 0.017521655 -0.20402011 0.096451186
0.09492498 -0.12378717 -0.30673498 -0.1144801 0.15994878 0.13684289 -0.3721893 -0.30279663
-0.15828489 -0.16567338 0.007531902 -0.4082049 -0.17410693 0.16792823 -0.20596673 -0.41939968
-0.3405928 0.07849453 -0.37041557 -0.15488753 -0.31219396 -0.15494457 -0.26075563 -0.02434586
-0.27143 0.051072534 0.093652785 0.027598133 -0.2410482 0.18455727 -0.07244269 -0.05047108
0.11054888 -0.10633646 0.19382232 -0.050212264 0.16311345 -0.14605658 -0.360457 0.17717348
0.07277465 -0.042177852 -0.27965418 0.036904257 -0.023289846 0.03211569 0.072210886 -0.2422449
0.079762734 0.10627641 -0.058934096 -0.28882343 -0.113437526 0.004754904 -0.012250614 -0.035525996
0.113509685 -0.14225155 -0.30948007 0.12904431 -0.074707106 0.06717877 -0.13692206 -0.26040277
0.052390914 -0.11754567 -0.39613876 -0.2807281 -0.22804628 -0.4025195 -0.38445997 0.2678239
-0.40158978 -0.017097324 -0.110398546 -0.31025472 -0.29959032 0.016962713 0.18643852 0.26550922
0.272631 -0.30183053 -0.2732013 -0.12732954 -0.30415648 -0.07153035 -0.061712485 -0.2627519
-0.015655171 -0.2301623 -0.006416168 -0.35737365 -0.21526498 0.039965294 -0.033146773 -0.11480561
-0.024728816 -0.26640254 -0.18362749 0.085287966 -0.1397834 0.062315512 -0.048906956 0.21654685

lstm.bias_hh_l1 f4 [512]
00000000: 6fbc 9d3d a2ee dfbe 84c8 d9be 16e3 08bf
00000010: 9615 aebd 9eb2 20be fe6f 113e de11 bfbd
00000020: 3c87 86be 3945 c7bd b469 ebbe 1dd7 7fbe
00000030: a5d2 b33c 1272 8abe 1b01 bcbe 56ad 5abe
00000040: 5067 81be 86de ccbd d7a7 37be c7c1 3dbe
00000050: 7ba0 62be e13a 16be 4e44 95be 0c3a 3b3e
00000060: cd94 3f3c abcd 08be cd6d 8fbe 8339 2abe
00000070: 002d 2ebe cfe2 eebd efaa cebe 2a58 f8be
00000080: aaa1 40be 39fe 45be 27ab 80bd 9f98 0ebf
00000090: 48b2 acbe 61c7 b9b9 ef65 b4be 9b9a 09bf
000000a0: ad38 fcbe 8bd7 4d3c b21d fabe 1519 c6be
000000b0: 2a8f 9cbe b210 5abe fc6b 5ebe 66fa 99bc
000000c0: 3a71 a0be 1df5 febd 9510 0cbe 0c43 3e3e
000000d0: dba4 acbe f226 823d ea8c 70bd caaf 433d
000000e0: 6298 733c 97bf 7dbe cf1e 893c c11e 4dbe
000000f0: c31d 22be 4c84 62be ba64 e0be 8844 74bc
00000100: c55c 033e bdf3 863d 8406 38be dfed 3bbe
00000110: be91 43bd 44c0 b1bc 710b a6bd effe cebe
00000120: e5a4 b43d 373e 1bbc fccc c3bd ca58 a1be
00000130: fd6a 04bf 6b17 0dbe 02b2 32bd f10c aabd
00000140: 5fb6 1c3d 5830 c4bd 95f7 afbe 315d 4e3d
00000150: 6b04 95be 3ead b1be c976 01bf 24c0 9bbe
00000160: f58a 0dbc fd77 823d c2e8 85be b75c c2be
00000170: b481 b4be b8aa adbe c913 c2be 7348 03bf
00000180: 408b 0abf 4ba3 eabd 3ce4 9fbe 1f26 d4be
00000190: 0c80 86be bbab 4bbe 2346 e8bc f0e9 0f3e
000001a0: 56f3 9f3d 1485 abbe fa0f 69be 2912 80be
000001b0: 7ecc eebe 99f9 033c 4b38 20be 73e5 59be
000001c0: d52f 2ebd 01bc b3be 0560 4e3d 11b8 e2be
000001d0: 05d4 87be c2eb de3d 9e3d 3fbe 2f36 37be
000001e0: d2c5 b7bd 463d aebe 1308 50be aba5 72bd
000001f0: 1e83 86be b717 0abe 0b33 86bc 7971 36bd
00000200: be1d 833e 2a7c 7ebe b47c e1be e2c2 8cbd
00000210: f37f 193d 9f3c ab3b 09c5 9e3e 49e3 9f3d
00000220: 47fa fdbc 7034 873e c49f 84be 496c 3bbe
00000230: 5e27 07bd f5b5 c6bd 3a84 afbe de1a adbd
00000240: e101 d8bd dbaa afbc 2227 00be 35be a03d
00000250: 4310 79be 4a7f f2bd c027 1dbe 65e0 803e
00000260: 4348 073d 204e 02be 9067 74be cafb 27be
00000270: 50e5 8c3d 300f 8c3d 31b1 61be ab25 8fbe
00000280: c18b d3bd c03f 6dbd 0f5a 0ebe 8aef e6be
00000290: ce1d 23be e142 5b3e 0167 60be c1b7 89be
000002a0: 880c b1be 4500 563d 2457 a9be 0133 92be
000002b0: c912 85be fb8c 893b da14 21be d5eb 03be
000002c0: 7d4b 96be ee64 963c 4f76 103e 0475 773d
000002d0: b37d 53be bf76 053e 399e 3c3d 37ef 6fbd
000002e0: 9cb6 d23d 064e 88bd 8215 0a3e 12ad 8ebd
000002f0: 80ef 013e 2131 5abe d8f6 c5be d4d0 ed3d
00000300: a074 293e 03b5 7dbd 5900 91be e6cf deb9
00000310: cef2 a1bd 164c bdbb b7f2 1e3d 7016 76be
00000320: 8e5e 493e e365 cebc b34a 23bd 9476 27be
00000330: 3685 f4bc 3ed2 61bd 40fb d5bc 39ff 173d
00000340: 6526 7e3d ecdc 7e3c 0866 a0be 7f48 583e
00000350: 5df3 7dbd d2d5 ad3d ba45 6abe 8ec5 92be
00000360: 3194 783c 61d5 f8bc 2f66 c7be 7084 2abe
00000370: 087e e5bd ad83 acbe 260b 98be 1d88 0b3e
00000380: c968 c3be 761c 29be 58d1 a3bd 4747 86be
00000390: d553 c2be 6b70 12bc b437 da3d 3c25 1a3e
000003a0: 53ce 193e a60f b9be 73e8 5fbe 7bcc 88be
000003b0: b894 acbe 3b51 e7bd 02f2 f8bd ad7d b9be
000003c0: d502 eebd d4c3 5ebe e91c 893d 504c 9cbe
000003d0: a475 2fbe dd66 903c 730b a03b 49de 5bbe
000003e0: bda2 15bc 3ea2 35be 3e5c 4bbe d75d 023e
000003f0: 9e83 f8bd ab43 133d b463 ac3d 87a5 673e
0.077019565 -0.4373675 -0.42535794 -0.53471506 -0.08500211 -0.15693137 0.14202878 -0.0932958
-0.2627505 -0.0973 -0.45979083 -0.24984403 0.02195103 -0.27040154 -0.36719593 -0.21355185
-0.25274134 -0.100033805 -0.1793512 -0.18530951 -0.22131531 -0.14670898 -0.29153675 0.18283862
0.011693192 -0.13359706 -0.2801346 -0.16623501 -0.17009354 -0.11664354 -0.40364787 -0.48504764
-0.1881167 -0.1933526 -0.06282645 -0.5570163 -0.33729768 -0.000354345 -0.3523402 -0.53751534
-0.4926199 0.0125635965 -0.4885078 -0.3869101 -0.30577976 -0.21295431 -0.2172088 -0.018796157
-0.31336385 -0.124490954 -0.136782 0.18580264 -0.33719525 0.063550845 -0.058728136 0.047775067
0.014867874 -0.24780117 0.016738323 -0.20031263 -0.15831666 -0.2212078 -0.43826848 -0.014908917
0.12828358 0.06589458 -0.17971236 -0.1835246 -0.047746412 -0.021698125 -0.08107651 -0.40428874
0.08820514 -0.009475282 -0.09560582 -0.31513053 -0.5172575 -0.13778464 -0.043626793 -0.083032496
0.03825986 -0.09579533 -0.34368578 0.050381843 -0.29104933 -0.34702486 -0.50571877 -0.3042003
-0.008639087 0.06370542 -0.26154143 -0.3796136 -0.35255206 -0.3391931 -0.3790572 -0.51282424
-0.5411873 -0.11456927 -0.31228817 -0.41435334 -0.26269567 -0.19889729 -0.028353756 0.14054084
0.078100845 -0.33499968 -0.22760001 -0.25013855 -0.4664039 0.008055114 -0.15646474 -0.21278934
-0.042526085 -0.35104373 0.05038454 -0.44281057 -0.26528946 0.10884811 -0.18675849 -0.17891763
-0.08973278 -0.34031123 -0.2031558 -0.059240025 -0.2627191 -0.13485609 -0.016381761 -0.04454181
0.2560863 -0.24852052 -0.44040453 -0.068731084 0.037475538 0.0052257325 0.310097 0.07807023
-0.03100313 0.26407194 -0.25903141 -0.18303026 -0.032996528 -0.09702674 -0.34280568 -0.0845239
-0.105472334 -0.021443775 -0.12514928 0.07848779 -0.2432261 -0.11840685 -0.15347195 0.251712
0.0330279 -0.12725115 -0.23867631 -0.16404644 0.068796754 0.06838834 -0.2204025 -0.27958426
-0.1032939 -0.057922125 -0.13901542 -0.4510463 -0.15929338 0.21412231 -0.21914293 -0.26898006
-0.34579873 0.05224635 -0.33074296 -0.28554538 -0.25990894 0.0041977144 -0.1573061 -0.12882932
-0.29354468 0.018358674 0.14107631 0.06041433 -0.20653419 0.1303358 0.04604933 -0.058577742
0.10288736 -0.06655507 0.13484767 -0.06966604 0.12689018 -0.21307804 -0.3866489 0.116120964
0.16548395 -0.061940204 -0.28320578 -0.00042498036 -0.079076394 -0.0057768924 0.03880569 -0.24031997
0.19664976 -0.025195068 -0.03986616 -0.16353828 -0.029848676 -0.055132143 -0.026120782 0.037108634
0.062048335 0.015555602 -0.31327844 0.21121405 -0.061999667 0.084880486 -0.22878161 -0.28666347
0.01517205 -0.030375184 -0.38945147 -0.16652083 -0.11205679 -0.3369421 -0.29696006 0.13626142
-0.38165882 -0.16514763 -0.079989135 -0.26226255 -0.37954584 -0.008937935 0.10655156 0.15053266
0.15020113 -0.3614475 -0.21866016 -0.26718506 -0.33707213 -0.1129479 -0.12155534 -0.36228696
-0.11621634 -0.2175439 0.06694967 -0.30526972 -0.1713472 0.017627174 0.0048841774 -0.21471514
-0.009133038 -0.17737672 -0.19859406 0.1273111 -0.12134479 0.035953205 0.08417454 0.22621737
