models/GBPUSD_model.pth (torch, 843660 bytes, 15 tensors)

lstm.weight_ih_l0 f4 [512, 12]
0	0xb87f1ef8	-6.082558e-05
1	0xb8694adf	-5.5621258e-05
2	0xb856d509	-5.121998e-05
3	0xb84ad044	-4.8354515e-05
4	0x3899aaf2	7.3274496e-05
5	0xb8565566	-5.110111e-05
6	0xb82b2b06	-4.0809646e-05
7	0x388c09b6	6.677529e-05
8	0x38b73dd2	8.737635e-05
9	0x37a2e858	1.9420098e-05
10	0xb89e1062	-7.537079e-05
11	0xb7c8b86c	-2.3927736e-05
12	0x3a36ade1	0.0006968659
13	0x3a30dc93	0.00067467353
14	0x3a4a06f2	0.00077067234
15	0x3a4299ae	0.0007423413
16	0xb92854ba	-0.00016053292
17	0x3a45b238	0.000754151
18	0x3a5bc926	0.00083841605
19	0x3a10cdd2	0.00055238337
20	0xb9aa0de9	-0.0003243529
21	0x3a0158ea	0.00049342087
22	0x39eaf9a8	0.00044817966
23	0x39b04e74	0.00033627788
24	0x3a33af67	0.0006854445
25	0x3a3efeef	0.0007285913
26	0x3a5cf241	0.00084284326
27	0x3a5f8ea3	0.00085280294
28	0xba96b7cd	-0.0011498869
29	0x3a55314a	0.000813265
30	0x3a857940	0.001018323
31	0x3a05a6ab	0.0005098383
32	0xbab833d0	-0.0014053527
33	0x3893f5a0	7.0552574e-05
34	0x386e9860	5.6885532e-05
35	0xb9401070	-0.0001831667
36	0x392f1623	0.00016697547
37	0x39347400	0.00017209351
38	0x39443efc	0.0001871548
39	0x3949fef4	0.00019263831
40	0xb560c720	-8.373627e-07
41	0x392df6f6	0.00016590566
42	0x3937453a	0.00017478029
43	0x394612ec	0.000188898
44	0x3857db6d	5.146435e-05
45	0x397755fb	0.00023587786
46	0x3958eec4	0.00020688312
47	0x391fdd08	0.00015245762
48	0x3a96bf5b	0.001150112
49	0x3a9c1e27	0.0011910842
50	0x3aa3f9d5	0.0012510369
51	0x3aa753c4	0.0012766053
52	0xb90465df	-0.00012626451
53	0x3a9d078a	0.0011980396
54	0x3aa9ac01	0.0012944938
55	0x3aa18a89	0.0012324612
56	0xb9a96192	-0.00032306887
57	0x3a612dbc	0.0008589884
58	0x3a8a2475	0.001053943
59	0x3a58d7f0	0.0008271923
60	0xb8f1bcee	-0.000115269664
61	0xb8e6a394	-0.000109977234
62	0xb8d5efb6	-0.00010201281
63	0xb8d53986	-0.00010167346
64	0xb9860a00	-0.00025565922
65	0xb8e0bbba	-0.00010716119
66	0xb8b5b056	-8.663598e-05
67	0xb91df7dc	-0.00015065022
68	0xb9a1e666	-0.00030879973
69	0xb92141a7	-0.00015378614
70	0xb930fa5c	-0.00016877934
71	0xb98ed5cc	-0.00027243642
72	0x3a281990	0.00064125005
73	0x3a2396a0	0.00062404014
74	0x3a39ed2e	0.00070925325
75	0x3a35455a	0.0006914936
76	0xb913be82	-0.00014089982
77	0x3a2f485b	0.0006686502
78	0x3a43c8c6	0.0007468577
79	0x3a09ab62	0.0005251673
80	0xb9307a8c	-0.0001683032
81	0x3a172338	0.0005765441
82	0x39fba576	0.0004799773
83	0x39ad8280	0.0003309436
84	0x39b2fd2e	0.0003413944
85	0x39b24e4a	0.00034009136
86	0x39cfc697	0.00039630078
87	0x39cd867e	0.00039200851
88	0xb8c24846	-9.264103e-05
89	0x39b6119d	0.00034726868
90	0x39c980be	0.00038433628
91	0x3a13dff3	0.0005640976
92	0xb80cce17	-3.3570537e-05
93	0x39fc5f86	0.00048136356
94	0x39f944ca	0.00047544233
95	0x39d93644	0.00041429896
96	0xb8ba180b	-8.8736495e-05
97	0xb89e2ede	-7.542757e-05
98	0xb8c25fcc	-9.2684844e-05
99	0xb8a50014	-7.867828e-05
100	0xb82d3d10	-4.1303283e-05
101	0xb8d376d2	-0.00010083396
102	0xb8e0bf4d	-0.00010716785
103	0xb8e8867a	-0.0001108767
104	0x360edec0	2.1289306e-06
105	0xb69c02a8	-4.6494715e-06
106	0x37e89016	2.772365e-05
107	0xb8808509	-6.128295e-05
108	0x3a02539a	0.0004971564
109	0x3a04a0ee	0.0005059381
110	0x3a0fd9ae	0.0005487454
111	0x3a107cca	0.0005511759
112	0xb95cdd2c	-0.00021063228
113	0x3a0b279c	0.00053083315
114	0x3a19f7f8	0.0005873437
115	0x3a107d7c	0.00055118627
116	0xb948e744	-0.0001915964
117	0x39e66d27	0.00043950343
118	0x39ef58a7	0.00045651683
119	0x39aa2330	0.00032451143
120	0x3900cdcd	0.00012283698
121	0x38f5d2f8	0.000117218064
122	0x39270bd4	0.00015930767
123	0x3927f238	0.00016016595
124	0xb9d3d44e	-0.00040403235
125	0x38f1f4da	0.00011537383
126	0x3905e14e	0.00012767801
127	0x39e4e9d0	0.00043661753
128	0xb98cad44	-0.00026831974
129	0x398d78af	0.00026983532
130	0x39a7c96c	0.00032002793
131	0x398b4426	0.0002656292
132	0x36fe41e0	7.5774587e-06
133	0xb41dc400	-1.4693069e-07
134	0x3802d1fc	3.118998e-05
135	0x37ac2d58	2.0525113e-05
136	0xb8258820	-3.9465842e-05
137	0x37951038	1.7769737e-05
138	0x3880e340	6.145844e-05
139	0x38323704	4.2489744e-05
140	0xb894c893	-7.09455e-05
141	0x392e85c5	0.00016643766
142	0x3917e684	0.00014486356
143	0x389ed592	7.573808e-05
144	0x3a0018ad	0.00048864895
145	0x3a004e5e	0.000489449
146	0x3a15d756	0.00057159865
147	0x3a138662	0.00056276296
148	0xb9a9308b	-0.0003227036
149	0x3a0f52d1	0.00054673577
150	0x3a2ceda8	0.0006596693
151	0x398f530d	0.00027336963
152	0xb9d37db6	-0.00040338718
153	0x398610bd	0.00025570943
154	0x398624d6	0.00025585917
155	0x38e176b4	0.00010750946
156	0xb8ce21e0	-9.829155e-05
157	0xb8af7d24	-8.3679595e-05
158	0xb8d8a1ec	-0.00010329843
159	0xb8c063e2	-9.173878e-05
160	0x38912db4	6.922652e-05
161	0xb8dfc254	-0.00010669665
162	0xb909a317	-0.00013126094
163	0xb8a24d5c	-7.739171e-05
164	0x3887dc23	6.478305e-05
165	0xb81d9aaa	-3.757576e-05
166	0xb8bb03c2	-8.917555e-05
167	0xb8d93950	-0.000103580416
168	0x394c38b0	0.00019476074
169	0x3952688c	0.00020066107
170	0x39863a8e	0.00025602098
171	0x3985d472	0.0002552602
172	0xba052302	-0.0005078764
173	0x395d42dc	0.0002110111
174	0x398af27e	0.00026502082
175	0x39740a1e	0.00023273422
176	0xba09d917	-0.0005258484
177	0x386effd0	5.6981866e-05
178	0x3952fff8	0.00020122516
179	0x368bf900	4.17151e-06
180	0x3a07d3df	0.00051814126
181	0x3a0075d1	0.00049003685
182	0x3a179f2a	0.000578391
183	0x3a0ddf5b	0.00054120057
184	0xb9d93fd3	-0.00041437018
185	0x3a120362	0.0005569962
186	0x3a20b145	0.0006129931
187	0x3a028588	0.0004979004
188	0xb9f9970e	-0.00047605525
189	0x398e3e9c	0.00027130998
190	0x38dfff3e	0.00010681011
191	0x39882e12	0.00025974266
192	0x37acec60	2.0614068e-05
193	0x377a44f0	1.4917212e-05
194	0x38105208	3.4408673e-05
195	0x37e606f0	2.7421367e-05
196	0xb8335203	-4.2753305e-05
197	0x38016410	3.0849187e-05
198	0x3863e17e	5.4331023e-05
199	0xb6d5a330	-6.366892e-06
200	0xb85d1224	-5.27074e-05
201	0x384f2e82	4.939596e-05
202	0x3803c836	3.1419295e-05
203	0xb6a926b0	-5.0410963e-06
204	0xb94c184a	-0.00019464004
205	0xb948d144	-0.00019151444
206	0xb92eec62	-0.00016681993
207	0xb92cfcaf	-0.0001649733
208	0xb7a76310	-1.9954081e-05
209	0xb94b649f	-0.00019397073
210	0xb91c1b3f	-0.0001488747
211	0xb88f0e42	-6.821427e-05
212	0xb8c9f52a	-9.630092e-05
213	0xb806737c	-3.2055643e-05
214	0xb81e43b0	-3.7733174e-05
215	0xb8c17fb5	-9.2267444e-05
216	0xb80a2695	-3.2937696e-05
217	0xb7864f43	-1.6010954e-05
218	0xb8468f6b	-4.7340447e-05
219	0xb7e14500	-2.685422e-05
220	0xb7b1b3e7	-2.1183818e-05
221	0xb8642d08	-5.4401375e-05
222	0xb8eacd8a	-0.00011196274
223	0xb8713062	-5.7503938e-05
224	0x36a56610	4.929265e-06
225	0xb87d1182	-6.0336206e-05
226	0xb93ad10a	-0.00017816215
227	0xb8f075bd	-0.00011466022
228	0x39e49ed5	0.00043605888
229	0x39e2cd6f	0.0004325914
230	0x3a02cd56	0.0004989704
231	0x3a003ca6	0.000489185
232	0xb8bcb96f	-8.999078e-05
233	0x39f09b6f	0.00045892174
234	0x3a032e3f	0.00050041446
235	0x3a07f050	0.00051856507
236	0xb8d0402b	-9.930165e-05
237	0x39f0e6eb	0.00045948414
238	0x39de751d	0.00042430396
239	0x39b28f1d	0.00034057433
240	0x3a2da4ce	0.0006623984
241	0x3a2c58b6	0.0006574498
242	0x3a3666ca	0.0006958066
243	0x3a36792f	0.0006960807
244	0xb8b2d9ea	-8.528291e-05
245	0x3a2f7c8d	0.000669428
246	0x3a311b4d	0.00067560823
247	0x3a3e4e98	0.0007259636
248	0xb8f7b860	-0.0001181222
249	0x3a33beb1	0.00068567233
250	0x3a363677	0.0006950865
251	0x3a24cbe4	0.00062864856
252	0x39f4a118	0.0004665933
253	0x39f30f29	0.00046359867
254	0x3a0c8cb3	0.0005361542
255	0x3a0783b0	0.0005169464

lstm.weight_hh_l0 f4 [512, 128]
0	0x35828bc6	9.726434e-07
1	0xb4903640	-2.6861562e-07
2	0x36a07156	4.7815656e-06
3	0xb5c3c8b4	-1.4587044e-06
4	0x35d8c010	1.6149152e-06
5	0x35aab0ec	1.2717478e-06
6	0x369767b4	4.5122233e-06
7	0x3642f5c4	2.9051307e-06
8	0xb4bf67e0	-3.56521e-07
9	0x359587a4	1.1140842e-06
10	0x35fd80a4	1.8887408e-06
11	0xb5b9f08e	-1.3853585e-06
12	0x3660df5c	3.3508613e-06
13	0xb48fae58	-2.6762677e-07
14	0x367e48b4	3.7891268e-06
15	0x35529510	7.844801e-07
16	0xb5c62e12	-1.4765558e-06
17	0x35fb1fa4	1.8710166e-06
18	0x3377be00	5.7681973e-08
19	0xb5050b20	-4.956255e-07
20	0x365bccae	3.2752682e-06
21	0x369aba00	4.611211e-06
22	0x3231a4f0	1.0340258e-08
23	0xb5e91d3c	-1.7368361e-06
24	0x37056d82	7.9529145e-06
25	0xb6b33512	-5.340794e-06
26	0xb4861090	-2.4971496e-07
27	0xb689f289	-4.111153e-06
28	0x339d2bc0	7.31884e-08
29	0x3695e306	4.466975e-06
30	0x360b3527	2.0743553e-06
31	0xb55e5cf0	-8.2836686e-07
32	0x3673958c	3.629687e-06
33	0x361da706	2.3492044e-06
34	0xb6915e0a	-4.3322843e-06
35	0xb60b0ffc	-2.0721918e-06
36	0x35f94694	1.8572487e-06
37	0xb465cc00	-2.1401502e-07
38	0xb5ac1dfc	-1.2823725e-06
39	0xb5aa5ffc	-1.2693922e-06
40	0xb6478c80	-2.9735093e-06
41	0x35f13d88	1.7973807e-06
42	0xb5c29720	-1.449811e-06
43	0x36871ea8	4.0268824e-06
44	0x35d286ac	1.5685414e-06
45	0x36620ebc	3.36852e-06
46	0xb5b21db8	-1.3270683e-06
47	0xb480f5d0	-2.402071e-07
48	0x3634f91a	2.6967086e-06
49	0x3288ae00	1.591161e-08
50	0xb5d603dc	-1.5945366e-06
51	0xb5e987fc	-1.739943e-06
52	0xb5be1b00	-1.4163961e-06
53	0x318ba400	4.064077e-09
54	0xb680fd74	-3.844203e-06
55	0xb6293432	-2.5213344e-06
56	0x361783a0	2.257737e-06
57	0x36d25cf2	6.269308e-06
58	0x367ae6b4	3.738719e-06
59	0x350ee60a	5.3233873e-07
60	0x3543e2cb	7.297319e-07
61	0xb5aeb9c6	-1.3018077e-06
62	0xb616ac9c	-2.2452214e-06
63	0xb5fa4bb4	-1.8648484e-06
64	0x346c03c0	2.1980577e-07
65	0xb4f275d8	-4.5161755e-07
66	0x369043b2	4.299415e-06
67	0xb5e9499c	-1.7381276e-06
68	0x351bc9da	5.803573e-07
69	0xb62853dc	-2.5082763e-06
70	0xb55f9840	-8.3295527e-07
71	0xb57ecaa0	-9.491723e-07
72	0xb603e524	-1.9653899e-06
73	0x3592ba2c	1.0932031e-06
74	0x35c50594	1.4679267e-06
75	0x35b3a3dc	1.3384229e-06
76	0x35ae6a50	1.2994951e-06
77	0xb62b048c	-2.5483632e-06
78	0x34c70640	3.7071186e-07
79	0xb65d8fbc	-3.301523e-06
80	0x35321cb4	6.6351936e-07
81	0xb37fc500	-5.9550985e-08
82	0xb5cabcfc	-1.5105174e-06
83	0xb6038468	-1.9597592e-06
84	0x3606a71c	2.0064826e-06
85	0x363d47ce	2.820499e-06
86	0xb5b51fdc	-1.3494823e-06
87	0x35fe797c	1.8959831e-06
88	0xb702c220	-7.793802e-06
89	0x35af6f1c	1.3070853e-06
90	0x361c9484	2.333226e-06
91	0xb38f8880	-6.6837856e-08
92	0xb48af0d0	-2.5879717e-07
93	0xb6233886	-2.4321794e-06
94	0xb606f0c6	-2.0107705e-06
95	0x360c8d30	2.0943808e-06
96	0xb5169288	-5.6092586e-07
97	0x36b2e798	5.3317744e-06
98	0xb6074f83	-2.016285e-06
99	0xb5eab980	-1.7488346e-06
100	0x3645cf46	2.9475937e-06
101	0xb3380080	-4.2841293e-08
102	0xb5fe7a78	-1.8960118e-06
103	0x3598a358	1.1372422e-06
104	0x3636b3ad	2.7224698e-06
105	0x35eb3ad4	1.7525986e-06
106	0x35681a40	8.6464934e-07
107	0x366e8e26	3.5547505e-06
108	0x35951930	1.1108696e-06
109	0xb66c6f80	-3.5231642e-06
110	0xb523cd00	-6.1020546e-07
111	0xb646fb2a	-2.9650496e-06
112	0x3636751a	2.7188275e-06
113	0x35fb5b88	1.8727596e-06
114	0x360b37c6	2.0745078e-06
115	0xb4c2ab70	-3.6260053e-07
116	0xb6179fa0	-2.2593667e-06
117	0xb65ef5d8	-3.3223678e-06
118	0xb63513ba	-2.6982584e-06
119	0x368ea50a	4.251143e-06
120	0xb6abdf4e	-5.122193e-06
121	0xb626308b	-2.4764183e-06
122	0x364ba6a0	3.0346346e-06
123	0x3681258e	3.8488715e-06
124	0xb666c950	-3.438985e-06
125	0xb590f7d4	-1.0800964e-06
126	0xb6094cfc	-2.0459402e-06
127	0xb2b1a96e	-2.068256e-08
128	0x3838b5d8	4.4038374e-05
129	0xb90079ae	-0.0001225236
130	0x396cc21a	0.00022579022
131	0xb8d50473	-0.0001015746
132	0x3945b5e2	0.0001885514
133	0x39181f20	0.00014507445
134	0x39591a89	0.00020704618
135	0x3940d833	0.00018391087
136	0x36bdd0f0	5.6569625e-06
137	0x39353a98	0.00017283333
138	0x392ef9b6	0.00016686958
139	0xb8fa7925	-0.00011943494
140	0x3986029a	0.0002556041
141	0x3809918e	3.2798904e-05
142	0x392fb3ac	0.00016756234
143	0x38f4667e	0.00011653917
144	0x373046f8	1.0506941e-05
145	0x3906873e	0.00012829617
146	0xb8e468ca	-0.00010891406
147	0xb93f059c	-0.00018217269
148	0x3921f9db	0.00015447235
149	0x3982cd83	0.0002494865
150	0x36568d16	3.1970608e-06
151	0xb8eb083d	-0.00011207208
152	0xb8c36118	-9.31641e-05
153	0xb989189f	-0.0002614902
154	0xb901df74	-0.00012385641
155	0xb92337c4	-0.00015565666
156	0x36082548	2.028728e-06
157	0x396e4d42	0.0002272623
158	0x385f0c1c	5.317862e-05
159	0xb8aaf54e	-8.151923e-05
160	0x390564cb	0.00012721417
161	0x3929f125	0.0001620693
162	0xb989f5c6	-0.00026313792
163	0xb8e1fe70	-0.00010776229
164	0x390cfaed	0.00013444918
165	0xb9128d38	-0.00013976253
166	0xb8a01e6c	-7.635061e-05
167	0xb9266aef	-0.0001587083
168	0xb9611bde	-0.00021468053
169	0x3988a681	0.00026063996
170	0xb88389c5	-6.272228e-05
171	0x396810d3	0.00022131512
172	0x390ef4e7	0.00013633409
173	0x394120e5	0.00018418168
174	0xb9069b7e	-0.00012837161
175	0xb84e2242	-4.9146132e-05
176	0x389c03c0	7.439358e-05
177	0x38f4bc37	0.000116698844
178	0xb844df67	-4.69381e-05
179	0xb8dc3eb0	-0.00010502094
180	0xb82e15ee	-4.1505256e-05
181	0x3778b270	1.4823498e-05
182	0xb95f2972	-0.00021282377
183	0xb9169a9a	-0.00014362708
184	0x382a57bf	4.061288e-05
185	0x396b5848	0.00022444234
186	0x39372b85	0.00017468452
187	0x37922c9a	1.7425325e-05
188	0x36f9b2de	7.441601e-06
189	0xb881b181	-6.184262e-05
190	0xb91bfde9	-0.00014876541
191	0xb7f8b748	-2.964925e-05
192	0xb92dc5c4	-0.00016572239
193	0xb7a86f0f	-2.0078876e-05
194	0x3981db6c	0.0002476828
195	0xb9035a78	-0.00012526836
196	0x3911c920	0.00013903202
197	0xb9e98e60	-0.000445473
198	0xb8e68fe6	-0.00010994058
199	0x35240e80	6.111586e-07
200	0xb93a0ce4	-0.00017743144
201	0x38fb835c	0.0001199308
202	0x394ad521	0.00019343618
203	0x392f2de8	0.00016706402
204	0x3918858e	0.00014545603
205	0xb90088b0	-0.00012257951
206	0x39293228	0.0001613578
207	0xb914f9e6	-0.00014207474
208	0xb84e6d09	-4.9215774e-05
209	0x38f0a260	0.000114743365
210	0xb7aff35b	-2.0974947e-05
211	0xb90ad900	-0.00013241544
212	0x39714c8a	0.00023012064
213	0x3922ef24	0.00015538611
214	0xb7655a10	-1.3670433e-05
215	0x38169d90	3.590953e-05
216	0xb99d5935	-0.00030011838
217	0x390b8532	0.00013305692
218	0x39394a2f	0.0001767061
219	0x388f8028	6.842642e-05
220	0xb91157ae	-0.00013860941
221	0xb96f7eba	-0.00022840025
222	0xb9256e62	-0.00015776747
223	0x3970d607	0.00022967915
224	0xb890d5bc	-6.906266e-05
225	0x39a1f1e8	0.00030888547
226	0xb8aca354	-8.232021e-05
227	0xb9602f8c	-0.00021380017
228	0x39304d7b	0.00016813532
229	0x3929c9c6	0.00016192262
230	0xb8acc58a	-8.238394e-05
231	0x385c5e26	5.253977e-05
232	0x39814407	0.00024655482
233	0x38d35895	0.00010077764
234	0x38effe3b	0.00011443762
235	0x3931b730	0.00016948278
236	0x38867267	6.410927e-05
237	0xb8c9a51c	-9.615181e-05
238	0xb8a756a3	-7.979318e-05
239	0xb92f662c	-0.00016727363
240	0x39207b34	0.00015304686
241	0x397608f2	0.0002346372
242	0x38b7caa8	8.763868e-05
243	0xb900910f	-0.0001226107
244	0xb95e60f4	-0.00021207688
245	0xb91945be	-0.00014617198
246	0xb94f715a	-0.00019783285
247	0x394d0a70	0.00019554212
248	0xb9510ccb	-0.00019936559
249	0xb8c92c56	-9.592685e-05
250	0x379f36e8	1.8979845e-05
251	0x3961417e	0.0002148207
252	0xb9686177	-0.00022161553
253	0xb91a5210	-0.00014717155
254	0xb966a4c5	-0.0002199589
255	0x358957ba	1.0232827e-06

lstm.bias_ih_l0 f4 [512]
0	0xb65cee22	-3.2921166e-06
1	0x39a7a072	0.00031972263
2	0x3a1b3dc6	0.0005921986
3	0x39c22f5e	0.00037037855
4	0x3ab6405e	0.0013904681
5	0xb8ea837a	-0.00011182479
6	0x3a8a43d0	0.0010548774
7	0x3a6a8ac6	0.00089470705
8	0xb892d59b	-7.0016096e-05
9	0x3a2a9020	0.00065064617
10	0x39a636ca	0.00031702808
11	0x3994d4f7	0.0002838743
12	0x3a0f05df	0.0005455892
13	0xb92849ec	-0.00016049267
14	0x39d35b74	0.00040313194
15	0x3a5c30ca	0.0008399604
16	0x393e42f8	0.0001814476
17	0xb8095bb8	-3.2748765e-05
18	0xb935f6da	-0.00017353465
19	0x3a6939fa	0.0008896884
20	0x3a6db707	0.0009068106
21	0x3a2874aa	0.00064260757
22	0xb423db03	-1.5260234e-07
23	0x3a2952b5	0.00064591627
24	0xb886cce6	-6.427783e-05
25	0xb9cc8b14	-0.00039013533
26	0x3a14060f	0.0005646655
27	0x3aae635e	0.001330476
28	0x348e38b4	2.6490818e-07
29	0x3b1fc150	0.0024376698
30	0x399d676d	0.00030022432
31	0xb8c5e684	-9.436629e-05
32	0x394bb3a1	0.00019426506
33	0x3a46d6eb	0.0007585126
34	0x3ad146d5	0.0015966544
35	0x3a517d08	0.00079913484
36	0x3a89c0da	0.0010509745
37	0x3ac80a04	0.0015261774
38	0x3a32e463	0.00068241934
39	0x3a3c76cb	0.00071893324
40	0xba29118b	-0.00064494525
41	0xba252f1c	-0.00063012703
42	0x38030b52	3.1243377e-05
43	0x3983cd0b	0.00025139036
44	0x3a543625	0.00080952264
45	0x3a9f3df6	0.0012149203
46	0x39c4f420	0.0003756592
47	0x39a6d2da	0.00031819084
48	0x39ac647e	0.0003288127
49	0x399a0431	0.00029376292
50	0x3a66ab84	0.00087993615
51	0x3a388a52	0.00070396543
52	0x396ba98a	0.00022474505
53	0xb972130f	-0.00023086018
54	0x3a8471cd	0.0010104716
55	0x3a00cb48	0.0004913104
56	0x37847a18	1.579248e-05
57	0x39a3ff1c	0.00031279854
58	0x3a8f8bb4	0.0010951669
59	0x37db872a	2.6169775e-05
60	0xb81c1c90	-3.72199e-05
61	0x399448ed	0.00028283094
62	0x3a614a6e	0.000859416
63	0x3a456978	0.00075306697
64	0x39b18765	0.00033860948
65	0xb93f9436	-0.00018270392
66	0x3a8fc722	0.001096938
67	0x3a12006e	0.0005569522
68	0x3a2ff50a	0.0006712234
69	0x3a887c75	0.0010413068
70	0x38b0805d	8.4162435e-05
71	0x378039ec	1.5285761e-05
72	0x38fdaf08	0.00012096582
73	0x39a5bf1a	0.00031613634
74	0x3a371a16	0.0006984783
75	0x399eff48	0.00030326308
76	0x3a312088	0.00067568617
77	0x3a330d8e	0.0006830328
78	0x39c37064	0.00037277036
79	0x39e98f12	0.0004454782
80	0x37930e39	1.7530389e-05
81	0x39b0d174	0.0003372539
82	0x3a692568	0.00088938186
83	0x3ab4af58	0.0013785167
84	0x3a7f47b3	0.0009738162
85	0x3a5e3bc1	0.0008477532
86	0x3920e478	0.000153439
87	0x3a86a233	0.0010271728
88	0x3ac816a0	0.0015265532
89	0x3a0a9a2c	0.00052872556
90	0x3a9c2f76	0.0011916
91	0x38163212	3.580942e-05
92	0x398d2972	0.00026924495
93	0x3a0a24f1	0.0005269787
94	0x3a3d8a9a	0.0007230431
95	0x3a637746	0.0008677136
96	0x3a695cdc	0.0008902082
97	0x3b0de121	0.002164908
98	0x3920d12b	0.0001533671
99	0x3a5c587e	0.00084055203
100	0x3a311447	0.0006755036
101	0x3a610fcf	0.00085854245
102	0xb8eb937a	-0.00011233143
103	0x399aa2e8	0.00029494544
104	0xba6c658f	-0.0009017819
105	0x39902c0e	0.00027498644
106	0x39a374e4	0.00031176873
107	0x39764d76	0.00023489245
108	0x396e1c08	0.00022707891
109	0x3ab37416	0.0013691213
110	0x3a1a64ee	0.00058896735
111	0x3a3db7b8	0.0007237154
112	0x3a028bc4	0.0004979933
113	0xb8ec598e	-0.00011270038
114	0x39bc1b06	0.00035878288
115	0x39bed9c3	0.0003640187
116	0x39b4b041	0.00034463595
117	0x39f46d8f	0.00046620934
118	0x39734be2	0.00023202554
119	0x3a9115fe	0.0011069176
120	0x3ac36935	0.0014908673
121	0x39d6bd44	0.00040958275
122	0xba2f5890	-0.0006688917
123	0x3adc7ac1	0.0016821251
124	0x3942fa14	0.00018594443
125	0x3a21a33f	0.0006165988
126	0x3a54d1fe	0.00081184495
127	0xb2fc6c22	-2.9385834e-08
128	0xb7d115f2	-2.492496e-05
129	0x390ec47c	0.00013615371
130	0x37a2d550	1.9411236e-05
131	0x398cc4e4	0.00026849576
132	0x3a7f4d64	0.000973901
133	0xb965efad	-0.00021928428
134	0x3a63f3ba	0.0008695681
135	0x3a2978b3	0.0006464824
136	0xb8c670a2	-9.462355e-05
137	0x39da1d1e	0.00041601894
138	0x38f296aa	0.000115675226
139	0x3980b4b8	0.00024548708
140	0x399929eb	0.00029213665
141	0xb944a381	-0.00018752927
142	0x391df180	0.00015062653
143	0x3a387abb	0.0007037331
144	0x3922e9d0	0.00015536626
145	0xb913c073	-0.00014090705
146	0xb957f99a	-0.00020596982
147	0x3a3bba27	0.0007161223
148	0x3a46917c	0.00075747794
149	0x39ef7420	0.00045672152
150	0xb4400c5c	-1.788589e-07
151	0x3a0d7e90	0.00053975824
152	0xb8ee36f3	-0.000113589595
153	0xba44bb90	-0.00075047556
154	0x39e43003	0.0004352332
155	0x3a93f475	0.0011288064
156	0x32aeb6c0	2.0339371e-08
157	0x3b06dfb9	0.0020580126
158	0x3982d09d	0.0002495096
159	0xb98dd418	-0.00027051638
160	0x38cc074e	9.7288386e-05
161	0x3a1de95f	0.000602385
162	0x3ab28d44	0.0013622423
163	0x3a389061	0.0007040557
164	0x3a6c67ed	0.00090181717
165	0x3aa33c49	0.001245388
166	0x3a1874f0	0.0005815765
167	0x3a0a704c	0.0005281016
168	0xba49d8de	-0.0007699857
169	0xba672a1a	-0.00088182243
170	0x3684a974	3.9536335e-06
171	0x368d3440	4.20821e-06
172	0x3a3c3864	0.0007180034
173	0x3a72bdfa	0.0009259876
174	0x399d8aeb	0.00030048875
175	0x3988ac78	0.0002606844
176	0x396bc003	0.00022482876
177	0x38efff56	0.00011443968
178	0x3a3d8780	0.0007229969
179	0x3a0b391a	0.0005310938
180	0x392a2859	0.00016227494
181	0xb9a926bc	-0.0003226305
182	0x3a4c000d	0.000778199
183	0x39cbfe2e	0.00038908556
184	0xb84f8db8	-4.948463e-05
185	0x36bbb400	5.593989e-06
186	0x3a6d688f	0.0009056413
187	0x376508b8	1.3651494e-05
188	0xb83454d0	-4.2994332e-05
189	0x3966ddaa	0.00022017086
190	0x3a43ae72	0.0007464654
191	0x3a1b19b9	0.0005916614
192	0x38c547d4	9.407071e-05
193	0xb9484c73	-0.00019101966
194	0x3a47df34	0.00076245074
195	0x39ee5208	0.00045456016
196	0x3a1d5550	0.0006001787
197	0x3a2ba44c	0.00065476145
198	0x37c6bb44	2.3690642e-05
199	0xb7878018	-1.6152902e-05
200	0xb94109a2	-0.00018409503
201	0x39680dc8	0.00022130378
202	0x3a20689c	0.00061191036
203	0x394386a2	0.00018646804
204	0x39ea2bd2	0.00044664607
205	0x3a17baec	0.00057880464
206	0x39563e90	0.00020431937
207	0x39755516	0.00023396718
208	0x373f2ee7	1.13954075e-05
209	0x37ec0d60	2.813962e-05
210	0x3a56e7a7	0.0008197971
211	0x3aa550c0	0.0012612566
212	0x3a583a3a	0.00082484225
213	0x3a2383e4	0.000623761
214	0x39062f09	0.00012796758
215	0x3a6e704a	0.0009095712
216	0x3a904147	0.0011005782
217	0x39e67ad8	0.00043960544
218	0x3a745b2a	0.0009321446
219	0x3803172e	3.125442e-05
220	0x39420c53	0.00018505873
221	0x39c77fbe	0.00038051413
222	0x3a1df390	0.00060253683
223	0x3a226500	0.000619486
224	0x3a57be02	0.00082299125
225	0x3af8f16e	0.001899285
226	0x38edab28	0.00011332921
227	0x3a244912	0.0006266992
228	0x39f4d5f8	0.00046698726
229	0x3a45df1c	0.00075481995
230	0xb991929b	-0.00027765785
231	0x3976a5a2	0.00023522091
232	0xba82004b	-0.00099183
233	0x39453e72	0.00018810647
234	0x395fcbd3	0.00021342868
235	0x38a36f7c	7.793211e-05
236	0x39500e4e	0.00019841755
237	0x3a8ec4c4	0.0010892381
238	0x39e19b06	0.00043030846
239	0x3a091198	0.0005228757
240	0x39b02312	0.00033595465
241	0xb9bc4961	-0.00035912826
242	0x39777887	0.00023600656
243	0x39c32652	0.0003722185
244	0x38cfdca5	9.9116274e-05
245	0x39c9e624	0.00038509176
246	0x37a74f00	1.9944739e-05
247	0x3a56bb60	0.0008191373
248	0x3aa0cc8b	0.001226799
249	0x39d0c980	0.0003982298
250	0xba5d76a6	-0.0008448161
251	0x3aa442f8	0.0012532165
252	0xb8882a5c	-6.4928754e-05
253	0x3a019503	0.0004943164
254	0x3a2a2c36	0.00064915733
255	0xb30a1e78	-3.215834e-08

lstm.bias_hh_l0 f4 [512]
0	0xb65cee22	-3.2921166e-06
1	0x39a7a07d	0.00031972295
2	0x3a1b3dc6	0.0005921986
3	0x39c22f5e	0.00037037855
4	0x3ab6405a	0.0013904676
5	0xb8ea837a	-0.00011182479
6	0x3a8a43d0	0.0010548774
7	0x3a6a8ac6	0.00089470705
8	0xb892d59b	-7.0016096e-05
9	0x3a2a9020	0.00065064617
10	0x39a636ca	0.00031702808
11	0x3994d4f7	0.0002838743
12	0x3a0f05df	0.0005455892
13	0xb92849ec	-0.00016049267
14	0x39d35b74	0.00040313194
15	0x3a5c30d1	0.0008399608
16	0x393e42f8	0.0001814476
17	0xb8095bb8	-3.2748765e-05
18	0xb935f6de	-0.0001735347
19	0x3a6939fa	0.0008896884
20	0x3a6db707	0.0009068106
21	0x3a2874aa	0.00064260757
22	0xb423db26	-1.5260284e-07
23	0x3a2952b5	0.00064591627
24	0xb886cce5	-6.4277825e-05
25	0xb9cc8b14	-0.00039013533
26	0x3a14060f	0.0005646655
27	0x3aae6360	0.0013304763
28	0x348e38b4	2.6490818e-07
29	0x3b1fc150	0.0024376698
30	0x399d676d	0.00030022432
31	0xb8c5e6b4	-9.436664e-05
32	0x394bb3a1	0.00019426506
33	0x3a46d6eb	0.0007585126
34	0x3ad146d5	0.0015966544
35	0x3a517d08	0.00079913484
36	0x3a89c0da	0.0010509745
37	0x3ac80a04	0.0015261774
38	0x3a32e463	0.00068241934
39	0x3a3c76cb	0.00071893324
40	0xba29118b	-0.00064494525
41	0xba252f1c	-0.00063012703
42	0x38030b52	3.1243377e-05
43	0x3983cd09	0.0002513903
44	0x3a543625	0.00080952264
45	0x3a9f3df6	0.0012149203
46	0x39c4f420	0.0003756592
47	0x39a6d2db	0.00031819087
48	0x39ac647e	0.0003288127
49	0x399a0431	0.00029376292
50	0x3a66ab84	0.00087993615
51	0x3a388a52	0.00070396543
52	0x396ba98a	0.00022474505
53	0xb97212ec	-0.00023085967
54	0x3a8471c3	0.0010104704
55	0x3a00cb48	0.0004913104
56	0x37847a28	1.579251e-05
57	0x39a3ff18	0.00031279842
58	0x3a8f8bb3	0.0010951668
59	0x37db872a	2.6169775e-05
60	0xb81c1d0b	-3.7220347e-05
61	0x399448ed	0.00028283094
62	0x3a614a6e	0.000859416
63	0x3a456978	0.00075306697
64	0x39b18765	0.00033860948
65	0xb93f942e	-0.0001827038
66	0x3a8fc722	0.001096938
67	0x3a12006e	0.0005569522
68	0x3a2ff50a	0.0006712234
69	0x3a887c70	0.0010413062
70	0x38b0805d	8.4162435e-05
71	0x378039ec	1.5285761e-05
72	0x38fdaf08	0.00012096582
73	0x39a5bf1a	0.00031613634
74	0x3a371a1b	0.0006984786
75	0x399eff48	0.00030326308
76	0x3a312086	0.00067568605
77	0x3a330d90	0.0006830329
78	0x39c37064	0.00037277036
79	0x39e98f11	0.00044547816
80	0x37930e38	1.7530387e-05
81	0x39b0d174	0.0003372539
82	0x3a692568	0.00088938186
83	0x3ab4af58	0.0013785167
84	0x3a7f47b3	0.0009738162
85	0x3a5e3bc1	0.0008477532
86	0x3920e478	0.000153439
87	0x3a86a233	0.0010271728
88	0x3ac816a0	0.0015265532
89	0x3a0a9a2c	0.00052872556
90	0x3a9c2f76	0.0011916
91	0x38163212	3.580942e-05
92	0x398d296f	0.00026924486
93	0x3a0a24f0	0.00052697863
94	0x3a3d8a9a	0.0007230431
95	0x3a637746	0.0008677136
96	0x3a695cdc	0.0008902082
97	0x3b0de121	0.002164908
98	0x3920d12b	0.0001533671
99	0x3a5c587e	0.00084055203
100	0x3a311446	0.0006755035
101	0x3a610fcf	0.00085854245
102	0xb8eb937a	-0.00011233143
103	0x399aa2e8	0.00029494544
104	0xba6c66e2	-0.0009018016
105	0x39902c0e	0.00027498644
106	0x39a374e4	0.00031176873
107	0x39764d78	0.00023489248
108	0x396e1c08	0.00022707891
109	0x3ab37416	0.0013691213
110	0x3a1a64ee	0.00058896735
111	0x3a3db7b8	0.0007237154
112	0x3a028bc4	0.0004979933
113	0xb8ec598e	-0.00011270038
114	0x39bc1b06	0.00035878288
115	0x39bed9c1	0.00036401863
116	0x39b4b041	0.00034463595
117	0x39f46d8f	0.00046620934
118	0x39734be2	0.00023202554
119	0x3a9115fe	0.0011069176
120	0x3ac36935	0.0014908673
121	0x39d6bd44	0.00040958275
122	0xba2f5890	-0.0006688917
123	0x3adc7ac1	0.0016821251
124	0x3942fa14	0.00018594443
125	0x3a21a33f	0.0006165988
126	0x3a54d1fe	0.00081184495
127	0xb2fc6c22	-2.9385834e-08
128	0xb7d115f2	-2.492496e-05
129	0x390ecdde	0.00013618867
130	0x37a2d550	1.9411236e-05
131	0x398cc4e4	0.00026849576
132	0x3a7f4d64	0.000973901
133	0xb965efad	-0.00021928428
134	0x3a63f3ba	0.0008695681
135	0x3a2978b3	0.0006464824
136	0xb8c670a2	-9.462355e-05
137	0x39da1d1e	0.00041601894
138	0x38f296aa	0.000115675226
139	0x3980b4b8	0.00024548708
140	0x399929eb	0.00029213665
141	0xb944a381	-0.00018752927
142	0x391df180	0.00015062653
143	0x3a387abf	0.00070373336
144	0x3922e9cb	0.00015536619
145	0xb913c073	-0.00014090705
146	0xb957f99a	-0.00020596982
147	0x3a3bba27	0.0007161223
148	0x3a46917c	0.00075747794
149	0x39ef7423	0.0004567216
150	0xb4400ca7	-1.7885996e-07
151	0x3a0d7e90	0.00053975824
152	0xb8ee36f7	-0.000113589624
153	0xba44bb90	-0.00075047556
154	0x39e43003	0.0004352332
155	0x3a93f475	0.0011288064
156	0x32aeb6c0	2.0339371e-08
157	0x3b06dfb9	0.0020580126
158	0x3982d09d	0.0002495096
159	0xb98dd417	-0.00027051635
160	0x38cc074e	9.7288386e-05
161	0x3a1de95f	0.000602385
162	0x3ab28d44	0.0013622423
163	0x3a389061	0.0007040557
164	0x3a6c67ed	0.00090181717
165	0x3aa33c52	0.001245389
166	0x3a1874f0	0.0005815765
167	0x3a0a704a	0.00052810146
168	0xba49d8e0	-0.00076998584
169	0xba672a1a	-0.00088182243
170	0x3684a974	3.9536335e-06
171	0x368d3440	4.20821e-06
172	0x3a3c3864	0.0007180034
173	0x3a72bdfd	0.0009259878
174	0x399d8aeb	0.00030048875
175	0x3988ac78	0.0002606844
176	0x396bbfdf	0.00022482824
177	0x38efff56	0.00011443968
178	0x3a3d8780	0.0007229969
179	0x3a0b391a	0.0005310938
180	0x392a2859	0.00016227494
181	0xb9a925b2	-0.00032262277
182	0x3a4bffb1	0.00077819364
183	0x39cbfe2e	0.00038908556
184	0xb84f8db0	-4.9484603e-05
185	0x36bbb400	5.593989e-06
186	0x3a6d688e	0.00090564124
187	0x376508a8	1.3651479e-05
188	0xb83454d0	-4.2994332e-05
189	0x3966ddaa	0.00022017086
190	0x3a43ae72	0.0007464654
191	0x3a1b19b9	0.0005916614
192	0x38c54740	9.406963e-05
193	0xb9484c73	-0.00019101966
194	0x3a47df34	0.00076245074
195	0x39ee5208	0.00045456016
196	0x3a1d5550	0.0006001787
197	0x3a2ba44a	0.00065476133
198	0x37c6bb44	2.3690642e-05
199	0xb7878018	-1.6152902e-05
200	0xb94109a2	-0.00018409503
201	0x39680dc8	0.00022130378
202	0x3a20688e	0.00061190955
203	0x394386a2	0.00018646804
204	0x39ea2bd2	0.00044664607
205	0x3a17baed	0.0005788047
206	0x39563e90	0.00020431937
207	0x39755516	0.00023396718
208	0x373f2eef	1.1395415e-05
209	0x37ec0d60	2.813962e-05
210	0x3a56e7a7	0.0008197971
211	0x3aa550c0	0.0012612566
212	0x3a583a3a	0.00082484225
213	0x3a2383e4	0.000623761
214	0x39062f09	0.00012796758
215	0x3a6e704a	0.0009095712
216	0x3a904147	0.0011005782
217	0x39e67ad8	0.00043960544
218	0x3a745b2a	0.0009321446
219	0x3803172e	3.125442e-05
220	0x39420c55	0.00018505876
221	0x39c77fbe	0.00038051413
222	0x3a1df390	0.00060253683
223	0x3a226500	0.000619486
224	0x3a57be02	0.00082299125
225	0x3af8f16e	0.001899285
226	0x38edab28	0.00011332921
227	0x3a244912	0.0006266992
228	0x39f4d5f8	0.00046698726
229	0x3a45df1c	0.00075481995
230	0xb991929b	-0.00027765785
231	0x3976a5a2	0.00023522091
232	0xba82011d	-0.0009918545
233	0x39453e72	0.00018810647
234	0x395fcbd7	0.00021342874
235	0x38a36f94	7.793229e-05
236	0x39500e4e	0.00019841755
237	0x3a8ec4c4	0.0010892381
238	0x39e19b06	0.00043030846
239	0x3a091198	0.0005228757
240	0x39b02312	0.00033595465
241	0xb9bc4961	-0.00035912826
242	0x39777887	0.00023600656
243	0x39c32652	0.0003722185
244	0x38cfdca5	9.9116274e-05
245	0x39c9e624	0.00038509176
246	0x37a74f00	1.9944739e-05
247	0x3a56bb60	0.0008191373
248	0x3aa0cc8b	0.001226799
249	0x39d0c980	0.0003982298
250	0xba5d76a6	-0.0008448161
251	0x3aa442f8	0.0012532165
252	0xb8882a5c	-6.4928754e-05
253	0x3a019503	0.0004943164
254	0x3a2a2c36	0.00064915733
255	0xb30a1e78	-3.215834e-08

lstm.weight_ih_l1 f4 [512, 128]
0	0x1c1521e0	4.9343747e-22
1	0x1b88a08a	2.2603059e-22
2	0x9c16ff60	-4.99609e-22
3	0x9c016c85	-4.282278e-22
4	0x9ba3da18	-2.7107028e-22
5	0x1bfca0ba	4.179377e-22
6	0x9c151067	-4.9321164e-22
7	0x9b38afad	-1.5276887e-22
8	0x9ac86220	-8.287659e-23
9	0x1b8ace94	2.2963683e-22
10	0x1c01962c	4.287661e-22
11	0x9b4e01b4	-1.7040471e-22
12	0x1c226ed4	5.3744546e-22
13	0x1bd9cbd4	3.603136e-22
14	0x1c03168d	4.337341e-22
15	0x9bc30932	-3.2265986e-22
16	0x1a8838cc	5.634004e-23
17	0x1bf2b964	4.0155348e-22
18	0x1c1714ba	4.9988497e-22
19	0x9c0ac815	-4.591897e-22
20	0x9c18e7d8	-5.059223e-22
21	0x1b4a7158	1.6745672e-22
22	0x1bce2634	3.410453e-22
23	0x9c1d3f5a	-5.202882e-22
24	0x1b8be6be	2.3144735e-22
25	0x99a772e0	-1.7313793e-23
26	0x1c01efba	4.299236e-22
27	0x1bfae25a	4.1505307e-22
28	0x9bf54328	-4.0575249e-22
29	0x9a5336d0	-4.3678054e-23
30	0x9c0e7e62	-4.7147205e-22
31	0x1b9aa694	2.5584811e-22
32	0x9c1ba292	-5.1495315e-22
33	0x1a240910	3.3921726e-23
34	0x9bc2662a	-3.216063e-22
35	0x1c1bbc22	5.1528354e-22
36	0x9c1c0d55	-5.16333e-22
37	0x9c356943	-6.0023924e-22
38	0x1ae90cd8	9.638729e-23
39	0x1bf24238	4.0078335e-22
40	0x9c117f6d	-4.814117e-22
41	0x1b67d9a0	1.917819e-22
42	0x1bc0f722	3.1923441e-22
43	0x1c1aa851	5.117187e-22
44	0x9c0ad633	-4.5937216e-22
45	0x1ad6b268	8.8796556e-23
46	0x9b31754c	-1.4678998e-22
47	0x1a63ffc0	4.7149093e-23
48	0x1c1a6fd0	5.109884e-22
49	0x1b35f0fa	1.5049833e-22
50	0x1bbee0fc	3.1578256e-22
51	0x1bfbb80d	4.1643407e-22
52	0x9c049432	-4.3866674e-22
53	0x9c0c3878	-4.63951e-22
54	0x1be93e03	3.858669e-22
55	0x1c101ab8	4.7680136e-22
56	0x1c3610fc	6.02407e-22
57	0x9b6710e4	-1.911333e-22
58	0x9a9552d8	-6.17588e-23
59	0x1be87324	3.8455588e-22
60	0x9a2ef570	-3.618062e-23
61	0x1bb3b01e	2.972688e-22
62	0x9bba046a	-3.0773971e-22
63	0x9b21cc18	-1.3383554e-22
64	0x1b553dcc	1.7638915e-22
65	0x1c204ab4	5.303611e-22
66	0x9c00dc5e	-4.2636465e-22
67	0x9b1b9984	-1.2870903e-22
68	0x9bd7600d	-3.5630838e-22
69	0x1bcbc9c5	3.3713923e-22
70	0x1c08d4bb	4.5273573e-22
71	0x9981c370	-1.3417224e-23
72	0x1ad024c8	8.608621e-23
73	0x1c2e414a	5.7656155e-22
74	0x9ba1c601	-2.6763173e-22
75	0x9c1c5bbd	-5.173464e-22
76	0x9c15a9cd	-4.9519427e-22
77	0x9beac506	-3.8839376e-22
78	0x9c137950	-4.8795013e-22
79	0x9ba21678	-2.6815172e-22
80	0x1bbb1092	3.0947263e-22
81	0x9ba65c70	-2.7522133e-22
82	0x9c1cdc58	-5.190086e-22
83	0x9c29bfa0	-5.616508e-22
84	0x9c0a7d01	-4.5821934e-22
85	0x9be35b7b	-3.7613118e-22
86	0x9c37d3ca	-6.082335e-22
87	0x9c1107ee	-4.7986724e-22
88	0x9c2514a4	-5.46206e-22
89	0x1bb51f6e	2.996425e-22
90	0x9af3c7f0	-1.0082546e-22
91	0x9bd1aaac	-3.4686444e-22
92	0x1c002a54	4.2406355e-22
93	0x9bee4eab	-3.9424635e-22
94	0x1bc39dbc	3.2361977e-22
95	0x1bee0b53	3.9381115e-22
96	0x1c1f0ef2	5.2628003e-22
97	0x1c1b6432	5.1414697e-22
98	0x9acdada0	-8.506652e-23
99	0x9b8c9552	-2.3257553e-22
100	0x9c18ca9e	-5.055446e-22
101	0x9bfd6f2a	-4.1927177e-22
102	0x1c141077	4.8990373e-22
103	0x9aff21a8	-1.055199e-22
104	0x1be18e48	3.7315075e-22
105	0x9c060d63	-4.4354183e-22
106	0x1c050806	4.401638e-22
107	0x9c34cc9f	-5.982147e-22
108	0x9c153262	-4.9365083e-22
109	0x9a1e3470	-3.2715993e-23
110	0x9c3bb94f	-6.2112616e-22
111	0x9bb10296	-2.9283865e-22
112	0x1bcde244	3.4060626e-22
113	0x9ba491a2	-2.7225637e-22
114	0x1bdab8aa	3.618441e-22
115	0x1c299b7b	5.6118363e-22
116	0x9bd424ba	-3.5096192e-22
117	0x9c068ca1	-4.451864e-22
118	0x1a662b30	4.7597772e-23
119	0x9c41e4df	-6.415415e-22
120	0x199bb840	1.6101042e-23
121	0x1bdb74d9	3.6306022e-22
122	0x9bdb2c74	-3.6259238e-22
123	0x1c223faa	5.368359e-22
124	0x9b1c3f88	-1.2924546e-22
125	0x1bb7475a	3.032092e-22
126	0x9bfb0b5a	-4.1531803e-22
127	0x1b38ed3c	1.5296778e-22
128	0x1c0308f4	4.3355836e-22
129	0x1c08d4b4	4.527354e-22
130	0x9c28b801	-5.5824357e-22
131	0x1be02ba8	3.7085904e-22
132	0x9c3cd996	-6.2485205e-22
133	0x1c51217b	6.919557e-22
134	0x1c23a6b8	5.4147655e-22
135	0x9afafd68	-1.03806976e-22
136	0x9ad05750	-8.6167845e-23
137	0x1c72f900	8.039291e-22
138	0x1c2e3f1c	5.765334e-22
139	0x9a37ac30	-3.7982605e-23
140	0x9c0e2527	-4.7031877e-22
141	0x9b6b9bb8	-1.948906e-22
142	0x1bc5172a	3.2605886e-22
143	0x9c241501	-5.4290195e-22
144	0x1c1ec1fc	5.2528534e-22
145	0x9be67c05	-3.8130454e-22
146	0x1c351c45	5.9924414e-22
147	0x9b2e06c4	-1.4395129e-22
148	0x1c852f72	8.813466e-22
149	0x1bdb5218	3.6283563e-22
150	0x9bc249c6	-3.2142283e-22
151	0x9bcb1b98	-3.3601365e-22
152	0x1c244c52	5.436169e-22
153	0x9ba0859c	-2.6556123e-22
154	0x9c49b657	-6.674099e-22
155	0x9c5bf678	-7.2779575e-22
156	0x1c4581f0	6.5349773e-22
157	0x1a00f260	2.666557e-23
158	0x9c2d80fe	-5.7407617e-22
159	0x1c3c568c	6.231584e-22
160	0x1bceb75c	3.4198334e-22
161	0x9c2f4ceb	-5.8002057e-22
162	0x9c3593c8	-6.007888e-22
163	0x9c47bce4	-6.608771e-22
164	0x9c585c11	-7.15874e-22
165	0x1a72cfe0	5.0212347e-23
166	0x1b9212fa	2.4165937e-22
167	0x1c087187	4.5145356e-22
168	0x9bf09fc5	-3.9807918e-22
169	0x9c75fdfa	-8.1391957e-22
170	0x1c465796	6.5625907e-22
171	0x9c5188ab	-6.932894e-22
172	0x9c285766	-5.5699497e-22
173	0x1b188724	1.2616812e-22
174	0x9bac04a2	-2.8458007e-22
175	0x1b2e63a4	1.4425138e-22
176	0x9a9b0a80	-6.412346e-23
177	0x1c4a58a0	6.695074e-22
178	0x9bc46cdd	-3.249583e-22
179	0x9c211f29	-5.3310705e-22
180	0x9c17238f	-5.0007667e-22
181	0x1b480ab0	1.6547066e-22
182	0x9b62d588	-1.8763278e-22
183	0x9a3709c0	-3.785139e-23
184	0x1c5690b4	7.0993685e-22
185	0x1c391587	6.123919e-22
186	0x1c16601f	4.975507e-22
187	0x9bdea66a	-3.6834362e-22
188	0x9c542318	-7.0190274e-22
189	0x175f6400	7.2181404e-25
190	0x9c114006	-4.8059224e-22
191	0x1c3643c2	6.0306324e-22
192	0x9c19679c	-5.0757365e-22
193	0x1c38fdaa	6.1208346e-22
194	0x1c367d18	6.038043e-22
195	0x9c0bed9b	-4.629834e-22
196	0x1b890870	2.2670201e-22
197	0x9c5ec2c1	-7.370535e-22
198	0x9a60aee0	-4.6463377e-23
199	0x9be1cc4a	-3.7355146e-22
200	0x9b4e70e4	-1.7076398e-22
201	0x9c48a4b9	-6.638735e-22
202	0x1bcc2868	3.377508e-22
203	0x9b2d3f48	-1.4330672e-22
204	0x9c1e8878	-5.2454196e-22
205	0x1b3e9a30	1.5766252e-22
206	0x1c3d440f	6.262282e-22
207	0x9bee354e	-3.9408245e-22
208	0x9c595228	-7.190546e-22
209	0x1c33fbe5	5.95517e-22
210	0x1c52e8e7	6.978419e-22
211	0x9c35d35b	-6.0161047e-22
212	0x9c0d797d	-4.6810006e-22
213	0x1c20bab5	5.318087e-22
214	0x9c38a3bc	-6.1092115e-22
215	0x9c211192	-5.329314e-22
216	0x9c18fc73	-5.0618864e-22
217	0x1c4a737a	6.6985443e-22
218	0x1ad25cc8	8.700386e-23
219	0x1bd79e2b	3.567098e-22
220	0x9c28ab43	-5.580789e-22
221	0x9c44d790	-6.512957e-22
222	0x1bc9b83c	3.337172e-22
223	0x1be01698	3.7072292e-22
224	0x9b4c2a28	-1.6888106e-22
225	0x9c179444	-5.015334e-22
226	0x1c324b31	5.899244e-22
227	0x9b931f10	-2.4339184e-22
228	0x9b151ad8	-1.2333665e-22
229	0x1b6dcc40	1.9670177e-22
230	0x9b99b2c4	-2.5427251e-22
231	0x9c401333	-6.3552285e-22
232	0x1bd6c006	3.5527422e-22
233	0x9c2578d3	-5.475008e-22
234	0x9c340e57	-5.957554e-22
235	0x9b52512c	-1.7397021e-22
236	0x1c4205c5	6.419667e-22
237	0x9addbb48	-9.170603e-23
238	0x1ba8db3a	2.793494e-22
239	0x9c0acae7	-4.5922615e-22
240	0x9b412f80	-1.5979934e-22
241	0x1b5f2f08	1.8461324e-22
242	0x1c3ab360	6.1774074e-22
243	0x9c058790	-4.418122e-22
244	0x9c26f684	-5.5243407e-22
245	0x1bfb2bfa	4.1552886e-22
246	0x9c419fc7	-6.406485e-22
247	0x1c4439ca	6.492565e-22
248	0x9c1b5fc0	-5.140895e-22
249	0x1c1771d8	5.010885e-22
250	0x9c226f6a	-5.3745303e-22
251	0x1a90b2a8	5.984564e-23
252	0x1b6804b0	1.9192105e-22
253	0x9c5b897d	-7.263872e-22
254	0x9aa11ff8	-6.663969e-23
255	0x99138300	-7.626177e-24

lstm.weight_hh_l1 f4 [512, 128]
0	0x1c0daddb	4.687769e-22
1	0x1b39573c	1.5331028e-22
2	0x9a89e058	-5.702432e-23
3	0x1b38f2e9	1.5298612e-22
4	0x1b4c7384	1.691181e-22
5	0x9ae4e790	-9.46727e-23
6	0x1bce32d0	3.4112678e-22
7	0x9b88375c	-2.2535088e-22
8	0x1bf84448	4.1072284e-22
9	0x9c0d35a9	-4.672234e-22
10	0x1c1018ac	4.767749e-22
11	0x9bc101fc	-3.1930454e-22
12	0x9bb99c70	-3.0706778e-22
13	0x9a1299d8	-3.0316366e-23
14	0x1ac30a08	8.0666316e-23
15	0x1abc95f8	7.7997265e-23
16	0x1c0ab692	4.5896336e-22
17	0x1c10ed06	4.795195e-22
18	0x1c200d3d	5.295667e-22
19	0x1be9d988	3.8687193e-22
20	0x9bff702e	-4.2258706e-22
21	0x1c221cc3	5.3638477e-22
22	0x1c155968	4.941552e-22
23	0x9bc35b43	-3.231902e-22
24	0x1be40b64	3.7726797e-22
25	0x1ba258a9	2.6857947e-22
26	0x1a91cd20	6.030199e-23
27	0x1b176894	1.2524218e-22
28	0x9c10f016	-4.7955907e-22
29	0x9b9e36bf	-2.6174286e-22
30	0x1c0603c7	4.4341763e-22
31	0x1b548978	1.7580648e-22
32	0x9b249226	-1.3612985e-22
33	0x1be5a64c	3.799234e-22
34	0x9c1062ac	-4.7773134e-22
35	0x1a6984a0	4.8290404e-23
36	0x1bd63216	3.5435697e-22
37	0x99fdd240	-2.6244506e-23
38	0x1befa434	3.9645347e-22
39	0x1c174bb3	5.005955e-22
40	0x9bb18214	-2.9366255e-22
41	0x9bbd7ab1	-3.1346715e-22
42	0x19b4d160	1.869613e-23
43	0x9ac8c240	-8.303189e-23
44	0x1c04992d	4.387311e-22
45	0x9b9d85c9	-2.6059928e-22
46	0x9a8eab68	-5.9006745e-23
47	0x9b419ad0	-1.6014608e-22
48	0x9bd1f8b0	-3.473686e-22
49	0x9b2db5d0	-1.4368971e-22
50	0x1c0d9121	4.684056e-22
51	0x1ba95a46	2.8017043e-22
52	0x9a018370	-2.678275e-23
53	0x9c140180	-4.897103e-22
54	0x1bd95b17	3.5958504e-22
55	0x9be3915e	-3.764794e-22
56	0x9c022423	-4.3060097e-22
57	0x9b3336f2	-1.4824287e-22
58	0x1bd63947	3.5440345e-22
59	0x9c1453c4	-4.9077357e-22
60	0x1c0089de	4.2529837e-22
61	0x1c0fd822	4.7594076e-22
62	0x9bd25ac4	-3.4800242e-22
63	0x9b36ff9e	-1.5137282e-22
64	0x9ba5dc48	-2.7439314e-22
65	0x9b3a80f0	-1.5427221e-22
66	0x9c095126	-4.543438e-22
67	0x9bc8b736	-3.3205622e-22
68	0x1aeb6748	9.736058e-23
69	0x9b74f754	-2.0263123e-22
70	0x1c08ab17	4.5219754e-22
71	0x9b703300	-1.9868814e-22
72	0x1ba34fb8	2.7017605e-22
73	0x1be1e9f7	3.7374324e-22
74	0x9bb9a78e	-3.0713962e-22
75	0x99142860	-7.659574e-24
76	0x1bf5aa4c	4.0641902e-22
77	0x9b37a754	-1.5191472e-22
78	0x1b58b97a	1.7927032e-22
79	0x9b7476e0	-2.0221618e-22
80	0x1be43c13	3.7758258e-22
81	0x1bd5e289	3.538429e-22
82	0x9c0afe86	-4.5989334e-22
83	0x1bba1e61	3.079075e-22
84	0x9bc3db69	-3.2401834e-22
85	0x1b826152	2.1569588e-22
86	0x9b6e7520	-1.9724744e-22
87	0x1be48336	3.780423e-22
88	0x1b90ddb0	2.3966064e-22
89	0x9c23018b	-5.393417e-22
90	0x9a8c5400	-5.803835e-23
91	0x9ba14ca3	-2.668474e-22
92	0x9bc9193a	-3.3268963e-22
93	0x1b3964ea	1.5335448e-22
94	0x1c02cb44	4.3276107e-22
95	0x1c332c6c	5.9283546e-22
96	0x1bcd17d6	3.3929809e-22
97	0x9c1b8958	-5.146271e-22
98	0x9ab9b854	-7.6812005e-23
99	0x1b02c260	1.0816154e-22
100	0x1c06bb2f	4.457881e-22
101	0x1bd16d9e	3.4646988e-22
102	0x1bc946a5	3.3298314e-22
103	0x9c388360	-6.105029e-22
104	0x1984dce0	1.3737691e-23
105	0x9ba0641a	-2.6534469e-22
106	0x9c29eb8e	-5.6221857e-22
107	0x1bf7fc07	4.102559e-22
108	0x9c07db36	-4.4951077e-22
109	0x199df420	1.6332021e-23
110	0x19d8bbe0	2.2409759e-23
111	0x1bf8a1ae	4.1132641e-22
112	0x1bff92e3	4.2281135e-22
113	0x9bd29b93	-3.4842123e-22
114	0x1bc72306	3.2944422e-22
115	0x9bba5d22	-3.0831304e-22
116	0x9c1d5132	-5.2051885e-22
117	0x1c13abd4	4.8860303e-22
118	0x1b091cf0	1.1341725e-22
119	0x1bd90bba	3.5907217e-22
120	0x1bdb708e	3.6303248e-22
121	0x1bb0d894	2.9256718e-22
122	0x1c195c50	5.0742765e-22
123	0x9c127151	-4.8453806e-22
124	0x1c1775ee	5.011413e-22
125	0x1b42a9d2	1.6102176e-22
126	0x1b84d304	2.1973934e-22
127	0x9ba06da0	-2.6540623e-22
128	0x1c2e6e18	5.7714063e-22
129	0x9bb790a7	-3.036829e-22
130	0x9c3ab147	-6.1771363e-22
131	0x9c3e177c	-6.289608e-22
132	0x9c2f99f0	-5.81016e-22
133	0x1b870a43	2.2340508e-22
134	0x9bfdf2be	-4.2012207e-22
135	0x1bf9d203	4.1329311e-22
136	0x1aabf4a4	7.111918e-23
137	0x1ab678e4	7.5468745e-23
138	0x1c0c32c0	4.6387707e-22
139	0x1c23afb6	5.4159277e-22
140	0x1bc018a4	3.177966e-22
141	0x1be2a785	3.749682e-22
142	0x9c3b77a3	-6.2027737e-22
143	0x1c02ad31	4.3237236e-22
144	0x1bcb353f	3.3617942e-22
145	0x1bd36826	3.4974326e-22
146	0x9adce658	-9.136201e-23
147	0x1b88821c	2.2583394e-22
148	0x1c2e1344	5.759667e-22
149	0x9b6139ac	-1.8630199e-22
150	0x1c406d76	6.3668946e-22
151	0x9c1b0f94	-5.130533e-22
152	0x1abc89f0	7.797783e-23
153	0x9c0f513a	-4.7419714e-22
154	0x1bb53235	2.9976384e-22
155	0x9c157bda	-4.946004e-22
156	0x9b4e4170	-1.7061065e-22
157	0x9c172282	-5.000631e-22
158	0x9adf8208	-9.2440715e-23
159	0x1c4eb8cc	6.8398527e-22
160	0x9be6c4d0	-3.8177495e-22
161	0x1ba2ca16	2.6931247e-22
162	0x9bf29368	-4.01308e-22
163	0x1aa56880	6.841123e-23
164	0x1acbe870	8.4334355e-23
165	0x9b7e5388	-2.1037378e-22
166	0x1b660428	1.9026497e-22
167	0x9c1e857c	-5.245034e-22
168	0x9bdb042b	-3.6233204e-22
169	0x1c1ee207	5.256995e-22
170	0x9c23a021	-5.413914e-22
171	0x1b6c15a4	1.9528455e-22
172	0x9b6d76d4	-1.9642576e-22
173	0x9b8db996	-2.3446425e-22
174	0x1bee59c4	3.9431807e-22
175	0x9c173d7a	-5.0041166e-22
176	0x9b5fb7d0	-1.8505521e-22
177	0x9bf94663	-4.123908e-22
178	0x1c0a6d2c	4.580147e-22
179	0x1bdd4844	3.6608084e-22
180	0x1ba79354	2.772304e-22
181	0x1bf7547c	4.091732e-22
182	0x9b7a5e60	-2.071001e-22
183	0x9c1b6038	-5.140956e-22
184	0x1be9a693	3.8654263e-22
185	0x1beb4325	3.892088e-22
186	0x1b76e9f0	2.0424232e-22
187	0x9b21f420	-1.3396489e-22
188	0x9c38ea28	-6.1183133e-22
189	0x1b23edc8	1.3559875e-22
190	0x1bf5a8b3	4.064087e-22
191	0x1c01a839	4.289994e-22
192	0x1c0386ae	4.3518334e-22
193	0x9c0f7620	-4.7467404e-22
194	0x9c202084	-5.2981585e-22
195	0x1bc3443e	3.2304144e-22
196	0x1c2a3400	5.631549e-22
197	0x9c3f8eb6	-6.338105e-22
198	0x9bd1f89c	-3.473681e-22
199	0x1ab82c20	7.6171904e-23
200	0x1c3ebd7d	6.3110634e-22
201	0x1b9f152c	2.6318025e-22
202	0x1a2ae820	3.5342685e-23
203	0x9c060ab0	-4.4350694e-22
204	0x9bac43a4	-2.8498725e-22
205	0x9b98d61e	-2.528466e-22
206	0x9b39c480	-1.5366334e-22
207	0x9ba70765	-2.763261e-22
208	0x9c2cd89e	-5.7189997e-22
209	0x9c1c91b7	-5.18044e-22
210	0x1c49c100	6.675477e-22
211	0x1c313b3d	5.864095e-22
212	0x9c3b80b2	-6.2039445e-22
213	0x1b5792d8	1.7831831e-22
214	0x1b2e5ff8	1.4423952e-22
215	0x9c3d6478	-6.2664707e-22
216	0x9b6fab2e	-1.9824928e-22
217	0x1bde2dbd	3.6756377e-22
218	0x1c355721	6.000049e-22
219	0x9a3487c0	-3.7332786e-23
220	0x9bbb1e41	-3.0956106e-22
221	0x98c59e00	-5.1082846e-24
222	0x9bde34bd	-3.67609e-22
223	0x1b8d1f8a	2.3346875e-22
224	0x1b516a26	1.7322373e-22
225	0x9b10f4ec	-1.1990539e-22
226	0x9abf26e4	-7.905858e-23
227	0x18ce6700	5.3353755e-24
228	0x1bb0d7fe	2.925634e-22
229	0x1c328aca	5.907464e-22
230	0x1c472eb5	6.5903944e-22
231	0x1bdcd21e	3.6531732e-22
232	0x1bd8a3f3	3.5840152e-22
233	0x1c4b5064	6.727097e-22
234	0x9c0653b3	-4.444506e-22
235	0x1bbcb9c5	3.1222042e-22
236	0x9af5a128	-1.0158999e-22
237	0x1c1d25e5	5.199592e-22
238	0x1c0a0f9c	4.5680544e-22
239	0x9c4afb3e	-6.7160916e-22
240	0x9b86099c	-2.217465e-22
241	0x9c0fd270	-4.7586715e-22
242	0x1986c220	1.3933682e-23
243	0x1c15fb89	4.9625066e-22
244	0x1b5ba758	1.8169327e-22
245	0x9bc08308	-3.1848412e-22
246	0x1bcf14cd	3.425872e-22
247	0x9bf41093	-4.0377125e-22
248	0x1bcef265	3.4236485e-22
249	0x9c601fe4	-7.41566e-22
250	0x1c3b629c	6.200056e-22
251	0x9bf9591f	-4.1251188e-22
252	0x1bbf74a8	3.1673687e-22
253	0x19db4b80	2.2674563e-23
254	0x1c3e71fa	6.301304e-22
255	0x1c3fdb34	6.347991e-22
