models/USDCHF_model.pth (torch, 843660 bytes, 15 tensors)

lstm.weight_ih_l0 f4 [512, 12]
000000 ab 2d aa 39 96 91 bd 39 2a 2e ad 39 7e f5 ba 39
       0.00032458952 0.0003615736 0.00033031526 0.0003565959
000010 60 9f 2a 39 46 99 b3 39 8c 23 d7 39 f2 c2 93 ba
       0.00016271835 0.00034255738 0.0004103448 -0.0011273308
000020 9a c1 62 39 8e 0a f0 39 19 27 ab 38 d1 53 e2 b9
       0.00021625162 0.0004578423 8.161198e-05 -0.00043168527
000030 6e b4 40 b9 c1 ad 31 b9 52 38 00 b9 2f a4 f8 b8
       -0.00018377762 -0.00016944764 -0.00012228012 -0.00011856143
000040 ac b5 37 3a 44 fb 5b b9 ac a5 51 b9 b0 7a b5 b9
       0.0007007967 -0.00020979071 -0.00019993511 -0.0003461442
000050 78 59 6a 3a c8 b1 8f 3a 50 74 13 3a 8f 0a cf 38
       0.00089397235 0.0010963017 0.0005624937 9.872496e-05
000060 20 cc 54 39 88 e9 56 39 9c 26 8f 39 01 04 86 39
       0.00020293938 0.00020495628 0.00027303852 0.00025561455
000070 61 b1 20 3a 18 ad 44 39 ea f8 5d 39 53 ba 30 b9
       0.0006129947 0.00018756499 0.0002116893 -0.00016854079
000080 7a 21 3f 3a 0a 3e 93 3a f3 80 2e 3a 46 f0 86 39
       0.000729106 0.0011233699 0.0006656788 0.0002573749
000090 fb 95 02 39 54 b1 0b 39 09 57 25 39 34 21 20 39
       0.00012453638 0.00013322133 0.0001576805 0.00015271158
0000a0 1d 58 a6 39 de 18 e1 38 74 db f7 38 d2 43 9d b7
       0.00031727637 0.00010733468 0.00011818754 -1.874744e-05
0000b0 ad 0a 13 3a d2 43 6a 3a 20 54 27 3a 97 83 af 39
       0.0005609196 0.00089364976 0.000638308 0.00033476643
0000c0 52 a4 1c 3a 94 f1 21 3a b8 4d 25 3a d3 20 26 3a
       0.00059754134 0.00061776605 0.00063058315 0.00063372887
0000d0 06 07 ad b8 24 96 21 3a a3 47 35 3a 3b 59 03 ba
       -8.250591e-05 0.00061640353 0.0006915277 -0.000501055
0000e0 60 c6 44 b7 c2 f6 73 3a 95 ae f0 39 e0 23 75 b7
       -1.1728698e-05 0.0009306484 0.0004590644 -1.4611491e-05
0000f0 0e d1 88 b9 74 82 86 b9 1c ab 6e b9 3c 81 6f b9
       -0.000260957 -0.00025655667 -0.00022761192 -0.0002284096
000100 61 f1 dd 39 67 87 94 b9 63 e0 95 b9 40 c1 3a b9
       0.00042332246 -0.00028329642 -0.00028586676 -0.00017810334
000110 d5 3e f7 39 a4 a5 fc 39 41 8c 96 39 ad 3a 50 38
       0.00047158325 0.00048188597 0.00028714727 4.964571e-05
000120 12 41 c4 3a 8b e4 c5 3a a9 1e cd 3a 66 97 ca 3a
       0.0014973006 0.0015098018 0.0015649396 0.0015456497
000130 a7 f7 f3 39 26 d3 c1 3a f0 ce c5 3a d0 b9 ee 39
       0.00046533087 0.0014787659 0.0015091579 0.0004553334
000140 80 f7 1a 3a 42 84 b8 3a 94 cd ae 3a dd 40 69 3a
       0.0005911514 0.0014077502 0.0013336414 0.000889791
000150 5b 89 2d 3a 79 ea 39 3a f2 fa 45 3a 4e c7 46 3a
       0.0006619894 0.0007092129 0.00075523474 0.00075827993
000160 00 d5 5b b7 0f fc 2c 3a 76 6a 3c 3a 1a 0c 64 b9
       -1.310301e-05 0.0006598839 0.0007187495 -0.00021748283
000170 92 e8 68 39 8b 0b be 3a 46 2f 87 3a 65 8e ce 39
       0.00022211883 0.001449929 0.0010313771 0.00039397474
000180 83 2c 4d 3a 68 a0 4a 3a e8 79 5d 3a 6b 3c 58 3a
       0.0007826762 0.0007729591 0.00084486464 0.0008248749
000190 37 8a 29 39 05 4a 41 3a 05 8f 40 3a 5c c3 ae 39
       0.00016168585 0.00073733955 0.00073455303 0.0003333342
0001a0 2c 78 98 39 33 90 9d 3a c7 bc 99 3a e2 5d 39 3a
       0.00029081234 0.0012021124 0.0011729234 0.00070711796
0001b0 3b 83 31 3b eb 47 37 3b c0 7e 38 3b 92 cb 39 3b
       0.0027086276 0.002796645 0.002815172 0.0028350097
0001c0 a0 02 44 b9 74 1b 32 3b e4 a0 3a 3b 00 83 79 36
       -0.00018692994 0.0027177008 0.0028477246 3.7180143e-06
0001d0 20 7c 94 38 0e 70 0f 3b 54 31 06 3b e4 1e 90 3a
       7.08031e-05 0.0021886858 0.002047618 0.0010995534
0001e0 93 87 24 3a 9a 0e 28 3a 05 11 2e 3a 65 e6 30 3a
       0.00062763056 0.0006410867 0.00066401093 0.00067481986
0001f0 84 46 ca 38 ea 98 20 3a 99 26 23 3a 71 e0 b4 b8
       9.645245e-05 0.00061263016 0.0006223708 -8.624874e-05
000200 c0 a3 56 39 92 1e 5f 3a 4e 2d 48 3a 40 2a df 39
       0.00020469632 0.000851133 0.00076361455 0.00042565353
000210 91 18 3a b9 e1 da 22 b9 60 be 24 b9 91 d4 0d b9
       -0.00017747494 -0.00015531063 -0.00015711179 -0.00013525995
000220 93 0f 9a 38 e1 c3 43 b9 b2 48 33 b9 e6 7c 2e ba
       7.346193e-05 -0.0001866962 -0.00017097851 -0.00066561846
000230 59 96 03 39 9e a5 27 3a 3b 7b c3 39 c0 eb 3a 37
       0.00012549142 0.00063952233 0.00037285112 1.1141354e-05
000240 33 42 bc 38 0f 91 b4 38 0c 1d ce 38 b7 04 d8 38
       8.976869e-05 8.610088e-05 9.828256e-05 0.00010300561
000250 d0 27 24 b6 01 01 a9 38 f9 da b2 38 73 5c 38 b9
       -2.4461078e-06 8.058735e-05 8.528488e-05 -0.00017582047
000260 80 a5 f6 37 5f d6 4a 39 59 ab 29 39 3d b3 20 38
       2.9402552e-05 0.0001934408 0.00016180928 3.83139e-05
000270 b8 85 f1 39 df 68 f0 39 3c 06 f3 39 0d dc f3 39
       0.0004606673 0.00045854502 0.00046353217 0.00046512522
000280 db fc 4e b9 de fb f3 39 5d 83 01 3a b8 8c 0a b9
       -0.00019739887 0.00046536227 0.0004940534 -0.00013213127
000290 44 02 2a 38 57 57 2b 3a d1 7b 0a 3a 5a 23 9c 39
       4.053327e-05 0.0006536147 0.00052827323 0.00029780978
0002a0 42 8b 92 39 23 ae 8d 39 96 b0 90 39 bf 30 8e 39
       0.00027951045 0.00027023358 0.00027597387 0.0002712067
0002b0 be 4d 4a b9 6e 4b 95 39 33 d4 9c 39 52 f7 b3 36
       -0.00019293182 0.00028475694 0.0002991274 5.3634076e-06
0002c0 7b 28 05 b9 1a 50 66 38 ec db 1b 39 ef b5 07 39
       -0.00012698949 5.4910874e-05 0.00014863879 0.00012942379
0002d0 ea 7f 93 3a ee 47 90 3a e8 b8 94 3a f6 a1 92 3a
       0.0011253331 0.0011007765 0.001134661 0.0011187184
0002e0 40 17 43 b6 76 5b 90 3a 03 e7 8e 3a e8 55 c6 39
       -2.9070798e-06 0.0011013586 0.0010902587 0.00037829508
0002f0 cd 19 65 b9 7e 30 8b 39 b8 b3 53 3a 5c e6 32 3a
       -0.00021848753 0.00026548275 0.00080757914 0.00068244874
000300 b4 df 85 b8 7c f0 9d b7 10 eb 36 b7 50 ad b5 36
       -6.383602e-05 -1.8827843e-05 -1.0902775e-05 5.4143966e-06
000310 00 2c b6 b4 ee 41 8c b8 74 6f fd b7 dc 8e 1e ba
       -3.3932156e-07 -6.6880006e-05 -3.021185e-05 -0.00060485094
000320 68 d3 f6 38 0a 1a ed 39 be 3b 82 39 76 92 59 b9
       0.000117695716 0.00045223563 0.00024840044 -0.00020749294
000330 bb a5 11 3a ae 12 11 3a 60 c0 13 3a c1 7b 15 3a
       0.0005556007 0.00055340945 0.0005636271 0.00057023397
000340 5a ae 42 39 f4 b4 0c 3a 08 ed 0a 3a c4 d5 7c 38
       0.00018566233 0.000536754 0.00052996026 6.0280567e-05
000350 a9 b9 77 39 d1 0a 45 3a d8 55 33 3a 59 7f e1 39
       0.0002362492 0.00075165654 0.00068411 0.00043010226
000360 43 35 67 39 7a 75 6e 39 7a 0f 71 39 f9 48 73 39
       0.00022049718 0.00022741212 0.00022989316 0.0002320147
000370 6c ec a3 37 6d bf 6a 39 8e 84 7a 39 d2 bf 0b b9
       1.9541207e-05 0.0002238729 0.00023891238 -0.00013327532
000380 18 e3 bc 36 cf 2b 3e 39 47 67 04 39 30 ad 51 37
       5.629274e-06 0.00018136132 0.00012626975 1.2497694e-05
000390 41 8a 07 3a 16 67 03 3a 0f ff 0a 3a ab 0d 07 3a
       0.0005170443 0.00050126144 0.0005302289 0.0005151878
0003a0 d0 a5 59 39 32 e6 06 3a 63 0a 0b 3a 18 34 8a 38
       0.00020756503 0.0005145996 0.0005303977 6.590056e-05
0003b0 37 0a 42 39 22 90 e0 39 31 08 b1 39 47 09 4c 39
       0.00018505087 0.00042831997 0.00033766174 0.00019458412
0003c0 3a 7b ce 3a 4a 42 cf 3a 36 f8 d5 3a d8 60 d5 3a
       0.0015753277 0.0015812602 0.0016324583 0.0016279472
0003d0 2e 3c 11 b9 d0 df cb 3a a1 d0 d0 3a d8 03 8b b7
       -0.00013850696 0.0015554372 0.0015931317 -1.6571881e-05
0003e0 d8 ee b2 b8 6c c5 ed 3a 9a c7 cc 3a 18 b4 77 3a
       -8.5321895e-05 0.0018140501 0.0015623451 0.00094491383
0003f0 6c 1e b4 38 b6 4c c6 38 20 7f cf 38 a8 90 d9 38
       8.588735e-05 9.455664e-05 9.894208e-05 0.00010374311

lstm.weight_hh_l0 f4 [512, 128]
000000 45 10 22 b9 d4 92 63 b9 8c 0c 2e b9 d7 d3 28 b9
       -0.00015455585 -0.00021703105 -0.00016598607 -0.00016100645
000010 59 64 85 39 84 f9 f8 b8 4c dc 8f b9 3c 0f 2c b9
       0.00025442502 -0.000118720374 -0.0002743922 -0.00016408873
000020 87 fd 31 39 8a f2 c2 39 33 97 46 b9 a8 c9 57 b9
       0.00016974482 0.0003718327 -0.00018939078 -0.0002057912
000030 81 34 65 b8 e8 e0 0b 39 f2 9f 89 38 a6 47 0d 39
       -5.4646753e-05 0.00013339857 6.562461e-05 0.00013473499
000040 df a5 8d b9 5e f6 60 b9 25 9a 49 38 09 d6 c7 b8
       -0.000270172 -0.00021454084 4.8065693e-05 -9.5289266e-05
000050 2e b7 92 b9 5c 15 f3 b8 e6 05 a1 39 b8 84 36 39
       -0.0002798377 -0.000115911214 0.00030712708 0.00017406314
000060 2c 38 46 39 24 8e a3 39 54 6c 13 39 e6 a7 5f b9
       0.00018903677 0.00031195686 0.00014059368 -0.00021329484
000070 e8 95 88 b9 e8 99 54 b9 fe 64 1b 39 ea c7 ff 38
       -0.0002605163 -0.0002027523 0.00014819574 0.000121965844
000080 c1 dd fc 38 2e 37 92 b9 38 5e 7c 39 87 07 67 b9
       0.00012057601 -0.00027888402 0.00024067692 -0.00022032681
000090 5f e1 27 b9 88 54 0a b7 66 70 81 39 c0 54 97 b9
       -0.00016010318 -8.245122e-06 0.0002468854 -0.00028864108
0000a0 5d 35 01 39 e3 b2 f5 38 66 c7 e5 38 4f 84 b0 39
       0.00012322278 0.000117158306 0.00010956712 0.00033667914
0000b0 5d e6 76 b9 1f 98 9a 39 1d 8e ae b9 42 28 9e 38
       -0.00023546205 0.00029486508 -0.0003329375 7.541526e-05
0000c0 64 c6 9a 39 f1 d0 76 39 aa b5 1c 38 eb 15 88 b9
       0.00029520981 0.00023538225 3.7362486e-05 -0.00025956272
0000d0 a0 68 22 b9 c6 f9 30 39 6a ea 97 38 87 13 a7 b8
       -0.000154885 0.00016877716 7.243904e-05 -7.966818e-05
0000e0 28 a5 78 39 d4 df 6c 37 e7 1e 6d 39 34 f7 10 b9
       0.00023712649 1.411881e-05 0.00022613593 -0.00013825
0000f0 62 97 ae 39 ee 18 23 38 fc 19 0f 39 64 0e d5 b7
       0.00033300655 3.8885446e-05 0.00013647223 -2.539828e-05
000100 40 3c 22 b9 40 94 b2 39 3c 0f 36 39 63 2e 90 38
       -0.00015471969 0.0003406126 0.00017362548 6.875095e-05
000110 13 85 5a 39 47 72 1d b9 1a a3 70 39 72 2b 8a b9
       0.00020839674 -0.00015015258 0.00022948944 -0.0002635378
000120 77 db 39 39 22 5f 2c b9 1d af a0 39 2f 61 10 b9
       0.00017724732 -0.00016438638 0.00030648048 -0.00013769114
000130 e6 81 47 39 be c6 87 39 50 41 5d 39 ae 14 20 b9
       0.0001902651 0.0002589728 0.00021100533 -0.00015266493
000140 7c f8 97 b8 61 df c2 38 5f fd 39 39 9b f0 66 b9
       -7.246525e-05 9.2922484e-05 0.00017737363 -0.00022024142
000150 ee 46 94 b9 e8 88 75 38 1d 32 48 39 5c 46 dc b8
       -0.00028281607 5.8540056e-05 0.00019092155 -0.00010503523
000160 8a 34 99 39 2c 6a 96 b9 40 4c 9d b9 d4 77 0e b9
       0.0002922158 -0.00028689334 -0.00030002184 -0.00013586815
000170 eb 80 1a 39 24 43 8f 39 ad 6f a2 b9 30 78 33 b9
       0.0001473461 0.0002732511 -0.00030982253 -0.00017115544
000180 1a e8 83 b9 b1 a6 68 b9 77 4c 23 b9 86 52 98 39
       -0.00025159196 -0.00022187342 -0.00015573377 0.00029053184
000190 44 63 97 39 c0 3f 27 b9 72 cd 2f b9 63 d4 73 39
       0.00028874923 -0.0001595011 -0.00016765835 0.00023253406
0001a0 7a 4d 99 b9 f6 1d 8b b9 28 34 49 b9 0f 8d 46 39
       -0.0002924016 -0.0002653447 -0.00019188283 0.000189353
0001b0 b5 90 d7 b9 4c 1a fe b8 3a fd a7 39 18 80 10 38
       -0.0004111581 -0.00012116562 0.0003204139 3.4451572e-05
0001c0 d0 cc 51 b9 e0 ef 21 b8 62 b3 55 b9 27 9a 01 39
       -0.00020008092 -3.8608792e-05 -0.00020380088 0.00012359825
0001d0 22 0f ec 38 ee e3 86 b9 41 96 8c b9 56 3b 91 39
       0.00011256176 -0.00025728293 -0.0002681483 0.00027700764
0001e0 84 83 99 b9 70 29 b6 b9 74 87 e9 b7 a2 3e 83 39
       -0.0002928042 -0.00034744618 -2.783884e-05 0.00025032932
0001f0 79 bc 39 b9 e5 12 20 39 3f a5 86 b9 fa e1 98 b9
       -0.00017713186 0.00015265828 -0.0002568159 -0.00029160065
000200 d0 4a d2 b7 d2 17 47 38 66 97 6a 38 30 f3 0c b7
       -2.5068788e-05 4.746748e-05 5.593095e-05 -8.401272e-06
000210 70 e8 f5 36 df c2 55 38 a7 1f 78 b8 35 ee 86 b8
       7.3286283e-06 5.0964645e-05 -5.9157286e-05 -6.4339874e-05
000220 9c 42 e6 37 19 05 91 38 54 2d 40 b7 80 eb d6 b4
       2.7449154e-05 6.915088e-05 -1.1454646e-05 -4.0031955e-07
000230 38 9b c3 b6 f8 64 d7 38 b1 13 79 38 79 72 c4 b8
       -5.8295227e-06 0.00010270806 5.9384565e-05 -9.3673305e-05
000240 b7 3e 6a b8 53 e5 01 b8 1d 22 0d 38 a8 3e e8 37
       -5.5848355e-05 -3.096957e-05 3.364879e-05 2.7685732e-05
000250 4d d3 16 b8 43 66 b4 b8 2b 16 61 38 18 d9 8e 37
       -3.5959576e-05 -8.6021166e-05 5.3664826e-05 1.7028811e-05
000260 d6 a2 fa 37 24 49 15 38 20 40 69 37 29 94 f4 b7
       2.9878149e-05 3.5592486e-05 1.39028125e-05 -2.915606e-05
000270 21 3f b4 b7 d0 38 ac b7 75 a5 d9 37 70 a4 9b b5
       -2.1487069e-05 -2.0530453e-05 2.5945463e-05 -1.1596258e-06
000280 a4 7c 13 b7 a9 64 8d b8 50 e7 80 b7 18 c6 a9 b7
       -8.790903e-06 -6.742153e-05 -1.5366502e-05 -2.0238615e-05
000290 a0 0c cc b7 0d f7 09 37 8c 67 bd 37 e4 f7 2c b8
       -2.4324574e-05 8.223357e-06 2.2578773e-05 -4.123886e-05
0002a0 68 87 64 b7 00 7a a4 35 bc 17 e5 37 23 1c a4 38
       -1.3621386e-05 1.2254459e-06 2.730998e-05 7.82537e-05
0002b0 c8 48 80 b7 64 f3 d1 37 68 c1 22 b8 c9 71 a2 37
       -1.529268e-05 2.502808e-05 -3.8803933e-05 1.936489e-05
0002c0 64 c2 84 37 96 93 e1 37 ad b3 4d 38 0f 43 6c b8
       1.5826146e-05 2.6890815e-05 4.9043145e-05 -5.6329238e-05
0002d0 28 f0 85 b6 25 b3 0e 39 88 69 76 b6 80 8f b0 35
       -3.9916667e-06 0.00013608912 -3.6718284e-06 1.3154786e-06
0002e0 50 46 b9 37 9b 32 3c 38 6e 9c e3 38 28 e2 96 37
       2.208646e-05 4.4869823e-05 0.00010853341 1.7986706e-05
0002f0 36 93 2c 38 38 3b 47 38 80 df 08 37 10 2d 74 b6
       4.1145096e-05 4.750045e-05 8.158269e-06 -3.6385063e-06
000300 a0 cd 5a 36 2a 76 2b 38 24 2c a0 37 08 69 23 37
       3.260422e-06 4.0879626e-05 1.909404e-05 9.740012e-06
000310 7a e6 3b 38 ca 71 40 b8 58 31 99 b6 e4 d1 29 b8
       4.4798922e-05 -4.588234e-05 -4.5654997e-06 -4.0488216e-05
000320 0f a5 2a 38 60 bc 35 b8 08 75 6b 38 24 1f a0 b7
       4.068488e-05 -4.33292e-05 5.613736e-05 -1.9087987e-05
000330 7e ce a2 37 a8 f4 3d b7 36 06 bf 37 d4 0e 79 b7
       1.940806e-05 -1.1322241e-05 2.2771866e-05 -1.4845009e-05
000340 20 f6 3a 34 94 2b f1 37 de d0 3d 38 75 80 2e b9
       1.741214e-07 2.8749731e-05 4.5255634e-05 -0.00016641787
000350 ac 96 4f b8 64 45 da 38 d0 b3 43 b7 9a 08 41 b7
       -4.949297e-05 0.00010407975 -1.1664772e-05 -1.1505699e-05
000360 6d ec 25 38 5c 52 56 b8 9c 0d ec b7 b8 a3 0d b7
       3.9559254e-05 -5.109828e-05 -2.813973e-05 -8.442374e-06
000370 10 64 28 37 97 22 0c 38 5d 6f 87 b8 fa 9e df 37
       1.0036878e-05 3.3410815e-05 -6.458045e-05 2.66577e-05
000380 a8 da ec b6 a0 f2 1c b8 b8 4c b1 37 04 b3 b2 37
       -7.058803e-06 -3.741926e-05 2.113577e-05 2.1302614e-05
000390 60 a4 de 37 c9 21 11 b8 98 a1 3d b7 38 b9 7e 37
       2.6541005e-05 -3.460216e-05 -1.1302902e-05 1.5182704e-05
0003a0 8c d0 4a b8 30 2e 92 b7 28 90 88 b7 a0 0b 9d 36
       -4.8354777e-05 -1.7426064e-05 -1.6279591e-05 4.680318e-06
0003b0 00 5e b6 b7 40 11 1d 36 54 84 e1 37 54 15 26 37
       -2.1739863e-05 2.3404864e-06 2.688371e-05 9.899337e-06
0003c0 ad 26 92 b8 20 7e 4c b6 e8 ea a8 b7 c0 7c 3f 37
       -6.9690264e-05 -3.0471783e-06 -2.0136547e-05 1.1413533e-05
0003d0 00 e2 07 34 78 2a 5e b7 f8 3e 28 b8 38 d6 88 b7
       1.2655073e-07 -1.3242119e-05 -4.0112966e-05 -1.6312217e-05
0003e0 29 bf 10 b8 10 ac 91 36 6c bc 38 b8 e4 d0 07 38
       -3.4510307e-05 4.3413675e-06 -4.40445e-05 3.2381053e-05
0003f0 60 f4 5c 36 78 0a c9 38 00 8d fa b6 10 07 ad b8
       3.29248e-06 9.586377e-05 -7.466995e-06 -8.250598e-05

lstm.bias_ih_l0 f4 [512]
000000 80 61 2a 39 0e 50 2f 39 19 48 14 3a 98 7a a7 39
       0.00016248785 0.00016719123 0.00056564953 0.00031944062
000010 75 f0 2c 3a 00 a5 f4 b7 7e 20 ef 3a 74 87 49 3a
       0.000659711 -2.91639e-05 0.0018243936 0.00076877256
000020 c9 05 bf 3a 5c 88 22 3b b4 f7 41 3a 79 87 94 b9
       0.0014573868 0.0024800515 0.00073992764 -0.00028329695
000030 58 fa 4e 39 ba f7 04 3a 65 32 d5 39 71 08 d3 3a
       0.00019738951 0.00050723145 0.00040664073 0.0016100538
000040 3c 47 25 b8 c4 fe 4a 3a 9f 67 8a 39 3b 7b 60 3a
       -3.9405408e-05 0.00077436515 0.00026398615 0.00085632846
000050 92 72 03 3b e2 a6 1b 39 c0 d1 7f b9 b8 2e 0f 3a
       0.0020057303 0.0001484412 -0.00024396833 0.0005461979
000060 2f 6a 54 3a 1a 7c 9b 3a 8c e2 21 3a 34 3c 6b 3a
       0.0008102981 0.0011862547 0.0006175421 0.00089735095
000070 f6 c1 93 39 d0 3f 50 3a 29 c0 6d 39 c3 dc a6 39
       0.00028182537 0.0007944079 0.00022673667 0.00031826468
000080 34 0e 17 3a 15 ba 9a 3a 42 d5 ad 38 15 51 53 39
       0.00057623093 0.0011804724 8.289005e-05 0.00020152733
000090 ce d5 71 39 f4 20 ce 39 ff ac 54 3a 53 74 b1 3a
       0.000230632 0.00039315934 0.00081129366 0.0013538696
0000a0 3b a2 27 3a 3d fa 2d 3a e7 6f 2f 39 f8 2e 78 37
       0.00063947187 0.00066367147 0.00016730987 1.4792888e-05
0000b0 be 28 ec 39 10 f6 4c ba 6e 2f 01 39 9f 33 06 3a
       0.00045043783 -0.00078186486 0.00012320068 0.00051193865
0000c0 78 93 de 3a 1e 17 88 b9 74 31 bb 38 df 76 83 3a
       0.0016981205 -0.00025957165 8.926066e-05 0.0010029933
0000d0 ff db 4d 39 b5 f0 8c 3a b4 f1 5e 39 e9 77 2a 3a
       0.00019632278 0.0010752889 0.00021261611 0.00065028534
0000e0 1e 09 d6 38 a9 2a fd 38 ce ff 74 3a 0d 3d d6 b9
       0.000102060134 0.00012071926 0.0009345979 -0.00040862747
0000f0 fd bb 7e 3a 1b 07 24 39 53 cc 86 39 23 da bd 39
       0.00097173435 0.00015642906 0.00025710705 0.00036211414
000100 8c 7a cd 39 f5 2f 93 39 08 c0 99 3a 8a cd cc 39
       0.00039191952 0.00028073756 0.0011730203 0.0003906305
000110 66 a5 d2 39 36 0e 99 39 c5 48 fe 3a e0 91 8e 36
       0.00040177553 0.00029193022 0.0019400349 4.248912e-06
000120 38 3a b7 b9 7b 3d e5 39 b4 b6 94 3a 78 6f ea 39
       -0.00034947856 0.0004372409 0.0011345954 0.0004471501
000130 d6 57 66 3a 16 3d 38 ba 6b e2 98 39 23 6c 23 3a
       0.0008786892 -0.00070281455 0.00029160394 0.000623407
000140 71 4b 95 39 cf f7 12 3a fa c1 3a 3a af c3 03 b9
       0.00028475703 0.00056063844 0.00071242417 -0.00012566031
000150 97 8f a7 b9 bb be 31 39 8f 6a 38 3a 14 aa 32 3a
       -0.00031959705 0.00016951088 0.00070349214 0.0006815505
000160 e1 54 cd 3a 8a ff ff 39 72 6d b4 3a d9 58 3e 3a
       0.0015665555 0.00048827782 0.0013765527 0.0007261164
000170 ff e0 a1 39 c4 cd 7e ba 59 fc 70 3a 98 61 45 39
       0.00030875948 -0.00097199925 0.0009192876 0.0001882374
000180 e5 b3 b2 ba 3c 29 14 39 da 98 0d 3a d6 ba c6 3a
       -0.0013633935 0.00014129741 0.00054015 0.0015161883
000190 10 0c 37 3a 04 d1 9f 39 4b ad 23 39 01 7b 2f 39
       0.00069826934 0.00030482572 0.00015609448 0.00016735123
0001a0 e6 49 04 3a 41 2b 5d 3a 7e f8 58 3a f4 c6 75 3a
       0.0005046412 0.00084369263 0.00082767743 0.00093756546
0001b0 b7 ba ec b9 32 f5 27 39 04 72 65 3a 89 dc e7 38
       -0.0004515254 0.00016017703 0.00087526464 0.00011056016
0001c0 83 e7 13 3a 1e fc 9c 39 66 15 e3 b8 08 67 85 b9
       0.0005642103 0.0002994248 -0.00010828189 -0.000254445
0001d0 03 46 f8 39 9a ac 33 39 68 4d b4 3a d6 40 55 3a
       0.0004735441 0.0001713507 0.0013755979 0.00081349665
0001e0 5e d9 8e b6 1f db b8 3a 0c c9 47 38 1a 9a af 3a
       -4.2572347e-06 0.0014103389 4.7632537e-05 0.0013397366
0001f0 50 83 a5 38 fa b6 25 3a cd 2e 6d 3a 49 5e 34 b9
       7.892272e-05 0.0006321516 0.00090478064 -0.00017201262
000200 4b 80 82 38 80 1e 59 37 66 17 d8 39 64 42 62 39
       6.2227795e-05 1.2941309e-05 0.00041216164 0.00021577772
000210 ab 1e 11 3a 89 3c 17 b9 08 12 dd 3a e7 67 08 3a
       0.0005535881 -0.00014423033 0.0016866336 0.0005203471
000220 f6 f5 b1 3a 22 f3 0f 3b 0a 09 25 3a 9a ee c7 b9
       0.001357733 0.0021964987 0.00062955974 -0.0003813401
000230 c3 a7 39 39 88 40 fd 39 d9 2e dc 39 db 64 d4 3a
       0.00017705471 0.00048304 0.00041996574 0.0016204374
000240 04 a6 62 b9 ae 59 3d 3a f3 65 6e 39 55 04 5e 3a
       -0.00021614885 0.0007223141 0.00022735428 0.00084692735
000250 a6 49 fa 3a 71 9f e6 38 47 d1 db b9 19 6e ee 39
       0.0019095435 0.00010996953 -0.0004192686 0.00045476927
000260 d1 ec 41 3a e1 67 79 3a 05 9f 11 3a db c9 55 3a
       0.0007397654 0.00095140754 0.0005555007 0.0008155384
000270 bc 2a cc 38 71 47 44 3a 8e 09 21 39 9b 77 92 39
       9.735438e-05 0.0007487452 0.00015357716 0.00027936403
000280 83 c3 0e 3a c2 42 81 3a 78 a8 e0 b8 f0 6c c0 38
       0.00054460036 0.0009861814 -0.00010712532 9.1755646e-05
000290 83 6b 84 38 8a b6 c5 39 a6 e9 3a 3a e0 fa 9b 3a
       6.314276e-05 0.0003771077 0.0007130153 0.0011900328
0002a0 e1 2c 05 3a 69 eb 19 3a d0 b3 c5 36 70 69 40 b9
       0.0005080235 0.00058715657 5.8919904e-06 -0.00018349825
0002b0 58 00 c3 39 8e cd 7b ba 66 ef e8 b8 19 77 02 3a
       0.00037193554 -0.000960552 -0.000111072135 0.00049768534
0002c0 24 cf bf 3a a1 65 b7 b9 55 68 a4 38 00 5d 4b 3a
       0.0014633876 -0.000349802 7.839563e-05 0.00077576935
0002d0 1c 66 e5 38 27 50 76 3a 01 47 5c 39 aa 9f 27 3a
       0.0001093859 0.0009396099 0.00021007286 0.0006394336
0002e0 be 5f 04 b9 e3 f3 e0 38 9a 4c 4a 3a b4 f6 25 ba
       -0.00012624168 0.0001072658 0.0007717103 -0.0006331012
0002f0 5a 65 49 3a 55 3f 10 39 fd 11 60 39 1e 3b c6 39
       0.0007682644 0.00013756503 0.00021369006 0.0003780955
000300 c4 cb 99 39 68 24 34 38 ac e8 8c 3a e9 23 b6 39
       0.0002933425 4.294925e-05 0.0010750494 0.000347405
000310 5a 04 93 39 ed 8a db 38 9d dd f8 3a 38 56 f2 b8
       0.00028041267 0.00010468611 0.0018986944 -0.00011555519
000320 4f 06 f5 b9 84 fc ac 39 b6 d4 73 3a 5d 25 65 39
       -0.00046734742 0.00032994535 0.0009301411 0.00021853061
000330 02 49 4c 3a 6e 45 70 ba 6c ce 25 39 39 02 1a 3a
       0.00077928614 -0.0009165619 0.00015812524 0.0005874965
000340 f7 5a 93 39 c5 db 02 3a 94 76 2b 3a d7 5a 40 b9
       0.000281058 0.00049918547 0.0006540802 -0.00018344387
000350 97 9b f4 b9 96 56 e2 38 85 f1 10 3a 23 16 2a 3a
       -0.0004665523 0.00010792648 0.0005529153 0.0006488284
000360 13 44 b6 3a 18 c8 9a 39 58 e2 9c 3a 3b eb 27 3a
       0.0013905786 0.0002952225 0.0011969311 0.00064055965
000370 a4 07 67 39 35 a8 97 ba c2 39 48 3a 53 f2 ef 38
       0.00022032723 -0.0011570515 0.0007638001 0.000114415445
000380 b4 79 c3 ba 7a 12 3c 38 4b 85 10 3a eb 2e aa 3a
       -0.001491359 4.48399e-05 0.0005513026 0.0012983953
000390 e0 85 06 3a 9b 92 41 39 9c c3 ff 38 b4 ab f8 37
       0.0005131643 0.00018460529 0.000121957826 2.964386e-05
0003a0 5e 54 9b 39 f1 b0 3b 3a 65 b8 37 3a a5 66 55 3a
       0.00029626762 0.000715985 0.0007008373 0.00081406004
0003b0 b2 11 41 ba db 5c 11 39 e4 14 27 3a 74 4b 9b 38
       -0.00073650025 0.00013862869 0.00063736574 7.40503e-05
0003c0 5c fb ef 39 aa b6 8b 39 d4 cf a0 b9 1c a9 e1 b9
       0.0004577291 0.0002664824 -0.00030672422 -0.0004304134
0003d0 ce dc e2 39 74 17 bd 38 26 83 9f 3a b4 5f 32 3a
       0.0004327059 9.016591e-05 0.0012169823 0.0006804422
0003e0 d4 f0 5e b9 d2 aa a2 3a 7e a6 13 38 d3 db 9d 3a
       -0.00021261285 0.0012410528 3.520259e-05 0.0012043662
0003f0 a0 2b 98 36 ab b3 16 3a 14 9c 3f 3a 9c d7 ac b9
       4.5350316e-06 0.00057488185 0.0007309329 -0.00032967038

lstm.bias_hh_l0 f4 [512]
000000 80 61 2a 39 0e 50 2f 39 19 48 14 3a 98 7a a7 39
       0.00016248785 0.00016719123 0.00056564953 0.00031944062
000010 75 f0 2c 3a 00 a5 f4 b7 7e 20 ef 3a 74 87 49 3a
       0.000659711 -2.91639e-05 0.0018243936 0.00076877256
000020 c9 05 bf 3a 5c 88 22 3b b4 f7 41 3a 78 87 94 b9
       0.0014573868 0.0024800515 0.00073992764 -0.00028329692
000030 58 fa 4e 39 ba f7 04 3a 67 32 d5 39 71 08 d3 3a
       0.00019738951 0.00050723145 0.0004066408 0.0016100538
000040 6c 47 25 b8 c6 fe 4a 3a 9f 67 8a 39 3b 7b 60 3a
       -3.9405582e-05 0.00077436527 0.00026398615 0.00085632846
000050 92 72 03 3b e5 a6 1b 39 c0 d1 7f b9 b8 2e 0f 3a
       0.0020057303 0.00014844125 -0.00024396833 0.0005461979
000060 2f 6a 54 3a 1a 7c 9b 3a 8c e2 21 3a 34 3c 6b 3a
       0.0008102981 0.0011862547 0.0006175421 0.00089735095
000070 f6 c1 93 39 d0 3f 50 3a 36 c0 6d 39 c3 dc a6 39
       0.00028182537 0.0007944079 0.00022673685 0.00031826468
000080 36 0e 17 3a 15 ba 9a 3a 42 d5 ad 38 15 51 53 39
       0.00057623105 0.0011804724 8.289005e-05 0.00020152733
000090 ce d5 71 39 f4 20 ce 39 ff ac 54 3a 53 74 b1 3a
       0.000230632 0.00039315934 0.00081129366 0.0013538696
0000a0 3b a2 27 3a 3d fa 2d 3a d4 6f 2f 39 f8 2e 78 37
       0.00063947187 0.00066367147 0.0001673096 1.4792888e-05
0000b0 be 28 ec 39 10 f6 4c ba 6e 2f 01 39 a1 33 06 3a
       0.00045043783 -0.00078186486 0.00012320068 0.00051193876
0000c0 78 93 de 3a 1e 17 88 b9 74 31 bb 38 df 76 83 3a
       0.0016981205 -0.00025957165 8.926066e-05 0.0010029933
0000d0 ff db 4d 39 b5 f0 8c 3a b5 f1 5e 39 e9 77 2a 3a
       0.00019632278 0.0010752889 0.00021261613 0.00065028534
0000e0 1e 09 d6 38 a9 2a fd 38 ce ff 74 3a 0d 3d d6 b9
       0.000102060134 0.00012071926 0.0009345979 -0.00040862747
0000f0 fd bb 7e 3a 19 07 24 39 52 cc 86 39 23 da bd 39
       0.00097173435 0.00015642903 0.00025710702 0.00036211414
000100 8c 7a cd 39 f5 2f 93 39 08 c0 99 3a 8a cd cc 39
       0.00039191952 0.00028073756 0.0011730203 0.0003906305
000110 66 a5 d2 39 36 0e 99 39 c5 48 fe 3a e0 91 8e 36
       0.00040177553 0.00029193022 0.0019400349 4.248912e-06
000120 38 3a b7 b9 83 3d e5 39 b4 b6 94 3a 78 6f ea 39
       -0.00034947856 0.00043724113 0.0011345954 0.0004471501
000130 d6 57 66 3a 16 3d 38 ba 6b e2 98 39 23 6c 23 3a
       0.0008786892 -0.00070281455 0.00029160394 0.000623407
000140 71 4b 95 39 cf f7 12 3a fc c1 3a 3a af c3 03 b9
       0.00028475703 0.00056063844 0.0007124243 -0.00012566031
000150 97 8f a7 b9 28 bf 31 39 8f 6a 38 3a 14 aa 32 3a
       -0.00031959705 0.00016951247 0.00070349214 0.0006815505
000160 e1 54 cd 3a 8a ff ff 39 72 6d b4 3a d9 58 3e 3a
       0.0015665555 0.00048827782 0.0013765527 0.0007261164
000170 fd e0 a1 39 c4 cd 7e ba 5b fc 70 3a 98 61 45 39
       0.00030875942 -0.00097199925 0.00091928773 0.0001882374
000180 e5 b3 b2 ba 3c 29 14 39 da 98 0d 3a d6 ba c6 3a
       -0.0013633935 0.00014129741 0.00054015 0.0015161883
000190 10 0c 37 3a 04 d1 9f 39 4b ad 23 39 01 7b 2f 39
       0.00069826934 0.00030482572 0.00015609448 0.00016735123
0001a0 e6 49 04 3a 41 2b 5d 3a 7e f8 58 3a f4 c6 75 3a
       0.0005046412 0.00084369263 0.00082767743 0.00093756546
0001b0 b7 ba ec b9 32 f5 27 39 04 72 65 3a 89 dc e7 38
       -0.0004515254 0.00016017703 0.00087526464 0.00011056016
0001c0 83 e7 13 3a 1e fc 9c 39 66 15 e3 b8 08 67 85 b9
       0.0005642103 0.0002994248 -0.00010828189 -0.000254445
0001d0 03 46 f8 39 9a ac 33 39 68 4d b4 3a d6 40 55 3a
       0.0004735441 0.0001713507 0.0013755979 0.00081349665
0001e0 5e d9 8e b6 1f db b8 3a 10 c9 47 38 1a 9a af 3a
       -4.2572347e-06 0.0014103389 4.763255e-05 0.0013397366
0001f0 50 83 a5 38 fa b6 25 3a cd 2e 6d 3a 49 5e 34 b9
       7.892272e-05 0.0006321516 0.00090478064 -0.00017201262
000200 4b 80 82 38 80 1e 59 37 66 17 d8 39 5d 42 62 39
       6.2227795e-05 1.2941309e-05 0.00041216164 0.00021577762
000210 ab 1e 11 3a 89 3c 17 b9 06 12 dd 3a e7 67 08 3a
       0.0005535881 -0.00014423033 0.0016866333 0.0005203471
000220 f6 f5 b1 3a 23 f3 0f 3b 0a 09 25 3a 9a ee c7 b9
       0.001357733 0.002196499 0.00062955974 -0.0003813401
000230 c3 a7 39 39 85 40 fd 39 d6 2e dc 39 de 64 d4 3a
       0.00017705471 0.0004830399 0.00041996565 0.0016204377
000240 0e a6 62 b9 ae 59 3d 3a f3 65 6e 39 55 04 5e 3a
       -0.000216149 0.0007223141 0.00022735428 0.00084692735
000250 a6 49 fa 3a 71 9f e6 38 5d d1 db b9 19 6e ee 39
       0.0019095435 0.00010996953 -0.00041926923 0.00045476927
000260 d1 ec 41 3a e1 67 79 3a 06 9f 11 3a db c9 55 3a
       0.0007397654 0.00095140754 0.00055550074 0.0008155384
000270 bc 2a cc 38 71 47 44 3a 8b 09 21 39 9b 77 92 39
       9.735438e-05 0.0007487452 0.00015357712 0.00027936403
000280 84 c3 0e 3a c2 42 81 3a 78 a8 e0 b8 f0 6c c0 38
       0.0005446004 0.0009861814 -0.00010712532 9.1755646e-05
000290 83 6b 84 38 8a b6 c5 39 a6 e9 3a 3a e0 fa 9b 3a
       6.314276e-05 0.0003771077 0.0007130153 0.0011900328
0002a0 e1 2c 05 3a 69 eb 19 3a d0 b3 c5 36 70 69 40 b9
       0.0005080235 0.00058715657 5.8919904e-06 -0.00018349825
0002b0 58 00 c3 39 8e cd 7b ba 66 ef e8 b8 19 77 02 3a
       0.00037193554 -0.000960552 -0.000111072135 0.00049768534
0002c0 24 cf bf 3a a1 65 b7 b9 55 68 a4 38 00 5d 4b 3a
       0.0014633876 -0.000349802 7.839563e-05 0.00077576935
0002d0 1c 66 e5 38 28 50 76 3a 01 47 5c 39 aa 9f 27 3a
       0.0001093859 0.00093960995 0.00021007286 0.0006394336
0002e0 be 5f 04 b9 e3 f3 e0 38 9a 4c 4a 3a b4 f6 25 ba
       -0.00012624168 0.0001072658 0.0007717103 -0.0006331012
0002f0 5a 65 49 3a 58 3f 10 39 fd 11 60 39 1e 3b c6 39
       0.0007682644 0.00013756508 0.00021369006 0.0003780955
000300 c4 cb 99 39 68 24 34 38 ac e8 8c 3a e9 23 b6 39
       0.0002933425 4.294925e-05 0.0010750494 0.000347405
000310 5a 04 93 39 ed 8a db 38 9c dd f8 3a 38 56 f2 b8
       0.00028041267 0.00010468611 0.0018986943 -0.00011555519
000320 4f 06 f5 b9 79 fc ac 39 b2 d4 73 3a 5d 25 65 39
       -0.00046734742 0.00032994503 0.00093014084 0.00021853061
000330 02 49 4c 3a 6e 45 70 ba 72 ce 25 39 39 02 1a 3a
       0.00077928614 -0.0009165619 0.00015812533 0.0005874965
000340 f7 5a 93 39 c5 db 02 3a 94 76 2b 3a d7 5a 40 b9
       0.000281058 0.00049918547 0.0006540802 -0.00018344387
000350 97 9b f4 b9 96 56 e2 38 85 f1 10 3a 23 16 2a 3a
       -0.0004665523 0.00010792648 0.0005529153 0.0006488284
000360 13 44 b6 3a 18 c8 9a 39 58 e2 9c 3a 3b eb 27 3a
       0.0013905786 0.0002952225 0.0011969311 0.00064055965
000370 a6 07 67 39 35 a8 97 ba bd 39 48 3a 53 f2 ef 38
       0.00022032726 -0.0011570515 0.0007637998 0.000114415445
000380 b4 79 c3 ba 8b 12 3c 38 4b 85 10 3a ef 2e aa 3a
       -0.001491359 4.4839962e-05 0.0005513026 0.0012983958
000390 e0 85 06 3a 9b 92 41 39 9c c3 ff 38 b4 ab f8 37
       0.0005131643 0.00018460529 0.000121957826 2.964386e-05
0003a0 5e 54 9b 39 f0 b0 3b 3a 68 b8 37 3a a5 66 55 3a
       0.00029626762 0.00071598496 0.00070083747 0.00081406004
0003b0 b2 11 41 ba db 5c 11 39 e4 14 27 3a 74 4b 9b 38
       -0.00073650025 0.00013862869 0.00063736574 7.40503e-05
0003c0 5c fb ef 39 aa b6 8b 39 d4 cf a0 b9 1c a9 e1 b9
       0.0004577291 0.0002664824 -0.00030672422 -0.0004304134
0003d0 ce dc e2 39 74 17 bd 38 26 83 9f 3a b4 5f 32 3a
       0.0004327059 9.016591e-05 0.0012169823 0.0006804422
0003e0 d4 f0 5e b9 d2 aa a2 3a 66 a6 13 38 d2 db 9d 3a
       -0.00021261285 0.0012410528 3.52025e-05 0.0012043661
0003f0 60 2a 98 36 ab b3 16 3a 14 9c 3f 3a 9c d7 ac b9
       4.534886e-06 0.00057488185 0.0007309329 -0.00032967038

lstm.weight_ih_l1 f4 [512, 128]
000000 e9 75 57 25 24 72 9c a5 8b 2f 4f a5 73 c6 56 a5
       1.8688227e-16 -2.713903e-16 -1.7970496e-16 -1.8628778e-16
000010 0c 65 68 a5 ac 1f 86 a4 60 98 a0 24 c4 f3 47 25
       -2.0157028e-16 -5.816689e-17 6.964707e-17 1.734309e-16
000020 43 ba 56 25 71 33 55 a5 c0 16 de 24 1c 19 3c a5
       1.8624649e-16 -1.8492234e-16 9.631569e-17 -1.6314908e-16
000030 dc 77 83 24 72 fc fb a4 41 7b 0b a5 d0 b3 2d a4
       5.7015244e-17 -1.0928156e-16 -1.2098088e-16 -3.7665702e-17
000040 00 bf e0 a1 26 c4 4e a5 83 a5 c2 a4 04 bd 37 a5
       -1.5229388e-18 -1.793411e-16 -8.4414476e-17 -1.5936761e-16
000050 09 f2 b9 a4 a6 9c 8c 25 66 9e 3b 25 47 a6 85 a5
       -8.0640984e-17 2.4392278e-16 1.6273332e-16 -2.3184496e-16
000060 31 1a b9 a4 3f 7c 81 a5 fe 4d 77 25 1d 44 54 a5
       -8.027533e-17 -2.2462125e-16 2.145026e-16 -1.8411147e-16
000070 22 1a 55 25 7c 75 7f a4 3e 08 3e 25 48 ad 3e 25
       1.8483659e-16 -5.5393824e-17 1.6482666e-16 1.6538583e-16
000080 06 23 85 25 d0 72 85 24 7a 6c 6e a5 8c 78 32 25
       2.3095555e-16 5.7874056e-17 -2.0679963e-16 1.5479882e-16
000090 a6 55 61 25 ee 81 41 a5 4e 93 4b 25 24 3e a4 24
       1.9544658e-16 -1.6784103e-16 1.7657352e-16 7.122893e-17
0000a0 82 44 30 a5 42 30 0e 25 ce ab 53 a5 4a ef 4b 25
       -1.5288778e-16 1.2332887e-16 -1.8359542e-16 1.7688518e-16
0000b0 e4 f9 7f 25 60 26 10 23 9b ce 63 a5 c3 54 2f a5
       2.220239e-16 7.814382e-18 -1.9759112e-16 -1.5207549e-16
0000c0 00 b6 23 23 d6 eb 0c a5 b5 21 8b a5 94 cd 6d a5
       8.874788e-18 -1.2222969e-16 -2.4135497e-16 -2.0626126e-16
0000d0 a2 df 0b a5 64 0c ea 24 b6 87 ea a4 82 2a 15 25
       -1.2132098e-16 1.01502314e-16 -1.01711227e-16 1.2938092e-16
0000e0 ce 66 34 25 8e 9f c2 24 20 e9 43 a4 ac 76 bb a4
       1.5647343e-16 8.4404385e-17 -4.248135e-17 -8.129936e-17
0000f0 5f 29 5e a5 b7 fb 78 25 54 b5 96 a4 fe fd 54 25
       -1.9269448e-16 2.1595855e-16 -6.535931e-17 1.8474125e-16
000100 1e e9 83 25 cc e1 38 25 b2 bf 39 a5 49 a1 95 a5
       2.2882844e-16 1.6035959e-16 -1.6111141e-16 -2.595667e-16
000110 e0 76 5e 25 d1 e2 43 a5 8a ca 1f a5 be 3d 0f 25
       1.9295707e-16 -1.6990402e-16 -1.3859675e-16 1.2424192e-16
000120 75 a9 ec a4 91 fa 2f 25 12 97 13 25 38 2d 8f 24
       -1.02635756e-16 1.5263726e-16 1.2801402e-16 6.209297e-17
000130 51 7f 96 a5 08 10 a6 a4 72 9a 68 a5 ea f7 1a 25
       -2.6107125e-16 -7.201818e-17 -2.017512e-16 1.3441367e-16
000140 dc f9 3b a5 30 de 90 a5 ba 22 87 a5 00 c1 9f a3
       -1.630432e-16 -2.5130578e-16 -2.3442299e-16 -1.7320553e-17
000150 bb 72 15 25 44 34 05 a5 5a 8d 7a 25 be 79 8e 25
       1.2962562e-16 -1.155362e-16 2.1731935e-16 2.471557e-16
000160 00 79 27 a2 40 6a 35 23 79 0f 85 a5 16 af 53 a5
       -2.2696777e-18 9.834529e-18 -2.3082307e-16 -1.8360654e-16
000170 21 f8 64 a5 9c 56 86 25 6a 47 b4 a4 cc 2c 29 a4
       -1.9859917e-16 2.3303983e-16 -7.8183537e-17 -3.6683978e-17
000180 c1 da 2e 25 db c2 d7 24 b5 8b 1b 25 db e1 57 25
       1.5166211e-16 9.3571485e-17 1.3491442e-16 1.87248e-16
000190 75 a0 55 25 49 ab 74 a5 18 31 5e a4 a0 9b 0e a5
       1.852917e-16 -2.122166e-16 -4.818016e-17 -1.2369264e-16
0001a0 dd ec 4c 25 29 e5 4e 25 c9 5f 27 a5 93 c8 6e 25
       1.7774432e-16 1.7945294e-16 -1.4517394e-16 2.0711167e-16
0001b0 7c 33 a6 a4 40 3f 82 25 b9 77 23 a5 67 c4 3d 25
       -7.207824e-17 2.2594265e-16 -1.417856e-16 1.645968e-16
0001c0 70 6f 80 a5 40 bc 6b 25 30 79 03 a5 88 fa 40 25
       -2.2279973e-16 2.0446782e-16 -1.1403499e-16 1.6738229e-16
0001d0 00 60 7e a4 e8 b8 36 a5 31 24 32 a5 9a 1c 8c a5
       -5.5158786e-17 -1.5848632e-16 -1.5451301e-16 -2.430551e-16
0001e0 ea 4b 38 24 a4 4f 59 25 2d b6 1b 25 6e c9 f1 a4
       3.9962942e-17 1.8848733e-16 1.350583e-16 -1.04858325e-16
0001f0 a0 6d 0c 24 e5 0f 7f a5 60 99 05 24 00 0a b5 a1
       3.0450517e-17 -2.212311e-16 2.896969e-17 -1.2267684e-18
000200 b4 a7 4e 25 17 de cb a5 c3 bc bf 25 39 26 d8 a5
       1.7924472e-16 -3.536538e-16 3.3261128e-16 -3.7495928e-16
000210 80 0f 76 24 d0 11 d3 23 00 cf 8c a3 da a2 da a5
       5.3355876e-17 2.288421e-17 -1.5266498e-17 -3.7927324e-16
000220 80 bd c2 a4 72 0e 81 25 28 d3 a1 24 60 5c b2 a5
       -8.4455114e-17 2.2387721e-16 7.018033e-17 -3.0940674e-16
000230 2e b7 3e a5 d1 54 b8 a5 a0 1c 2f 25 48 13 07 24
       -1.6541937e-16 -3.1976386e-16 1.5188529e-16 2.928979e-17
000240 20 fa c7 24 f8 1f c5 a5 f8 b5 aa a5 5d 76 8d a5
       8.672622e-17 -3.4195715e-16 -2.9613606e-16 -2.4539807e-16
000250 20 7a 7d 24 e7 32 6c 25 00 f8 17 a2 3b d3 62 a5
       5.4964074e-17 2.0486983e-16 -2.0595606e-18 -1.9673943e-16
000260 46 a6 21 25 09 76 92 a5 20 4d ed a3 3a a1 6a a5
       1.402086e-16 -2.5406946e-16 -2.5728255e-17 -2.035089e-16
000270 94 69 a8 a5 c4 b1 b3 25 00 91 8e 25 e8 ed 06 a4
       -2.9214897e-16 3.117201e-16 2.473133e-16 -2.9258133e-17
000280 6e 20 ba a5 09 e8 16 a5 16 2f ea 25 ee b0 d3 a5
       -3.2287832e-16 -1.3089043e-16 4.0624436e-16 -3.6722558e-16
000290 40 ac c3 25 34 cf de 25 78 02 bc 25 08 1e 95 25
       3.394383e-16 3.8651267e-16 3.2614474e-16 2.586773e-16
0002a0 2c b3 de 25 24 43 c7 a5 62 78 7f 25 96 67 37 25
       3.8632273e-16 -3.4566493e-16 2.2158512e-16 1.5907816e-16
0002b0 fc 1d 10 25 70 3f 2f a5 d6 45 d7 a5 af 5d d2 25
       1.2500168e-16 -1.5200324e-16 -3.7343877e-16 3.6492675e-16
0002c0 08 e2 48 24 d5 53 31 25 e7 d8 98 a5 6b 27 9a a5
       4.3559543e-17 1.5380706e-16 -2.6514776e-16 -2.6741452e-16
0002d0 40 28 90 25 20 91 08 24 3f fd 9b a5 d7 23 8c a5
       2.5007293e-16 2.9613225e-17 -2.705982e-16 -2.4310415e-16
0002e0 e2 14 b6 a5 d8 ad 5c a5 22 bd 36 a5 cc fd 1b 25
       -3.1586118e-16 -1.9140859e-16 -1.5850064e-16 1.3530097e-16
0002f0 69 3b e9 25 5c 09 86 25 55 33 68 a5 b8 69 cb 25
       4.0459315e-16 2.3251637e-16 -2.0140184e-16 3.5286524e-16
000300 d8 7c 91 a4 1a 55 e2 25 74 e6 a3 24 7b b2 85 25
       -6.309522e-17 3.9262418e-16 7.1080384e-17 2.3192765e-16
000310 92 62 4f a5 61 79 e4 a5 b8 44 d0 25 bb 13 e4 a5
       -1.7987785e-16 -3.9633945e-16 3.6128814e-16 -3.9565065e-16
000320 2b 55 87 a5 6c 3e bb 25 0c 7a 57 25 08 4f dc a5
       -2.347648e-16 3.2481628e-16 1.8689628e-16 -3.821747e-16
000330 a4 7d b9 a5 98 7f 32 a5 d6 32 bc 25 c8 0e 74 24
       -3.2177522e-16 -1.548227e-16 3.264725e-16 5.2921586e-17
000340 80 73 91 23 83 63 c4 25 68 00 f2 a4 eb 87 42 25
       1.5769848e-17 3.4068012e-16 -1.0495146e-16 1.6872869e-16
000350 90 bf ce a4 fa 4e a4 25 bc 61 d8 a5 c0 28 f8 a3
       -8.966278e-17 2.8502982e-16 -3.7536254e-16 -2.6905472e-17
000360 e6 8b 60 a5 43 2e e4 25 e5 ca b9 25 e2 9c 00 25
       -1.9476302e-16 3.9583043e-16 3.222987e-16 1.1155384e-16
000370 1c 4b 7e 25 54 7f 56 25 2f c7 8e a5 50 4b 3e 25
       2.2056436e-16 1.8604682e-16 -2.4768045e-16 1.650539e-16
000380 78 76 c3 25 ea bc b4 25 3a 37 54 a5 7c 2f c9 25
       3.3907385e-16 3.1353036e-16 -1.840678e-16 3.4900119e-16
000390 bd e9 e2 a5 5c 9a 53 25 d2 a0 c6 a5 32 05 ca a5
       -3.9363138e-16 1.8353632e-16 -3.44565e-16 -3.5044935e-16
0003a0 86 25 cd a5 c0 9e 5a 25 2e 22 bd a5 53 dc 85 25
       -3.5587258e-16 1.8962272e-16 -3.2809435e-16 2.322112e-16
0003b0 1a 35 4c a5 dd 2b 8c a5 88 8e 7a a4 43 38 a7 a5
       -1.7712171e-16 -2.4315852e-16 -5.4330837e-17 -2.9008006e-16
0003c0 7c eb dd a4 34 38 b2 a4 40 a4 fe 22 22 1b 56 25
       -9.62424e-17 -7.7290406e-17 6.9020744e-18 1.8570734e-16
0003d0 56 0b 02 a5 fe 64 b6 25 0d 8f 68 a5 08 e6 37 a4
       -1.1279543e-16 3.1640402e-16 -2.017126e-16 -3.9876644e-17
0003e0 19 98 3e 25 14 61 b2 25 0a 25 cc a5 40 b5 9e a3
       1.6531406e-16 3.094386e-16 -3.5413458e-16 -1.7207157e-17
0003f0 3a 10 6a a5 39 63 dd 25 22 b1 e0 a5 f7 22 b3 25
       -2.0301762e-16 3.8404625e-16 -3.8977836e-16 3.1075243e-16

lstm.weight_hh_l1 f4 [512, 128]
000000 fc 8b 8e a4 ab cc 74 25 1a d8 95 24 96 a7 2f 25
       -6.1819826e-17 2.123297e-16 6.498454e-17 1.5235611e-16
000010 f2 7c 3a a5 6c f9 04 a5 83 80 43 25 d3 6e 1b a5
       -1.6175261e-16 -1.1533682e-16 1.6957095e-16 -1.3481656e-16
000020 bf 11 56 a5 86 02 92 a4 f6 70 55 a5 44 73 33 a5
       -1.8567554e-16 -6.332168e-17 -1.8513078e-16 -1.5564829e-16
000030 84 fc 6e a5 48 30 38 25 ba 8e 55 25 5d 6b 94 a5
       -2.0728765e-16 1.5975814e-16 1.8523163e-16 -2.574666e-16
000040 88 62 cc 24 90 2e 45 25 ca ca 9b a5 6c c1 74 25
       8.8637816e-17 1.7102802e-16 -2.702563e-16 2.122916e-16
000050 38 6b 32 a5 49 65 81 a5 c1 28 66 a5 cf ce 37 a5
       -1.5475366e-16 -2.2446566e-16 -1.9963128e-16 -1.5942789e-16
000060 0a e5 80 a4 92 88 7c a5 78 37 02 24 20 44 ae a3
       -5.589916e-17 -2.1903788e-16 2.823624e-17 -1.889397e-17
000070 99 90 04 25 3e c5 cc 24 f6 5c 29 25 a8 de 13 a4
       1.1498167e-16 8.880504e-17 1.468991e-16 -3.206414e-17
000080 ae 47 91 25 80 ad 50 a3 62 97 6b 25 70 f9 be 23
       2.5202062e-16 -1.1312443e-17 2.0434291e-16 2.0705482e-17
000090 d8 d5 d1 23 00 3a cf 23 b6 2c d9 24 40 63 36 a5
       2.2750392e-17 2.2467549e-17 9.418449e-17 -1.5819611e-16
0000a0 ec 05 33 a5 ce 3a 50 a5 f4 63 7a 25 7c ca ad a4
       -1.5527782e-16 -1.8061048e-16 2.1717909e-16 -7.536981e-17
0000b0 70 be b0 a3 f8 cb 64 a4 62 e4 2a a5 71 b1 3c a5
       -1.9162612e-17 -4.9612387e-17 -1.4822529e-16 -1.636652e-16
0000c0 64 aa 95 24 df 50 7f a5 18 6e 01 25 dc c5 0f 25
       6.49071e-17 -2.2145125e-16 1.1226268e-16 1.247031e-16
0000d0 7e 95 22 25 d6 6e 64 24 d9 cf 69 25 9c 9c ad 24
       1.410191e-16 4.95335e-17 2.027995e-16 7.52921e-17
0000e0 e0 66 65 24 9c 84 04 a5 18 63 a3 23 2f bd 5a a5
       4.9743598e-17 -1.1494105e-16 1.7714463e-17 -1.8972584e-16
0000f0 1c 3a ed a4 99 22 72 a5 ea 90 58 25 58 1e 65 a5
       -1.0288081e-16 -2.1001876e-16 1.8784112e-16 -1.9872865e-16
000100 3e d8 34 a5 36 39 3c 25 15 25 07 a5 67 7e 55 25
       -1.5685777e-16 1.6325784e-16 -1.1721947e-16 1.8517632e-16
000110 43 7c 00 25 48 ec 4d a5 c2 0c 26 a5 a5 de d6 a4
       1.1144332e-16 -1.7860971e-16 -1.4402527e-16 -9.318488e-17
000120 87 fc 33 25 9e 87 85 25 23 12 73 25 70 bc 99 a4
       1.5611335e-16 2.316372e-16 2.1083035e-16 -6.66724e-17
000130 30 8f 66 25 96 47 41 25 90 04 6a a4 3a 10 da a4
       1.9997834e-16 1.6764336e-16 -5.0744526e-17 -9.456992e-17
000140 92 ef 12 25 00 3f 70 23 b8 0c 0f 24 b4 01 44 a5
       1.2744651e-16 1.3023767e-17 3.1018955e-17 -1.7000867e-16
000150 40 01 0a a4 1c 9b 1c a5 00 bf da a4 92 31 ab 24
       -2.992504e-17 -1.3583396e-16 -9.4865996e-17 7.4243404e-17
000160 82 47 04 25 01 60 25 a5 80 e0 9c a2 40 65 7d a5
       1.1473403e-16 -1.4343996e-16 -4.2521583e-18 -2.1978557e-16
000170 76 35 4c 25 ee 21 17 a4 8a ee eb 24 30 b5 2d a4
       1.7712293e-16 -3.2771645e-17 1.02319105e-16 -3.7666867e-17
000180 35 03 92 25 e6 e4 7d a5 55 b2 7f a5 7a 41 50 25
       2.5329136e-16 -2.2021806e-16 -2.2178146e-16 1.8063308e-16
000190 a6 2e 4e a5 cf c3 be a4 1b 14 12 a5 c4 8d d7 a4
       -1.7883457e-16 -8.273108e-17 -1.2670293e-16 -9.348155e-17
0001a0 6c a4 59 a5 3c 19 57 a5 c8 f3 0a a4 4a 06 94 a4
       -1.8877458e-16 -1.8656827e-16 -3.013047e-17 -6.419542e-17
0001b0 61 e1 78 25 04 3c d9 a4 df 2f 74 a5 31 7f 5f a5
       2.1586932e-16 -9.421042e-17 -2.1179846e-16 -1.9385261e-16
0001c0 e2 cf 19 a5 dc ba 6b a5 7e d3 89 25 97 57 f5 a4
       -1.3341068e-16 -2.0446311e-16 2.3909024e-16 -1.06400196e-16
0001d0 4b bb 67 25 20 26 f3 a4 8c ac cc 24 0f 68 11 a5
       2.0099513e-16 -1.0544904e-16 8.87632e-17 -1.2612002e-16
0001e0 ef 7c 47 a5 cb 00 00 a5 f8 7e 74 25 e0 73 52 24
       -1.7302828e-16 -1.1102499e-16 2.1206645e-16 4.563464e-17
0001f0 54 e0 74 a5 d0 25 ce a3 63 4d 6c 25 20 12 e9 a2
       -2.1239632e-16 -2.2350579e-17 2.0495957e-16 -6.3173967e-18
000200 fa f9 d1 24 0c b5 a8 24 6c 7b 16 25 72 06 94 a5
       9.106278e-17 7.316509e-17 1.3052243e-16 -2.5678275e-16
000210 a4 f5 9b a4 80 d0 d8 24 dc 6b 99 a4 cc 84 78 25
       -6.7636666e-17 9.402828e-17 -6.6535894e-17 2.1555564e-16
000220 50 07 cf 23 d0 dc 12 24 98 d7 32 a5 40 0d bf 22
       2.2446082e-17 3.184574e-17 -1.5512085e-16 5.1784683e-18
000230 f1 fb 75 a5 24 03 33 25 96 b6 6f 25 3c 84 30 25
       -2.1335724e-16 1.5526839e-16 2.0791808e-16 1.5310369e-16
000240 77 42 8e a5 60 96 16 a4 78 47 85 25 28 28 74 25
       -2.4678112e-16 -3.2653438e-17 2.3120251e-16 2.1177232e-16
000250 0a 73 18 a5 60 4e b2 25 88 e0 26 a4 93 36 4b 25
       -1.3222875e-16 3.0931187e-16 -3.6185697e-17 1.7625934e-16
000260 cf b9 4e 25 99 16 ae 24 58 3a 81 25 86 f6 af 25
       1.7930606e-16 7.549875e-17 2.2417468e-16 3.0524712e-16
000270 d8 38 9b 23 40 ea b4 a2 9e 4a 38 25 7e 06 46 25
       1.6829208e-17 -4.903712e-18 1.5984737e-16 1.7175962e-16
000280 f9 2b 8c a5 9b 4f 7a 25 70 e7 81 25 c2 eb c0 25
       -2.4315926e-16 2.1711015e-16 2.253476e-16 3.3466446e-16
000290 54 0a 5f 25 3a 33 e1 a4 a4 bc 9a a4 b6 2a 35 a5
       1.9345666e-16 -9.766498e-17 -6.7106423e-17 -1.5713718e-16
0002a0 ad 35 80 a5 f4 70 69 24 30 30 70 25 4c 18 92 25
       -2.2240833e-16 5.0619496e-17 2.0833008e-16 2.5343427e-16
0002b0 c7 1a 10 25 cc 73 6f 25 88 ed 54 24 a8 66 51 a5
       1.2499082e-16 2.0769179e-16 4.617137e-17 -1.8162642e-16
0002c0 80 99 12 23 a4 40 b6 a4 74 b3 4c a5 cb 1b 52 25
       7.947181e-18 -7.9039424e-17 -1.775498e-16 1.8224013e-16
0002d0 b4 8d db 24 e7 45 34 a5 a7 75 1d a5 38 4e 96 a3
       9.5216165e-17 -1.5636195e-16 -1.3657441e-16 -1.629616e-17
0002e0 0e 28 12 a5 60 88 a4 25 30 10 68 23 0f 95 3e 25
       -1.2677052e-16 2.8541876e-16 1.2580173e-17 1.6530376e-16
0002f0 5f 58 3f 25 bf 23 75 25 22 e2 2d 25 e4 27 9c 25
       1.659655e-16 2.1262474e-16 1.5081975e-16 2.7088717e-16
000300 4f db da a4 62 6b e7 a4 44 6f fc a4 8d be 4b 25
       -9.491395e-17 -1.00362194e-16 -1.0947607e-16 1.7672004e-16
000310 1f 7b 22 25 d8 7f 60 25 a2 13 5f 25 a4 9d 83 a5
       1.4092975e-16 1.9472218e-16 1.9348819e-16 -2.28317e-16
000320 88 66 7f a4 64 8d 7e a5 a0 3e 6c a3 1b 2f 4c 25
       -5.5381158e-17 -2.2078893e-16 -1.2806847e-17 1.771014e-16
000330 25 f3 25 25 7e 04 47 a5 5e 33 53 25 04 fa 5f a5
       1.4393849e-16 -1.726202e-16 1.8318737e-16 -1.9426875e-16
000340 78 94 ec 24 9e 3e 54 25 30 1f 94 a5 1c b8 c0 a5
       1.026002e-16 1.8409284e-16 -2.569504e-16 -3.3431448e-16
000350 3a 8f 08 a5 a9 7d 0d 25 9b 74 27 a5 0b b9 65 25
       -1.1844647e-16 1.2272376e-16 -1.4524448e-16 1.9925279e-16
000360 f2 3b 5a 25 5e e0 18 25 46 9c 34 25 76 53 72 25
       1.8928796e-16 1.3259917e-16 1.5665459e-16 2.1018432e-16
000370 25 7b 5d 25 40 68 68 24 38 ce 18 a5 3b c0 6c a5
       1.9210417e-16 5.0395284e-17 -1.3253768e-16 -2.0534867e-16
000380 a4 1a b7 a5 41 40 3f 25 f4 7c 0b a5 5a 28 9a 24
       -3.1763492e-16 1.6588379e-16 -1.2098664e-16 6.685521e-17
000390 23 cb 4d a5 00 cc 6f a2 9a cf 34 25 a2 c1 53 25
       -1.7849741e-16 -3.2498537e-18 1.568285e-16 1.8366938e-16
0003a0 d4 3c 12 25 17 cd 9e 25 dc 04 2f 25 86 a0 97 a5
       1.2684091e-16 2.7547605e-16 1.5180477e-16 -2.63031e-16
0003b0 01 9f 30 a5 92 3b 11 25 71 c0 51 a5 28 82 03 25
       -1.5319439e-16 1.2596928e-16 -1.8193062e-16 1.1406537e-16
0003c0 bf 08 85 a5 8c 25 4b 25 d0 38 87 25 40 f3 f1 23
       -2.307775e-16 1.7620165e-16 2.3457265e-16 2.6232293e-17
0003d0 e4 16 e2 24 c4 6f 98 24 86 e0 86 25 90 76 f3 23
       9.8050655e-17 6.610883e-17 2.3397438e-16 2.6396326e-17
0003e0 fa ab 1f a5 00 02 75 23 72 d1 83 a5 3e aa 15 a5
       -1.384932e-16 1.32819e-17 -2.2866803e-16 -1.298137e-16
0003f0 cc c5 59 a5 30 48 2f a5 70 42 28 24 36 75 4d a5
       -1.8888766e-16 -1.5203288e-16 3.6485468e-17 -1.7820628e-16
