models/USDCHF_model.pth (torch, 860300 bytes, 15 tensors)

lstm.weight_ih_l0 f4 [512, 12]
0	0x3e013f08	0.12621701
1	0x3ddf9992	0.10917963
2	0x3cd6e226	0.026230883
3	0x3d7e7966	0.062127493
4	0xbdc4eccf	-0.0961548
5	0x3dfe71d0	0.12424052
6	0x3d5c87cc	0.053840443
7	0xbdadf34c	-0.08493671
8	0x3cffb4c1	0.03121412
9	0xbe349ebc	-0.17638677
10	0xbdcb7b52	-0.09935631
11	0xbe26e587	-0.16298495
12	0x3cc0fa44	0.023556836
13	0x3d8bb609	0.0682183
14	0xbc62904b	-0.013828347
15	0x3d58876a	0.052863516
16	0x3f2918dd	0.66053563
17	0xbd83c0cb	-0.06433257
18	0x3d473a89	0.048639808
19	0xbe9e543b	-0.30923638
20	0x3eca3597	0.3949401
21	0xbe7a71f3	-0.2445753
22	0xbdbcb5d6	-0.0921437
23	0xbddc5e6e	-0.107601985
24	0xbe392c98	-0.18083417
25	0xbe22e628	-0.1590811
26	0xbe7f149e	-0.24910209
27	0xbd5323d6	-0.051547848
28	0xbeeefbde	-0.46676534
29	0xbeb4ffd9	-0.35351446
30	0xbeb9fb80	-0.36324692
31	0x3e440214	0.19141418
32	0xbe5944f4	-0.2121771
33	0xbe734d6e	-0.23760006
34	0xbd8fb728	-0.07017356
35	0x3d5d29ce	0.053994946
36	0xbe73a17e	-0.23792073
37	0xbe942e35	-0.28941503
38	0xbe837fcc	-0.2568344
39	0xbe915033	-0.283815
40	0x3e04b9c9	0.12961496
41	0xbeb291ec	-0.34876955
42	0xbeb8bfcf	-0.36083838
43	0xbe1025b0	-0.14076877
44	0xbd8713ca	-0.06595571
45	0xbe04d7e3	-0.12972979
46	0xbd81d096	-0.06338613
47	0xbcb1ecbe	-0.021719333
48	0x3d9b6824	0.075882226
49	0x3e44f90a	0.19235626
50	0x3df4e20b	0.11957177
51	0x3c955d7b	0.018233052
52	0xbc02f22c	-0.007992309
53	0x3d15fc27	0.036617424
54	0x3daa67ef	0.08320605
55	0xbe91e362	-0.28493792
56	0x3db01486	0.085976645
57	0xbe6f55f1	-0.23372628
58	0xbe33e505	-0.17567833
59	0xbd8dd1af	-0.069247596
60	0xbeb96890	-0.36212587
61	0xbe9f8baa	-0.31161243
62	0xbebc8798	-0.368222
63	0xbebb8839	-0.36627367
64	0xbe726fa7	-0.23675404
65	0xbebfd27b	-0.3746527
66	0xbec5cc0d	-0.3863224
67	0xbdbf0ecd	-0.09328995
68	0xbecd504c	-0.40100324
69	0xbe9d33aa	-0.3070348
70	0xbe7011d2	-0.23444298
71	0xbe97162c	-0.29509103
72	0xbec68d36	-0.3877961
73	0xbecdaf73	-0.4017292
74	0xbee2986d	-0.44256917
75	0xbed160fa	-0.408943
76	0x3ee8b6eb	0.45452055
77	0xbf006c40	-0.50165176
78	0xbed81d70	-0.4220996
79	0xbdea9c50	-0.114555955
80	0x3ea30f41	0.31847575
81	0xbe41915a	-0.18903103
82	0xbe4a3ea4	-0.19750458
83	0xbe90ea6c	-0.2830385
84	0xbefe5aa8	-0.4967854
85	0xbec5139a	-0.38491517
86	0xbf0dc9f5	-0.55386287
87	0xbeea39bb	-0.4574717
88	0x3e0598fd	0.13046642
89	0xbf02108d	-0.50806504
90	0xbe867f15	-0.2626883
91	0xbf05c8e0	-0.52259636
92	0x3e8a4f53	0.27013645
93	0x3e2b4429	0.1672522
94	0xbce41729	-0.027843075
95	0xbeb409cb	-0.3516372
96	0xbeb66f59	-0.35631827
97	0xbeefcdc0	-0.46836662
98	0xbe95d758	-0.29265857
99	0xbecbb2bb	-0.39784798
100	0x3dfa3053	0.12216248
101	0xbecd57cf	-0.40106055
102	0xbed82c3a	-0.42221242
103	0xbeafa26e	-0.34303612
104	0xbcb66aa6	-0.02226765
105	0xbe8c0e3a	-0.27354604
106	0xbe88f377	-0.2674825
107	0xbe84c4db	-0.2593144
108	0xbda1d85b	-0.07902595
109	0xbdabf7c2	-0.083968654
110	0xbe433663	-0.19063716
111	0xbe02939c	-0.12751621
112	0xbcbec3d4	-0.023286738
113	0x3d419608	0.04726222
114	0x3d873525	0.066019334
115	0xbf3374ea	-0.7010027
116	0xbda79ecf	-0.08184587
117	0xbeafea95	-0.3435866
118	0xbf071857	-0.52771515
119	0xbf07a019	-0.52978665
120	0xbdf2fc0e	-0.11864482
121	0xbdb5d685	-0.08878807
122	0xbeaaa075	-0.33325544
123	0xbeb64c77	-0.35605213
124	0x3f4931d0	0.7859163
125	0x3dc86e9f	0.09786724
126	0x3e1fbb71	0.15598847
127	0xbf04b2c0	-0.5183525
128	0x3f0b1cc4	0.5434077
129	0xbec7a01f	-0.3898935
130	0xbf9aafe8	-1.2084932
131	0xbf5e9726	-0.86949384
132	0xbe8be1c1	-0.27320674
133	0xbeb14dc2	-0.34629637
134	0xbe9cff79	-0.3066366
135	0xbe974a5d	-0.29548922
136	0xbf1d8227	-0.6152672
137	0xbeaaf535	-0.33390203
138	0xbe9be3c2	-0.30447203
139	0xbdd66a99	-0.10469551
140	0xbe86ba10	-0.2631383
141	0xbeb6bfb7	-0.35693142
142	0xbd785985	-0.060632247
143	0xbdc6097b	-0.09669777
144	0xbe4fc45e	-0.20289752
145	0xbe67e597	-0.22646175
146	0xbeda0e7c	-0.42589176
147	0xbeb04f4c	-0.344355
148	0x3eedfca7	0.4648182
149	0xbe7acde0	-0.24492598
150	0xbea12446	-0.31472987
151	0xbdef662b	-0.11689409
152	0x3e013c0c	0.12620562
153	0xbe62e5e3	-0.22158007
154	0xbec763a0	-0.38943195
155	0x3e0c4c12	0.13700894
156	0xbe672549	-0.22572817
157	0xbee63f4d	-0.4497017
158	0xbf1e9a1c	-0.619539
159	0xbf22dcbc	-0.63618064
160	0x3cde1374	0.027108885
161	0xbeca21bf	-0.3947887
162	0xbe9999aa	-0.3000005
163	0xbed16851	-0.408999
164	0x3e70c612	0.23513058
165	0xbf3643b9	-0.71197087
166	0xbf45dc7a	-0.77289546
167	0xbf17b565	-0.5926116
168	0xbe2fbbef	-0.17161535
169	0xbe187017	-0.14886509
170	0xbe4937c9	-0.19650187
171	0xbeb4250a	-0.3518451
172	0x3f3a62a1	0.72806746
173	0xbcf9c55c	-0.030489616
174	0xbcf90099	-0.030395793
175	0xbf3815b7	-0.71908134
176	0x3e41a2cd	0.1890976
177	0xbe724ad8	-0.23661363
178	0xbec5faaa	-0.38667804
179	0xbecf58ad	-0.40497342
180	0xbea4473f	-0.32085606
181	0xbe43a99a	-0.19107667
182	0xbe95b64f	-0.29240653
183	0xbe13b928	-0.144261
184	0xbe99b3af	-0.300199
185	0xbea9e0e6	-0.33179396
186	0xbf229112	-0.6350261
187	0x3ea230fa	0.3167799
188	0xbe55ee9e	-0.20891806
189	0x3d089112	0.033341475
190	0x3e838c11	0.256928
191	0x3dda1732	0.106489554
192	0xbf04f840	-0.519413
193	0xbf1d2340	-0.6138191
194	0xbee66c66	-0.45004576
195	0xbf14eeb0	-0.5817671
196	0x3e5d3d68	0.21605456
197	0xbeeff66f	-0.468677
198	0xbef33a51	-0.4750543
199	0xbeab5450	-0.33462763
200	0x3e239d70	0.15978026
201	0xbdda576d	-0.106612064
202	0xbe8485fa	-0.25883466
203	0x3be6eedf	0.0070475186
204	0x3d038d52	0.032117195
205	0x3e2600c0	0.16211224
206	0x3dce4c89	0.10073192
207	0x3e234790	0.15945268
208	0xbd9f76e6	-0.0778635
209	0x3da7e1f3	0.08197393
210	0x3e000211	0.12500788
211	0xbd2a8229	-0.041628037
212	0x3d502366	0.05081501
213	0x3cbf3655	0.023341337
214	0x3ce4e73b	0.02794229
215	0x3d6faa1d	0.058511842
216	0xbccd1ddb	-0.02503865
217	0xbdbafe2d	-0.091305114
218	0xbef29a4d	-0.47383347
219	0xbdf9025b	-0.121586524
220	0x3f0f2c30	0.559268
221	0xbe4884fb	-0.19581978
222	0xbe7595ef	-0.23982976
223	0x3eba9eca	0.3644927
224	0xbceabe33	-0.028655147
225	0xbe071ef4	-0.13195401
226	0xbe06efc1	-0.13177396
227	0x3e8ecd31	0.27890924
228	0xbdbfdb64	-0.09368017
229	0xbe479411	-0.19490077
230	0xbea21c10	-0.31662035
231	0xbe505e50	-0.20348477
232	0x3ed3f00e	0.41394085
233	0xbdb151eb	-0.08658203
234	0xbe22ae65	-0.15886839
235	0x3ccf91a5	0.025338003
236	0x3e5a0704	0.21291739
237	0xbdd7c1c3	-0.10535004
238	0xbf0b22e4	-0.54350114
239	0x3e127cbd	0.14305396
240	0xbe70e866	-0.23526153
241	0xbe461260	-0.19342947
242	0xbe956b87	-0.291836
243	0xbe90e65e	-0.28300756
244	0x3d8172ca	0.063207224
245	0xbe9226bc	-0.28545177
246	0xbe5a0c06	-0.21293649
247	0xbec01840	-0.375185
248	0x3d92edd3	0.071742676
249	0xbe610e4d	-0.21978112
250	0xbeb7a5fa	-0.35868818
251	0xbe31a306	-0.17347345
252	0x3e96d60e	0.29460186
253	0x3e3f2903	0.18667988
254	0x3e7646e4	0.2405048
255	0x3e4762bf	0.19471262

lstm.weight_hh_l0 f4 [512, 128]
0	0xbe17eab4	-0.14835626
1	0x3e163831	0.14669873
2	0x3e6dbd67	0.23216783
3	0x3f1fc57a	0.624107
4	0x3e0d3bb4	0.13792306
5	0x3c70971e	0.014684467
6	0x3ea399d0	0.31953287
7	0x3e702a28	0.23453581
8	0x3d0c18fc	0.034203514
9	0xbe0069af	-0.12540315
10	0x3cb65468	0.022257045
11	0x3e4a1cc3	0.19737534
12	0xbeb2a668	-0.34892583
13	0x3d5f1eab	0.054472607
14	0xbedf55e9	-0.43620232
15	0xbe69b761	-0.2282386
16	0xbf1dbd00	-0.61616516
17	0xbe48403e	-0.19555756
18	0x3d898f0f	0.067167394
19	0x3d10e795	0.035377104
20	0xbe4a657f	-0.1976528
21	0x3da15f47	0.07879501
22	0x3e3d0b43	0.18461327
23	0x3e566849	0.20938219
24	0xbec90a82	-0.3926583
25	0x3c88a062	0.016678039
26	0xbe0154ca	-0.1263
27	0xbdb79967	-0.08964806
28	0x3bf81ad1	0.007571556
29	0x3d06339e	0.03276407
30	0xbe53cf70	-0.206846
31	0xbf07b12f	-0.53004736
32	0xbead143c	-0.338045
33	0x3eab7f2a	0.33495456
34	0x3e722c82	0.23649791
35	0x3e44a688	0.19204152
36	0xbe0e9ee6	-0.13927802
37	0x3ec89c77	0.39181873
38	0x3e54edaa	0.20793787
39	0xbe32c756	-0.17458853
40	0x3e6d8362	0.2319465
41	0xbcb09cad	-0.021559084
42	0xbe2ce7ab	-0.1688525
43	0x3dec6469	0.11542589
44	0x3d097d80	0.03356695
45	0x3ea42ba3	0.32064542
46	0xbe5cb63b	-0.2155389
47	0xbe81f1e1	-0.2537985
48	0xbdd18016	-0.102295086
49	0x3d70233c	0.058627352
50	0x3d48f224	0.04905905
51	0x3ddb7b79	0.1071691
52	0x3e8d2213	0.2756506
53	0xbd9acbf2	-0.07558431
54	0xbd63acf3	-0.05558486
55	0x3d72f396	0.059314333
56	0x3e438003	0.19091801
57	0x3e43d713	0.19125013
58	0xbf113887	-0.5672688
59	0xbe05b7d2	-0.13058403
60	0x3ec266ae	0.37968963
61	0x3f8b0010	1.0859394
62	0xbee752d8	-0.45180392
63	0xba4413fe	-0.00074797857
64	0x3e40a68a	0.1881353
65	0x3e05a872	0.13052538
66	0x3e63d349	0.22248568
67	0xbd189749	-0.03725365
68	0x3ea88f7f	0.3292198
69	0xbdfb355d	-0.122660376
70	0xbec6c5a6	-0.3882267
71	0xbe425700	-0.189785
72	0xbd8bb3e2	-0.06821419
73	0xbf1b0cf9	-0.6056667
74	0xbe64c4b1	-0.22340657
75	0xbdf347a8	-0.11878902
76	0xbee58fb8	-0.4483621
77	0x3ed5ff08	0.41796136
78	0x3ce2c734	0.027682878
79	0xbef720c8	-0.48267198
80	0x3ea9981d	0.33123866
81	0x3efa1472	0.48843724
82	0xbea2ad19	-0.31772688
83	0x3f018132	0.5058776
84	0xbe672c15	-0.2257541
85	0xbe29d79b	-0.16586153
86	0x3e7c65f1	0.24648263
87	0x3e839f9d	0.25707713
88	0xbe9c7863	-0.30560598
89	0x3f0ca9bd	0.549465
90	0x3dd3d369	0.10343058
91	0x3f125989	0.5716787
92	0xbe788014	-0.24267608
93	0xbe0cdb6e	-0.13755581
94	0xbe932bd4	-0.28744376
95	0x3edaae05	0.4271089
96	0x3e6c24c1	0.23060896
97	0xbe88ae72	-0.2669559
98	0x3e80b611	0.25138906
99	0x3e2120e6	0.15735206
100	0x3e77b3e5	0.24189718
101	0xbf17616c	-0.5913303
102	0x3e12df01	0.14342882
103	0xbe300f2e	-0.1719329
104	0x3dbb962c	0.091595024
105	0xbecbb473	-0.3978611
106	0x3ebad5cd	0.36491242
107	0xbe29ea2f	-0.1659324
108	0xbecb89ec	-0.39753664
109	0x3e8c370f	0.27385756
110	0x3eca53b4	0.39516985
111	0xbea6c514	-0.32572234
112	0x3ee664cc	0.44998777
113	0x3e8ca7b0	0.27471685
114	0x3ea30089	0.31836346
115	0x3d15e410	0.03659445
116	0x3e85a851	0.26104978
117	0x3e681ec7	0.2266799
118	0xbef9a203	-0.48756418
119	0xbe64d05b	-0.22345106
120	0xbe6ac8af	-0.22928117
121	0x3e94414b	0.28956065
122	0xbea37117	-0.31922218
123	0x3ed758b6	0.4205987
124	0x3c0a6341	0.008446516
125	0xbe0bee44	-0.1366511
126	0x3ebb4a9a	0.36580354
127	0xbe1fff3f	-0.15624712
128	0xbf0c5a6c	-0.5482547
129	0x3f7f3e35	0.99704295
130	0xbecdbd5b	-0.4018353
131	0x3f60a06d	0.8774479
132	0x3f367d88	0.71285295
133	0x3f44b41e	0.76837337
134	0x3f379082	0.71704876
135	0xbe858a2f	-0.26081988
136	0x3e96513b	0.2935885
137	0x3e234dcc	0.15947646
138	0xbd1e9426	-0.038715504
139	0xbf1f4742	-0.62218106
140	0x3e5be051	0.21472289
141	0xbef85030	-0.48498678
142	0xbec19849	-0.37811497
143	0xbf7509bc	-0.9571798
144	0xbf614e1e	-0.8800982
145	0x3e44a963	0.19205241
146	0xbec0cdc6	-0.37656993
147	0xbca436dc	-0.02004569
148	0x3e110349	0.1416141
149	0xbe93346d	-0.28750935
150	0x3d2c275e	0.04202973
151	0xbf52cac8	-0.8234067
152	0x3eba5b30	0.36397696
153	0x3f881d96	1.0634029
154	0xbe77d388	-0.24201787
155	0x3df211a3	0.1181977
156	0x3f036eb5	0.513408
157	0xbe65a318	-0.22425497
158	0xbeecfdec	-0.46287477
159	0xbf0e09bf	-0.5548362
160	0x3e9b4b08	0.30330682
161	0x3df59e9f	0.11993145
162	0xbeb0cf30	-0.34533072
163	0x3ef16a05	0.471512
164	0xbf65e2a7	-0.8979897
165	0x3f7b15a9	0.98079926
166	0xbd0f5d95	-0.035001356
167	0xbc33de8a	-0.01097835
168	0xbebfa793	-0.37432536
169	0xbe2fe6e3	-0.1717792
170	0xbf84863e	-1.0353467
171	0x3f9d4e25	1.2289473
172	0x3db4c00d	0.08825693
173	0x3f2eff2d	0.6835812
174	0xbed32227	-0.41236994
175	0xbf63eecf	-0.8903627
176	0x3deaed7c	0.11471078
177	0x3f9c4441	1.220833
178	0xbe9cf1da	-0.30653268
179	0x3eb314e4	0.34976876
180	0x3f895745	1.0729758
181	0x3f7fb7ec	0.9989002
182	0x3f3463f8	0.7046504
183	0x3ed3ac03	0.41342172
184	0xbca5e9f9	-0.020253168
185	0x3f9bf2d5	1.2183481
186	0xbe5c6405	-0.2152253
187	0xbecfed97	-0.40610954
188	0x3e57022a	0.2099692
189	0x3eb72e3d	0.35777465
190	0xbf0f4bec	-0.5597522
191	0x3f9098d8	1.1296644
192	0xbf54ce0a	-0.8312689
193	0xbe740eec	-0.23833817
194	0x3eacf09d	0.33777323
195	0x3f54eefd	0.8317717
196	0x3e864f02	0.26232153
197	0x3f1adda7	0.60494465
198	0xbf3a8b9e	-0.7286929
199	0x3eeae3aa	0.4587682
200	0xbef5deb7	-0.4802148
201	0xbf2bc9d1	-0.6710482
202	0xbf23ee92	-0.64035904
203	0xbf1ebcc4	-0.62006783
204	0x3d3371f2	0.04380984
205	0x3eb95c4d	0.36203232
206	0xbf67a8f2	-0.90492165
207	0xbee78416	-0.4521796
208	0x3f3f3838	0.7469516
209	0x3f31c087	0.694344
210	0xbecb02cf	-0.3965058
211	0x3f8d9c70	1.1063366
212	0x3f40b467	0.7527527
213	0xbec31153	-0.38099155
214	0x3f82b91f	1.0212744
215	0xbdb82d65	-0.08993033
216	0xbc4467cd	-0.011987639
217	0x3d801f1f	0.06255936
218	0xbf624fc2	-0.8840295
219	0xbe1ad226	-0.15119228
220	0x3f040f43	0.5158579
221	0xbf1b29a3	-0.6061041
222	0xbf55e73f	-0.8355598
223	0x3f28b9cb	0.659085
224	0x3e6264b5	0.22108729
225	0xbe545189	-0.20734228
226	0xbf1799fa	-0.59219325
227	0x3e8e13e0	0.27749538
228	0x3c3c3d8b	0.011489282
229	0xbea862f7	-0.32888004
230	0xbe73bca6	-0.23802432
231	0x3e9e9218	0.30970836
232	0xbf0ba107	-0.54542583
233	0xbee82a54	-0.45344794
234	0x3eb8ef81	0.36120227
235	0x3f636184	0.8882067
236	0xbeb19868	-0.3468659
237	0xbeee5cbb	-0.46555123
238	0x3f6b7917	0.91981643
239	0xbe10c70a	-0.14138427
240	0x3f14f672	0.58188546
241	0xbebe43ca	-0.37161094
242	0xbe33ad32	-0.17546538
243	0x3c502ce9	0.01270602
244	0xbe1228aa	-0.14273325
245	0x3cc27d45	0.023741374
246	0xbed76f01	-0.42076877
247	0xbf169bf2	-0.58831704
248	0xbf82e10d	-1.022493
249	0xbf4fcd28	-0.8117242
250	0xbf8443bd	-1.0333172
251	0x3fbab2e0	1.4585838
252	0x3e8bba62	0.27290636
253	0xbe5a578e	-0.21322462
254	0x3f792f05	0.9733737
255	0xbf889b2d	-1.0672356

lstm.bias_ih_l0 f4 [512]
0	0xbebf94d7	-0.37418243
1	0xbe9d6e45	-0.3074819
2	0xbe865cad	-0.2624258
3	0xbe34f114	-0.17670089
4	0xbec55b51	-0.3854623
5	0xbe16b695	-0.14718087
6	0xbe3bcc7b	-0.18339722
7	0xbc8ef4f5	-0.017450789
8	0xbe893247	-0.2679617
9	0xbd871e5d	-0.06597588
10	0xbe3712b1	-0.17878224
11	0xbe7a6265	-0.24451597
12	0xbd987e10	-0.074459195
13	0xbe2111f8	-0.15729511
14	0x3d946cdc	0.07247326
15	0xbdd85739	-0.105635114
16	0x3cfdbb40	0.030973077
17	0xbd20d9c0	-0.039270163
18	0xbe145e68	-0.14489138
19	0xbe946de1	-0.2899008
20	0xbe60bf4a	-0.21947971
21	0xbd45d327	-0.048297074
22	0xbe9e56b5	-0.30925527
23	0xbe33c014	-0.1755374
24	0xbe81d244	-0.25355732
25	0xbd0a1714	-0.033713415
26	0xbe4c4010	-0.19946313
27	0xbd830e02	-0.06399156
28	0xbe634393	-0.22193746
29	0xbd35ea07	-0.04441264
30	0xbe0aa12a	-0.13538042
31	0xbde8c504	-0.11365703
32	0x3d6f00c4	0.05835034
33	0xbe536ffc	-0.20648187
34	0xbe96f872	-0.29486424
35	0xbe8acc81	-0.2710915
36	0xbdef7ce8	-0.11693746
37	0xbda540e7	-0.0806902
38	0xbea1217c	-0.3147086
39	0xbe8f76cc	-0.28020322
40	0xbc26eb83	-0.010187986
41	0xbe2f29d2	-0.17105797
42	0xbde25ba8	-0.11052638
43	0xbde6e6d9	-0.112744994
44	0x3d786727	0.06064525
45	0xbeb33955	-0.35004678
46	0xbe2edad0	-0.17075658
47	0xbdb16d33	-0.08663406
48	0xbe3a1c9b	-0.18174975
49	0xbd513d48	-0.051083833
50	0xbdb72fa8	-0.089446366
51	0xbe782141	-0.24231435
52	0xbdb316be	-0.08744572
53	0xbe4123e8	-0.18861353
54	0xbe54b4d5	-0.20772107
55	0xbe92cec2	-0.2867337
56	0xbe5f54a8	-0.21809638
57	0xbd8b74e0	-0.068094015
58	0xbe25afe8	-0.16180384
59	0xbe6bea1b	-0.23038523
60	0xbdb776fd	-0.08958242
61	0x3deb0db5	0.11477224
62	0xbe0f40c8	-0.13989556
63	0xbe309cf0	-0.17247367
64	0xbe184e31	-0.14873578
65	0xbd82a733	-0.06379547
66	0xbd9ab0e5	-0.07553271
67	0xbe879669	-0.2648194
68	0xbe9e41cd	-0.30909577
69	0xbe6a15c3	-0.22859864
70	0xbe3916b1	-0.18075062
71	0xbe3b3bfe	-0.18284604
72	0xbe826625	-0.25468555
73	0xbe7819e1	-0.24228622
74	0x3d927431	0.07151068
75	0xbd0763b9	-0.033054087
76	0xbe63d6ff	-0.22249983
77	0xbe4c08e3	-0.19925265
78	0xbe8314ab	-0.25601706
79	0xbe4d34ef	-0.20039724
80	0xbd96a700	-0.073560715
81	0xbdfe80e5	-0.124269284
82	0xbe2bd847	-0.16781722
83	0xbd86bdca	-0.06579168
84	0xbe6a629f	-0.22889183
85	0xbe18a339	-0.14906015
86	0xbe66612e	-0.22498009
87	0xbe9a6c4c	-0.3016075
88	0xbe8b229c	-0.27174842
89	0xbe89aaa3	-0.26887998
90	0xbdae509f	-0.08511471
91	0x3dab0752	0.083510056
92	0xbdc1caa6	-0.0946248
93	0xbe381e93	-0.17980413
94	0xbe39f1bb	-0.18158619
95	0xbe683acc	-0.22678679
96	0xbe6220eb	-0.2208287
97	0xbe972b82	-0.2952538
98	0xbe0d02af	-0.13770555
99	0xbdaa4580	-0.08314037
100	0xbe996e0e	-0.29966778
101	0xbd99b2ad	-0.07504783
102	0xbe3574c3	-0.17720322
103	0xbe32825d	-0.17432542
104	0xbe39a5b9	-0.18129624
105	0xbe4fe7ae	-0.20303223
106	0xbe9b98a7	-0.30389902
107	0xbe097b3d	-0.13425918
108	0xbe167780	-0.14694023
109	0x3d8134a7	0.06308871
110	0xbe1f9d8d	-0.15587445
111	0xbe3d4e50	-0.18486905
112	0xbe46fa20	-0.19431353
113	0xbd4a3781	-0.04936934
114	0xbdffb103	-0.12484934
115	0xbe2f765a	-0.17134991
116	0xbe82405e	-0.25439733
117	0xbe28c09f	-0.16479729
118	0xbe6e4094	-0.23266822
119	0xbdd2aedf	-0.1028726
120	0xbe6b070f	-0.22951911
121	0xbd8b73c0	-0.06809187
122	0xbe1df5b2	-0.15425757
123	0xbd62ebde	-0.05540072
124	0xbe6ccb2a	-0.23124376
125	0xbe7f3a2c	-0.24924535
126	0xbe40a993	-0.18814687
127	0xbe3c2533	-0.18373565
128	0xbf41a121	-0.7563649
129	0xbde03a06	-0.10948567
130	0xbe9e2726	-0.30889243
131	0xbf2aa59e	-0.6665896
132	0xbef6abbf	-0.48177907
133	0xbea2e7ed	-0.3181757
134	0xbc992018	-0.018692061
135	0xbf6e8fcc	-0.93188167
136	0xbe62c893	-0.22146825
137	0xbe176eb6	-0.14788327
138	0xbea41407	-0.3204653
139	0xbe941459	-0.28921774
140	0xbf1c3ca0	-0.61030006
141	0xbf5e5da6	-0.86861646
142	0xbecbcbb7	-0.3980386
143	0xbf18aa52	-0.5963489
144	0xbe59623a	-0.21228877
145	0xbe51ec9a	-0.20500413
146	0xbf8ac2db	-1.0840715
147	0xbeea7a63	-0.457965
148	0xbea9fd04	-0.33200848
149	0xbf32b995	-0.69814426
150	0xbee82b13	-0.45345363
151	0xbef85b54	-0.48507178
152	0xbe8bb907	-0.27289602
153	0xbda6666f	-0.081250064
154	0xbedcaa71	-0.43098786
155	0xbe4b0b59	-0.19828548
156	0xbf874f44	-1.0571065
157	0xbe6ad382	-0.22932246
158	0xbebffe26	-0.37498587
159	0xbf27318f	-0.65309995
160	0xbf1215ee	-0.5706471
161	0xbf100996	-0.56264627
162	0xbee3e638	-0.4451158
163	0xbf0416f1	-0.51597506
164	0xbf171358	-0.5901389
165	0x3d7e1d9a	0.06203995
166	0xbeb0ff07	-0.3456957
167	0xbe3f537d	-0.18684192
168	0xbf1151b1	-0.56765276
169	0xbe9460d1	-0.28980115
170	0xbe381c89	-0.17979635
171	0xbeaf9244	-0.3429128
172	0xbf42bda4	-0.7607062
173	0xbed9337b	-0.4242209
174	0xbf00e047	-0.5034222
175	0xbed07078	-0.40710807
176	0xbf43e3aa	-0.7651926
177	0xbe113e06	-0.14183816
178	0xbef4b28d	-0.47792473
179	0xbe87eb94	-0.2654692
180	0xbf18d6ee	-0.59702957
181	0xbe917ea5	-0.28416935
182	0xbee87b79	-0.45406702
183	0xbef54a4b	-0.47908244
184	0xbeefb3a8	-0.46816754
185	0xbc5b14b9	-0.01337164
186	0xbf41518d	-0.7551506
187	0xbf116b8b	-0.5680472
188	0xbeaf9b90	-0.34298372
189	0xbf341704	-0.7034762
190	0xbefd20b0	-0.49439
191	0x3b827f0b	0.00398243
192	0xbec8793d	-0.39154997
193	0xbe7cad35	-0.24675448
194	0xbf1e278b	-0.6177909
195	0xbe823b24	-0.25435746
196	0xbe2ff90b	-0.17184846
197	0xbf39ca5a	-0.7257439
198	0xbdd0c896	-0.10194509
199	0xbecc5d38	-0.3991487
200	0xbeb073a4	-0.34463227
201	0xbf1d4194	-0.6142819
202	0xbf83e8de	-1.030544
203	0xbf8635ed	-1.0485207
204	0xbd904ce6	-0.07045917
205	0xbeb5f40a	-0.3553775
206	0xbe8510ad	-0.25989285
207	0xbf1d51bc	-0.6145284
208	0x3b50e870	0.0031876825
209	0xbf3f2654	-0.7466786
210	0xbeb06922	-0.3445521
211	0xbf845e32	-1.0341246
212	0xbec4f234	-0.38466036
213	0xbf3b0b6a	-0.7306429
214	0xbe380091	-0.17968966
215	0xbf243f48	-0.6415906
216	0xbef3fd24	-0.47654068
217	0xbf009b47	-0.50236934
218	0xbcc4096d	-0.023930276
219	0xbf7ff8a7	-0.9998879
220	0xbc660343	-0.014038864
221	0xbe3add3e	-0.1824846
222	0xbeb28629	-0.3486798
223	0xbf4757ec	-0.77868533
224	0xbeb19330	-0.34682608
225	0xbe4ff415	-0.20307954
226	0xbdbf1c92	-0.09331621
227	0x3d005108	0.031327277
228	0xbf396b3b	-0.72429246
229	0xbedb2015	-0.42797914
230	0xbef784ca	-0.48343498
231	0xbe97811a	-0.29590684
232	0xbd8a6f54	-0.067595154
233	0xbeb49df4	-0.3527676
234	0xbf2207c3	-0.63293093
235	0xbc9d7dfe	-0.019225117
236	0xbf4b37de	-0.7938212
237	0xbf863867	-1.0485963
238	0xbf2eaa32	-0.6822845
239	0xbf02a373	-0.51030654
240	0xbf308e45	-0.68967086
241	0xbf3babd2	-0.7330905
242	0xbf0b0426	-0.54303205
243	0xbec504f3	-0.38480338
244	0xbef33c4e	-0.47506946
245	0xbebebe9d	-0.372548
246	0xbf03bf05	-0.5146335
247	0xbefaa407	-0.48953268
248	0xbe5a77d9	-0.21334781
249	0x3e441984	0.19150358
250	0xbe07b69e	-0.13253257
251	0xbc752910	-0.014963403
252	0xbf029b25	-0.5101798
253	0xbf1057b7	-0.5638384
254	0xbe4360a7	-0.19079839
255	0x3dd29ed0	0.10284197

lstm.bias_hh_l0 f4 [512]
0	0xbec63727	-0.38713953
1	0xbeab3689	-0.33440045
2	0xbe50e0a6	-0.20398197
3	0xbd40ea2d	-0.047098327
4	0xbe9edb2f	-0.310266
5	0xbe56a677	-0.20961939
6	0xbe57748f	-0.21040557
7	0x3cae6057	0.021286173
8	0xbe42a9c3	-0.19010071
9	0xbd4df986	-0.050286792
10	0xbe0e9089	-0.13922323
11	0xbe92e2c8	-0.28688645
12	0xbd838063	-0.06420972
13	0xbe4c0d8a	-0.1992704
14	0x3d7922df	0.06082427
15	0xbe5ec21a	-0.21753731
16	0x3ca6a8dc	0.02034419
17	0xbe51ca7b	-0.20487396
18	0xbe16d9ee	-0.14731571
19	0xbe37cc37	-0.17948996
20	0xbe2ab092	-0.16668919
21	0xbd89a1ba	-0.067203
22	0xbe952f8b	-0.29137835
23	0xbe8defd5	-0.2772204
24	0xbe898c8f	-0.2686505
25	0xbdf21eae	-0.11822258
26	0xbd8bef35	-0.068327345
27	0x3d4610d8	0.048355907
28	0xbe825b12	-0.25460106
29	0xbe3098a5	-0.1724573
30	0xbdb9f3d3	-0.09079709
31	0xbe3e1c6c	-0.1856553
32	0xbd87d5c2	-0.06632568
33	0xbe65850a	-0.22414032
34	0xbe970934	-0.2949921
35	0xbe03bb5a	-0.12864438
36	0xbe0aefff	-0.13568114
37	0xbce01ee1	-0.027358474
38	0xbe884888	-0.26617837
39	0xbe876332	-0.26442868
40	0x3db56f0d	0.08859072
41	0xbe27d808	-0.16391003
42	0xbd7dfa42	-0.062006243
43	0xbde08053	-0.10961976
44	0xbca8e114	-0.020615138
45	0xbeabf3b5	-0.3358437
46	0xbe1cfb6e	-0.15330288
47	0xbd8f107f	-0.06985568
48	0xbde3ede0	-0.111293554
49	0xbe2aa4ee	-0.16664478
50	0xbc7dbdf3	-0.015487182
51	0xbdd06a04	-0.10176471
52	0xbc1d5b25	-0.00960425
53	0xbd98cb4b	-0.0746065
54	0xbdc9edbc	-0.09859797
55	0xbe74e241	-0.23914434
56	0xbe730c27	-0.23735105
57	0xbda5aa24	-0.080890924
58	0xbe2c70e2	-0.16839936
59	0xbe7566ab	-0.23964946
60	0xbdccd78f	-0.10002052
61	0x3dad96c4	0.08476022
62	0xbd56c2ee	-0.052431993
63	0xbd8f4648	-0.06995827
64	0xbd953e46	-0.07287268
65	0xbd27ab5e	-0.040934913
66	0xbdc35575	-0.09537784
67	0xbe98fe05	-0.29881302
68	0xbe9f4e27	-0.31114313
69	0xbe97c28f	-0.29640624
70	0xbdfb106b	-0.12258991
71	0xbe8138bc	-0.25238597
72	0xbe40b1e0	-0.18817854
73	0xbe1b3c99	-0.15159835
74	0xbd1a5563	-0.037679087
75	0xbdec0375	-0.11524097
76	0xbe039be4	-0.12852436
77	0xbe5c6101	-0.21521379
78	0xbe78b320	-0.24287081
79	0xbe87fd40	-0.26560402
80	0xbd1e6e17	-0.03867921
81	0xbe0dbdae	-0.13841888
82	0xbdf11a77	-0.11772626
83	0xbe1f7916	-0.15573534
84	0xbe942805	-0.28936782
85	0xbe0e0ae3	-0.1387134
86	0xbe3110c4	-0.17291552
87	0xbe7ba2f4	-0.2457388
88	0xbe60ac01	-0.21940614
89	0xbe3b6062	-0.18298486
90	0xbda5ef5f	-0.08102297
91	0x3d46af84	0.04850723
92	0xbdbc903c	-0.09207198
93	0xbe49779d	-0.19674535
94	0xbe769373	-0.24079685
95	0xbe22583a	-0.15853968
96	0xbd84cdb8	-0.0648455
97	0xbe1d5966	-0.15366134
98	0xbd469e39	-0.048490737
99	0xbe1fbc0b	-0.15599076
100	0xbe73e1e1	-0.23816635
101	0x3bd68100	0.0065461397
102	0xbe656b73	-0.2240427
103	0xbe3ce199	-0.18445434
104	0xbe68ddf5	-0.2274092
105	0xbe51a022	-0.20471242
106	0xbe579e38	-0.2105645
107	0xbe611a67	-0.21982728
108	0xbc824e99	-0.015906619
109	0xbdd5c6a5	-0.10438279
110	0xbe3b8619	-0.18312873
111	0xbe575df8	-0.2103194
112	0xbe43e098	-0.19128644
113	0xbd83b2af	-0.064305656
114	0xbdd4a2cd	-0.10382614
115	0xbdc731f8	-0.09726328
116	0xbe8d1261	-0.27553084
117	0xbe15ac2d	-0.14616461
118	0xbe8804f8	-0.2656629
119	0xbd876ba0	-0.06612325
120	0xbe49de8d	-0.19713803
121	0x3cd4993f	0.02595198
122	0xbe3d7806	-0.18502817
123	0xbcdaae58	-0.026694462
124	0xbe9711dc	-0.29505813
125	0xbdf9eae0	-0.12203002
126	0xbe529c0d	-0.20567341
127	0xbde407d9	-0.11134309
128	0xbf48a085	-0.78369933
129	0xbe51a072	-0.20471361
130	0xbed92f7a	-0.42419034
131	0xbf134048	-0.5751996
132	0xbf1a4c6f	-0.6027288
133	0xbe5794dd	-0.2105288
134	0xbb93d131	-0.0045110215
135	0xbf53f39a	-0.8279358
136	0xbea5e8b8	-0.32404113
137	0xbe898dca	-0.2686599
138	0xbe82c955	-0.2554423
139	0xbe8f66b5	-0.28008047
140	0xbf19e10e	-0.6010903
141	0xbf545120	-0.82936287
142	0xbeb51c69	-0.35373238
143	0xbeecc2b0	-0.46242285
144	0xbe4a5192	-0.19757679
145	0xbe85a93c	-0.26105678
146	0xbf8fcb9d	-1.1234013
147	0xbed3206f	-0.41235682
148	0xbec9a964	-0.39387047
149	0xbf25c07d	-0.6474684
150	0xbec92477	-0.39285633
151	0xbeda9e84	-0.42699063
152	0xbeb1beb7	-0.34715816
153	0xbd863f6b	-0.06555065
154	0xbee36685	-0.44414154
155	0xbe3e934f	-0.18610881
156	0xbf69a2ff	-0.9126434
157	0xbe6c81a4	-0.23096329
158	0xbee8ffce	-0.45507663
159	0xbf175493	-0.59113425
160	0xbf1e6070	-0.618659
161	0xbed2a8cd	-0.4114441
162	0xbef8ba3e	-0.48579592
163	0xbee4887e	-0.44635385
164	0xbf025bea	-0.509215
165	0x3dd22aba	0.10262056
166	0xbeeb6fe9	-0.45983818
167	0xbe0a9e8f	-0.13537048
168	0xbf1ff733	-0.6248657
169	0xbe826c2a	-0.25473148
170	0xbe616f55	-0.22015126
171	0xbea444e6	-0.32083815
172	0xbf43bb94	-0.76458097
173	0xbeb957f1	-0.36199906
174	0xbf151d64	-0.5824797
175	0xbf00d2db	-0.5032174
176	0xbf429bb4	-0.76018834
177	0xbdaa7789	-0.08323581
178	0xbf05a891	-0.52210337
179	0xbe8ca088	-0.27466226
180	0xbf09d0b3	-0.53834075
181	0xbe941675	-0.28923383
182	0xbf007f96	-0.5019468
183	0xbefb2c22	-0.49057108
184	0xbef59368	-0.47964025
185	0xbd4fcc56	-0.05073198
186	0xbf3ca721	-0.7369252
187	0xbf2f4497	-0.68464035
188	0xbe9bb3de	-0.30410665
189	0xbf468afe	-0.77555835
190	0xbec4ced6	-0.38439053
191	0xbde187bd	-0.11012218
192	0xbec4be0b	-0.3842624
193	0xbe6817cf	-0.22665332
194	0xbf1db687	-0.6160664
195	0xbe26f41a	-0.16304055
196	0xbe90ed41	-0.2830601
197	0xbf2d7220	-0.67752266
198	0xbd8c2064	-0.068421155
199	0xbee6e290	-0.45094728
200	0xbe9e3440	-0.3089924
201	0xbf011406	-0.5042118
202	0xbf63aedd	-0.88938695
203	0xbf81b2ea	-1.0132725
204	0xbda8d85c	-0.08244392
205	0xbee612ce	-0.44936222
206	0xbe6a071f	-0.22854279
207	0xbf3882cc	-0.7207458
208	0x3ca7526a	0.02042504
209	0xbf417772	-0.75572884
210	0xbed479aa	-0.41499072
211	0xbf718100	-0.94337463
212	0xbe9d6584	-0.30741513
213	0xbf33ae9e	-0.7018832
214	0xbe1f5569	-0.15559925
215	0xbf244e6a	-0.6418215
216	0xbf0776b9	-0.5291553
217	0xbee67846	-0.45013636
218	0xbcfe0927	-0.031010224
219	0xbf7b0c9b	-0.9806611
220	0xbd9a7d94	-0.075434834
221	0xbe931567	-0.28727266
222	0xbedf44f1	-0.43607286
223	0xbf3dd6e4	-0.7415602
224	0xbe808002	-0.25097662
225	0xbda0cae1	-0.07851196
226	0xbd42cf96	-0.04756125
227	0xbc228adc	-0.009920802
228	0xbf4a84b1	-0.7910872
229	0xbec85ec7	-0.3913481
230	0xbecfe6a8	-0.40605664
231	0xbe9171ea	-0.28407222
232	0xbe34cbcc	-0.17655867
233	0xbeb92dc8	-0.3616774
234	0xbf2d0d91	-0.67598826
235	0x3ce2723e	0.027642366
236	0xbf3401dc	-0.7031534
237	0xbf951a61	-1.1648675
238	0xbf14641f	-0.5796527
239	0xbf2abe5e	-0.6669673
240	0xbf206657	-0.6265616
241	0xbf47e726	-0.7808708
242	0xbf12a014	-0.5727551
243	0xbea1f0c3	-0.31629
244	0xbeb0fbf8	-0.34567237
245	0xbea7878d	-0.32720605
246	0xbf1e3e85	-0.6181415
247	0xbeea8031	-0.45800927
248	0xbe5a0c17	-0.21293674
249	0x3e57d8e2	0.21078828
250	0xbd7ed236	-0.06221219
251	0x3cc938a4	0.024563141
252	0xbef75b7f	-0.48311993
253	0xbeee8f50	-0.46593714
254	0xbe157965	-0.1459709
255	0x3e00ecc1	0.12590314

lstm.weight_ih_l1 f4 [512, 128]
0	0x3df65439	0.12027783
1	0x3e09b5ea	0.13448301
2	0xbb3b78d0	-0.0028605945
3	0x3e1369aa	0.14395776
4	0xbd576899	-0.052589986
5	0x3c210fc1	0.009830416
6	0x3c3875a5	0.011258517
7	0x3d95a789	0.073073454
8	0xbcfa0073	-0.030517792
9	0xbd853fd4	-0.06506315
10	0x3cfe3915	0.031033078
11	0xbcbde6c0	-0.02318132
12	0xbc092631	-0.008370922
13	0xbdcaa4e0	-0.09894729
14	0x3cba79ce	0.02276316
15	0xbde248a8	-0.11049014
16	0x3c8e9949	0.017407076
17	0x3d6bd47b	0.057575684
18	0xbd6b99d5	-0.057519753
19	0x3ddc3fc5	0.107543506
20	0xbd183a9c	-0.03716527
21	0xbd9d2158	-0.076723754
22	0x3dafdca1	0.085870035
23	0x3dfccf87	0.1234427
24	0xbe08875f	-0.1333289
25	0x3c818028	0.01580818
26	0xbd94bfea	-0.07263167
27	0x3e3a588d	0.18197842
28	0x3d639d72	0.055570073
29	0xbd4cb35d	-0.04997574
30	0xbbd184ef	-0.0063940207
31	0x3b428770	0.0029682778
32	0xbe6fc4d5	-0.23414929
33	0x3d45876f	0.048224863
34	0x3dc27475	0.09494869
35	0x3e73cbac	0.23808163
36	0x3d8ba4be	0.068185315
37	0xbe22fe0c	-0.15917224
38	0x3e516ab0	0.20450854
39	0x3cfff542	0.031244878
40	0xbd865058	-0.06558293
41	0x3db12507	0.086496405
42	0xbd060a19	-0.032724474
43	0xbdc403ff	-0.09571075
44	0xbd492b55	-0.04911359
45	0x3d11dfaf	0.035613712
46	0xbcaea061	-0.021316709
47	0xbd5943fc	-0.05304335
48	0xbdb5046c	-0.08838734
49	0x3d8131b5	0.06308309
50	0x3d4e6e15	0.05039795
51	0x3d675e1f	0.056486245
52	0xbc8dfbd8	-0.017332003
53	0x3e37301b	0.17889445
54	0xbc1f7fef	-0.009735092
55	0xbd5cfba4	-0.05395092
56	0xbc7af0f5	-0.015316238
57	0x3c4e0b08	0.012575872
58	0x3e2a0115	0.16601975
59	0x3da9e4aa	0.08295567
60	0x3ca4c36c	0.020112716
61	0xbd11617c	-0.03549336
62	0xbd192b20	-0.037394643
63	0x3c43f202	0.011959555
64	0xbdc48c41	-0.09597064
65	0xbd7de84c	-0.061989114
66	0x3d1f1b15	0.038844187
67	0x3d3c1326	0.0459167
68	0x3db92652	0.09040512
69	0x3c7d12cf	0.015446379
70	0x3c38eb9e	0.011286644
71	0xbc503bc3	-0.012709561
72	0xba8c1e07	-0.0010690101
73	0xbe806380	-0.25075912
74	0x3d2aa4af	0.04166096
75	0x3d5cda56	0.05391916
76	0x3ab84b14	0.0014060461
77	0x3dd6ea0e	0.10493861
78	0x3ba4c89d	0.005028798
79	0xbdbe369f	-0.09287762
80	0xbcb1f531	-0.021723362
81	0x3e6732bb	0.22577946
82	0xbdba498a	-0.09096058
83	0x3c0d335a	0.0086182
84	0xbdcd2641	-0.10017062
85	0xbd29d5a0	-0.041463494
86	0x3d90756f	0.07053649
87	0xbd461769	-0.04836217
88	0xbd907ada	-0.07054682
89	0x3e3f228d	0.18665524
90	0xbe2992a7	-0.1655985
91	0xbe106070	-0.14099288
92	0x3d886cc9	0.06661374
93	0xbdf2f2d5	-0.11862723
94	0xbe17a3d1	-0.14808585
95	0xbd3b793b	-0.04576991
96	0xbc9e8da6	-0.019354653
97	0x3d51747b	0.051136475
98	0xbe0f7a60	-0.14011526
99	0x3dfff032	0.124969855
100	0xbd52cc54	-0.051464394
101	0x3d99219b	0.07477113
102	0x3d910ba9	0.07082302
103	0xbdf616f3	-0.12016096
104	0xbda8ce24	-0.08242443
105	0xbd8cb8b7	-0.06871169
106	0x3e458bce	0.19291613
107	0xbcd29dd0	-0.025710016
108	0x3cd3f0fc	0.025871746
109	0x3e307dca	0.17235485
110	0x3d8fe8a5	0.07026795
111	0x3ded4cb3	0.11586895
112	0x3de08b1a	0.109640315
113	0x3e0a173b	0.13485424
114	0xbc9a363b	-0.018824687
115	0xbcba8fe2	-0.022773687
116	0x3c600a70	0.0136743635
117	0x3ddd4be2	0.10805489
118	0x3d9bfdca	0.07616766
119	0x3d26e398	0.040744394
120	0x3db178c9	0.08665616
121	0xbdaa994c	-0.0833002
122	0x3d3ce13d	0.04611324
123	0x3d9b6b66	0.07588844
124	0xbe02096a	-0.12698904
125	0xbe2a32ad	-0.16620894
126	0x3df48152	0.119387284
127	0x3c805cfa	0.015669335
128	0xb92f135f	-0.00016696517
129	0x3c80eb82	0.015737299
130	0xbd8572fd	-0.06516073
131	0x3c6a4da8	0.014300741
132	0x3ccaa90d	0.024738813
133	0x3db8dac5	0.09026102
134	0xbd8865ab	-0.066600166
135	0x3c7ff1de	0.0156216305
136	0x3d9ca633	0.076488875
137	0x3d3d12ca	0.046160497
138	0x3b8dd308	0.0043281354
139	0xbe42c16a	-0.19019094
140	0xbc82088e	-0.01587322
141	0xbea03576	-0.31290787
142	0xbd660c15	-0.056163866
143	0xbd43fdb1	-0.04784936
144	0xbd14f1d6	-0.036363445
145	0xbd881ea1	-0.06646467
146	0x3d126c01	0.03574753
147	0xbe16b31a	-0.1471676
148	0xbd865ef7	-0.06561082
149	0xbd8755e6	-0.06608181
150	0x3a04b508	0.0005062376
151	0xbda78ee4	-0.08181551
152	0x3b24b5ca	0.0025132769
153	0x3e4bfcd2	0.19920662
154	0xbd0890f0	-0.03334135
155	0x3daccd3e	0.08437584
156	0xbcfa5ba4	-0.030561276
157	0x3e1a2b55	0.15055592
158	0x3d06394d	0.03276949
159	0xbe430b1f	-0.19047211
160	0x3d0804e0	0.033207774
161	0xbb313a55	-0.0027042825
162	0xbda251c9	-0.079257555
163	0xbcd051e5	-0.025429675
164	0xbdc010ec	-0.093782276
165	0xbcf789ab	-0.030217012
166	0x3e1d8d47	0.15385924
167	0x3e776a17	0.24161564
168	0xbdafb7c9	-0.08579976
169	0xbe0efec9	-0.1396438
170	0xbd546fdf	-0.0518645
171	0xbd459f6e	-0.048247747
172	0x3d2d4412	0.042301245
173	0x3d229e13	0.039701533
174	0xbe2835db	-0.16426794
175	0xbd617f8b	-0.055053275
176	0xbdd6ca70	-0.10487831
177	0x3d8ef866	0.06980972
178	0xbe1847af	-0.14871095
179	0x3d4b571c	0.04964362
180	0x3dc0435c	0.09387848
181	0x3e28869f	0.16457604
182	0x3d8f8f49	0.07009751
183	0x3d9a93eb	0.07547744
184	0xbd22b559	-0.039723728
185	0xbd06a2ad	-0.032869983
186	0x3e21ea88	0.15812123
187	0x3cef5ec5	0.029219994
188	0xbce5c04a	-0.028045792
189	0x3d3eecb7	0.046612468
190	0x3ca7327c	0.020409815
191	0xbc2800ea	-0.010254124
192	0xbdf0ad0f	-0.11751758
193	0xbe3979f1	-0.18112923
194	0xbbc4d718	-0.0060070865
195	0x3d95241d	0.07282279
196	0x3de9d56a	0.114176586
197	0x3d9b7c31	0.07592047
198	0x3d653012	0.055954047
199	0xbe08f4fb	-0.13374703
200	0x3c221b91	0.009894268
201	0xbd80791a	-0.06273098
202	0xbc9bf78b	-0.019038936
203	0x3c54b38f	0.012982263
204	0x3e1a0c80	0.15043831
205	0xbc686430	-0.014184043
206	0xbe019055	-0.12652715
207	0x3dec8bd1	0.11550105
208	0xbe29493a	-0.1653184
209	0x3de24e31	0.1105007
210	0xbdceb8e6	-0.1009386
211	0x3d81fe32	0.06347312
212	0x3e64f2e9	0.22358288
213	0xbdc76fd0	-0.097381234
214	0xbd8f5d19	-0.07000179
215	0xbaf4964b	-0.0018660513
216	0x3d2ad007	0.041702297
217	0x3d43c3e5	0.04779424
218	0xbddf1f9e	-0.108947024
219	0x3ce8da3f	0.02842438
220	0xbdf46e1a	-0.11935063
221	0x3d2e232b	0.042514008
222	0x3db738ac	0.08946356
223	0xbd8994be	-0.067178234
224	0x3b945ea3	0.004527883
225	0x3e46b9e0	0.19406843
226	0xbdfb886a	-0.12281878
227	0x3c5117f9	0.012762063
228	0x3bc33277	0.0059569436
229	0x3d554df9	0.052076314
230	0x3e1e2dfa	0.15447226
231	0xbc813873	-0.015773987
232	0xbddf4510	-0.109018445
233	0xbd618f2e	-0.055068187
234	0xbc7575d5	-0.014981707
235	0x3d4774b4	0.04869528
236	0xbdc8aad9	-0.097982116
237	0x3d9760b2	0.0739149
238	0xbd69bd80	-0.057065487
239	0xbd86046e	-0.06543814
240	0x3dad653e	0.08466576
241	0x3e999431	0.29995874
242	0xbdf62552	-0.12018837
243	0xbd9a2b6d	-0.07527814
244	0xbd449f9a	-0.04800377
245	0x3be2c188	0.0069200434
246	0xbe1484b7	-0.14503752
247	0xbbb7a102	-0.0056039104
248	0xbd7a0b0f	-0.061045703
249	0xbb83cf2c	-0.0040224995
250	0x3d028ed0	0.031874478
251	0x3d4c61aa	0.049897827
252	0xbd23769b	-0.039908033
253	0xbdbd8c0a	-0.09255226
254	0xbd958eaa	-0.07302602
255	0xbd676642	-0.056494005

lstm.weight_hh_l1 f4 [512, 128]
0	0xbe91b853	-0.2846094
1	0xbe92d525	-0.2867824
2	0x3e5e6be5	0.21720846
3	0x3e4684ad	0.1938655
4	0xbe306901	-0.17227556
5	0x3e56b829	0.20968689
6	0xbeaa18bf	-0.33222005
7	0xbe79ebbb	-0.2440633
8	0x3b277f6c	0.0025558127
9	0xbdd8af99	-0.105803676
10	0x3e409f8c	0.18810862
11	0x3e9bbdfa	0.30418378
12	0x3eadc423	0.33938703
13	0x3ecc1826	0.39862174
14	0xbeaf8b2a	-0.3428586
15	0xbd827464	-0.06369856
16	0x3e83798e	0.25678676
17	0x3ec5d06a	0.3863557
18	0x3e96e269	0.29469612
19	0xbc0bbfa5	-0.008529578
20	0x3dac7c31	0.08422125
21	0x3de5a512	0.11213125
22	0x3de7d155	0.11319224
23	0x3e82d594	0.25553572
24	0x3e420edc	0.18950981
25	0x3ecd10e2	0.40051943
26	0x3e555a3b	0.20835201
27	0x3d98985b	0.074509345
28	0xbe9ddc12	-0.30831963
29	0x3ea778a5	0.32709232
30	0xbebec329	-0.3725827
31	0xbe3594b7	-0.17732511
32	0xbde63b96	-0.11241834
33	0x3d841302	0.06448938
34	0x3e8c49ec	0.27400148
35	0xbe8bef36	-0.2733094
36	0xbde37467	-0.11106186
37	0xbe9e2ada	-0.30892068
38	0xbd174ff5	-0.036941487
39	0x3dd0fc52	0.10204376
40	0xbe92bbef	-0.28659007
41	0x3ecfd9ca	0.40595847
42	0xbe126fa8	-0.14300406
43	0xbd8c6e92	-0.06857027
44	0x3ec60f47	0.3868353
45	0xbe707a21	-0.23484088
46	0xbe8cbca0	-0.2748766
47	0xbe258bfa	-0.16166678
48	0xbea5f954	-0.32416785
49	0x3ecaf4e7	0.3963997
50	0x3e3d0a7f	0.18461035
51	0x3d53b96a	0.051690497
52	0xbc57307c	-0.013134118
53	0x3e0874db	0.13325827
54	0x3e96f1b1	0.2948127
55	0xbe9afab1	-0.30269387
56	0xbd90d6ed	-0.07072244
57	0x3d50fc16	0.051021658
58	0x3cbce6bc	0.023059241
59	0x3e5dab86	0.21647462
60	0xbec5cb60	-0.38631725
61	0x3eaa8e96	0.3331191
62	0x3e180a4e	0.14847681
63	0x3e8f95bd	0.2804393
64	0xbeb108e0	-0.34577084
65	0xbd95d495	-0.073159374
66	0x3eb9b171	0.3626819
67	0xbd4775ca	-0.048696317
68	0xbc34b022	-0.011028321
69	0xbe170d31	-0.14751126
70	0xbef56c40	-0.4793415
71	0xbe2f1468	-0.17097628
72	0xbe602f3b	-0.21893017
73	0xbe7f85e3	-0.24953417
74	0xbe9c35c2	-0.30509764
75	0xbe8ae71b	-0.27129444
76	0xbd75d3e3	-0.060016524
77	0x3e8b504d	0.27209702
78	0x3ea4081e	0.32037443
79	0x3e5d5763	0.21615367
80	0x3e7d95af	0.24764131
81	0x3d15aee5	0.036543746
82	0xbe9df37b	-0.30849823
83	0x3e9fa9b9	0.31184176
84	0x3de2d46f	0.11075675
85	0x3e8671cf	0.26258704
86	0x3eba3c5a	0.3637417
87	0x3e06ef3c	0.13177198
88	0xbeb61114	-0.35559905
89	0xbd73690e	-0.05942636
90	0x3db6b349	0.08920915
91	0xbd9b43c8	-0.075812876
92	0x3e800898	0.25006557
93	0x3e119b50	0.14219403
94	0xbd4f60d2	-0.050629444
95	0xbebdd84e	-0.3707909
96	0xbeb16417	-0.34646675
97	0xbe32555e	-0.17415377
98	0x3df31199	0.11868591
99	0xbc791254	-0.015202124
100	0x3c68cabe	0.014208494
101	0xbe90fc98	-0.28317714
102	0x3e9c5405	0.30532852
103	0x3dbdf1c3	0.09274628
104	0x3dbf3d5a	0.09337874
105	0xbeb3f2e4	-0.35146248
106	0xbe35d633	-0.17757492
107	0x3cbc4ac2	0.022984866
108	0xbe480f6e	-0.19537136
109	0x3e2bf7c7	0.16793738
110	0x3dbfd1c8	0.093661845
111	0xbd8b1ba4	-0.067923814
112	0xbd45e0a2	-0.04830993
113	0x3c406595	0.011742969
114	0xbdb1feb7	-0.08691161
115	0x3eaf4d94	0.34238875
116	0x3d74b36b	0.05974142
117	0x3e23297f	0.15933798
118	0x3eae6546	0.3406164
119	0xbe1d8eb2	-0.15386465
120	0xbe9c67d2	-0.3054796
121	0xbdd3daf2	-0.10344495
122	0xbe629025	-0.221253
123	0x3ea5f693	0.32414684
124	0x3ea50140	0.32227516
125	0x3e342daa	0.17595544
126	0x3e3818b8	0.1797818
127	0xbd3f0a7c	-0.046640858
128	0xbe423ef2	-0.18969324
129	0xbeb8525c	-0.36000335
130	0x3d0f9460	0.03505361
131	0xbdb69f7e	-0.089171395
132	0x3d09cfbf	0.033645388
133	0x3e400107	0.18750392
134	0xbde1131b	-0.10989972
135	0xbe369193	-0.1782897
136	0x3bbdf3cd	0.0057968856
137	0xbe57d1be	-0.21076104
138	0x3deba639	0.11506314
139	0xbe067702	-0.13131335
140	0x3e5abd0c	0.21361178
141	0x3e540a1c	0.20706981
142	0x3db3f3a1	0.08786703
143	0xbbd209c9	-0.006409858
144	0xbb015047	-0.0019731687
145	0x3d853300	0.06503868
146	0x3db5db49	0.08879716
147	0xbb96d595	-0.0046030977
148	0x3d65dd74	0.056119397
149	0x3ceb651c	0.028734736
150	0x3e2ac356	0.16676077
151	0xbd89f556	-0.06736247
152	0x3e30a0e6	0.17248878
153	0x3d1f2f88	0.03886369
154	0x3da0c4e6	0.078500554
155	0xbd81d30c	-0.06339082
156	0xbe6f65de	-0.23378703
157	0x3e2db387	0.16963015
158	0x3de1e212	0.110294476
159	0x3d278d10	0.040906012
160	0x3d888d98	0.06667632
161	0x3e61acb3	0.22038536
162	0x3d7e62ff	0.06210613
163	0xbcf8a6f3	-0.030353045
164	0xbd80b8d0	-0.0628525
165	0xbe57f3f1	-0.2108915
166	0x3e1091c9	0.14118113
167	0x3e0f1aa0	0.13975
168	0xbe0e0dcb	-0.13872449
169	0x3e7b9dc9	0.24571909
170	0xbe22b03d	-0.15887542
171	0x3dd58b9b	0.10427018
172	0x3c7b2caa	0.015330473
173	0xbc7ae1d1	-0.015312628
174	0xbc273d40	-0.010207474
175	0x3d7d5f29	0.06185833
176	0xbde27ce1	-0.11058975
177	0xbc29452a	-0.010331431
178	0xbcfe53a4	-0.031045742
179	0x3d4f3202	0.0505848
180	0xbdf206e8	-0.118177235
181	0x3e299bf9	0.16563405
182	0xbd1c6acb	-0.038187783
183	0xbc84c0fe	-0.016205307
184	0x3d10cb99	0.035350416
185	0xbded5806	-0.11589055
186	0xbe03821a	-0.12842599
187	0x3dd73503	0.10508158
188	0xbdc27ee9	-0.094968624
189	0x3d74079f	0.05957758
190	0x3d7cab1c	0.06168662
191	0xbd813525	-0.06308965
192	0xbe0346bc	-0.12819952
193	0xbe81b6a7	-0.25334665
194	0x3d115190	0.035478175
195	0xbcc76283	-0.024338966
196	0x3d688659	0.05676875
197	0xbda5f690	-0.08103669
198	0xbe83965e	-0.2570066
199	0xbcd280f2	-0.025696252
200	0xbdbc4b06	-0.09193997
201	0xbd377f4b	-0.04479913
202	0x3c402350	0.011727169
203	0xbe9649d4	-0.293532
204	0x3e8550e6	0.26038283
205	0x3e2061ef	0.15662359
206	0xbe49b3eb	-0.1969754
207	0xbe31126a	-0.1729218
208	0xbd6a5869	-0.05721322
209	0xbe05f868	-0.1308304
210	0xbc8c0302	-0.017091278
211	0x3dfa8c71	0.12233818
212	0xbe65b179	-0.22430982
213	0x3d520462	0.05127371
214	0x3d99a6cb	0.07502516
215	0x3e1e21f6	0.15442643
216	0x3c576845	0.013147418
217	0xbe6a0576	-0.22853646
218	0xbd33d7a4	-0.043906823
219	0x3e26cbf3	0.16288738
220	0x3ded4fd7	0.11587494
221	0xbdb78a98	-0.089619815
222	0xbe230a0c	-0.15921801
223	0xbc219906	-0.009863144
224	0xbcbd3f9b	-0.023101619
225	0x3d82d205	0.06387714
226	0xbd909990	-0.0706054
227	0xbd658f28	-0.056044728
228	0xbce1ce61	-0.02756423
229	0xbdb95276	-0.09048931
230	0x3d32ed66	0.043683432
231	0x3e131d8f	0.14366744
232	0x3e1db597	0.15401302
233	0xbdc2a87b	-0.09504791
234	0xbdea1a89	-0.114308424
235	0x3e74b272	0.23896196
236	0xbe4fdfa8	-0.20300162
237	0x3e481ece	0.19543001
238	0x3deceb75	0.11568347
239	0xbd1ff2e1	-0.039049987
240	0xbda455b4	-0.08024159
241	0x3dd0387f	0.10167026
242	0xbaf57668	-0.0018727304
243	0x3e424c3e	0.18974397
244	0xbcf4d2ff	-0.029885767
245	0xbd93a1d5	-0.072086014
246	0x3d39cf29	0.04536358
247	0x3c3bcda2	0.011462601
248	0xbe38785d	-0.18014665
249	0xbe90680d	-0.28204384
250	0xbe29bf51	-0.16576888
251	0xbc88ee80	-0.016715288
252	0x3e07a0bb	0.13244908
253	0x3ede5790	0.4342618
254	0x3cf51fc1	0.029922368
255	0x3e01552e	0.1263015

lstm.bias_ih_l1 f4 [512]
0	0xbe9ab97f	-0.30219647
1	0xbde86f96	-0.11349408
2	0xbe9143b9	-0.2837198
3	0xbe964425	-0.29348865
4	0xbead90a0	-0.33899403
5	0xbe40641d	-0.1878819
6	0xbe4c4a6d	-0.19950266
7	0xbe484c71	-0.1956041
8	0xbd58107a	-0.05275009
9	0xbe786de5	-0.24260671
10	0xbeae96f9	-0.34099558
11	0xbe35df1d	-0.17760892
12	0xbebde7fb	-0.3709105
13	0xbe2b8372	-0.16749361
14	0x3b09dd79	0.002103655
15	0xbea281e6	-0.3173973
16	0xbe48204d	-0.19543572
17	0xbea64857	-0.32477066
18	0xbe77ca7f	-0.2419834
19	0xbe28bbab	-0.1647784
20	0xbe46bdf7	-0.19408403
21	0xbe9d15c8	-0.3068068
22	0xbeef4a38	-0.46736312
23	0xbea2e832	-0.31817776
24	0xbe0f488d	-0.1399252
25	0xbe30fcf6	-0.17283997
26	0xbed9b568	-0.42521214
27	0xbe7737bd	-0.24142356
28	0xbe4e7c22	-0.2016454
29	0xbe728963	-0.23685221
30	0xbe214238	-0.15747917
31	0xbec352c5	-0.38149086
32	0xbeaad843	-0.3336812
33	0xbed42bc5	-0.41439644
34	0xbe84739c	-0.25869453
35	0xbe45e818	-0.19326818
36	0xbec92f6c	-0.39293993
37	0xbe3cd842	-0.18441871
38	0xbd7f839a	-0.062381364
39	0xbe777334	-0.2416504
40	0xbd8cc33d	-0.06873176
41	0xbe94205e	-0.28930944
42	0xbe5308e7	-0.20608865
43	0xbe1df1fc	-0.15424341
44	0xbdcef26e	-0.101048335
45	0xbe970b18	-0.2950065
46	0xbe6fc8ee	-0.23416492
47	0xbd066cbf	-0.032818552
48	0x3e5b1a36	0.21396717
49	0xbe4f22b8	-0.20228088
50	0xbe9d0561	-0.30668166
51	0xbeb4fb59	-0.35348013
52	0xbec35021	-0.3814707
53	0xbe8ecf56	-0.2789256
54	0xbeac2693	-0.3362318
55	0x3c93b472	0.018030379
56	0xbecafda0	-0.39646626
57	0xbe3ba62a	-0.18325105
58	0xbe070d28	-0.13188612
59	0xbea64f67	-0.32482454
60	0xba1185f6	-0.0005551273
61	0x3df6e9ad	0.12056289
62	0xbedb59d6	-0.42841977
63	0x3e6b1776	0.22958168
64	0x3d8e4a38	0.0694775
65	0xbebf2191	-0.37330297
66	0xbdc8269d	-0.0977299
67	0xbeb4f957	-0.3534648
68	0xbeb752bf	-0.35805318
69	0xbe81d4b6	-0.25357598
70	0xbe8c3de3	-0.27390966
71	0xbe5d133a	-0.21589366
72	0xbe7a5389	-0.24445929
73	0xbe3f5c38	-0.18687522
74	0x3e1cb467	0.15303193
75	0xbe0f83c0	-0.14015102
76	0xbeb3cc2a	-0.35116702
77	0xbe5d21ed	-0.21594973
78	0xbd3e28ff	-0.046425816
79	0xbeb6d027	-0.35705683
80	0xbe0772b4	-0.1322735
81	0xbeab6fc8	-0.3348372
82	0x3e0941d2	0.13404015
83	0x3db62b85	0.088950194
84	0xbeacd3ac	-0.33755243
85	0xbe35c231	-0.1774986
86	0xbe64b4d2	-0.22334602
87	0xbecb8cad	-0.39755765
88	0x3da163ba	0.078803495
89	0xbd88dc10	-0.066825986
90	0xbe428732	-0.18996885
91	0xbeb75f86	-0.35815066
92	0xbea4271f	-0.32061097
93	0xbebdbb8f	-0.37057158
94	0xbed921e4	-0.4240867
95	0xbe07a764	-0.13247448
96	0xbe25fefc	-0.1621055
97	0xbe0740d4	-0.13208324
98	0xbe1687c1	-0.14700224
99	0xbe6c6f72	-0.23089388
100	0xbee02eed	-0.43785802
101	0xbdea9d30	-0.114557624
102	0x3df71ee4	0.12066439
103	0xbe31cfe9	-0.17364468
104	0xbe72fc0d	-0.23728962
105	0xbd930d42	-0.07180263
106	0xbe5f9686	-0.21834764
107	0xbe32ea8e	-0.17472288
108	0xbe6f3c43	-0.23362832
109	0xbea163a3	-0.3152133
110	0xbe3a6437	-0.18202291
111	0xbe95f5d9	-0.2928913
112	0xbf053732	-0.52037346
113	0xbc9cdefa	-0.019149292
114	0xbe4a5463	-0.19758753
115	0xbe740c7c	-0.23832887
116	0xbe0955c5	-0.13411625
117	0xbe65c716	-0.22439227
118	0x3d4078c5	0.046990175
119	0xbe693e74	-0.2277773
120	0xbe90494a	-0.28180915
121	0xbe41e5c4	-0.18935305
122	0xbe804a83	-0.25056848
123	0x3d400003	0.04687501
124	0xbe4dccb7	-0.20097624
125	0xbeb3f4dc	-0.3514775
126	0xbeb58ffa	-0.35461408
127	0xbeb4ddca	-0.35325462
128	0xbe777923	-0.24167304
129	0xbe7ee701	-0.24892808
130	0xbe557673	-0.20845966
131	0xbe94b995	-0.29047838
132	0xbea39950	-0.31952906
133	0xbec5c60f	-0.3862767
134	0xbe9147c1	-0.28375056
135	0x3dfd5984	0.123705894
136	0xbe83e509	-0.25760677
137	0x3d7c68d9	0.061623428
138	0xbe62b7f0	-0.22140479
139	0xbdc941fc	-0.09827039
140	0xbe863897	-0.2621505
141	0xbe1e44d3	-0.15455942
142	0xbe88c9ab	-0.2671636
143	0xbe48b2bb	-0.1959943
144	0xbcb07b4a	-0.021543164
145	0xbe50d3a2	-0.20393232
146	0xbe84cb82	-0.25936514
147	0x3cbab01a	0.02278905
148	0xbe5b8c46	-0.21440229
149	0xbd8b2e2a	-0.067959145
150	0xbe1efb66	-0.15525588
151	0xbeaa214b	-0.33228526
152	0xbe6aca47	-0.22928725
153	0xbe88ae04	-0.26695263
154	0xbea15f14	-0.3151785
155	0xbe1130e6	-0.1417881
156	0xbe9b2ff1	-0.30310014
157	0xbe237e1c	-0.15966076
158	0xbed95004	-0.4244386
159	0xbe8cc4cd	-0.27493897
160	0xbe54d084	-0.20782667
161	0xbed1f0d8	-0.41004062
162	0xbdbe045d	-0.09278176
163	0xbf0c03d2	-0.5469333
164	0xbe40db47	-0.18833648
165	0xbeb2148b	-0.34781298
166	0x3d938f2e	0.07205044
167	0xbe89f5ca	-0.26945335
168	0xbebe3f0f	-0.37157485
169	0xbed4125f	-0.41420266
170	0xbe11444e	-0.14186212
171	0xbdb2fd10	-0.08739674
172	0x3dcef3c9	0.10105092
173	0x3e50fc06	0.2040864
174	0xbec19168	-0.3780625
175	0xbe1d7cab	-0.15379588
176	0x3e2ccc20	0.16874743
177	0xbe7541e1	-0.23950912
178	0xbe57196a	-0.21005788
179	0xbdff8683	-0.12476828
180	0xbe405356	-0.1878179
181	0xbea69aa3	-0.32539853
182	0xbe0be99b	-0.13663332
183	0xbea56572	-0.3230396
184	0xbe4b66ee	-0.19863483
185	0xbe0f1154	-0.13971454
186	0xbe0e46bc	-0.1389417
187	0xbf0fcb7f	-0.56169885
188	0x3e7be0d6	0.24597487
189	0x3e65f33c	0.22456068
190	0xbe0781bd	-0.13233085
191	0xbe41d326	-0.18928203
192	0x3db85f01	0.090024956
193	0xbeb68c2d	-0.3565382
194	0xbc7a8fa0	-0.015293032
195	0xbeaf0308	-0.34182
196	0xbdbd66e3	-0.0924814
197	0xbea3beb1	-0.31981423
198	0xbec66d89	-0.38755444
199	0xbe77ab0b	-0.24186341
200	0xbeb077cd	-0.344664
201	0xbd6d0d8d	-0.05787425
202	0x3e536d18	0.20647085
203	0xbed7fa54	-0.42183173
204	0xbe5ef5e7	-0.21773492
205	0x3e6a1986	0.22861299
206	0xbc146520	-0.009057313
207	0xbe9435f1	-0.28947404
208	0xbe6bdd2b	-0.23033588
209	0xbdce1474	-0.10062495
210	0x3e2a51f3	0.16632824
211	0x3e40374c	0.18771094
212	0xbea7d88d	-0.32782403
213	0xbe997f88	-0.2998011
214	0x3ca5e595	0.020251075
215	0xbe00f406	-0.12593088
216	0x3e08226b	0.1329438
217	0xbc93edf9	-0.01805781
218	0xbd7bb5c8	-0.061452657
219	0xbe7e933b	-0.24860851
220	0xbe47b9e4	-0.19504505
221	0xbeb56db1	-0.3543525
222	0xbe7f6295	-0.2493995
223	0xbe9d1ec3	-0.30687532
224	0xbe45e828	-0.19326842
225	0x3c9c7045	0.019096503
226	0xbe263c6d	-0.16233988
227	0xbea93d8b	-0.33054766
228	0xbe284c5d	-0.1643538
229	0xbe5b051c	-0.21388668
230	0x3e8296cd	0.25505677
231	0xbe6b9704	-0.23006827
232	0xbe852ac4	-0.2600919
233	0xbea58f57	-0.32335922
234	0xbe8e0ac4	-0.2774259
235	0xbe10f99a	-0.14157715
236	0xbe4ee557	-0.20204674
237	0xbe4c2c95	-0.19938882
238	0xbed49e9e	-0.41527265
239	0xbe9401e1	-0.28907683
240	0xbe42216c	-0.18958062
241	0xbe5f5ed1	-0.21813513
242	0xbe055550	-0.13020825
243	0xbe6d32a7	-0.23163854
244	0xbe8ca27d	-0.2746772
245	0x3d6ceaca	0.0578411
246	0x3d06a7e5	0.03287496
247	0xbe2a09c0	-0.16605282
248	0xbea578ab	-0.32318625
249	0xbd9b7a2d	-0.075916626
250	0xbeda9fb3	-0.42699966
251	0xbe42c863	-0.19021754
252	0xbf1f9359	-0.6233421
253	0xbed220b0	-0.41040564
254	0xbe52a4a4	-0.20570618
255	0xbe4b9dd2	-0.19884422
