models/USDJPY_model.pth (torch, 843660 bytes, 15 tensors)

lstm.weight_ih_l0 f4 [512, 12]
-0.00011161898 -6.446716e-05 -8.926983e-05 -5.324063e-05 -0.00024899573 -0.00010613438 -9.888427e-05 -9.698026e-06
-6.934648e-05 3.809517e-05 -7.93162e-05 -9.876205e-05 0.00031596376 0.00032148976 0.0003306123 0.00033061515
4.168681e-05 0.00031586085 0.0003114294 5.5883065e-06 -2.5970912e-06 -5.8517428e-05 6.4960215e-05 7.949573e-06
5.4313765e-05 5.869336e-05 5.092888e-05 6.297037e-05 2.98741e-05 5.4515047e-05 5.222464e-05 6.61898e-05
-0.000108708235 0.00012902112 0.00018589979 0.00019417742 3.162716e-05 6.489307e-05 6.1953004e-05 0.00010327628
-4.379089e-05 2.4105742e-05 -1.9005383e-06 0.00041829667 4.159489e-05 0.0005295514 0.00041596504 0.0003968476
-0.00014170576 -7.8790574e-05 -0.0001126427 -5.9293812e-05 -0.00039569283 -0.00014693956 -0.0001677078 0.00028343417
0.00011943309 0.00036052126 0.00030438026 0.00022391524 -9.957037e-05 -7.305075e-05 -7.9140955e-05 -4.8835664e-05
-0.0001984217 -0.00010748609 -0.000119311655 8.5390464e-05 -5.3711625e-05 0.00014038125 0.00014398691 7.201213e-05
-0.0012304726 -0.0011916605 -0.0012049648 -0.0011462531 -0.0006996653 -0.0012487263 -0.0012524794 -0.0008006002
-1.360866e-06 0.00011017748 -0.00037906726 -0.0004605643 -0.0005595161 -0.000587512 -0.0005856949 -0.0005380333
-0.0007350217 -0.00061826594 -0.00072124513 0.00038778502 -0.00047507006 0.00012066707 0.0005572563 0.00071985234
-0.0004223159 -0.0003251811 -0.00038780097 -0.00030323796 -0.00036573992 -0.0004266518 -0.0004075079 -0.00024229704
3.246831e-05 2.1128537e-05 -0.000120673205 -0.00016329334 2.5982124e-05 7.109421e-05 5.213126e-05 9.560316e-05
8.9904745e-05 1.266686e-05 -5.6467543e-06 0.00026055402 2.9483388e-05 0.00032737077 0.0002293511 0.00023328383
-0.00023574973 -0.000117268784 -0.00018791948 -0.00010868944 -0.00046943864 -0.00022780117 -0.00022391544 0.00019685838
-2.5591235e-05 -5.576099e-05 -1.25998195e-05 -3.2255877e-05 -0.00097451184 -0.0009350927 -0.0009539677 -0.000890532
-0.0005311876 -0.0010119271 -0.0010030379 -0.0010938123 0.00029019904 0.0006913428 -0.00023773214 -0.0005045808
-0.00055195985 -0.0005389558 -0.0005469789 -0.0005259662 -0.00010697126 -0.00055847224 -0.0005525309 -0.0004241124
-0.0002565234 -0.00015054166 -0.00038918917 -0.00037848554 -0.00047791208 -0.00038582573 -0.0004320713 -0.0003525793
-0.0004955817 -0.00046313767 -0.0004367104 -0.00030817103 6.753917e-05 -3.072452e-05 -0.00015780142 -0.00028732442
-0.00013839651 -7.997603e-05 -0.00010866011 -3.8883634e-05 -0.00027458987 -0.00015637795 -0.0002037811 0.00040043693
-6.144409e-05 0.00032357636 0.0002875831 0.00032196712 2.6564463e-05 1.9019484e-05 6.02339e-05 6.3188054e-05
-0.00017524518 5.3614203e-06 -2.5049434e-05 5.1834504e-06 3.5570803e-05 0.0001081849 -0.00014116456 -0.00016541747
-7.1363e-05 -2.2527203e-05 -4.370811e-05 -7.982548e-06 -0.00011126685 -7.637455e-05 -7.8828736e-05 9.9378485e-05
0.00010630149 0.00015759349 6.2783474e-05 1.3963056e-05 7.810133e-05 9.253223e-05 9.506992e-05 0.00010948676
4.797648e-06 7.147653e-05 6.454351e-05 0.00018496477 7.948513e-05 0.00028531477 0.0002114983 0.00021512539
-0.00064940454 -0.00057552196 -0.00061629346 -0.00056764577 -0.00031295224 -0.00064251584 -0.00062804937 -0.00041177313
-0.00019058143 -0.00012138672 -0.0005795465 -0.00055961584 -0.0001284708 -3.0552706e-05 -9.587799e-05 -4.2804546e-05
-0.00018564065 -0.00011813314 -0.00011456622 -7.782498e-05 0.00032281622 -0.000120925266 -0.00023718423 -0.00035226936
-8.50309e-05 -5.9195132e-05 -7.160821e-05 -3.9011516e-05 -7.5873715e-05 -9.297317e-05 -0.000106929736 7.3373834e-05
5.0228162e-05 0.00025379303 0.00021049258 0.00017127098 -0.00043529875 -0.00039490993 -0.000418518 -0.0003863121
00000000: fc14 eab8 8b32 87b8 6036 bbb8 b14e 5fb8
00000010: a48b 82b9 7694 deb8 1760 cfb8 b4b4 22b7
00000020: 1c6e 91b8 61c8 1f38 9056 a6b8 791e cfb8
00000030: f0a7 a539 a08d a839 0856 ad39 6a56 ad39
00000040: dfd8 2e38 209a a539 5947 a339 3083 bb36
00000050: b049 2eb6 9c70 75b8 403b 8838 285f 0537
00000060: f6ce 6338 842d 7638 789c 5538 f60e 8438
00000070: 249a fa37 16a7 6438 c80b 5b38 61cf 8a38
00000080: 4afa e3b8 d849 0739 18ee 4239 1b9c 4b39
00000090: 68a7 0438 3417 8838 c4ec 8138 0896 d838
000000a0: 1cac 37b8 b036 ca37 0016 ffb5 d44e db39
000000b0: 2c76 2e38 98d1 0a3a e215 da39 fc0f d039
000000c0: da96 14b9 5e3c a5b8 973a ecb8 3fb2 78b8
000000d0: fe74 cfb9 ca13 1ab9 b8da 2fb9 e499 9439
000000e0: 2778 fa38 5804 bd39 3a95 9f39 caca 6a39
000000f0: 6fd0 d0b8 d332 99b8 7af8 a5b8 e5d4 4cb8
00000100: 6b0f 50b9 286a e1b8 f536 fab8 a813 b338
00000110: 6b48 61b8 4e33 1339 31fb 1639 3805 9738
00000120: cf47 a1ba 7e31 9cba e9ef 9dba df3d 96ba
00000130: be69 37ba 4dac a3ba 3c2a a4ba 5fdf 51ba
00000140: 00a7 b6b5 160f e738 8cbd c6b9 e577 f1b9
00000150: 7dac 12ba 4303 1aba 5289 19ba ce0a 0dba
00000160: 79ae 40ba 2013 22ba f111 3dba a04f cb39
00000170: d312 f9b9 a40e fd38 d614 123a 79b4 3c3a
00000180: 486a ddb9 127d aab9 c451 cbb9 e9fb 9eb9
00000190: c8c0 bfb9 3cb0 dfb9 c9a6 d5b9 1e11 7eb9
000001a0: 952e 0838 303d b137 ef11 fdb8 b939 2bb9
000001b0: 30f4 d937 6a18 9538 84a7 5a38 8e7e c838
000001c0: 3e8b bc38 c083 5437 4079 bdb6 f89a 8839
000001d0: 1853 f737 f6a2 ab39 f87d 7039 a79d 7439
000001e0: 9633 77b9 33ee f5b8 400c 45b9 33f0 e3b8
000001f0: fd1e f6b9 e9dd 6eb9 d8ca 6ab9 c56b 4e39
00000200: c2ac d6b7 e8e0 69b8 d063 53b7 7c4a 07b8
00000210: 6276 7fba 0221 75ba b013 7aba 9772 69ba
00000220: 653f 0bba a4a2 84ba 5e78 83ba 405e 8fba
00000230: db25 9839 3b3b 353a bc47 79b9 d845 04ba
00000240: 66b1 10ba b648 0dba 2263 0fba ffe0 09ba
00000250: c255 e0b8 7066 12ba b9d7 10ba 675b deb9
00000260: fd7d 86b9 b8da 1db9 160c ccb9 786f c6b9
00000270: 4690 fab9 a748 cab9 a187 e2b9 65da b8b9
00000280: ede9 01ba 49d1 f2b9 47f6 e4b9 0492 a1b9
00000290: d1a3 8d38 34de 00b8 7f77 25b9 08a4 96b9
000002a0: 881e 11b9 ceb8 a7b8 74e0 e3b8 fc16 23b8
000002b0: d4f6 8fb9 63f9 23b9 13ae 55b9 bcf1 d139
000002c0: 8bdb 80b8 afa5 a939 c0c6 9639 b2cd a839
000002d0: c0d6 de37 088c 9f37 a8a3 7c38 d483 8438
000002e0: 05c2 37b9 40e6 b336 4021 d2b7 80ed ad36
000002f0: dc31 1538 53e1 e238 9305 14b9 ea73 2db9
00000300: b8a8 95b8 cdf8 bcb7 3a53 37b8 c8ec 05b7
00000310: ef57 e9b8 462b a0b8 db50 a5b8 6b69 d038
00000320: 2eee de38 ae3f 2539 9faa 8338 de42 6a37
00000330: 55ca a338 dd0d c238 4660 c738 429c e538
00000340: 7cfb a036 abe5 9538 885b 8738 1af3 4139
00000350: 41b1 a638 4d96 9539 a5c5 5d39 4893 6139
00000360: cd3c 2aba a0de 16ba c18e 21ba 10ce 14ba
00000370: bd13 a4b9 826e 28ba aea3 24ba 41e3 d7b9
00000380: d0d6 47b9 0091 feb8 b5ec 17ba 2fb3 12ba
00000390: 1eb6 06b9 b825 00b8 1b12 c9b8 0889 33b8
000003a0: 88a8 42b9 3fbe f7b8 4543 f0b8 f835 a3b8
000003b0: a93f a939 4299 fdb8 a8b4 78b9 cbb0 b8b9
000003c0: 9e52 b2b8 4a48 78b8 5d2c 96b8 4ca0 23b8
000003d0: 641e 9fb8 97fa c2b8 773f e0b8 47e0 9938
000003e0: 14ac 5238 860f 8539 acb7 5c39 3497 3339
000003f0: cf38 e4b9 ea0b cfb9 896c dbb9 ef89 cab9

lstm.weight_hh_l0 f4 [512, 128]
3.8734706e-05 3.7542828e-05 -2.3135826e-05 7.037552e-05 8.102034e-05 -5.3763735e-05 -8.44119e-05 5.4825246e-05
8.815584e-05 -2.6201575e-05 -0.00010017381 -4.739196e-05 3.0596122e-05 0.00010253588 -5.0504263e-05 3.8799768e-05
5.7809877e-05 3.074384e-05 -6.6974266e-05 -8.7562534e-05 4.431484e-05 -6.936124e-05 4.345302e-05 4.023923e-06
-5.9612474e-05 -3.754637e-05 5.889124e-05 -2.7400789e-05 -4.6182995e-05 6.543106e-05 -4.799792e-05 0.0001334763
-4.4547073e-06 -3.8530496e-05 -0.0001019607 7.335946e-05 3.1707914e-05 7.849665e-05 -1.5831001e-05 -1.2672459e-05
-5.4240987e-05 0.00012880938 5.627357e-05 -8.4407046e-05 -1.3098141e-05 6.1229555e-05 4.2351803e-05 3.2320084e-05
5.6605888e-05 -8.212037e-05 -5.504323e-05 -0.00013106506 -6.875662e-05 -6.728981e-05 3.385527e-05 0.00011013076
-8.319843e-05 -5.6868754e-05 3.962322e-05 -5.6204954e-05 -4.405335e-06 3.1556105e-05 -4.612679e-05 5.5294844e-05
-1.31967845e-05 -9.9229204e-05 9.340109e-05 4.8059468e-05 -2.7301103e-05 8.684294e-06 6.4526495e-05 -8.903484e-05
7.600047e-05 6.198381e-06 8.4658626e-05 -7.5138814e-06 2.8693745e-05 4.9388826e-05 3.48585e-05 -2.942028e-05
-6.995617e-05 -1.1707089e-06 -9.723879e-05 -6.519205e-05 -5.4278727e-05 -3.0546253e-05 8.319819e-05 -0.00010734632
-4.3826833e-05 -1.7514816e-05 -2.8689838e-05 -8.688562e-05 -9.290693e-05 4.438648e-07 -0.00010190841 5.5511406e-05
3.155103e-07 -3.8995233e-05 -9.721334e-05 9.2053444e-05 -2.047393e-05 6.5464264e-05 4.7137648e-05 -6.762641e-05
-6.55675e-05 4.7529884e-05 6.738706e-05 -3.2575816e-05 4.0825085e-05 -8.737744e-05 -5.6232613e-05 3.12122e-05
-8.4749e-05 8.956328e-05 1.2233202e-05 3.3995157e-06 5.027234e-05 -8.7311644e-05 -5.2678417e-05 2.005116e-05
6.221575e-05 -7.5320175e-05 -4.3074364e-05 1.7156745e-07 -0.000109519126 -5.659956e-08 5.418187e-05 -5.4448952e-05
-5.586958e-07 3.9163547e-06 1.786168e-06 -8.055414e-06 -1.6811663e-06 1.8476021e-07 -4.9551186e-06 2.7245865e-06
8.285315e-08 6.270817e-07 -3.212516e-06 -9.211716e-07 -1.963498e-06 -6.951418e-07 2.9476641e-06 1.1577508e-06
-6.4723463e-07 -4.3733917e-07 -2.9791704e-06 2.1615092e-06 -1.4696104e-06 -8.6445243e-07 1.1756665e-06 -2.5924169e-06
-1.7761927e-06 1.2659257e-07 -3.9856252e-07 6.1704714e-07 -8.0435757e-07 4.201961e-07 -5.235556e-07 -4.0432087e-06
1.18074425e-07 -3.3089161e-06 4.515553e-06 -2.8641236e-06 -9.4451843e-07 1.3500107e-06 -2.9371222e-08 -4.7540357e-07
4.4024982e-06 -1.1551679e-06 -1.5828964e-06 -9.891785e-07 5.6730164e-07 -1.5391872e-06 -4.303306e-07 1.6915101e-07
-1.2392366e-07 2.6510866e-06 -2.5626746e-06 5.370519e-06 1.5049227e-06 1.4714553e-06 -4.777007e-07 -2.2677923e-06
-4.6042014e-06 1.5863161e-06 -8.497251e-07 8.079391e-06 2.3883554e-06 -1.2558507e-07 1.4250081e-06 -1.8531869e-06
1.9946847e-06 2.974777e-06 5.211164e-06 -3.7040672e-07 -6.868445e-06 2.7415854e-07 3.3147876e-07 6.7185124e-07
1.7694827e-06 -1.1140298e-06 -1.0684571e-06 -9.910582e-08 -1.8369242e-06 8.5279726e-07 -9.546848e-07 -1.3959999e-06
-1.1317697e-06 1.2557989e-06 1.2656376e-06 1.6303559e-06 -1.785914e-06 -5.29383e-07 -1.6143572e-06 1.7538403e-06
1.7812863e-06 1.592746e-06 -1.3497166e-06 4.0121586e-07 -2.399105e-07 1.3216652e-07 1.1006732e-06 -8.1195503e-07
-9.327932e-07 -3.986899e-06 -6.302821e-07 -2.3228567e-06 -1.5656125e-06 -2.786373e-06 -5.910374e-07 2.2963623e-06
-3.184846e-06 -9.1442416e-08 -1.4545863e-06 1.2238661e-07 -1.1412483e-06 5.426038e-06 -7.149729e-07 -8.9391256e-07
1.7002217e-06 -1.7495931e-06 8.929542e-07 -2.6361226e-07 -2.3385178e-07 2.0887474e-06 1.033473e-06 6.921027e-08
1.1666957e-06 2.379445e-06 -1.4195618e-06 1.1837484e-08 2.349611e-06 -6.3123307e-10 -1.6536565e-06 -4.9685696e-08
00000000: 1377 2238 4e77 1d38 cf13 c2b7 9296 9338
00000010: 77e9 a938 5f80 61b8 4b06 b1b8 29f4 6538
00000020: 4ee0 b838 74cb dbb7 6814 d2b8 bbc6 46b8
00000030: 5654 0038 8808 d738 8ad4 53b8 efbc 2238
00000040: e278 7238 f2f2 0038 8974 8cb8 c7a1 b7b8
00000050: b2de 3938 0876 91b8 5341 3638 3c05 8736
00000060: 6808 7ab8 1c7b 1db8 fd01 7738 bfda e5b7
00000070: 9db4 41b8 0838 8938 6051 49b8 c5f5 0b39
00000080: a579 95b6 ce9b 21b8 bcd3 d5b8 8fd8 9938
00000090: 1dfe 0438 919e a438 d1cc 84b7 cc9b 54b7
000000a0: d180 63b8 0111 0739 4907 6c38 b003 b1b8
000000b0: 16c0 5bb7 5e68 8038 e7a2 3138 6d8f 0738
000000c0: 1c6c 6d38 0a38 acb8 38de 66b8 826e 09b9
000000d0: 6e31 90b8 f11d 8db8 d2ff 0d38 00f6 e638
000000e0: d17a aeb8 5c86 6eb8 1c31 2638 9cbd 6bb8
000000f0: 8ad1 93b6 1c5b 0438 4378 41b8 63ec 6738
00000100: c267 5db7 4619 d0b8 54e0 c338 7693 4938
00000110: ac04 e5b7 c2b2 1137 6652 8738 37b8 bab8
00000120: 7162 9f38 b0fb cf36 c18a b138 c01f fcb6
00000130: 59b3 f037 d926 4f38 0835 1238 92cb f6b7
00000140: 6fb5 92b8 4021 9db5 aeec cbb8 b7b7 88b8
00000150: 57a9 63b8 ca1e 00b8 b07a ae38 1e1f e1b8
00000160: b4d2 37b8 c8ec 92b7 f5aa f0b7 5d36 b6b8
00000170: 07d7 c2b8 504c ee34 a9b7 d5b8 ebd4 6838
00000180: 6863 a934 d08e 23b8 04df cbb8 d10c c138
00000190: 6ebf abb7 dc49 8938 aab5 4538 a7d2 8db8
000001a0: 4981 89b8 d35a 4738 2752 8d38 04a2 08b8
000001b0: 9a3b 2b38 683e b7b8 4fdb 6bb8 d8e9 0238
000001c0: 46bb b1b8 ebd3 bb38 343d 4d37 3c23 6436
000001d0: 84db 5238 151b b7b8 05f3 5cb8 8a33 a837
000001e0: d479 8238 36f5 9db8 bfaa 34b8 1a38 3834
000001f0: a2ad e5b8 e017 73b3 5741 6338 1e60 64b8
00000200: 48f9 15b5 3b69 8336 44bc ef35 bd25 07b7
00000210: 6fa4 e1b5 8062 4634 2544 a6b6 0ad8 3636
00000220: 00ed b133 ba54 2835 9b96 57b6 6e46 77b5
00000230: a4c4 03b6 c899 3ab5 7cd0 4536 0464 9b35
00000240: a0bd 2db5 70cb eab4 c2ed 47b6 720e 1136
00000250: 6e3f c5b5 b80c 68b5 98cb 9d35 62f9 2db6
00000260: 8465 eeb5 80ed 0734 04fa d5b4 28a3 2535
00000270: 08eb 57b5 5097 e134 788a 0cb5 e6aa 87b6
00000280: 1a90 fd33 bf0e 5eb6 4e84 9736 4535 40b6
00000290: d08a 7db5 0432 b535 004c fcb2 f83a ffb4
000002a0: 2cb9 9336 440b 9bb5 e873 d4b5 eac3 84b5
000002b0: ac48 1835 1296 ceb5 3008 e7b4 e09f 3534
000002c0: e00f 05b4 52e9 3136 6afa 2bb6 6834 b436
000002d0: c0fc c935 d27e c535 583b 00b5 6030 18b6
000002e0: ca7d 9ab6 68e9 d435 aa18 64b5 b88c 0737
000002f0: a247 2036 90d8 06b4 e842 bf35 04bb f8b5
00000300: 6cdc 0536 48a2 4736 8fdb ae36 50dc c6b4
00000310: 7e77 e6b6 1030 9334 18f6 b134 4459 3435
00000320: f67e ed35 c685 95b5 e867 8fb5 00d4 d4b3
00000330: 3c8c f6b5 c8eb 6435 b822 80b5 315e bbb5
00000340: 50e7 97b5 ec8c a835 fade a935 9ad2 da35
00000350: 8ab3 efb5 ec1a 0eb5 e4ac d8b5 7e65 eb35
00000360: 8814 ef35 56c6 d535 e927 b5b5 b066 d734
00000370: 0ccd 80b4 a8e9 0d34 d8ba 9335 20f5 59b5
00000380: 1065 7ab5 34c7 85b6 a830 29b5 60e2 1bb6
00000390: 0922 d2b5 86fd 3ab6 c8a7 1eb5 341b 1a36
000003a0: 3dbb 55b6 005f c4b3 343b c3b5 6069 0334
000003b0: fe2c 99b5 5011 b636 90ec 3fb5 34f5 6fb5
000003c0: 2c33 e435 90d3 eab5 58b3 6f35 9886 8db4
000003d0: b018 7bb4 682c 0c36 ddb5 8a35 c0a0 9433
000003e0: 5c97 9c35 8eae 1f36 c687 beb5 ce5d 4b32
000003f0: 02ae 1d36 1483 2db0 34f3 ddb5 0066 55b3

lstm.bias_ih_l0 f4 [512]
-0.00021364843 7.5218704e-06 0.00014522395 0.00014012793 -0.00018972854 -0.00010595256 -0.0012707793 0.00016133106
-0.0005676948 -5.2818345e-05 -0.000121244375 -0.00091554236 -0.00064842694 -0.00017703106 7.1099676e-05 -6.378212e-05
-8.895348e-05 6.97894e-05 -0.0011103536 -4.6023553e-05 0.00011908046 -0.00039269746 -0.00022391626 8.435657e-05
-0.00050657196 -0.0002366276 0.00016972594 -0.00010966296 -0.00073204224 0.00025142112 -0.0006915638 0.0006804362
6.5003046e-06 0.0002903886 0.0006029991 -0.0006241178 -0.00019029492 -0.00062600884 -0.00010253485 -0.00010743073
0.0008814387 -0.00057574944 -0.0004664654 -0.00038878844 -5.153376e-05 -0.0005601885 -0.0001188433 -8.8320216e-05
-0.0008629107 -0.00031743397 0.00016251211 -0.002393362 -0.00051498495 -0.00020597532 -0.0003420945 -0.0011367783
-0.0010549014 -0.0009284072 0.00016280545 -9.316662e-05 4.637025e-05 -9.132265e-06 -0.0011798033 -0.0011061575
-0.00015940946 -7.872211e-05 -0.0018380668 -1.813264e-05 -0.00025293784 1.2627583e-05 -0.00034482218 -0.0015409543
-0.0006577835 5.458277e-05 -0.0010060382 -0.00050534593 0.00046911355 -0.0002827228 -0.00051314896 -5.859726e-05
-0.0003068117 0.00015585558 -6.9158555e-06 -0.00082036434 -0.00068336213 -0.00027768433 -0.00060781173 1.4862875e-05
0.0004963185 -0.0007598739 -0.00013668207 0.00061726436 -0.00010544647 1.1790596e-06 0.0004265571 -9.00135e-05
-0.00018239737 4.5264096e-05 -7.626845e-05 -0.0008017931 0.00015982607 -0.0006673972 -0.000503935 -1.7050268e-05
-0.001255908 3.7248075e-05 -0.0015841471 -0.0003003052 -0.0004283114 -0.0013583717 -0.0005028596 0.00023933826
-0.00016904328 -1.2319506e-06 -0.00025983818 2.6758898e-05 -0.0014612954 0.00011187087 -0.00035718578 -0.0009929342
-0.0002573385 -0.0003813253 -0.00018144154 -7.8456374e-08 -0.00015783503 1.2807213e-09 -0.00019579496 -0.00027901185
-0.00043940684 -2.5327958e-05 0.0001019349 -6.1512605e-05 -0.00045771778 -0.00026295628 -0.0015855796 0.00010809337
-0.0009859999 -0.00020845192 -0.0005428489 -0.0011722198 -0.00075663213 -0.0005730719 -0.00016500636 -0.00012735545
-0.0002981384 -1.98581e-05 -0.0014030986 -0.0003645135 1.0889205e-05 -0.0005658224 -0.00035325877 6.7954614e-05
-0.00075951644 -0.00039664446 8.562725e-06 -0.00018657984 -0.0008784638 -2.5515728e-06 -0.00094459404 6.799324e-06
6.9095267e-06 0.00025387082 0.00017222347 -0.0008675688 -0.00023935192 -0.00087393605 -0.00018052003 -0.00015342227
0.0003818094 -0.0011932856 -0.00065893447 -0.00073766615 -6.878975e-05 -0.00093193346 -0.00029947865 -0.00025420502
-0.0010515492 -0.0005773312 -8.8267254e-05 -0.0031771802 -0.00073147996 -0.0004189219 -0.00048764842 -0.001517136
-0.0012606364 -0.0012075957 5.3014883e-05 -0.00026657598 3.380528e-05 -0.00015319485 -0.0013895973 -0.0013512517
-0.0002032076 -0.00040404272 -0.0022926084 -0.00016898912 -0.00035908178 1.1738572e-05 -0.00065844366 -0.0020419857
-0.0010361284 8.18813e-06 -0.0012389122 -0.00059273926 0.00046615736 -0.00050306594 -0.0006396805 -0.000105004925
-0.00055001443 0.00013342645 -0.0003371708 -0.0010761787 -0.0008558643 -0.0003403397 -0.00094429904 -0.0004172705
0.00032980682 -0.0009035333 -0.00022458537 0.0002580414 -0.00041138363 8.851913e-07 1.10362525e-05 -0.00022760975
-0.00022049052 -7.717007e-05 -0.00041384372 -0.0011459857 0.0001502086 -0.0009490092 -0.00067336875 -0.00022650055
-0.0016605363 -0.00013299573 -0.0018294737 -0.0004086864 -0.0005994495 -0.001957485 -0.00064691 0.00016173576
-0.0004345391 -0.00036975034 -0.0003381052 -1.9361556e-05 -0.0016245544 -0.0004860765 -0.0005175193 -0.0010412524
-0.00050982024 -0.0006511858 -0.00031260937 -7.584352e-08 -0.0005477049 1.1725316e-09 -0.00033877682 -0.0004390259
00000000: d006 60b9 6064 fc36 4247 1839 4eef 1239
00000010: def1 46b9 d932 deb8 4790 a6ba fa2a 2939
00000020: 5ad1 14ba 4489 5db8 9444 feb8 0201 70ba
00000030: 32fb 29ba 6aa1 39b9 591b 9538 c4c2 85b8
00000040: 898c bab8 e65b 9238 4989 91ba 6a09 41b8
00000050: d6ba f938 f6e2 cdb9 10cb 6ab9 97e8 b038
00000060: 78cb 04ba 3d1f 78b9 76f8 3139 dafa e5b8
00000070: 86e6 3fba 2cd1 8339 104a 35ba 4d5f 323a
00000080: 311d da36 4c3f 9839 9612 1e3a d69b 23ba
00000090: e789 47b9 be1a 24ba fa07 d7b8 6f4c e1b8
000000a0: 5a10 673a e4ed 16ba ed8f f4b9 4dd6 cbb9
000000b0: f425 58b8 9dd9 12ba 833b f9b8 8e38 b9b8
000000c0: f534 62ba 446d a6b9 0368 2a39 f4d9 1cbb
000000d0: 0e00 07ba 14fb 57b9 265b b3b9 f3ff 94ba
000000e0: 9e44 8aba 5a60 73ba c1b6 2a39 7362 c3b8
000000f0: ad7d 4238 c836 19b7 a1a3 9aba 7dfc 90ba
00000100: 2727 27b9 9c17 a5b8 4aeb f0ba 8c1b 98b7
00000110: be9c 84b9 0edb 5337 40c9 b4b9 d9f9 c9ba
00000120: 1a6f 2cba ceef 6438 0add 83ba 3179 04ba
00000130: 5bf3 f539 693a 94b9 d884 06ba 54c6 75b8
00000140: 92db a0b9 2a6d 2339 bf0e e8b6 b80d 57ba
00000150: a823 33ba 2996 91b9 8e55 1fba 905b 7937
00000160: 5f1b 023a 4632 47ba 5052 0fb9 e9cf 213a
00000170: 2423 ddb8 2e40 9e35 86a3 df39 a1c5 bcb8
00000180: ec41 3fb9 f4d9 3d38 50f2 9fb8 6d2f 52ba
00000190: fc96 2739 45f4 2eba 811a 04ba 2c07 8fb7
000001a0: 489d a4ba d13a 1c38 28a3 cfba 4872 9db9
000001b0: fc8e e0b9 640b b2ba 56d2 03ba e0f6 7a39
000001c0: 3641 31b9 8059 a5b5 e43a 88b9 4c78 e037
000001d0: f088 bfba 379c ea38 aa44 bbb9 5825 82ba
000001e0: 64eb 86b9 9eec c7b9 5841 3eb9 d97b a8b3
000001f0: 8580 25b9 6005 b030 4f4e 4db9 5648 92b9
00000200: 3060 e6b9 6077 d4b7 e2c5 d538 5400 81b8
00000210: d7f9 efb9 65dd 89b9 39d3 cfba 30b0 e238
00000220: ab3c 81ba e393 5ab9 f94d 0eba 2ba5 99ba
00000230: b958 46ba 343a 16ba 8f05 2db9 b88a 05b9
00000240: 754f 9cb9 f294 a6b7 2de8 b7ba 2c1c bfb9
00000250: c8b0 3637 b353 14ba 9735 b9b9 db82 8e38
00000260: 491a 47ba b8f4 cfb9 a0a8 0f37 a5a4 43b9
00000270: b548 66ba b03b 2bb6 a29e 77ba c025 e436
00000280: 62d8 e736 f719 8539 e396 3439 8e6d 63ba
00000290: 8bfa 7ab9 db18 65ba fa49 3db9 fadf 20b9
000002a0: 972d c839 0568 9cba 58bc 2cba f05f 41ba
000002b0: 3743 90b8 ff4c 74ba 5803 9db9 d246 85b9
000002c0: 23d4 89ba 0a58 17ba 1f1c b9b8 3d38 50bb
000002d0: cac0 3fba bfa2 dbb9 10ab ffb9 a3da c6ba
000002e0: f03b a5ba 3048 9eba 4c5c 5e38 39c3 8bb9
000002f0: 25ca 0d38 eea2 20b9 2623 b6ba 7c1c b1ba
00000300: 2014 55b9 b2d5 d3b9 963f 16bb ac32 31b9
00000310: 2443 bcb9 c8f0 4437 689b 2cba d6d2 05bb
00000320: b3ce 87ba c05f 0937 ff62 a2ba 0f62 1bba
00000330: 9566 f439 2fe0 03ba 3bb0 27ba 1736 dcb8
00000340: d82e 10ba 64e8 0b39 4cc6 b0b9 910e 8dba
00000350: 155c 60ba 9f6f b2b9 d68a 77ba 19c5 dab9
00000360: ece9 ac39 18db 6cba ad7e 6bb9 bb49 8739
00000370: faae d7b9 e29d 6d35 5828 3937 87aa 6eb9
00000380: 7933 67b9 5ed6 a1b8 2af9 d8b9 e634 96ba
00000390: 5081 1d39 eec6 78ba 0385 30ba c780 6db9
000003a0: 5aa6 d9ba c574 0bb9 f3ca efba f644 d6b9
000003b0: 6024 1dba 2649 00bb 6595 29ba 9d97 2939
000003c0: dad2 e3b9 0ddb c1b9 b643 b1b9 a06a a2b7
000003d0: 00ef d4ba 15d8 feb9 22aa 07ba a27a 88ba
000003e0: 75a5 05ba 57b4 2aba b8e5 a3b9 6bdf a2b3
000003f0: db93 0fba ca26 a130 db9d b1b9 0f2d e6b9

lstm.bias_hh_l0 f4 [512]
-0.00021364843 7.5218704e-06 0.00014522395 0.00014012793 -0.00018972854 -0.00010595256 -0.0012707793 0.00016133106
-0.0005676948 -5.2818345e-05 -0.000121244375 -0.00091554236 -0.00064842694 -0.00017703106 7.1099676e-05 -6.378212e-05
-8.895348e-05 6.97894e-05 -0.0011103536 -4.6023553e-05 0.00011908046 -0.00039269746 -0.00022391626 8.435657e-05
-0.00050657196 -0.0002366276 0.00016972594 -0.00010966296 -0.00073204224 0.00025142112 -0.0006915638 0.0006804362
6.5003046e-06 0.0002903886 0.0006029991 -0.0006241178 -0.00019029492 -0.00062600884 -0.00010253485 -0.00010743073
0.0008814387 -0.00057574944 -0.0004664654 -0.00038878844 -5.153376e-05 -0.0005601885 -0.0001188433 -8.8320216e-05
-0.0008629107 -0.00031743405 0.00016251211 -0.002393362 -0.00051498495 -0.00020597532 -0.0003420945 -0.0011367783
-0.0010549014 -0.0009284072 0.00016280545 -9.316662e-05 4.637025e-05 -9.132265e-06 -0.0011798034 -0.0011061575
-0.00015940946 -7.872211e-05 -0.0018380668 -1.813264e-05 -0.00025293784 1.2627583e-05 -0.00034482224 -0.0015409543
-0.0006577835 5.458277e-05 -0.0010060382 -0.00050534593 0.00046911355 -0.0002827228 -0.00051314896 -5.859726e-05
-0.0003068117 0.00015585558 -6.9158555e-06 -0.00082036434 -0.00068336213 -0.00027768433 -0.00060781196 1.4862875e-05
0.0004963185 -0.0007598739 -0.0001366821 0.00061726436 -0.00010544647 1.1790596e-06 0.0004265571 -9.00135e-05
-0.00018239737 4.5264096e-05 -7.626845e-05 -0.0008017931 0.00015982607 -0.0006673972 -0.000503935 -1.7050268e-05
-0.001255908 3.7248075e-05 -0.0015841471 -0.0003003052 -0.0004283114 -0.0013583717 -0.0005028596 0.00023933826
-0.00016904325 -1.2319506e-06 -0.00025983818 2.6758898e-05 -0.0014612954 0.00011187087 -0.00035718578 -0.0009929342
-0.0002573385 -0.0003813253 -0.00018144154 -7.8456374e-08 -0.00015783503 1.2807214e-09 -0.00019579496 -0.00027901185
-0.00043940684 -2.5327958e-05 0.0001019349 -6.1512605e-05 -0.00045771778 -0.00026295628 -0.0015855796 0.00010809337
-0.0009859999 -0.00020845192 -0.0005428489 -0.0011722198 -0.00075663213 -0.0005730719 -0.00016500636 -0.00012735545
-0.0002981384 -1.98581e-05 -0.0014030986 -0.0003645135 1.0889205e-05 -0.0005658224 -0.00035325863 6.7954614e-05
-0.00075951644 -0.00039664446 8.562725e-06 -0.00018657984 -0.0008784638 -2.5515728e-06 -0.00094459404 6.799324e-06
6.9095267e-06 0.00025387082 0.00017222352 -0.0008675688 -0.00023935192 -0.00087393605 -0.00018052003 -0.00015342227
0.0003818094 -0.0011932856 -0.00065893447 -0.00073766615 -6.878975e-05 -0.00093193346 -0.00029947865 -0.00025420502
-0.0010515492 -0.0005773312 -8.8267254e-05 -0.0031771802 -0.00073147996 -0.0004189219 -0.00048764842 -0.001517136
-0.0012606364 -0.0012075957 5.3014883e-05 -0.00026657598 3.380528e-05 -0.00015319488 -0.0013895972 -0.0013512517
-0.0002032076 -0.00040404272 -0.0022926084 -0.00016898912 -0.00035908178 1.1738569e-05 -0.00065844366 -0.0020419857
-0.0010361284 8.18813e-06 -0.0012389122 -0.00059273926 0.00046615736 -0.00050306594 -0.0006396805 -0.000105004925
-0.00055001443 0.00013342645 -0.0003371708 -0.0010761787 -0.0008558643 -0.0003403397 -0.0009442992 -0.0004172705
0.00032980682 -0.0009035333 -0.00022458537 0.0002580414 -0.00041138363 8.851913e-07 1.10362525e-05 -0.00022760975
-0.00022049052 -7.717007e-05 -0.00041384372 -0.0011459857 0.0001502086 -0.0009490092 -0.00067336875 -0.00022650055
-0.0016605363 -0.00013299573 -0.0018294737 -0.0004086864 -0.0005994495 -0.0019574852 -0.00064691005 0.00016173576
-0.0004345391 -0.00036975034 -0.0003381052 -1.9361556e-05 -0.0016245544 -0.0004860765 -0.0005175193 -0.0010412524
-0.00050982024 -0.0006511858 -0.00031260937 -7.584352e-08 -0.0005477049 1.1725316e-09 -0.00033877682 -0.0004390259
00000000: d006 60b9 6064 fc36 4247 1839 4eef 1239
00000010: def1 46b9 d932 deb8 4790 a6ba fa2a 2939
00000020: 5ad1 14ba 4489 5db8 9444 feb8 0201 70ba
00000030: 32fb 29ba 6aa1 39b9 591b 9538 c4c2 85b8
00000040: 898c bab8 e65b 9238 4989 91ba 6a09 41b8
00000050: d6ba f938 f6e2 cdb9 10cb 6ab9 97e8 b038
00000060: 78cb 04ba 3d1f 78b9 76f8 3139 dafa e5b8
00000070: 86e6 3fba 2cd1 8339 104a 35ba 4d5f 323a
00000080: 311d da36 4c3f 9839 9612 1e3a d69b 23ba
00000090: e789 47b9 be1a 24ba fa07 d7b8 6f4c e1b8
000000a0: 5a10 673a e4ed 16ba ed8f f4b9 4dd6 cbb9
000000b0: f425 58b8 9dd9 12ba 833b f9b8 8e38 b9b8
000000c0: f534 62ba 476d a6b9 0368 2a39 f4d9 1cbb
000000d0: 0e00 07ba 14fb 57b9 265b b3b9 f3ff 94ba
000000e0: 9e44 8aba 5a60 73ba c1b6 2a39 7362 c3b8
000000f0: ad7d 4238 c836 19b7 a2a3 9aba 7dfc 90ba
00000100: 2727 27b9 9c17 a5b8 4aeb f0ba 8c1b 98b7
00000110: be9c 84b9 0edb 5337 42c9 b4b9 d9f9 c9ba
00000120: 1a6f 2cba ceef 6438 0add 83ba 3179 04ba
00000130: 5bf3 f539 693a 94b9 d884 06ba 54c6 75b8
00000140: 92db a0b9 2a6d 2339 bf0e e8b6 b80d 57ba
00000150: a823 33ba 2996 91b9 9255 1fba 905b 7937
00000160: 5f1b 023a 4632 47ba 5252 0fb9 e9cf 213a
00000170: 2423 ddb8 2e40 9e35 86a3 df39 a1c5 bcb8
00000180: ec41 3fb9 f4d9 3d38 50f2 9fb8 6d2f 52ba
00000190: fc96 2739 45f4 2eba 811a 04ba 2c07 8fb7
000001a0: 489d a4ba d13a 1c38 28a3 cfba 4872 9db9
000001b0: fc8e e0b9 640b b2ba 56d2 03ba e0f6 7a39
000001c0: 3441 31b9 8059 a5b5 e43a 88b9 4c78 e037
000001d0: f088 bfba 379c ea38 aa44 bbb9 5825 82ba
000001e0: 64eb 86b9 9eec c7b9 5841 3eb9 d97b a8b3
000001f0: 8580 25b9 6105 b030 4f4e 4db9 5648 92b9
00000200: 3060 e6b9 6077 d4b7 e2c5 d538 5400 81b8
00000210: d7f9 efb9 65dd 89b9 39d3 cfba 30b0 e238
00000220: ab3c 81ba e393 5ab9 f94d 0eba 2ba5 99ba
00000230: b958 46ba 343a 16ba 8f05 2db9 b88a 05b9
00000240: 754f 9cb9 f294 a6b7 2de8 b7ba 2c1c bfb9
00000250: c8b0 3637 b353 14ba 9235 b9b9 db82 8e38
00000260: 491a 47ba b8f4 cfb9 a0a8 0f37 a5a4 43b9
00000270: b548 66ba b03b 2bb6 a29e 77ba c025 e436
00000280: 62d8 e736 f719 8539 e696 3439 8e6d 63ba
00000290: 8bfa 7ab9 db18 65ba fa49 3db9 fadf 20b9
000002a0: 972d c839 0568 9cba 58bc 2cba f05f 41ba
000002b0: 3743 90b8 ff4c 74ba 5803 9db9 d246 85b9
000002c0: 23d4 89ba 0a58 17ba 1f1c b9b8 3d38 50bb
000002d0: cac0 3fba bfa2 dbb9 10ab ffb9 a3da c6ba
000002e0: f03b a5ba 3048 9eba 4c5c 5e38 39c3 8bb9
000002f0: 25ca 0d38 f0a2 20b9 2523 b6ba 7c1c b1ba
00000300: 2014 55b9 b2d5 d3b9 963f 16bb ac32 31b9
00000310: 2443 bcb9 c5f0 4437 689b 2cba d6d2 05bb
00000320: b3ce 87ba c05f 0937 ff62 a2ba 0f62 1bba
00000330: 9566 f439 2fe0 03ba 3bb0 27ba 1736 dcb8
00000340: d82e 10ba 64e8 0b39 4cc6 b0b9 910e 8dba
00000350: 155c 60ba 9f6f b2b9 d98a 77ba 19c5 dab9
00000360: ece9 ac39 18db 6cba ad7e 6bb9 bb49 8739
00000370: faae d7b9 e29d 6d35 5828 3937 87aa 6eb9
00000380: 7933 67b9 5ed6 a1b8 2af9 d8b9 e634 96ba
00000390: 5081 1d39 eec6 78ba 0385 30ba c780 6db9
000003a0: 5aa6 d9ba c574 0bb9 f3ca efba f644 d6b9
000003b0: 6024 1dba 2749 00bb 6695 29ba 9d97 2939
000003c0: dad2 e3b9 0ddb c1b9 b643 b1b9 a06a a2b7
000003d0: 00ef d4ba 15d8 feb9 22aa 07ba a27a 88ba
000003e0: 75a5 05ba 57b4 2aba b8e5 a3b9 6bdf a2b3
000003f0: db93 0fba ca26 a130 db9d b1b9 0f2d e6b9

lstm.weight_ih_l1 f4 [512, 128]
-3.650194e-18 -5.824743e-18 1.7195852e-18 -1.4699562e-17 1.0725063e-17 2.495643e-17 1.03343256e-17 -1.823886e-18
8.2171357e-19 2.0950781e-17 -4.43614e-18 7.945872e-18 2.0212497e-18 1.0298422e-17 -1.4082512e-17 7.787281e-19
-2.8785055e-17 7.680796e-18 -1.7734557e-17 -8.177992e-18 2.2345912e-18 -2.1691402e-17 -1.7869048e-17 -2.801071e-18
-7.287981e-18 6.890972e-18 1.39494e-18 1.5456854e-17 -6.6390393e-18 -3.588667e-18 -7.896815e-18 -2.461571e-17
6.8096312e-18 1.2782103e-17 6.201179e-19 -1.0098724e-17 -3.3460692e-18 1.9845224e-17 -1.5762627e-18 -1.15552615e-17
-7.16982e-18 4.267028e-17 4.788731e-17 5.5374696e-19 -5.4489448e-18 8.226913e-18 -1.5236068e-17 2.289905e-18
1.6566278e-18 -2.9624905e-18 1.8384263e-17 -1.6546698e-18 -7.060078e-18 8.695361e-18 9.920882e-19 -3.9808811e-19
6.4433242e-18 4.391477e-18 3.4314132e-18 -3.228185e-17 -1.2774091e-17 -1.0996014e-18 -2.042098e-18 1.5010213e-17
-1.5746281e-17 5.9813376e-18 -5.5987298e-18 -1.12988934e-17 2.9520455e-18 6.3438177e-18 3.2227704e-17 1.2456625e-17
-1.4041973e-17 -1.6610686e-18 2.5301056e-18 -4.430582e-18 -4.4288007e-18 9.41588e-19 1.0513305e-17 7.462633e-18
2.1527374e-17 3.108398e-18 1.8128499e-17 2.7354946e-17 1.296777e-17 5.690523e-18 -2.5730177e-18 5.5002845e-18
2.428977e-18 -5.7352506e-18 -1.2048635e-17 -1.3704993e-17 -3.9511804e-18 -2.41373e-18 -1.6356984e-17 -3.0961335e-18
-3.1038571e-18 2.649192e-17 -1.4044951e-17 1.3013254e-17 1.463655e-17 -1.4822461e-17 -3.1715178e-18 -5.5439067e-18
-7.128254e-18 -1.92427e-17 4.676957e-18 -1.9787062e-18 -2.0211856e-18 1.6235425e-17 -3.3994968e-18 -1.2497591e-18
-1.9786899e-18 3.667944e-18 1.0603989e-17 3.211255e-18 4.720416e-18 3.429648e-19 -3.679018e-18 1.8180687e-18
2.9241437e-17 -3.708932e-18 -2.916231e-18 1.8605182e-18 4.3620443e-18 -2.914081e-18 5.594851e-19 2.8860298e-18
1.2210766e-18 -1.5787453e-18 3.7985573e-18 2.4325936e-18 4.576044e-18 3.802886e-18 -3.9669357e-18 4.1612094e-18
-1.6449312e-18 -5.196609e-19 3.0200075e-19 -3.191875e-18 4.1276445e-18 -1.158155e-18 2.5696225e-18 -1.9882574e-18
-3.448312e-18 -1.1963683e-18 4.4182463e-18 -1.932828e-18 -2.764776e-18 1.1920707e-20 1.2637454e-18 2.8530568e-18
3.4987114e-18 3.183592e-18 3.8025807e-18 3.0093428e-18 3.8613746e-18 -2.8751934e-18 4.485764e-18 4.289161e-18
-1.9255553e-18 -2.2914162e-18 4.0033226e-18 2.1779173e-18 4.8627235e-18 -3.758923e-18 -4.2399293e-18 3.3469473e-18
7.572218e-21 3.899794e-18 -2.8003983e-18 2.6150736e-18 -2.0755872e-18 -4.2390165e-18 2.920253e-18 1.958697e-18
-1.4903079e-18 -4.649421e-18 5.7437147e-19 1.4603047e-20 8.5258105e-19 4.0483005e-18 -2.1143158e-18 -1.4283729e-18
-4.1375525e-18 1.3088111e-18 3.2799856e-18 -9.628556e-19 5.2930597e-18 4.1974403e-18 -4.4251847e-18 -2.5890962e-18
-2.3541699e-18 3.1543739e-18 -3.061101e-18 2.8591204e-18 -3.0966915e-18 -4.7946317e-18 -1.6177146e-18 -1.3256971e-18
3.1290634e-18 4.1062317e-18 -3.4049405e-18 2.023898e-18 -3.028686e-18 -1.3113621e-18 2.116096e-18 4.1685176e-18
-2.7022113e-18 -1.4976651e-18 -5.0142833e-18 3.0437587e-18 -8.560848e-19 -2.2932753e-18 3.3172176e-18 7.880856e-19
-2.415398e-18 2.0323249e-19 -7.764393e-20 -2.4813065e-18 2.5068854e-18 1.1575311e-18 5.30391e-18 -1.7721753e-18
3.165587e-19 -4.3347953e-18 -3.5080254e-18 -1.1354754e-18 -5.497314e-18 -4.2888057e-18 -2.9873744e-18 1.2389627e-18
5.0023508e-18 -1.4282086e-18 3.9077542e-18 2.5004224e-18 3.2772385e-18 4.3238158e-18 -3.129247e-18 -4.1927076e-18
4.4213457e-18 4.0515637e-18 -1.3278635e-18 2.3908994e-18 4.3313373e-18 3.305877e-19 -4.497358e-19 -4.041425e-18
-3.333535e-18 -3.928255e-18 1.4522483e-18 4.8276444e-18 -2.8746985e-18 4.86906e-18 -3.76876e-18 3.9993016e-18
00000000: 1cab 86a2 24e5 d6a2 18c4 fd21 5c94 87a3
00000010: aed7 4523 b42e e623 79a2 3e23 3c94 06a2
00000020: ec86 7221 a23c c123 28aa a3a2 5293 1223
00000030: 5424 1522 ecf8 3d23 64e3 81a3 08d7 6521
00000040: 65bf 04a4 89af 0d23 8a92 a3a3 7adb 16a3
00000050: 3ce2 2422 6011 c8a3 19d0 a4a3 bcae 4ea2
00000060: 8470 06a3 643b fe22 58db cd21 7790 8e23
00000070: f4ef f4a2 0066 84a2 a8ab 11a3 340a e3a3
00000080: 263b fb22 c6c9 6b23 c906 3721 e049 3aa3
00000090: 76e5 76a2 360a b723 859d e8a1 2e28 55a3
000000a0: 8542 04a3 2dc8 4424 5bd7 5c24 f06f 2321
000000b0: d407 c9a2 80c2 1723 2687 8ca3 15f7 2822
000000c0: a179 f421 dd97 5aa2 9d90 a923 a82f f4a1
000000d0: 473c 02a3 ae66 2023 0868 9221 60fd eaa0
000000e0: 7ab7 ed22 5404 a222 9031 7d22 aedf 14a4
000000f0: f0a3 6ba3 c445 a2a1 24ae 16a2 dd71 8a23
00000100: db3b 91a3 23ac dc22 828e cea2 846d 50a3
00000110: 90d2 5922 aa0b ea22 c29f 1424 c0c8 6523
00000120: ac83 81a3 6621 f5a1 58b0 3a22 aa75 a3a2
00000130: d764 a3a2 30f4 8a21 aeef 4123 4aa9 0923
00000140: 138e c623 fa5b 6522 b534 a723 0a4e fc23
00000150: 9036 6f23 78f1 d122 eeda 3da2 b8ec ca22
00000160: 143a 3322 e997 d3a2 1242 5ea3 00d0 7ca3
00000170: d8c5 91a2 121a 32a2 d6dd 96a3 4f74 64a2
00000180: 3406 65a2 4758 f423 b48a 81a3 5b0d 7023
00000190: 94ff 8623 8cb6 88a3 4704 6aa2 b888 cca2
000001a0: 3a7e 03a3 8a7b b1a3 9c8c ac22 b400 12a2
000001b0: 1e23 15a2 d0be 9523 aed6 7aa2 906e b8a1
000001c0: 6500 12a2 c052 8722 ec9b 4323 e4f2 6c22
000001d0: 1227 ae22 6073 ca20 58bb 87a2 5926 0622
000001e0: 32da 0624 dfd5 88a2 0c2e 57a2 3248 0922
000001f0: 58ee a022 6f05 57a2 8021 2521 90f3 5422
00000200: f832 b421 50fb e8a1 5c24 8c22 657e 3322
00000210: 83d3 a822 3e4d 8c22 a65a 92a2 8385 9922
00000220: bebf f2a1 7860 19a1 1045 b220 d084 6ba2
00000230: 8048 9822 dce9 aaa1 cc9a 3d22 1fb5 12a2
00000240: c670 7ea2 848d b0a1 2801 a322 179e 0ea2
00000250: 2401 4ca2 002d 611e f47e ba21 b884 5222
00000260: 6514 8122 5ae8 6a22 5c4a 8c22 e10c 5e22
00000270: a775 8e22 de26 54a2 d87e a522 fb3d 9e22
00000280: b614 0ea2 a113 29a2 50b2 9322 b2b3 2022
00000290: 2067 b322 06ae 8aa2 006d 9ca2 0cf6 7622
000002a0: 0009 0f1e 83e0 8f22 07a2 4ea2 58f5 4022
000002b0: bc26 19a2 6164 9ca2 057a 5722 be86 1022
000002c0: 3eee dba1 8a88 aba2 4886 2921 00ec 891e
000002d0: 34a3 7b21 1e5b 9522 4c02 1ca2 67ca d2a1
000002e0: 14a6 98a2 7c25 c121 2d05 7222 a817 8ea1
000002f0: 8947 c322 b4db 9a22 b042 a3a2 a50a 3fa2
00000300: 03b5 2da2 70c0 6822 90de 61a2 42f7 5222
00000310: d97e 64a2 04e4 b0a2 88bb eea1 6ca3 c3a1
00000320: 56e2 6622 437e 9722 823d 7ba2 5a56 1522
00000330: 437a 5fa2 dc85 c1a1 ec23 1c22 89ca 9922
00000340: 5463 47a2 3004 dda1 91fe b8a2 fa96 6022
00000350: f0ab 7ca1 bf36 29a2 78c4 7422 109a 6821
00000360: 9439 32a2 40ef 6f20 e054 b79f 8e16 37a2
00000370: baf9 3822 4ad2 aa21 03ae c322 72c3 02a2
00000380: 00dd ba20 fcec 9fa2 5d6c 81a2 0c91 a7a1
00000390: aad0 caa2 a03a 9ea2 e86d 5ca2 b0d6 b621
000003a0: de8d b822 32c4 d2a1 b22b 9022 a57f 3822
000003b0: 49d1 7122 4985 9f22 cee5 66a2 01af 9aa2
000003c0: 6e1e a322 f079 9522 44f5 c3a1 d06a 3022
000003d0: 53cc 9f22 0025 c320 14bd 04a1 2e1a 95a2
000003e0: b2f8 75a2 52ed 90a2 6450 d621 d01b b222
000003f0: 851d 54a2 f9a2 b322 ef0a 8ba2 568c 9322

lstm.weight_hh_l1 f4 [512, 128]
-7.9647385e-18 -6.037518e-18 -5.6125594e-18 3.1739189e-18 3.2802077e-18 -2.8063302e-18 -7.633478e-18 -8.985448e-19
-5.572521e-18 7.528604e-18 -3.0021486e-18 6.8449965e-18 -6.7720243e-18 -7.589488e-18 -2.707863e-18 6.8413552e-18
6.4801974e-18 4.187539e-18 -5.7903743e-18 6.1448907e-18 -5.262303e-18 -7.629414e-18 4.4031163e-18 4.8155593e-18
-7.763909e-18 -4.278175e-18 -6.0567298e-18 1.6070746e-18 2.6340057e-18 3.065605e-18 6.2601897e-18 -3.9344796e-18
-5.6239323e-18 -7.933018e-18 -2.8325603e-18 8.0888545e-18 1.7976471e-18 -5.1642995e-18 -6.7676853e-18 -7.855706e-18
-4.684984e-18 -3.344158e-18 -1.5267794e-18 -6.7193726e-18 -6.5467607e-18 5.5177356e-18 4.317651e-18 1.220609e-17
-2.564685e-18 5.1966183e-18 -5.0255623e-18 -1.1078972e-18 1.6735105e-18 -7.0593066e-18 -7.742338e-18 -3.842564e-18
-1.2551308e-18 1.4929874e-18 6.36838e-18 2.6716809e-18 2.476839e-18 4.1237237e-18 7.182205e-18 -4.905033e-18
-6.9194167e-18 7.8030255e-18 -5.51254e-18 4.512435e-18 -6.5984057e-18 -4.02958e-18 -3.1055065e-18 2.2646625e-18
-8.4789206e-18 7.52291e-18 2.7923363e-18 -2.3806039e-18 1.0329782e-17 3.7930867e-18 2.9050749e-18 7.001177e-18
3.655571e-18 5.0365638e-18 -6.5663e-18 -7.467433e-18 6.824024e-18 5.6505957e-18 4.505622e-18 -1.7220366e-18
6.5466833e-18 7.2779875e-18 6.386025e-18 -5.3608897e-18 4.9518555e-18 1.4512545e-18 1.5213944e-18 -6.4278096e-18
5.3174065e-19 7.8992125e-18 8.1766804e-22 2.5680587e-18 -6.521273e-18 -5.4476333e-18 2.8695789e-18 -7.1538e-18
-4.640827e-18 2.6215008e-18 6.01335e-18 5.0574753e-18 -7.850313e-18 3.3519418e-18 1.4452136e-18 -3.2834397e-18
5.1588707e-18 1.6276946e-18 -7.498105e-18 6.7880646e-18 3.2808469e-18 -4.5739423e-18 -6.482153e-18 4.538776e-18
1.0737507e-18 -6.2295336e-18 -2.0591813e-18 1.4738692e-18 -7.183882e-18 -7.282319e-18 3.9169914e-18 -5.9565404e-18
-3.4996043e-18 4.9166408e-18 1.5284929e-18 2.5302599e-18 -3.9400114e-18 -5.6480587e-18 5.8516907e-19 -5.02565e-18
-6.4862747e-18 -5.1763887e-19 -5.5630134e-18 5.0423685e-18 -3.5203707e-18 5.209237e-18 -1.1369953e-18 9.617095e-19
-4.1626516e-18 -2.9329887e-18 -4.443015e-18 6.6400063e-18 1.6822153e-18 4.6297117e-18 8.745251e-19 4.9595607e-18
-2.6674976e-18 -5.1968486e-18 -1.4871446e-18 -3.5093113e-18 -3.6084753e-18 3.340099e-18 3.1075434e-18 5.5639154e-18
-5.0031267e-18 -5.453003e-18 5.7975195e-18 -2.981225e-19 9.892749e-19 5.8677194e-18 4.3968984e-18 -3.170875e-18
-3.72899e-18 -1.0668657e-18 -5.2832282e-18 -4.422544e-18 4.607286e-18 4.3038017e-18 -2.4748659e-18 1.9559041e-18
3.0187696e-18 4.702422e-18 6.223777e-19 2.9626117e-18 -3.0423995e-18 5.860495e-18 -1.6021625e-18 6.4702026e-18
2.6035076e-18 -2.3965528e-18 -1.4869465e-18 7.008288e-21 -1.4574761e-18 1.1764585e-18 1.2009343e-18 3.9052744e-18
1.8830444e-18 3.8294728e-18 3.917622e-18 4.509856e-18 -2.987582e-19 2.5019492e-18 1.7592407e-18 2.7062682e-18
-1.2254462e-18 8.378312e-19 2.0947596e-18 -2.755933e-18 -2.2635475e-18 2.6332116e-18 -2.1311233e-19 4.506683e-18
5.1407687e-18 3.5730323e-18 -5.7275317e-18 5.856311e-18 1.7278908e-18 -2.7310789e-18 5.8410755e-18 -1.2299281e-18
-3.09354e-18 1.6662499e-18 -2.4238055e-18 -4.1859198e-18 5.1058104e-18 4.7127408e-18 1.0685474e-18 -2.9067933e-18
5.398508e-18 2.9234492e-18 -3.1969174e-18 5.7376014e-18 -4.5571787e-18 3.6818065e-18 -1.1586617e-18 -4.9344587e-18
-4.163782e-18 1.4104364e-18 -1.4813399e-18 -2.2596126e-18 3.3025657e-18 1.0002635e-18 -6.37889e-19 3.040573e-18
-1.5952579e-18 -1.0791994e-18 -1.9887988e-18 -3.106882e-19 -3.9887613e-18 2.8327224e-18 2.5044308e-18 2.3158102e-18
-2.8368246e-18 -3.6192076e-18 -4.379371e-18 -2.148247e-18 3.4361728e-18 8.274792e-19 -5.610329e-18 5.179421e-18
00000000: 6aec 12a3 bfbe dea2 2011 cfa2 a231 6a22
00000010: 5f09 7222 1412 4fa2 15d0 0ca3 109a 84a1
00000020: f996 cda2 d4e0 0a23 fc84 5da2 2a89 fc22
00000030: f6d7 f9a2 5800 0ca3 16ce 47a2 c666 fc22
00000040: bc13 ef22 307e 9a22 8aa0 d5a2 dab4 e222
00000050: 0c25 c2a2 e4bc 0ca3 4272 a222 aca9 b122
00000060: 0638 0fa3 38d6 9da2 3274 dfa2 9029 ed21
00000070: f65a 4222 a433 6222 d2f5 e622 1c28 91a2
00000080: 8a7c cfa2 9e56 12a3 8d01 51a2 8936 1523
00000090: 98a4 0422 6e87 bea2 fbae f9a2 86e9 10a3
000000a0: 6cd8 aca2 5cc1 76a2 1850 e1a1 aee6 f7a2
000000b0: 6888 f1a2 8a91 cb22 104b 9f22 a129 6123
000000c0: 883d 3da2 acb8 bf22 1869 b9a2 2c7f a3a1
000000d0: 70f7 f621 a238 02a3 28d2 0ea3 fec3 8da2
000000e0: 8039 b9a1 7853 dc21 a6f3 ea22 a022 4522
000000f0: 2ac2 3622 7823 9822 017d 0423 baf6 b4a2
00000100: 0b48 ffa2 bff0 0f23 7860 cba2 be7a a622
00000110: 2e70 f3a2 4faa 94a2 5c25 65a2 441a 2722
00000120: 9268 1ca3 f0c5 0a23 be09 4e22 56a8 2fa2
00000130: 048d 3e23 b1f0 8b22 505b 5622 2026 0123
00000140: e4dd 8622 00d1 b922 f340 f2a2 f5bf 09a3
00000150: 16c3 fb22 5e78 d022 663a a622 b420 fea1
00000160: ad87 f122 5341 0623 4d9a eb22 2cc8 c5a2
00000170: f4b0 b622 d82a d621 a884 e021 f224 eda2
00000180: 30f1 1c21 fab6 1123 0020 771c 427d 3d22
00000190: af97 f0a2 71fb c8a2 d0bc 5322 def6 03a3
000001a0: 5f37 aba2 c06e 4122 7cda dd22 8196 ba22
000001b0: 0ed0 10a3 6454 7722 a046 d521 6c46 72a2
000001c0: 2854 be22 9034 f021 cd50 0aa3 756f fa22
000001d0: 7215 7222 aabf a8a2 3426 efa2 8773 a722
000001e0: 2875 9e21 48d4 e5a2 d6f0 17a2 3481 d921
000001f0: ec84 04a3 c755 06a3 f082 9022 efc1 dba2
00000200: d41c 81a2 5c64 b522 d490 e121 42b3 3a22
00000210: 5b5c 91a2 6860 d0a2 20b6 2c21 ec69 b9a2
00000220: 224d efa2 b0c7 18a1 2d3d cda2 d307 ba22
00000230: f6e0 81a2 da2f c022 78ca a7a1 5cec 8d21
00000240: 2293 99a2 976a 58a2 17eb a3a2 16f9 f422
00000250: 4c40 f821 64ce aa22 a00e 8121 baf9 b622
00000260: 9bd3 44a2 d9ba bfa2 bc76 dba1 8278 81a2
00000270: 1621 85a2 b074 7622 d64b 6522 b245 cd22
00000280: 3295 b8a2 282e c9a2 06e4 d522 00fb afa0
00000290: c0fd 9121 0b7b d822 8837 a222 23f8 69a2
000002a0: 5193 89a2 0c71 9da1 aeea c2a2 bf29 a3a2
000002b0: 96fa a922 42c8 9e22 e59c 36a2 fc51 1022
000002c0: f2be 5e22 1f7d ad22 88b1 3721 279a 5a22
000002d0: 4d7d 60a2 cf36 d822 fd6f eca1 56b5 ee22
000002e0: de1a 4022 9ad5 30a2 406f dba1 0062 041e
000002f0: e415 d7a1 589d ad21 043a b121 4614 9022
00000300: b4f1 0a22 5948 8d22 e588 9022 6362 a622
00000310: 105b b0a0 7c9c 3822 1ecf 0122 f6af 4722
00000320: 0cd8 b4a1 bc48 7721 e490 1a22 1a5a 4ba2
00000330: 3405 27a2 f64b 4222 4099 7ba0 6b44 a622
00000340: 30a9 bd22 56d2 8322 024f d3a2 4b0f d822
00000350: defd fe21 9f84 49a2 667f d722 5f81 b5a1
00000360: 5243 64a2 24e5 f521 64d8 32a2 e56e 9aa2
00000370: 045f bc22 94de ad22 94b0 9d21 c67b 56a2
00000380: 772b c722 65b6 5722 10e4 6ba2 1dae d322
00000390: 5621 a8a2 aed5 8722 00fd aaa1 a50c b6a2
000003a0: cf9d 99a2 c824 d021 709b daa1 e0ba 26a2
000003b0: b4af 7322 e39c 9321 8845 3ca1 cd5a 6022
000003c0: 246b eba1 0043 9fa1 59bf 12a2 e065 b7a0
000003d0: c928 93a2 9d04 5122 5ccb 3822 6be0 2a22
000003e0: 1a52 51a2 7386 85a2 fd91 a1a2 3d83 1ea2
000003f0: 788b 7d22 903a 7421 0ffc cea2 4016 bf22

lstm.bias_ih_l1 f4 [512]
-3.4893398e-16 -5.4915896e-18 1.7009059e-18 -3.529252e-18 -4.791219e-18 5.90635e-18 -4.0807843e-18 5.202522e-18
-3.7745815e-18 -2.2781427e-18 9.674961e-19 3.895666e-18 4.341947e-18 -1.8743582e-19 -5.1438586e-18 4.850047e-18
-5.0446966e-18 2.8655364e-18 -2.8064913e-18 -3.3457404e-18 -1.072786e-16 2.9354644e-16 3.2791648e-18 -3.7415947e-13
-5.4122924e-18 0.0083155995 0.0013595694 6.507586e-19 3.7325433e-18 -1.5011943e-18 -4.009168e-18 2.202389e-15
-4.335356e-18 -3.6056063e-18 -3.1589184e-13 -2.8817002e-18 -6.280727e-17 1.1025358e-15 4.5724782e-18 -1.133467e-16
-2.9740896e-13 -6.950447e-19 -3.877704e-18 -1.2572255e-15 -6.2945467e-19 0.0017186201 5.3920256e-18 0.005015973
-4.2005323e-18 1.8566077e-18 -4.418189e-18 -5.8737174e-14 5.0222933e-18 -3.520009e-18 -6.900719e-19 -2.658977e-16
9.191038e-13 -4.2448965e-19 1.5087171e-18 6.105765e-18 4.0882666e-18 0.007973212 5.2618146e-18 2.1277894e-18
-5.551801e-16 5.113805e-18 -7.481687e-18 -2.3580264e-18 -1.6808018e-13 -5.016512e-18 4.311149e-18 3.384508e-18
-1.1699186e-18 4.4530615e-18 5.188279e-18 4.444778e-18 0.0052612424 3.8017014e-18 -2.4736002e-13 -2.7961683e-19
0.002773358 4.787422e-18 1.1309404e-18 -7.8579635e-19 -4.3339384e-18 2.2074289e-18 3.4913424e-17 -2.48376e-18
3.1178954e-10 -2.3833582e-18 2.7276562e-18 -1.0362834e-18 -8.462314e-19 1.716821e-18 3.9399733e-18 2.1900434e-20
2.7972787e-18 7.3630696e-19 3.1904255e-18 -4.1798594e-18 -5.535012e-18 -4.858871e-18 0.010562583 -3.337211e-18
-4.044471e-18 -2.046698e-18 1.9977144e-18 5.195194e-18 -4.3353793e-18 -1.7038897e-18 -1.5132256e-15 -4.142833e-18
2.0669217e-19 -4.62218e-19 4.52577e-18 1.9333854e-18 5.902717e-18 2.811132e-20 -5.0802877e-18 5.4429283e-18
2.4601617e-18 1.0925688e-10 2.0769901e-18 -3.4201395e-18 4.914505e-18 -2.139645e-18 -5.2159544e-18 -2.5237152e-18
7.525469e-16 1.8145783e-18 -4.8600554e-18 -4.977073e-18 -4.5126578e-18 1.7230073e-18 1.809274e-18 2.6094364e-18
-5.7346372e-18 4.770933e-18 -8.190722e-19 2.8940783e-18 -3.703032e-18 -6.244332e-18 2.9550945e-19 4.9916834e-18
-4.8830932e-18 -5.211697e-19 3.2237543e-18 -1.7588569e-18 -3.4308553e-16 -7.451297e-17 -4.0527631e-19 -3.3379877e-13
-3.0046813e-18 0.006086627 0.0012017373 -1.1797324e-18 5.511563e-18 4.2321166e-18 -2.803204e-18 2.05155e-15
5.99577e-18 1.036753e-18 -1.8289408e-13 7.987963e-19 3.2947464e-16 -1.1001618e-15 3.949845e-18 -1.4425223e-17
-5.122524e-13 4.2992874e-18 -3.47969e-18 5.2886286e-16 2.1000585e-18 0.0015052719 4.456814e-18 0.0040339027
-3.5037443e-18 -5.806326e-19 2.7881574e-18 -3.1089126e-13 -4.9926876e-18 -1.6873124e-18 -3.520764e-18 -2.3912749e-16
-3.524481e-13 3.3094406e-18 -1.2364142e-18 -2.7076637e-18 4.0397698e-18 0.0058955452 -1.6505376e-18 -1.3148952e-18
-1.880163e-17 4.8897694e-18 -6.9939295e-18 4.9793775e-18 -2.1028214e-13 -5.012752e-18 1.0513304e-18 5.2454327e-18
2.1774475e-18 3.015851e-18 -3.8342642e-18 -3.7934983e-18 0.00420274 -3.452047e-18 -2.2880677e-13 2.4619995e-18
0.0023660648 -4.7421396e-19 -2.1195781e-18 5.3082517e-18 3.248175e-18 -4.0718975e-18 -2.6323617e-17 -4.0521796e-18
4.90416e-10 -4.907645e-18 -1.4832639e-18 1.3991475e-18 4.2133834e-18 -3.4306487e-18 3.4514107e-18 3.0013541e-18
6.991482e-18 2.2306046e-18 -3.4507512e-18 5.017935e-18 1.5288593e-18 -1.3726161e-18 0.0072106253 1.1756776e-18
3.1032957e-18 3.0581732e-18 6.0813756e-18 4.8429857e-18 -4.947801e-18 2.5620331e-18 2.0444199e-16 3.033168e-19
2.6079729e-18 -3.1117298e-18 -3.383411e-18 -4.7016466e-18 -2.3827122e-18 2.7684792e-18 6.322765e-18 -5.0457703e-18
-3.662587e-18 8.738867e-11 -3.0609723e-18 -2.3291475e-18 3.6289187e-18 7.831932e-19 -5.383574e-18 -9.943335e-19
00000000: 9125 c9a5 999a caa2 6802 fb21 d834 82a2
00000010: c9c3 b0a2 e6e7 d922 eb8d 96a2 6ef0 bf22
00000020: ea41 8ba2 e618 28a2 f8c6 8e21 86b9 8f22
00000030: 8830 a022 0049 5da0 5fc6 bda2 66ef b222
00000040: d01d baa2 7470 5322 1f15 4fa2 40df 76a2
00000050: 1c5e f7a4 cf37 a925 acf5 7122 10a2 d2aa
00000060: a8ad c7a2 273e 083c 9433 b23a ee11 4021
00000070: e0b4 8922 8489 dda1 85e9 93a2 e8b2 1e27
00000080: 48f2 9fa2 fd05 85a2 d0d4 b1aa c7a1 54a2
00000090: ded2 90a4 64e4 9e26 d6b1 a822 0bae 02a5
000000a0: 266d a7aa 1824 4da1 e10f 8fa2 6f2f b5a6
000000b0: 40c8 39a1 5243 e13a 3eee c622 085d a43b
000000c0: e8f8 9aa2 54fe 0822 9e00 a3a2 ad43 84a9
000000d0: 384a b922 8cdd 81a2 5cac 4ba1 9347 99a5
000000e0: 345a 812b 1093 faa0 b8a5 de21 5243 e122
000000f0: 96d4 9622 13a2 023c 6f20 c222 ce00 1d22
00000100: 1005 20a6 86aa bc22 4503 0aa3 dcfd 2da2
00000110: d03d 3daa 9e13 b9a2 a70d 9f22 8cbb 7922
00000120: 46a6 aca1 fa49 a422 e969 bf22 befb a322
00000130: 8066 ac3b 0e42 8c22 5640 8baa 800e a5a0
00000140: 3ac1 353b ec9f b022 b8e5 a621 18ed 67a1
00000150: e4e4 9fa2 27e1 2222 7f02 2124 e644 37a2
00000160: 7a68 ab2f 5ddc 2fa2 f843 4922 aeed 98a1
00000170: 70c3 79a1 aa5b fd21 ff5b 9122 00d8 ce1e
00000180: 1a67 4e22 c851 5921 6f69 6b22 a835 9aa2
00000190: b634 cca2 bd42 b3a2 af0e 2d3c 223e 76a2
000001a0: f336 95a2 0805 17a2 c267 1322 38ab bf22
000001b0: 80f2 9fa2 2273 fba1 2c14 daa6 f4d7 98a2
000001c0: e004 7420 346c 08a1 b0f8 a622 9ea8 0e22
000001d0: 96c5 d922 80c0 041f f66d bba2 01cf c822
000001e0: 2487 3522 2842 f02e 3c41 1922 9c5c 7ca2
000001f0: 3050 b522 c0e0 1da2 4c6f c0a2 a237 3aa2
00000200: 29e8 5826 6ae4 0522 ed4d b3a2 209f b7a2
00000210: d97c a6a2 6045 fe21 3880 0522 dc8a 4022
00000220: 1e92 d3a2 3004 b022 58bf 71a1 988b 5522
00000230: 269e 88a2 0c60 e6a2 2070 ae20 1e29 b822
00000240: 8327 b4a2 78d2 19a1 ffde 6d22 dec7 01a2
00000250: 7dc6 c5a5 b2d0 aba4 a03b efa0 79e9 bbaa
00000260: d3b4 5da2 5472 c73b 9d83 9d3a 0819 aea1
00000270: 3e57 cb22 3623 9c22 07d7 4ea2 6bd4 1327
00000280: 7234 dd22 6cff 9821 a1eb 4daa 58c3 6b21
00000290: e0ed bd25 ce8c 9ea6 3bb9 9122 980c 85a3
000002a0: ad2f 10ab 9f9d 9e22 be60 80a2 316f 1826
000002b0: fcf4 1a22 8b4c c53a 6b6d a422 d42e 843b
000002c0: ee43 81a2 5c5f 2ba1 ceba 4d22 2704 afaa
000002d0: 9a32 b8a2 dc00 f9a1 ade4 81a2 fdd8 89a5
000002e0: 2069 c6aa 9131 7422 6876 b6a1 52ca 47a2
000002f0: 8c0a 9522 6b2f c13b 8c93 f3a1 560b c2a1
00000300: 186a ada3 9166 b422 e603 01a3 e4b4 b722
00000310: b3c1 6caa 1bf0 b8a2 2426 9b21 b685 c122
00000320: d2aa 2022 d187 5e22 9a75 8da2 94f4 8ba2
00000330: 23b7 893b 53b7 7ea2 88ce 80aa dba9 3522
00000340: fb0f 1b3b 98f6 0ba1 b365 1ca2 05d7 c322
00000350: 4aac 6f22 fc39 96a2 e2ca f2a3 c17f 95a2
00000360: f5cd 0630 660f b5a2 20e4 daa1 4c7a ce21
00000370: 4872 9b22 1f23 7da2 4eab 7e22 fa75 5d22
00000380: 57f8 0023 ee96 2422 d99e 7ea2 0e21 b922
00000390: ac9e e121 f88f caa1 1c47 ec3b d87f ad21
000003a0: 99fb 6422 42a7 6122 f85c e022 b5ac b222
000003b0: a98a b6a2 700b 3d22 a0b4 6b25 f00b b320
000003c0: 376f 4022 ea9a 65a2 d4a6 79a2 cc75 ada2
000003d0: 29d0 2fa2 1847 4c22 d444 e922 f427 baa2
000003e0: 2820 87a2 732b c02e 22dc 61a2 5adc 2ba2
000003f0: 2be2 8522 6828 6721 6b9e c6a2 dcbc 92a1
