models/USDJPY_model.pth (torch, 860300 bytes, 15 tensors)

lstm.weight_ih_l0 f4 [512, 12]
0	0xbda9e016	-0.08294694
1	0xbe335a23	-0.17514853
2	0xbd9ee34b	-0.077581964
3	0xbdb4dcec	-0.088312
4	0xbe03bab2	-0.12864187
5	0xbe59d273	-0.21271686
6	0xbe59b2d0	-0.21259618
7	0xbdfb2933	-0.122637175
8	0xbef25a9a	-0.47334749
9	0xbddbc71e	-0.10731338
10	0xbe07ced5	-0.13262494
11	0xbe3998c6	-0.18124685
12	0xbdbd15a1	-0.09232641
13	0xbd8d5536	-0.06901018
14	0xbb9bcaf3	-0.004754418
15	0xbd86221c	-0.065494746
16	0xbe26cfbf	-0.16290186
17	0xbc948b95	-0.018132964
18	0xbe0c067b	-0.13674347
19	0xbdb8cbad	-0.09023223
20	0xbc67de38	-0.014152102
21	0xbe828a1c	-0.25495994
22	0x3d369f2a	0.044585384
23	0xbca1306d	-0.019676412
24	0x3db5cccf	0.08876955
25	0x3dc8eec1	0.09811164
26	0xbb9ce3aa	-0.004787882
27	0x3d8bd322	0.0682738
28	0x3eac0d82	0.33604056
29	0x3d8b22cf	0.067937486
30	0x3dfa7ed8	0.12231225
31	0x3e9e6322	0.30935007
32	0x3e132669	0.14370121
33	0x3e1f6824	0.1556707
34	0x39c54099	0.00037622897
35	0x3e6a199b	0.2286133
36	0xbe4a0ccb	-0.19731443
37	0xbe8d2f86	-0.2757532
38	0xbe1eae8c	-0.15496272
39	0xbe891716	-0.26775426
40	0xbccd26cf	-0.02504292
41	0xbe5e15cd	-0.21688004
42	0xbe6896c9	-0.2271377
43	0xbcdbc143	-0.026825553
44	0xbc507451	-0.0127230445
45	0x3cd51ca7	0.026014639
46	0xbb729afd	-0.003701865
47	0xbdcea94e	-0.10090886
48	0x3e1bbe87	0.15209399
49	0x3bfc489f	0.007699087
50	0x3e01a0c4	0.12658983
51	0x3e0ea8f3	0.13931637
52	0xbe823982	-0.254345
53	0x3d5a2cea	0.05326549
54	0x3d2ef47f	0.04271364
55	0x3d73d233	0.059526633
56	0xbe359cbb	-0.17735569
57	0xbdb69015	-0.089142
58	0xbe00b3a8	-0.12568533
59	0xbe0b700e	-0.13616964
60	0xbdf1e6e7	-0.11811619
61	0xbe55a5e6	-0.20864066
62	0xbe5003d4	-0.2031396
63	0xbde33aa1	-0.11095167
64	0x3e089cd5	0.13341077
65	0xbdf162ea	-0.117864445
66	0xbdd18d76	-0.1023206
67	0xbc4e5b69	-0.012595036
68	0x3e080ad5	0.13285382
69	0xbd6c50bc	-0.05769418
70	0x3d991100	0.074739456
71	0xbdb2c769	-0.08729441
72	0x3cdd4d25	0.027014324
73	0xbc18bbef	-0.009322151
74	0xbb17b0a5	-0.002314606
75	0xbd421dd8	-0.047391742
76	0xbe25d41b	-0.16194193
77	0xbcf7d7e4	-0.030254312
78	0x3d6dd88c	0.058067843
79	0xbe14be0c	-0.14525622
80	0xbe86f7e3	-0.26360998
81	0xbe3ffa7e	-0.18747899
82	0xbe13d0d9	-0.14435138
83	0xbe52640a	-0.20545974
84	0x3b884c22	0.0041594664
85	0xbdcb613f	-0.099306576
86	0xbdf1f206	-0.118137404
87	0xbe39e533	-0.18153839
88	0xbc7e6bd0	-0.015528634
89	0xbdc168cc	-0.094438165
90	0xbdbe9457	-0.09305637
91	0xbf0a4f63	-0.54027385
92	0x3e5e9924	0.21738106
93	0xbeaf6c36	-0.34262246
94	0xbe9c3736	-0.30510873
95	0xbe952ad4	-0.29134238
96	0x3d8d47b5	0.06898443
97	0x3de01767	0.10941964
98	0x3db2a26b	0.08722385
99	0x3d480262	0.048830397
100	0xbef192e8	-0.47182393
101	0x3dabd188	0.08389574
102	0x3d2e2d9d	0.04252397
103	0xbe449827	-0.19198667
104	0xbca0bcf0	-0.019621342
105	0xbbd485a5	-0.006485658
106	0xbe750dc3	-0.23931031
107	0xbd908c31	-0.070579894
108	0xbe558316	-0.20850787
109	0xbe7f75f4	-0.2494734
110	0xbe5e711b	-0.21722834
111	0xbe381de2	-0.1798015
112	0x3df8a582	0.12140943
113	0xbe741ae4	-0.23838383
114	0xbe6f9d29	-0.23399796
115	0xbd86d476	-0.065834925
116	0xbdcecce6	-0.10097675
117	0xbdb6ca73	-0.08925333
118	0xbe13173f	-0.14364336
119	0xbdebb9da	-0.11510058
120	0xbcbb1982	-0.022839312
121	0x3d7a5664	0.061117545
122	0xbc29a03e	-0.010353146
123	0x3e35b05e	0.1774306
124	0x3eb6b254	0.3568293
125	0x3daf62db	0.08563777
126	0x3d3cb70b	0.046073
127	0x3c08381c	0.008314159
128	0x3ebd454e	0.36966938
129	0x3e64aedb	0.22332327
130	0x3d35257b	0.044225197
131	0x3e935aa0	0.2878008
132	0x3b979ba8	0.00462671
133	0xbb5985ca	-0.0033191317
134	0xbb8e6139	-0.004345086
135	0x3c8a79f7	0.01690386
136	0x3eba0ecc	0.36339414
137	0x3b9fbbe5	0.0048746937
138	0xbd86782c	-0.0656589
139	0xbe813a1b	-0.25239643
140	0x3ec34af6	0.38143128
141	0xbdd271d0	-0.10275614
142	0xbe64cb7c	-0.22343248
143	0xbcbf53ea	-0.023355443
144	0xbd3bf131	-0.045884315
145	0xba304394	-0.0006723937
146	0xbdd22352	-0.10260643
147	0x3c7d41b0	0.015457556
148	0x3ef42bad	0.47689572
149	0x3c44df4b	0.012016128
150	0xbd9990b1	-0.07498301
151	0xbdacd146	-0.08438353
152	0x3eec9a8b	0.46211657
153	0xbe0de74e	-0.13857767
154	0xbd38ef31	-0.045149986
155	0x3d422323	0.04739679
156	0xbd863538	-0.065531194
157	0xbe011254	-0.12604648
158	0xbdf4ec92	-0.11959185
159	0xb94aa48a	-0.00019325517
160	0xbf7aed51	-0.98018366
161	0xbe0b4af8	-0.13602817
162	0xbe1f4eb5	-0.15557368
163	0x3e6340ac	0.22192639
164	0xbf16e19d	-0.5893801
165	0xbe144df6	-0.14482865
166	0xbe67ee77	-0.22649561
167	0xbe027e2d	-0.12743445
168	0xbab63fad	-0.0013904475
169	0x3d5eb46b	0.05437128
170	0x3cc8e3a8	0.024522617
171	0x3db5cada	0.088765815
172	0x3d05db46	0.03267982
173	0x3e1c05af	0.15236543
174	0x3e18eb97	0.1493362
175	0x3d9fb707	0.077985816
176	0xbe3d5d34	-0.18492585
177	0xbd3b0da7	-0.045667317
178	0xbdf9f1af	-0.122043006
179	0xbd68f370	-0.056872785
180	0xbdb670ee	-0.089082584
181	0xbe2d464a	-0.16921344
182	0xbe4485cc	-0.19191664
183	0xbe03a9de	-0.12857768
184	0x3cf22890	0.029560357
185	0xbe21e462	-0.15809777
186	0xbcd73b18	-0.026273295
187	0xbdeed794	-0.11662212
188	0xbe85b8ed	-0.2611765
189	0xbddc995b	-0.10771438
190	0xbe4bcd67	-0.19902574
191	0xbe23e33a	-0.16004649
192	0xbde431a4	-0.11142281
193	0xbe90e254	-0.28297675
194	0xbe6ef2ba	-0.2333478
195	0xbe946445	-0.2898275
196	0x3df086a7	0.11744433
197	0xbdd1dc7b	-0.102471314
198	0xbe0bd2e0	-0.13654661
199	0xbdc87c17	-0.09789293
200	0x3d72a243	0.059236776
201	0xbe0489ad	-0.12943144
202	0xbd1c3a1d	-0.03814136
203	0xbe030f86	-0.1279889
204	0x3dba6ecf	0.09103166
205	0xbd645518	-0.055745214
206	0xbc967924	-0.018368311
207	0x3b9d127a	0.0047934623
208	0x3e891dac	0.2678045
209	0xbd609492	-0.054829188
210	0x3be36497	0.0069394815
211	0xbdf65b7c	-0.12029168
212	0x3e85e559	0.2615154
213	0xbb24ff73	-0.0025176674
214	0x3dfcfbc0	0.12352705
215	0x3b19ce8d	0.002346906
216	0xbc5af38c	-0.01336373
217	0xbac61d5f	-0.0015114954
218	0x3b68b0a9	0.0035505688
219	0xbe08ce21	-0.13359882
220	0xbdf7be36	-0.12096827
221	0xbdbf113d	-0.0932946
222	0xbca2e1c3	-0.019883042
223	0xbebcd287	-0.3687937
224	0x3d76073f	0.060065504
225	0xbe4d4562	-0.20045999
226	0xbe86f050	-0.2635522
227	0xbe61613d	-0.2200975
228	0xbdc9b202	-0.098484054
229	0xbd2ff88d	-0.042961646
230	0xbd867345	-0.06564955
231	0x3ceea050	0.029129177
232	0x3e769e10	0.24083734
233	0xbd9b8031	-0.0759281
234	0xbd73b364	-0.059497252
235	0x3df25f77	0.11834615
236	0x3cb804bd	0.022463197
237	0x3d6bd0f5	0.057572324
238	0xbd50b30f	-0.050952014
239	0x3e295c5b	0.16539137
240	0x3c95e684	0.018298395
241	0x3e218c5c	0.15776199
242	0x3c4f5171	0.0126536945
243	0x3bd56814	0.006512651
244	0x3e1db5ae	0.15401337
245	0x3e26ac2a	0.16276613
246	0x3d25765b	0.040396076
247	0x3df46f18	0.11935252
248	0x3dad8778	0.08473104
249	0x3e60f013	0.21966581
250	0x3c10b8a6	0.008833086
251	0x3e685dd5	0.22692044
252	0xbe4c809c	-0.19970936
253	0xbe4e4d0a	-0.20146576
254	0xbe0a0713	-0.13479261
255	0xbe26f5ef	-0.16304754

lstm.weight_hh_l0 f4 [512, 128]
0	0x3e11db88	0.14243901
1	0xbd75da2c	-0.060022518
2	0xbe34f00f	-0.176697
3	0xbcd59ce1	-0.026075782
4	0x3dc44110	0.09582722
5	0x3de45e11	0.11150754
6	0x3e545f60	0.20739508
7	0xbe825439	-0.25454882
8	0xbd6b7fb5	-0.057494838
9	0x3c8cc8f8	0.017185673
10	0x3d3b249a	0.045689203
11	0x3e5efc35	0.21775897
12	0x3d5d417d	0.054017533
13	0x3d9f7342	0.077856556
14	0x3de4a331	0.11163939
15	0x3d6fdc5c	0.05855976
16	0xbdc7b511	-0.097513326
17	0xbe00520c	-0.12531298
18	0x3eb96701	0.36211398
19	0xbd987c2e	-0.074455604
20	0x3e4cd96a	0.20004812
21	0x3d0ac791	0.033881728
22	0xbd2778b4	-0.040886596
23	0xbd0d7459	-0.034534786
24	0xbed5a6ab	-0.4172872
25	0xbea83d3b	-0.32859215
26	0xbdd0eb68	-0.1020115
27	0x3dcc4b71	0.09975327
28	0xbdc68241	-0.09692813
29	0xbe88c1ec	-0.2671045
30	0xbc9c3fcb	-0.019073388
31	0xbc31332c	-0.010815423
32	0xbd598884	-0.053108707
33	0x3e2d1b50	0.1690495
34	0x3d9b06c1	0.075696476
35	0x3e61fc8a	0.22068992
36	0x3e7ab4d7	0.24483047
37	0x3e65b591	0.22432543
38	0x3cf9f19a	0.030510712
39	0x3c78345b	0.015149201
40	0x3cb4229c	0.02198916
41	0xbdd756af	-0.105145805
42	0xbcf2a7b3	-0.02962098
43	0x3dab7d9c	0.083735675
44	0xbd51bab6	-0.051203452
45	0x3e4f82b4	0.20264703
46	0x3e013546	0.12617978
47	0x3e3507dc	0.1767878
48	0x3da988c0	0.08278036
49	0xbe249840	-0.16073704
50	0x3d60722b	0.05479638
51	0x3e5d61f6	0.216194
52	0xbdf1960d	-0.11796198
53	0x3e5fc1f1	0.21851327
54	0x3c4c50da	0.012470448
55	0x3d37f837	0.04491445
56	0x3e844a40	0.25837898
57	0x3d6077e9	0.054801855
58	0xbe2885f6	-0.16457352
59	0x3d429408	0.047504455
60	0x3e43b245	0.19110973
61	0x3cbbef2b	0.022941193
62	0x3d1f1082	0.038834102
63	0xbd22decc	-0.039763257
64	0xbdeab4f1	-0.11460293
65	0x3cb92134	0.02259884
66	0x3d96cddf	0.073634855
67	0x3b926987	0.0044681462
68	0xbda55eb4	-0.08074704
69	0xbe834ac8	-0.2564299
70	0xbe047e45	-0.12938793
71	0x3df45cc5	0.11931757
72	0xbd307999	-0.043084715
73	0x3d9f2d68	0.077723324
74	0xbc96feb6	-0.018432003
75	0x3dbd895c	0.09254715
76	0x3c772af5	0.015085925
77	0x3d404c2b	0.04694764
78	0xbd91c6df	-0.0711801
79	0xba3ac5e0	-0.00071248226
80	0x3de31c78	0.11089414
81	0xbbb0302b	-0.005376836
82	0xbdcd1c13	-0.1001512
83	0x3e144cde	0.14482448
84	0x3eca846e	0.3955416
85	0xbd06c36e	-0.03290122
86	0xbdcc64ef	-0.09980189
87	0x3e9c3825	0.30511585
88	0x3e62e984	0.22159392
89	0x3e0a78eb	0.13522689
90	0xbe2c799a	-0.16843262
91	0xbe3f2c1c	-0.1866917
92	0xbe112f8a	-0.14178291
93	0xbe13e84c	-0.14444083
94	0xbe427e4d	-0.18993492
95	0x3e167410	0.14692712
96	0x3c29c28b	0.010361324
97	0x3bc43988	0.0059883036
98	0xbdfded1a	-0.12398739
99	0xbdac0d1c	-0.08400938
100	0xbdb23e6f	-0.087033145
101	0xbb8223d1	-0.003971555
102	0x3d4ab2d8	0.049486965
103	0x3e5225f1	0.20522286
104	0xbd29e9c0	-0.041482687
105	0x3e3cdeaa	0.18444315
106	0x3d464ac0	0.04841113
107	0x3cacdbbe	0.021100875
108	0xbdafe3f3	-0.085884
109	0x3cf9f453	0.03051201
110	0xbcd9c897	-0.026584907
111	0x3e009abb	0.12559025
112	0xbe5e3db2	-0.21703222
113	0xbed9f3b6	-0.4256875
114	0xbcb92211	-0.022599252
115	0xbdd7fbd8	-0.10546082
116	0xbdcb920d	-0.09939966
117	0x3df96fd2	0.12179531
118	0xbdfb3425	-0.12265805
119	0x3e0941f2	0.13404062
120	0xbc9aef36	-0.018912893
121	0xbd1e5e2f	-0.03866404
122	0xbe008a84	-0.1255284
123	0x3dc24e22	0.09487559
124	0x3d190344	0.03735663
125	0xbc95cd83	-0.018286472
126	0x3e00d9b9	0.12583055
127	0x3e026e4a	0.12737384
128	0xbe038a31	-0.12845685
129	0x3da4d208	0.08047873
130	0xbda0de53	-0.07854905
131	0x3d9f6388	0.07782656
132	0xbcc87ada	-0.024472643
133	0x3dbebd1c	0.093134135
134	0x3d78bcb3	0.060726833
135	0xbd8d4973	-0.06898775
136	0x3df186cc	0.117932886
137	0x3d86dae1	0.065847166
138	0x3dc86266	0.09784393
139	0x3e9621e5	0.29322734
140	0x3e8a3af7	0.26998112
141	0xbb3d7568	-0.002890909
142	0x3dad716a	0.08468898
143	0xbd4bf286	-0.049791835
144	0xbe2bc3c9	-0.16773905
145	0xbe93e38f	-0.2888455
146	0x3e0a652a	0.13515154
147	0xbe09be14	-0.13451415
148	0x3ea43c7c	0.32077396
149	0x3d841e53	0.064510964
150	0xbd26723d	-0.04063629
151	0xbe1fe3a5	-0.15614183
152	0xbf02ecbe	-0.5114249
153	0xbe854e04	-0.26036084
154	0xbe867dfc	-0.26267993
155	0x3d0e1cfe	0.034695618
156	0xbd21729b	-0.039415937
157	0xbdb5610c	-0.08856401
158	0x3d88bf8b	0.06677159
159	0xbca5f74a	-0.020259518
160	0xbeac1b45	-0.33614555
161	0x3e0942fb	0.13404457
162	0x3e6f5ee1	0.23376037
163	0x3dbb9742	0.091597095
164	0xbce11c67	-0.027479364
165	0x3d133d5d	0.035947192
166	0xbd6b17a3	-0.05739559
167	0x3dcd9aae	0.100392684
168	0xbd2feb1b	-0.042948823
169	0x3be278a4	0.006911354
170	0x3e0e3606	0.13887796
171	0x3e653192	0.22382191
172	0xbe2bfc4a	-0.1679546
173	0x3e1b6ce5	0.15178259
174	0x3cf644e2	0.030062143
175	0xbd679549	-0.056538854
176	0xbcaccd87	-0.021094097
177	0xbeb300d1	-0.3496156
178	0x3d21ad19	0.03947172
179	0x3e804878	0.2505529
180	0xbe24a7cb	-0.16079633
181	0x3e7063a3	0.23475508
182	0x3e23ef9b	0.16009371
183	0x3e3b6aa2	0.18302396
184	0x3d92ba74	0.07164469
185	0x3e9403d0	0.2890916
186	0x3bc1e858	0.00591759
187	0xbde5d58c	-0.112223715
188	0x3e7fb5c8	0.24971688
189	0x3c1821fb	0.009285445
190	0xbda617f2	-0.08110036
191	0x3d132314	0.035922125
192	0xbc82a72f	-0.01594886
193	0xbdb8c539	-0.09021992
194	0x3d986cc1	0.07442618
195	0x3da7a3a2	0.08185507
196	0xbddd329f	-0.10800671
197	0xbea88fed	-0.32922307
198	0x3d92d545	0.07169584
199	0x3d2a9ae4	0.04165162
200	0x3b97a8ad	0.004628262
201	0xbc9d676f	-0.01921436
202	0x3c75093c	0.014955815
203	0x3d9cc914	0.0765554
204	0xbd0ddbf8	-0.034633607
205	0xbda04414	-0.07825485
206	0xbcd5ef69	-0.026115136
207	0xbce80a34	-0.028325178
208	0x3ea71cc6	0.3263914
209	0x3d7e59df	0.062097427
210	0x3d375a0b	0.044763606
211	0x3cbe3991	0.02322081
212	0x3e229fdc	0.15881294
213	0x3e7e4357	0.24830376
214	0xbe393467	-0.18086396
215	0x3e40a1c4	0.18811709
216	0x3eacbc81	0.33737567
217	0x3e26067a	0.16213408
218	0x3c508ccd	0.012728882
219	0x3e0cf77b	0.13766281
220	0xbdd8532e	-0.1056274
221	0x3caca29b	0.02107363
222	0xbe0d6f07	-0.13811885
223	0x3e364409	0.17799391
224	0xbc34d6b8	-0.011037521
225	0x3e3ed39b	0.18635409
226	0xbdd398f1	-0.10331906
227	0xbd94c58f	-0.07264244
228	0x3dd0e692	0.10200228
229	0x3db79eb3	0.08965816
230	0x3d9d4b59	0.07680387
231	0x3e729f27	0.23693524
232	0xbe4bf4c1	-0.19917585
233	0x3dec04eb	0.115243755
234	0x3d9ca2d5	0.07648245
235	0xbd2d436e	-0.042300634
236	0x3a80bd7f	0.0009822099
237	0x3d65236b	0.05594198
238	0xbc848efd	-0.016181463
239	0x3daffc7c	0.085930794
240	0xbecaa256	-0.39576977
241	0xbe847566	-0.25870818
242	0xbdb6fc5c	-0.089348525
243	0xbe8f8c95	-0.28036943
244	0x3b225c27	0.0024774165
245	0x3e05e977	0.13077341
246	0xbeac0437	-0.33596966
247	0x3c479322	0.012181075
248	0xbdf5249f	-0.119698755
249	0xbd8ad30b	-0.067785345
250	0xbe88410c	-0.26612127
251	0x3dc74e94	0.097317845
252	0x3d43aa51	0.04776985
253	0x3c913bf2	0.01772878
254	0x3e47e8c5	0.19522388
255	0xbdafce7c	-0.08584306

lstm.bias_ih_l0 f4 [512]
0	0xbd99eff8	-0.075164735
1	0xbdcee442	-0.101021305
2	0x3ddc4ec7	0.10757213
3	0xbddde300	-0.108343124
4	0xbdad25c1	-0.084544666
5	0x3db79709	0.089643545
6	0x3d010455	0.031498272
7	0xbce279d3	-0.027645981
8	0xbe186e6b	-0.14885871
9	0xbbf2f993	-0.0074150055
10	0xbc1b69ac	-0.009485643
11	0xbd94335f	-0.07236361
12	0x3cc1e787	0.023669971
13	0xbdd4a757	-0.1038348
14	0xbe0f7768	-0.14010394
15	0xbd4e0ef3	-0.050307225
16	0xbccb5845	-0.024822364
17	0x3e03aa57	0.12857948
18	0xbe3aeb09	-0.18253721
19	0x3db1ba4a	0.0867811
20	0x3d9b3da1	0.07580114
21	0xbd500a60	-0.050791144
22	0x3ddd4c05	0.10805515
23	0xbc26ff0a	-0.010192642
24	0x3ed46e68	0.41490483
25	0x3b2f3935	0.002673698
26	0x3ce4bc4b	0.027921816
27	0xbd6b70a7	-0.05748048
28	0x3d422da4	0.047406808
29	0xbce9f581	-0.028559448
30	0xbe1bb331	-0.15205075
31	0xbdb26eea	-0.087125614
32	0xbe447bf8	-0.19187915
33	0xbd4b65a3	-0.049657475
34	0x3d699281	0.057024483
35	0x3d49a5dd	0.049230445
36	0x3df120ee	0.11773859
37	0xbd33866b	-0.043829363
38	0xbe4f9eaa	-0.2027537
39	0xbe2111cc	-0.15729445
40	0x3d0c3129	0.03422657
41	0xbcac36d3	-0.021022236
42	0x3d258f80	0.040420055
43	0xbe215599	-0.15755309
44	0xbd0162e6	-0.031588458
45	0xbdad06c7	-0.08448558
46	0x3c619fa6	0.013770973
47	0x3cdca998	0.026936337
48	0x3d32ad01	0.04362202
49	0x3cebc184	0.028778799
50	0xbe8955e8	-0.26823354
51	0x3e4f9d9e	0.2027497
52	0xbddc83c3	-0.10767319
53	0x3db24c41	0.087059505
54	0xbdc30483	-0.09522345
55	0xbd89515a	-0.0670497
56	0xbdcf850e	-0.101328
57	0xbd91d1fb	-0.07120129
58	0xbdfa14e3	-0.12211015
59	0xbe32ccc6	-0.17460927
60	0x3de323df	0.11090826
61	0xbd013d42	-0.03155256
62	0xbdbbf2e5	-0.09177188
63	0xbc11064d	-0.0088516
64	0xbd60eb17	-0.0549117
65	0xbde40403	-0.11133578
66	0xbc0a255b	-0.008431758
67	0xbc0557c5	-0.008138602
68	0x3df876e5	0.12132052
69	0xbd4be09a	-0.049774744
70	0xbdff1232	-0.12454642
71	0xbe5bd6b6	-0.21468624
72	0xbe388894	-0.1802085
73	0x3e89a247	0.2688162
74	0xbd3e0b4e	-0.0463975
75	0xbd729495	-0.05922373
76	0x3d254a52	0.04035408
77	0xbc2dc99b	-0.0106071485
78	0xbd91a89e	-0.07112239
79	0xbd6aba18	-0.05730638
80	0x3bcad1cd	0.006189561
81	0xbc251abe	-0.010077177
82	0x3d8fa524	0.0701392
83	0xbd467a20	-0.04845631
84	0x3c850984	0.016239889
85	0x3d8c8da5	0.06862954
86	0xbd17b349	-0.037036214
87	0xbe311e7b	-0.17296784
88	0x3d02c6e3	0.031927954
89	0xbd85f04a	-0.06539972
90	0xbd9866ca	-0.074414805
91	0x3cfe3870	0.03103277
92	0xbdb0469d	-0.086072184
93	0x3c308648	0.010774203
94	0x3d3c8985	0.046029586
95	0xbd3ad0c5	-0.045609254
96	0x3e488295	0.19581063
97	0xbd21c46a	-0.039493956
98	0xbc7c4664	-0.015397642
99	0x3d685e2b	0.05673043
100	0xbd48b42c	-0.04899995
101	0xbc54f36b	-0.0129974885
102	0x3dd2fd4c	0.10302219
103	0xbdb8a99d	-0.09016726
104	0x3b8f119a	0.004366112
105	0xbdd37efb	-0.10326954
106	0xbdc9fa6f	-0.098622195
107	0xbe0fd965	-0.14047773
108	0xbe342935	-0.17593844
109	0x3dfb1215	0.12259308
110	0x3d8b82d7	0.06812065
111	0xbe02987c	-0.1275348
112	0x3e6d476a	0.23171774
113	0x3ebefc8b	0.3730205
114	0xbe2399e7	-0.15976678
115	0xbe2623ff	-0.16224669
116	0xbe0d70a7	-0.13812505
117	0x3e158b6c	0.14603966
118	0xbe1bd111	-0.15216471
119	0x3a5fbb42	0.00085346785
120	0xbe4ffae0	-0.20310545
121	0xbdde23fe	-0.10846709
122	0xbdd176c3	-0.1022773
123	0x3c901bb9	0.017591344
124	0xbbdfdde5	-0.006831872
125	0x3e5dd26c	0.21662301
126	0x3c4466f7	0.011987439
127	0x3c6f8840	0.014619887
128	0xbdcdd77d	-0.10050867
129	0xbe8d9ae9	-0.2765725
130	0xbf1280b4	-0.57227635
131	0xbcae518f	-0.021279125
132	0xbd908bd1	-0.07057918
133	0x3cbfaf3b	0.023398986
134	0xbdf7d89f	-0.12101864
135	0xbd35e120	-0.04440415
136	0xbe964236	-0.2934739
137	0xbdfb76e9	-0.1227854
138	0xbdf6e784	-0.12055877
139	0xbe894ccb	-0.268164
140	0xbe702fd0	-0.23455739
141	0xbe52ae9d	-0.20574422
142	0x3cd7371d	0.026271397
143	0xbe883956	-0.26606244
144	0x3de6ed5a	0.1127574
145	0xbe9153e3	-0.28384313
146	0xbd79498e	-0.060861163
147	0xbe47ef87	-0.19524966
148	0xbeb32494	-0.34988844
149	0xbdd95209	-0.1061135
150	0xbe69e845	-0.2284251
151	0xbe8b59e6	-0.27217025
152	0xbebcbfbb	-0.3686503
153	0xbd330947	-0.04371002
154	0xbea9d417	-0.33169624
155	0xbd9ac90b	-0.07557877
156	0x3d3b2c6f	0.045696672
157	0xbd5d6980	-0.05405569
158	0x3acdc4dc	0.0015698927
159	0x3d0ed14e	0.034867577
160	0x3cdc1b4c	0.026868485
161	0xbdc72778	-0.09724325
162	0xbe30c935	-0.17264254
163	0xbe88b2d2	-0.2669893
164	0xbe8a92c9	-0.27065113
165	0xbdd7078b	-0.104994856
166	0xbcdd0a86	-0.026982557
167	0xbeb02e8d	-0.34410515
168	0xbe5bb15d	-0.21454377
169	0xbd5204e4	-0.051274195
170	0x3d2e599e	0.042565934
171	0xbe85167b	-0.25993714
172	0xbe6bf899	-0.23044051
173	0xbe5f54a9	-0.21809639
174	0x3ce1d8c0	0.027569175
175	0xbb1de79d	-0.002409435
176	0xbeb2c11a	-0.3491295
177	0xbe8162af	-0.25270602
178	0x3c1da439	0.009621673
179	0xbf26cd4b	-0.65157
180	0xbdbd38f0	-0.092393756
181	0xbe9e1952	-0.30878693
182	0xbe5f3b96	-0.21800074
183	0xbe12f8b8	-0.14352691
184	0xbe0abe56	-0.1354917
185	0xbe63208e	-0.22180387
186	0xbe04a1e2	-0.12952378
187	0xbe604ed5	-0.21905072
188	0xbea6ad60	-0.3255415
189	0xbdd83a05	-0.10557941
190	0xbd97159f	-0.07377171
191	0xbd045505	-0.032307643
192	0xbeb396a4	-0.35075867
193	0x3d1610e4	0.036637202
194	0xbe0b1e97	-0.13585888
195	0x3e2f82cc	0.17139739
196	0xbe7efd90	-0.24901414
197	0xbe7fb342	-0.24970725
198	0xbdac4822	-0.08412196
199	0x3d7cb605	0.061697025
200	0xbe319b07	-0.17344294
201	0xbe8d3d07	-0.27585623
202	0xbd6e678b	-0.058204215
203	0xbea1af28	-0.31578946
204	0x3cfa0450	0.030519634
205	0xbe137fdb	-0.14404242
206	0xbeb7d312	-0.3590322
207	0x3da9b3bb	0.08286234
208	0xbdde6d4a	-0.10860689
209	0x3bef4d33	0.007302904
210	0x3d8663a2	0.06561972
211	0x3bb2c458	0.005455535
212	0xbee74d55	-0.45176187
213	0xbe90b4dd	-0.28262988
214	0x3d528fd2	0.05140669
215	0xbe134910	-0.1438334
216	0xbe5c5ce0	-0.21519804
217	0xbbb81373	-0.005617553
218	0x3d9740d1	0.073854096
219	0xbd6cc6a6	-0.057806633
220	0xbd7e33e7	-0.062061217
221	0xbda20f40	-0.07913065
222	0xbe8917d6	-0.26775998
223	0xbeea56e9	-0.45769432
224	0xbe981115	-0.29700533
225	0xbd6a3594	-0.057180002
226	0xbd932e67	-0.07186585
227	0xbefd3e2a	-0.4946149
228	0x3d890491	0.06690324
229	0xbde52148	-0.111879885
230	0xbe5fd122	-0.21857122
231	0xbe248e0c	-0.16069812
232	0x3d978d07	0.07399946
233	0xbd87751d	-0.066141345
234	0xbc812065	-0.015762517
235	0xbe12d1b8	-0.14337814
236	0xbca388b4	-0.019962646
237	0xbdb63dde	-0.08898519
238	0xbe5dea1b	-0.21671335
239	0xbe1f84c4	-0.1557799
240	0xbee5e868	-0.44903874
241	0xbeda991c	-0.42694938
242	0xbe2ede81	-0.17077066
243	0xbe5e6e01	-0.2172165
244	0xbdb3a054	-0.087708145
245	0xbe26d0cc	-0.16290587
246	0xbecc5323	-0.39907178
247	0xbdb97707	-0.09055906
248	0xbe2a6571	-0.1664026
249	0xbeb51cd9	-0.35373572
250	0xbe0d4b55	-0.13798268
251	0xbd4de7e4	-0.050269976
252	0xbc4e8003	-0.012603763
253	0xbe37a9b5	-0.17935832
254	0xbe83097f	-0.25593182
255	0xbe277764	-0.16354138

lstm.bias_hh_l0 f4 [512]
0	0xbe0fbf45	-0.14037807
1	0xbdae8340	-0.08521128
2	0x3dacdf27	0.084410004
3	0x3d77aba5	0.060466427
4	0xbe73a325	-0.23792703
5	0x3d8db50b	0.06919297
6	0xbde0e2fe	-0.10980795
7	0xbdc9e9d8	-0.09859055
8	0xbb31f89d	-0.0027156242
9	0xbcf5a232	-0.029984567
10	0x3d466ddb	0.04844461
11	0xbca2c6eb	-0.019870242
12	0x3ce930f1	0.02846572
13	0xbe0fd707	-0.1404687
14	0xbc9389b3	-0.018009996
15	0xbddb7136	-0.10714953
16	0x3d3e3175	0.046433885
17	0x3e03b000	0.12860107
18	0xbe4025d1	-0.18764426
19	0x3d4a38c8	0.049370557
20	0x3c826eeb	0.01592203
21	0xbe2e2e26	-0.17009792
22	0x3c937344	0.017999299
23	0xbd5c1ccc	-0.0537384
24	0x3ec2b5a4	0.38029206
25	0xbd5c440b	-0.05377583
26	0xbe0f4ae0	-0.13993406
27	0x3d926b5b	0.07149383
28	0x3e32ba0b	0.17453782
29	0x3c8a50c2	0.016884211
30	0xbda93d32	-0.08263625
31	0x3d130318	0.035891622
32	0xbe498098	-0.19677961
33	0xbe13956f	-0.14412473
34	0x3ddc097c	0.107439965
35	0x3e3008d3	0.17190866
36	0x3d25eb9a	0.04050789
37	0xbcf6d0e9	-0.030128913
38	0xbe04b6b4	-0.1296032
39	0xbe386d92	-0.18010548
40	0xbc292fe4	-0.010326359
41	0xbd6a477b	-0.057197075
42	0xbbee1318	-0.0072654597
43	0xbdd2ce0a	-0.10293205
44	0xbdb00b84	-0.085959464
45	0xbe459fe3	-0.19299273
46	0xbc6d5654	-0.014485914
47	0x3bd97b8d	0.006637043
48	0xbd3d5989	-0.046227966
49	0xbda17670	-0.07883918
50	0xbe940c71	-0.28915742
51	0x3e3b2142	0.18274406
52	0xbd57547a	-0.052570798
53	0x3d6291d1	0.055314843
54	0xbdd92847	-0.106033854
55	0xbd2444d3	-0.0401047
56	0x3b954869	0.004555751
57	0xbc8b83a6	-0.017030548
58	0xbd35c578	-0.044377774
59	0xbe17ff8c	-0.14843577
60	0x3e5a07df	0.21292065
61	0xbd25d46e	-0.04048579
62	0xbdef2ecf	-0.1167885
63	0x3dafde73	0.08587351
64	0xbd3cc36f	-0.046084817
65	0xbe003b1f	-0.12522553
66	0xbba6aade	-0.005086287
67	0xbcfa7ee5	-0.030578086
68	0x3c168699	0.009187364
69	0xbd9cf544	-0.07663968
70	0xbe0a2e4e	-0.13494226
71	0xbe598614	-0.21242553
72	0xbe10e588	-0.14150059
73	0x3e0ce35c	0.13758606
74	0xbe10c28b	-0.14136712
75	0x3d125424	0.035724774
76	0xbdbf87ee	-0.093520984
77	0x3b4e1fbe	0.0031452025
78	0xbc999756	-0.01874892
79	0xbd984538	-0.074350774
80	0x3e03df1c	0.12878078
81	0xbc91601e	-0.017746028
82	0x3d49ad41	0.049237493
83	0xbd3078a0	-0.043083787
84	0x3c961f87	0.01832558
85	0x3d1a0e42	0.037611254
86	0xbd5307d5	-0.05152114
87	0xbd3686d7	-0.044562187
88	0x3b89c92d	0.00420489
89	0xbc5dc1fd	-0.01353502
90	0xbda3a40b	-0.07990273
91	0xbd419950	-0.04726535
92	0xbd8da237	-0.06915706
93	0x3b8b1800	0.0042448044
94	0x3dcea6b9	0.100903936
95	0xbe08e0c3	-0.1336699
96	0x3d6c1e94	0.05764635
97	0x3dcb3a5c	0.099232405
98	0xbe256776	-0.16152748
99	0x3c87836c	0.016542159
100	0x3d8cac44	0.068687946
101	0x3dbfe40d	0.09369669
102	0x3d96a49a	0.07355614
103	0xbde55b39	-0.1119904
104	0x3de8983d	0.11357162
105	0x3c720aeb	0.014773111
106	0xbc171b80	-0.009222865
107	0xbd3476fd	-0.04405879
108	0xbdf7c617	-0.120983295
109	0x3dedf88e	0.11619674
110	0xbab5e4f0	-0.0013877433
111	0xbd776c9a	-0.060406305
112	0x3e0b87e8	0.13626063
113	0x3e9af10f	0.30262038
114	0xbe072269	-0.1319672
115	0xbd789b7e	-0.060695164
116	0xbe130737	-0.14358221
117	0x3dde35e3	0.10850122
118	0xbe0021b6	-0.1251286
119	0xbddeb148	-0.108736575
120	0xbd97ba4d	-0.07408581
121	0xbe38e2fc	-0.18055338
122	0xbd182543	-0.03714491
123	0xbde424d6	-0.111398384
124	0xbd29f10c	-0.041489646
125	0x3d8f6e49	0.07003457
126	0x3d5514e2	0.05202187
127	0xbcf6fc6a	-0.030149657
128	0xbda71133	-0.08157577
129	0xbe843f9b	-0.25829777
130	0xbeecacbe	-0.46225542
131	0x3ccec733	0.02524147
132	0xbda9a3ae	-0.082831725
133	0x3cc5786d	0.024105275
134	0xbe2394d2	-0.15974739
135	0xbc4bb725	-0.012433802
136	0xbe8156b4	-0.25261462
137	0xbe32eae3	-0.17472415
138	0xbe516f4d	-0.20452614
139	0xbeca26bd	-0.3948268
140	0xbe5c92dc	-0.21540397
141	0xbe94279b	-0.28936467
142	0xbc184d73	-0.009295809
143	0xbe488fc8	-0.19586098
144	0x3d5fd6c2	0.05464817
145	0xbeaf2c57	-0.34213516
146	0xbe2f5e3d	-0.17125793
147	0xbdd53c63	-0.104119085
148	0xbec6f378	-0.38857627
149	0xbe6196c3	-0.22030167
150	0xbe775d05	-0.24156578
151	0xbe7c8078	-0.24658382
152	0xbec62099	-0.38696745
153	0xbd1b9b4b	-0.037989896
154	0xbe836c2d	-0.2566847
155	0xbd097d31	-0.033566657
156	0xbd8c91c1	-0.06863738
157	0xbd9751e7	-0.073886685
158	0x3cb64656	0.022250336
159	0x3c2dd158	0.0106089935
160	0x3dd5dc2e	0.104423866
161	0xbd2f7a8b	-0.042841475
162	0xbe304ebf	-0.17217539
163	0xbeaf2187	-0.34205267
164	0xbea12bfe	-0.31478876
165	0xbe0b8121	-0.13623478
166	0xbde26591	-0.110545285
167	0xbec3aa69	-0.3821595
168	0xbdf77b0b	-0.120840155
169	0xbbabd785	-0.005244198
170	0x3d980046	0.07421927
171	0xbe437534	-0.19087678
172	0xbe5cd02f	-0.2156379
173	0xbe27b153	-0.16376238
174	0x3ca284ae	0.019838657
175	0xbd06e976	-0.03293749
176	0xbe689262	-0.2271209
177	0xbe2ec794	-0.1706832
178	0xbdcdb6cf	-0.100446336
179	0xbf213b57	-0.6298117
180	0xbd289bb8	-0.04116413
181	0xbe9216e9	-0.28533104
182	0xbe77c26c	-0.2419526
183	0xbd9f3e43	-0.07775547
184	0xbe0d364c	-0.13790244
185	0xbe93e5b4	-0.28886187
186	0xbe6a1649	-0.22860064
187	0xbe42a5ab	-0.1900851
188	0xbeab7998	-0.33491206
189	0xbe43858b	-0.19093911
190	0xbd71460c	-0.058904693
191	0xbcd79b1f	-0.026319085
192	0xbe4ac617	-0.19802128
193	0x3d42bf37	0.047545638
194	0xbe63e3fb	-0.22254936
195	0x3e3b97b4	0.18319589
196	0xbe3f12b5	-0.1865948
197	0xbe70eb32	-0.2352722
198	0x3c8f3b9e	0.017484482
199	0xbd8078f1	-0.06273068
200	0xbe1458eb	-0.14487045
201	0xbe8f6db9	-0.280134
202	0xbdd14784	-0.10218719
203	0xbeb81da4	-0.35960114
204	0x3dbe1b15	0.09282509
205	0xbe2c44ab	-0.1682307
206	0xbef7c7e7	-0.483947
207	0x3db4afd1	0.08822597
208	0xbe31c8f4	-0.17361814
209	0xbd43d873	-0.047813844
210	0x3cf85821	0.03031546
211	0xbe173be5	-0.14768942
212	0xbef04811	-0.46929982
213	0xbe9745c1	-0.29545406
214	0xbcfcabd5	-0.030843655
215	0x3c309f36	0.010780146
216	0xbe7c62c9	-0.24647059
217	0x3d8a7d25	0.06762151
218	0x3d05e6f7	0.03269097
219	0xbe330d0b	-0.17485444
220	0xbdc103e2	-0.09424569
221	0xbda11a21	-0.07866312
222	0xbe8d0026	-0.27539176
223	0xbea60775	-0.32427564
224	0xbe860781	-0.261776
225	0x3d2b5a12	0.041833945
226	0xbc065f92	-0.008201497
227	0xbecbbc98	-0.39792323
228	0xbd826772	-0.06367387
229	0xbd8d8c65	-0.06911544
230	0xbeaa6baa	-0.33285266
231	0xbdadd9f0	-0.08488834
232	0x3d91a0da	0.07110758
233	0xbdaee151	-0.085390694
234	0x3daa9d2d	0.0833076
235	0xbde8b64d	-0.11362896
236	0xbd98e37d	-0.07465265
237	0xbd548088	-0.05188039
238	0xbe5cd76b	-0.2156655
239	0xbcc17189	-0.023613708
240	0xbee5465e	-0.44780248
241	0xbebbbfb4	-0.36669695
242	0xbdd7b80e	-0.105331525
243	0xbdacb815	-0.08433548
244	0xbdd52a64	-0.10408476
245	0xbe48a64a	-0.19594684
246	0xbf0685b4	-0.52547765
247	0xbd1f6259	-0.03891215
248	0xbdd63ca3	-0.10460784
249	0xbeaee0b1	-0.341558
250	0xbe8caf5c	-0.2747754
251	0xbe412e1a	-0.18865243
252	0xbcccb6bf	-0.024989484
253	0xbe147e71	-0.14501359
254	0xbec31441	-0.3810139
255	0xbdfc69ae	-0.12324844

lstm.weight_ih_l1 f4 [512, 128]
0	0xbab23e78	-0.0013598939
1	0x3de8e111	0.11371053
2	0x3e1385e3	0.14406542
3	0xbd298970	-0.041390836
4	0x3dc3ed3a	0.09566732
5	0x3d56e672	0.052465864
6	0xbe7ca417	-0.2467197
7	0xbd9e1761	-0.07719303
8	0xbe84938f	-0.25893828
9	0xbd3fc214	-0.046815947
10	0xbda83dce	-0.08214913
11	0x3ccc6e45	0.024954924
12	0xbd17f86e	-0.037102155
13	0x3d83de66	0.064389035
14	0x3bb02323	0.0053752824
15	0xbd5a664c	-0.053320214
16	0xbc1af6b3	-0.009458232
17	0x3d5ce3c3	0.053928148
18	0xbd6f22fe	-0.05838298
19	0x3eb9c6d1	0.36284497
20	0x3d9462d7	0.07245415
21	0x3de90bf3	0.11379232
22	0x3d358272	0.044313855
23	0xbc5af035	-0.013362934
24	0x3deb0965	0.11476401
25	0xbd5c4499	-0.053776357
26	0x3e0865e2	0.13320115
27	0x3e23a368	0.15980303
28	0x3ce1c408	0.027559295
29	0x3e38e353	0.18055467
30	0x3c5dd480	0.0135394335
31	0x3e219173	0.1577814
32	0xbd989cc7	-0.07451778
33	0x3e3aea9a	0.18253556
34	0x3d375fab	0.04476897
35	0x3c7e17cc	0.015508603
36	0xbdc161bd	-0.0944247
37	0x39dca587	0.00042084997
38	0xbd5a3125	-0.053269524
39	0xbde4e221	-0.11175943
40	0x3d81a667	0.06330567
41	0x3e74f54f	0.23921703
42	0x3e1f1f41	0.15539266
43	0x3e195b44	0.14976221
44	0x3e129e5b	0.1431822
45	0xbd1e6bad	-0.038676906
46	0xbda44abf	-0.08022069
47	0x3d7c5243	0.06160189
48	0x3d1cb90f	0.038262423
49	0xbcfb84e8	-0.030703023
50	0xbe11a389	-0.1422254
51	0xbe74d782	-0.23910335
52	0x3e6d2fce	0.23162767
53	0xbc3b2c1d	-0.011424092
54	0xbda24b75	-0.079245485
55	0x3dce4d4c	0.10073337
56	0xbd286451	-0.041111294
57	0xbe339ef7	-0.17541109
58	0x3dad82ae	0.08472191
59	0xbe384569	-0.17995228
60	0xbdce9fa6	-0.10089044
61	0x3d89d054	0.067291886
62	0xbe10b95a	-0.14133206
63	0xbb98991c	-0.004656924
64	0x3dc606ed	0.0966929
65	0xbe5dd159	-0.21661891
66	0xbe8630b1	-0.26209024
67	0xbe895f76	-0.26830643
68	0xbd28c060	-0.041199088
69	0x3d6b463d	0.05744003
70	0x3cfbb581	0.030726196
71	0x3e5ba42f	0.2144935
72	0xbde93674	-0.11387339
73	0x3d205acd	0.039149094
74	0x3d5a4bc1	0.0532949
75	0xbe04a9dd	-0.12955423
76	0x3e654a28	0.2239157
77	0xbdbe92d6	-0.093053505
78	0x3d9ac4a0	0.075570345
79	0xbe053006	-0.130066
80	0xbd6bc785	-0.057563324
81	0xbd1ff0a6	-0.03904786
82	0x3d8948d1	0.06703342
83	0xbdfc6e66	-0.12325744
84	0xbe0bea45	-0.13663585
85	0x3d9aa8c2	0.07551719
86	0x3d783c6d	0.0606045
87	0x3ccc23b6	0.024919372
88	0xbe0ceccb	-0.13762204
89	0x3d4acc71	0.049511377
90	0x3d38cc7b	0.045116883
91	0x3b8d7156	0.004316489
92	0x3d93c4cb	0.0721527
93	0xbd2025d0	-0.03909856
94	0x3def5911	0.1168691
95	0xbdfcd583	-0.12345412
96	0xbd999afd	-0.07500265
97	0xbdda126f	-0.10648047
98	0x3ca47b6d	0.020078385
99	0x3e0155c5	0.12630375
100	0xbe1607cb	-0.1465141
101	0xbdec623d	-0.11542175
102	0x3d9f5125	0.07779149
103	0x3c302266	0.010750389
104	0x3da4982b	0.08036836
105	0x3ca70058	0.020385906
106	0x3d3567ec	0.04428856
107	0x3e729a53	0.23691683
108	0xbe057543	-0.13033013
109	0x3e2d929e	0.16950461
110	0xbdc462f5	-0.09589187
111	0x3d2d067a	0.042242505
112	0x3e6fa8ca	0.23404232
113	0x3e4f1c79	0.20225705
114	0x3cf8cb98	0.030370519
115	0x3e1dd33d	0.15412612
116	0x3ddd2c67	0.10799485
117	0xbd868853	-0.065689705
118	0xbd5059bc	-0.050866827
119	0xbe4970ad	-0.19671889
120	0x3d892d3d	0.06698082
121	0x3d81b6f0	0.06333721
122	0x3d9ae5ac	0.07563338
123	0xbe4594f1	-0.19295098
124	0x3e428c03	0.18998723
125	0x3c8d9d7c	0.017287008
126	0xbe6b3086	-0.22967729
127	0xbe557ba7	-0.20847951
128	0x3d1fad3b	0.038983565
129	0x3e3c5738	0.18392646
130	0x3e1f84ee	0.15578052
131	0xbdd7f465	-0.105446614
132	0x3dbe7d29	0.09301216
133	0xbcbde4d7	-0.023180408
134	0x3d6f86d6	0.0584782
135	0x3e37555e	0.17903659
136	0x3bada87e	0.005299627
137	0xbd0d81bd	-0.034547556
138	0x3cedc6d8	0.02902548
139	0xbbbaf581	-0.005705536
140	0xbdf77e9f	-0.12084698
141	0x3db7c27e	0.08972643
142	0x3f0b9c2d	0.5453518
143	0x3d83c16e	0.06433378
144	0xbd92aefa	-0.071622804
145	0xbcba2a53	-0.02272526
146	0xbdf3bcef	-0.119012706
147	0x3d8f9ca6	0.070123
148	0xbcd24109	-0.025665777
149	0xbdceeb3d	-0.10103462
150	0x3cedfff4	0.029052712
151	0x3d4a284c	0.049354836
152	0x3cb68095	0.02227811
153	0x3df8c4b5	0.12146894
154	0x3d3711b1	0.044694606
155	0xbc63eccd	-0.013911438
156	0x3e1669ab	0.14688747
157	0xbde1eaba	-0.11031099
158	0xbe02c865	-0.12771757
159	0x3d53a56d	0.051671434
160	0xbe817d97	-0.2529113
161	0x3d455f88	0.04818681
162	0xbe1e4a07	-0.15457927
163	0xbcf4facd	-0.029904747
164	0xbe61a3d6	-0.22035155
165	0x3da74c17	0.0816881
166	0x3ddc6eff	0.10763358
167	0xbdae5034	-0.08511391
168	0xbdcaead3	-0.099080704
169	0x3dbeb5bd	0.093120076
170	0x3e18da47	0.14927016
171	0x3d99e210	0.07513821
172	0x3e2bd8a6	0.16781864
173	0x3e11c50f	0.14235328
174	0x3e597515	0.2123607
175	0xbc155f18	-0.00911691
176	0x3c0bf424	0.008542094
177	0xbd158cd3	-0.036511254
178	0x3e392d7e	0.1808376
179	0x3d762d65	0.060101885
180	0xbddee94e	-0.10884343
181	0x3d7a6ab6	0.061136924
182	0x3de1c009	0.11022956
183	0x3d9136aa	0.070905045
184	0x3d2b69c2	0.041848905
185	0xbde12103	-0.109926246
186	0x3daec09b	0.0853283
187	0xbe738e5f	-0.23784779
188	0x3d542f34	0.05180283
189	0x3dd2dcac	0.10295996
190	0xbe1d2470	-0.15345931
191	0x3dd97c2a	0.106193855
192	0x3db82e3e	0.08993195
193	0x3db325c3	0.08747437
194	0xbda54048	-0.08068901
195	0xbe108de9	-0.14116634
196	0x3e52a074	0.2056902
197	0x3d7b2fc4	0.06132485
198	0x3d25b1ca	0.040452756
199	0x3d851015	0.06497208
200	0x3c065635	0.008199264
201	0x3deea2c6	0.1165214
202	0x3c05ccd0	0.008166507
203	0xbe0e74f4	-0.13911802
204	0xbccf802f	-0.025329677
205	0xbd7d7ab4	-0.061884597
206	0xbd484aa1	-0.048899297
207	0xbca7b898	-0.020473763
208	0x3d7b0abb	0.06128953
209	0xbe36a1a5	-0.178351
210	0xbdc8d7ce	-0.098067865
211	0x3c70a484	0.014687661
212	0x3d89c15f	0.06726336
213	0xbe507a11	-0.20359065
214	0x3c5f1fff	0.013618468
215	0xbdc8620d	-0.09784327
216	0xbe25d9f3	-0.16196422
217	0x3e488f91	0.19586016
218	0x3d137d7b	0.03600834
219	0xbde5737b	-0.11203667
220	0xbdba58e4	-0.09098986
221	0xbc9d7944	-0.019222863
222	0x3e3247aa	0.1741015
223	0xbdc6f23a	-0.0971417
224	0x3c039a8c	0.008032452
225	0x3dc98a13	0.09840789
226	0x3da614e7	0.081094556
227	0x3e692d92	0.2277129
228	0x3dc092cc	0.09402999
229	0x3ba40fea	0.00500678
230	0xbd877836	-0.06614725
231	0x3e886549	0.26639774
232	0xbe01f23b	-0.1269006
233	0x3e1cf240	0.15326786
234	0x3dca271c	0.09870741
235	0xbcfb19f4	-0.030652024
236	0xbd86f415	-0.06589524
237	0x3e5caeb5	0.2155102
238	0xbe149b3d	-0.14512344
239	0x3dad322b	0.084568344
240	0xbd285b6f	-0.041102823
241	0x3e5858f2	0.2112768
242	0x3d9ffedb	0.07812282
243	0xbd6b5164	-0.057450667
244	0xbc3da5b3	-0.01157515
245	0x3db4a7c2	0.0882106
246	0x3deaf2a3	0.114720605
247	0xbe2fb635	-0.1715935
248	0xbd924c21	-0.07143427
249	0x3d4f7cf6	0.05065628
250	0xbdb0ba50	-0.08629286
251	0x3dcd44c4	0.100228816
252	0xbb297ec4	-0.0025862912
253	0x3e782b82	0.24235347
254	0x3d05fc77	0.032711472
255	0x3dc182a9	0.094487496

lstm.weight_hh_l1 f4 [512, 128]
0	0x3d39b3aa	0.045337357
1	0x3e40511a	0.18780938
2	0xbdb6a77d	-0.089186646
3	0x3e7d1056	0.24713263
4	0xbdfc55c8	-0.12321049
5	0x3bf45a0b	0.007457023
6	0xbd3648d3	-0.044503044
7	0x3cd527eb	0.026020011
8	0xbe14fb28	-0.14548934
9	0x3ea68616	0.32524174
10	0xbdd6fffd	-0.10498045
11	0xbdfe3af4	-0.12413588
12	0x3ba87927	0.0051413956
13	0xbde08536	-0.10962908
14	0xbe01c6bf	-0.12673472
15	0x3c8acc5c	0.01694315
16	0x3e1afd7b	0.15135758
17	0x3e78cb5e	0.24296328
18	0x3e0dc946	0.13846311
19	0x3d5a0a07	0.05323222
20	0x3def96a5	0.11698655
21	0xbd012970	-0.03153366
22	0x3e7bd290	0.24592042
23	0x3e8541ea	0.2602685
24	0x3c4c90f3	0.01248573
25	0xbd725e32	-0.059171863
26	0x3da8580d	0.08219919
27	0xbe068a27	-0.13138638
28	0xbea3581c	-0.3190316
29	0x3e09fd5a	0.13475552
30	0xbda8dcbc	-0.08245227
31	0x3d799e8a	0.06094221
32	0x3e35704d	0.1771862
33	0x3cb29d74	0.021803595
34	0x3e714565	0.23561628
35	0xbcb79ca6	-0.022413563
36	0xbe6ecb38	-0.2331971
37	0xbe0e7f5f	-0.13915776
38	0xbe1d7e4c	-0.1538021
39	0x3d8f1fa5	0.069884576
40	0x3c1e03e3	0.009644481
41	0xbd2b500c	-0.041824386
42	0xbeb19eab	-0.34691367
43	0xbca9c3d8	-0.020723268
44	0xbe078e0c	-0.1323778
45	0x3e9b58cb	0.3034118
46	0xbd6a72a8	-0.05723825
47	0x3d397ab6	0.045283042
48	0xbd62d854	-0.055382088
49	0xbc6564b1	-0.0140010575
50	0xbe9529cd	-0.29133454
51	0x3dddb226	0.10824995
52	0xbdba9435	-0.091102995
53	0x3dab26e7	0.083570294
54	0xbda98f57	-0.08279293
55	0xbe522c5e	-0.20524737
56	0xbec7fefb	-0.39061722
57	0xbdd2d26c	-0.10294041
58	0x3c81ee36	0.015860658
59	0xbdabff68	-0.08398324
60	0xbec688bb	-0.38776192
61	0xbeb964f3	-0.3620983
62	0xbe0d72cd	-0.13813324
63	0x3dc774a5	0.09739045
64	0x3c4c7167	0.012478209
65	0x3e4a3d5f	0.19749974
66	0x3e17e8a5	0.1483484
67	0xbdcdda5b	-0.100514136
68	0xbdf48f6b	-0.11941417
69	0x3d8a4516	0.06751458
70	0xbde00663	-0.10938718
71	0xbd3b16cc	-0.045676038
72	0x3e6747bc	0.22585958
73	0x3cc01e78	0.023452029
74	0x3e9e3864	0.30902398
75	0xbe4a9482	-0.19783214
76	0xbeb8ebf2	-0.36117512
77	0x3d7ad815	0.061241228
78	0xbb9fe296	-0.004879306
79	0x3d6f72a8	0.058458954
80	0x3e281e32	0.16417769
81	0x3d6057af	0.05477112
82	0x3e019b08	0.12656796
83	0xbe3997e6	-0.18124351
84	0x3e8391f5	0.25697294
85	0x3d8865d7	0.066600494
86	0xbdf2006b	-0.11816486
87	0x3df239fb	0.11827465
88	0xbe813f3b	-0.25243554
89	0x3cc79349	0.024362223
90	0x3d4574b2	0.048206992
91	0xbde31810	-0.11088574
92	0xbdff9ebd	-0.12481449
93	0xbe3bd6ad	-0.18343611
94	0x3dd77863	0.10521009
95	0xbe0457e5	-0.12924154
96	0xbd9669ab	-0.07344373
97	0xbdc4912d	-0.095980026
98	0xbe1c8107	-0.15283595
99	0x3e67b447	0.22627364
100	0x3eb1c806	0.34722918
101	0xbd4db063	-0.050217044
102	0xbd993670	-0.07481086
103	0xbe16f706	-0.1474267
104	0xbe52c677	-0.20583521
105	0x3e5860b8	0.21130645
106	0x3e033e18	0.12816656
107	0x3de83b58	0.11339444
108	0xbd0e99e5	-0.034814734
109	0xbe73a2b1	-0.2379253
110	0xbe2da8be	-0.16958901
111	0x3e265819	0.16244544
112	0x3dc230cd	0.09481964
113	0xbd4af53c	-0.04955028
114	0xbca5acea	-0.020224053
115	0xbd6a93ac	-0.057269737
116	0x3e1d42a0	0.15357447
117	0x3b9e997f	0.0048400755
118	0xbe4b031f	-0.1982541
119	0xbe1ee7f3	-0.15518169
120	0x3e074db7	0.1321324
121	0x3ece4b16	0.4029166
122	0x3de2eafb	0.11079975
123	0xbcdacc5d	-0.026708776
124	0x3e066533	0.13124542
125	0x3e7704d2	0.24122933
126	0xbdb35be3	-0.087577604
127	0xbe928cbf	-0.28623006
128	0xbcf60e9b	-0.030036261
129	0x3d9fd870	0.07804954
130	0x3e7c0114	0.24609786
131	0x3e478425	0.19484003
132	0xbd84b488	-0.06479746
133	0xbdac59c8	-0.08415562
134	0xbe884b1c	-0.26619804
135	0xbb34185a	-0.0027480335
136	0xbe8182dd	-0.25295153
137	0x3e11c780	0.1423626
138	0xbd34895f	-0.04407632
139	0x3e29da6e	0.1658723
140	0xbde7e81d	-0.11323569
141	0xbcfb7527	-0.030695511
142	0xbd857c09	-0.065177985
143	0xbea566a1	-0.32304862
144	0x3e4c2f31	0.19939877
145	0x3ef60ab7	0.4805505
146	0x3b8d9bdc	0.0043215584
147	0x3cf2b358	0.029626533
148	0x3b8e7d2c	0.0043484177
149	0xbcbc5fc8	-0.02299489
150	0x3db612c7	0.088903
151	0x3d15d001	0.03657532
152	0x3e08708c	0.13324183
153	0xbca66841	-0.020313384
154	0x3bba76fb	0.005690453
155	0xbcb2d289	-0.021828907
156	0xbe211f25	-0.15734537
157	0x3e2dfbcb	0.16990583
158	0xbc1dc661	-0.009629817
159	0x3dcee0a6	0.10101442
160	0x3d97b1b1	0.07406939
161	0x3d375ee2	0.04476822
162	0x3e9cd0c5	0.3062803
163	0xbd3a9e46	-0.045561098
164	0xbe2f7add	-0.17136712
165	0xbd0d34f1	-0.034474317
166	0xbe1804e7	-0.1484562
167	0x3d9a901e	0.075470194
168	0x3d3e5ca2	0.04647506
169	0xbc49eb2c	-0.012324136
170	0xbea78859	-0.32721213
171	0xbd8ac93a	-0.06776662
172	0xbed52f90	-0.4163785
173	0x3e44115d	0.19147249
174	0xbdd48d7e	-0.1037855
175	0x3e033fee	0.12817356
176	0x3d7c919c	0.0616623
177	0xbcd0972e	-0.025462713
178	0xbe50031e	-0.20313689
179	0x3d8cef93	0.06881633
180	0xbd93da48	-0.07219368
181	0xbceef89b	-0.029171279
182	0x3b927303	0.004469277
183	0xbda8a0f8	-0.08233827
184	0xbe818ec6	-0.2530424
185	0xbd1b09ef	-0.03785127
186	0x3e3b34aa	0.18281808
187	0xbce8c028	-0.02841194
188	0xbec6ace7	-0.3880379
189	0xbe865837	-0.26239178
190	0xbe8413a1	-0.25796226
191	0xbcd58737	-0.026065452
192	0xbdef9b1c	-0.11699507
193	0x3e827635	0.2548081
194	0xbde3fd82	-0.11132337
195	0xbd2e109b	-0.042496305
196	0xbe5586f6	-0.20852265
197	0xbd9aae2e	-0.075527534
198	0xbd20c249	-0.039247785
199	0x3d9d55bd	0.07682369
200	0x3d4ebd66	0.050473593
201	0xbd64e99c	-0.05588685
202	0x3e898bbb	0.26864418
203	0xbf0bfe08	-0.54684496
204	0xbe519ff7	-0.20471178
205	0xbdb17f7b	-0.08666893
206	0x3ce9a94e	0.028523114
207	0x3d589cc5	0.052883882
208	0x3df964a6	0.121774
209	0xbd649e6f	-0.055815157
210	0xbcf08da2	-0.02936441
211	0xbd093cce	-0.033505253
212	0x3e21f9d3	0.15817957
213	0x3ea34971	0.3189197
214	0xbd739adf	-0.05947387
215	0xbc534ff3	-0.012897479
216	0xbbd1eef2	-0.0064066583
217	0xbe08fd00	-0.13377762
218	0x3d7709eb	0.060312193
219	0xbe9542a1	-0.29152396
220	0xbdd7a29b	-0.105290614
221	0xbe75ffcc	-0.2402336
222	0xbc9e7d1b	-0.019346764
223	0x3cc630c8	0.024193183
224	0x3dbe4f42	0.09292461
225	0xbe010cad	-0.12602492
226	0xbde68049	-0.11254937
227	0x3e21a317	0.1578487
228	0x3e518507	0.20460902
229	0xbe8183b3	-0.2529579
230	0x3e412ed6	0.18865523
231	0xbe2f5a21	-0.17124225
232	0x3d90e8e6	0.07075672
233	0x3d829d99	0.063777156
234	0x3cf6c415	0.030122796
235	0xbc48b391	-0.012249843
236	0x3de26fa5	0.11056451
237	0xbedc4065	-0.4301788
238	0xbef5839a	-0.47951967
239	0x3da28c2b	0.07936891
240	0x3d9df7c9	0.07713277
241	0x3dadb58d	0.08481894
242	0x3cfd046c	0.030885898
243	0x3b67ff75	0.0035400067
244	0x3e1eb8fc	0.15500253
245	0x3e0431a0	0.12909555
246	0x3db3104d	0.087433435
247	0xbde73f4f	-0.11291372
248	0x3ec3dcb2	0.38254315
249	0x3e53b62b	0.2067496
250	0x3db0aa86	0.08626275
251	0x3d372895	0.044716436
252	0x3e37430e	0.17896673
253	0x3eaf50c1	0.34241298
254	0x3d79bc88	0.060970813
255	0xbd830189	-0.06396777

lstm.bias_ih_l1 f4 [512]
0	0xbebcf2c3	-0.36903962
1	0xbeb67a5c	-0.35640228
2	0xbf0c7402	-0.54864514
3	0xbe99d4b0	-0.3004508
4	0xbe0033a7	-0.12519704
5	0x3deb8342	0.11499645
6	0xbebc080e	-0.36724895
7	0xbe87ac35	-0.2649857
8	0xbe45d8c6	-0.19320974
9	0xbe94d6a1	-0.2907
10	0xbe98a021	-0.2980967
11	0xbc51b5bb	-0.012799676
12	0xbef07815	-0.46966615
13	0xbd197a9c	-0.037470445
14	0xbe84ff5b	-0.2597607
15	0xbee2d7c1	-0.44305232
16	0xbe217751	-0.15768172
17	0x3c7e9af0	0.01553987
18	0xbe9b121d	-0.30287257
19	0xbeec7918	-0.46186137
20	0xbe8c3031	-0.27380517
21	0xbe439f7a	-0.19103804
22	0xbe9b521c	-0.30336082
23	0xbea36352	-0.31911713
24	0xbeb2ffd4	-0.34960806
25	0xbe6fa783	-0.23403744
26	0xbecb85ce	-0.39750522
27	0xbea738c0	-0.32660484
28	0xbdce8863	-0.100846075
29	0xbdb5460b	-0.0885125
30	0xbde61169	-0.112337895
31	0xbea95454	-0.3307215
32	0xbe35ad18	-0.17741811
33	0xbe95e80c	-0.292786
34	0xbe56a30a	-0.20960632
35	0x3d1a8365	0.037722964
36	0xbe4e2b8c	-0.201338
37	0xbd8c6c35	-0.06856576
38	0xbea1a5b6	-0.3157174
39	0xbe402d25	-0.18767221
40	0xbdebb875	-0.11509792
41	0xbead0162	-0.33790118
42	0xbe6484e3	-0.22316317
43	0xbe9b8603	-0.3037568
44	0xbe7c0ae7	-0.24613534
45	0xbe6590a3	-0.22418456
46	0xbd6ec1c3	-0.058290254
47	0xb9615e99	-0.00021492912
48	0xbda001d7	-0.07812851
49	0xbe233167	-0.15936814
50	0xbdba6c21	-0.09102655
51	0xbde9d634	-0.11417809
52	0xbe2c6488	-0.16835225
53	0xbeebee69	-0.4608033
54	0xbe82a221	-0.2551432
55	0xbc847a2a	-0.016171534
56	0xbdaf676f	-0.0856465
57	0xbe49ccce	-0.19707033
58	0xbf27e515	-0.65583926
59	0xbe9653c7	-0.29360792
60	0xbe1c38fc	-0.15256113
61	0x3cab18c3	0.02088583
62	0xbe82cc82	-0.25546652
63	0xbe0247d7	-0.12722717
64	0xbed27a1d	-0.4110879
65	0xbf2ac9b0	-0.66714
66	0xbecddc36	-0.4020707
67	0xbebc84f4	-0.36820185
68	0xbe9d57ca	-0.3073104
69	0xbf05ee1a	-0.5231644
70	0xbe57b1c6	-0.21063909
71	0xbefdf9c3	-0.49604616
72	0xbe41d572	-0.18929079
73	0x3d98129f	0.07425427
74	0xbd09bb3a	-0.03362582
75	0xbdbc72a9	-0.09201557
76	0xbdc6e340	-0.09711313
77	0xbe981aa0	-0.29707813
78	0xbea42f14	-0.32067168
79	0xbe2fd289	-0.17170157
80	0xbd884a7e	-0.06654833
81	0xbe87a68a	-0.26494247
82	0xbe5157ff	-0.20443724
83	0xbe189e2a	-0.14904085
84	0xbe4ca834	-0.1998604
85	0xbe666f8b	-0.22503488
86	0xbec2a8c6	-0.3801939
87	0xbdc3dca8	-0.09563571
88	0xbdc508f6	-0.0962085
89	0xbecadb97	-0.3962066
90	0xbe509ba4	-0.20371872
91	0x3ca0c30c	0.019624256
92	0xbe03a3a1	-0.12855388
93	0xbe1359b0	-0.14389682
94	0xbd3cf259	-0.04612956
95	0xbdb68c65	-0.08913497
96	0xbf12ca14	-0.57339597
97	0x3d19d0ac	0.03755252
98	0xbbfda7e6	-0.0077409623
99	0xbe4ad955	-0.19809468
100	0xbe077d5d	-0.13231416
101	0xbecc19c6	-0.39863414
102	0xbcb0e672	-0.02159426
103	0xbe77679b	-0.24160616
104	0xbd817147	-0.06320434
105	0xbef825a3	-0.48466215
106	0xbedfa3bc	-0.43679607
107	0xbdb6b303	-0.089208625
108	0xbee16800	-0.44024658
109	0xbebe5ebf	-0.3718166
110	0xbe234eab	-0.15947978
111	0x3cc91745	0.024547229
112	0xbe2b715e	-0.16742465
113	0xbdafa26c	-0.085759014
114	0xbeac2d44	-0.33628285
115	0xbe795fd3	-0.2435296
116	0xbd36f02a	-0.044662632
117	0xbe7f3b5c	-0.24924988
118	0xbeb17a31	-0.34663537
119	0xbe856c70	-0.26059294
120	0xbea36c19	-0.3191841
121	0x3d0885b4	0.033330634
122	0xbe2207d1	-0.15823294
123	0xbea97ad8	-0.33101535
124	0xbdbdaba7	-0.09261256
125	0xbe90d6a2	-0.28288752
126	0xbec76733	-0.38945922
127	0xbe9556a3	-0.2916766
128	0xbe81a208	-0.25318933
129	0xbe3df51e	-0.18550536
130	0xbeb43b97	-0.35201713
131	0xbcfde6d4	-0.030993856
132	0xbd186892	-0.0372091
133	0x3e29eca8	0.16594183
134	0xbd8a8c66	-0.0676506
135	0xbe8763f2	-0.2644344
136	0xbe0e94ed	-0.13923998
137	0xbe823d85	-0.2543756
138	0xbde80bdc	-0.11330387
139	0x3dc8ebd4	0.09810606
140	0xbee6c258	-0.45070148
141	0xbcde41c8	-0.027130976
142	0xbe14aaee	-0.1451833
143	0xbdc9f7ac	-0.09861693
144	0xbcbfcabc	-0.023412101
145	0x3d849e1f	0.06475472
146	0xbe2b7c64	-0.1674667
147	0xbf027479	-0.50958973
148	0xbe61ce7f	-0.22051428
149	0xbe946b86	-0.28988284
150	0xbe374674	-0.1789797
151	0xbde6649f	-0.11249661
152	0xbdd78e52	-0.10525192
153	0xbe1e59db	-0.15463965
154	0xbef1a305	-0.47194687
155	0xbf25e451	-0.6480151
156	0x3e0fdfd1	0.14050223
157	0x3e79e869	0.24405064
158	0xbd4ce36d	-0.050021578
159	0xbe4ecaf9	-0.20194615
160	0xbd77668d	-0.060400534
161	0xbeb8206f	-0.35962245
162	0xbd896ada	-0.067098334
163	0x3e52106a	0.20514074
164	0xbde47363	-0.11154821
165	0xbe9aac92	-0.30209786
166	0xbe0d96df	-0.13827084
167	0xbe5096a0	-0.20369959
168	0xbe8f76a5	-0.28020206
169	0xbede7fc8	-0.43456864
170	0xbe0f89e2	-0.14017442
171	0xbe991e71	-0.29906037
172	0xbd253e9e	-0.04034292
173	0x3d211cad	0.039333988
174	0x3e410188	0.1884824
175	0x3e0239ac	0.12717313
176	0xbe3a7975	-0.18210395
177	0xbe3871f7	-0.18012224
178	0xbd09fc43	-0.03368784
179	0xbeb2c80d	-0.34918252
180	0xbe444634	-0.19167405
181	0xbeae52e3	-0.34047613
182	0xbe63f25b	-0.2226042
183	0xbdfb9488	-0.122841895
184	0xba0eba23	-0.00054446066
185	0xbe4f6156	-0.20251974
186	0xbf1b5162	-0.60671055
187	0xbee3156c	-0.4435228
188	0xbd2fce36	-0.042921267
189	0xbe0b9f68	-0.13635027
190	0xbe60b0c4	-0.2194243
191	0xbd51d984	-0.05123283
192	0xbe4df2d4	-0.20112163
193	0xbe81c314	-0.25344145
194	0xbdc20a1c	-0.094745845
195	0xbea5a008	-0.32348657
196	0xbe8a703b	-0.2703875
197	0xbea99eeb	-0.33129057
198	0xbd012d1a	-0.031537153
199	0xbeeff5ad	-0.46867123
200	0xbd693d22	-0.056943066
201	0x3d85cc1e	0.06533073
202	0xbcf84f9b	-0.030311396
203	0x3e4dc7dc	0.20095772
204	0xbda165b1	-0.07880724
205	0xbe803c69	-0.2504609
206	0xbddbf599	-0.107402034
207	0xbea69dca	-0.32542259
208	0xbe39d56c	-0.1814782
209	0xbf0aeaf8	-0.54264784
210	0xbdd8c15b	-0.10583755
211	0xbda45f48	-0.08025986
212	0xbd82ce5f	-0.063870184
213	0xbdbb2282	-0.09137441
214	0xbec08fa8	-0.376096
215	0x3d98d455	0.07462374
216	0xbd20338e	-0.039111666
217	0xbee40159	-0.44532278
218	0xbe622719	-0.22085227
219	0x3b2c0424	0.0026247585
220	0xbe18255b	-0.14858
221	0x3c84e49a	0.016222287
222	0xbe05b298	-0.1305641
223	0x3c9b1e52	0.018935356
224	0xbec1579b	-0.3776215
225	0x3ebe4d12	0.37168175
226	0x3e6de9d0	0.23233724
227	0xbe31e2e0	-0.17371702
228	0x3d487254	0.048937157
229	0xbf02f1f6	-0.51150453
230	0xbea273ee	-0.31729072
231	0xbe8d88eb	-0.27643523
232	0xbecb31a5	-0.39686313
233	0xbccf4601	-0.025301935
234	0xbe9f2c4c	-0.31088483
235	0xbe492969	-0.19644703
236	0xbe2d761c	-0.16939586
237	0xbe555f13	-0.20837049
238	0x3e9a168e	0.30095333
239	0xbdd23868	-0.10264665
240	0xbe8a4a70	-0.27009916
241	0x3dff6bd5	0.12471739
242	0xbe8b98c2	-0.27264982
243	0xbe9ba58c	-0.3039974
244	0xbe7e1353	-0.24812059
245	0xbde00948	-0.1093927
246	0xbebb2f68	-0.36559606
247	0xbcede19a	-0.02903824
248	0xbe5b0f6b	-0.213926
249	0x3e1c465a	0.15261212
250	0x3d84b217	0.064792804
251	0xbef5a539	-0.47977617
252	0x3d22e5fe	0.03977012
253	0xbe403666	-0.18770751
254	0xbe0758f5	-0.13217528
255	0xbea969f0	-0.33088636
